best_models/seq2seq-2021-03-22-11-14-43.pt (torch, 799375 bytes, 16 tensors)

encoder.embedding.weight f4 [162, 100]
00000000: c3dc 233e 71b4 4f3f c0b8 ab3e 18ec 51bf
00000010: b7f9 bd3f 0852 343f c3f4 37be b421 593f
00000020: 6ffc 8dbe e12d 8a3f 2758 ce3e db12 0b3f
00000030: bfd1 b23f e298 2b3f fc4f 9f3f 1244 2e3e
00000040: c41c c4be f4ac 88bf 9e5d 3d3f 659f 48bf
00000050: 3ca7 0d3f 6209 93be fef9 55bf 4ff6 29bf
00000060: 60cb 0cc0 f0b2 0bbf 2b37 213f 56a8 2a3e
00000070: 5ae1 2a3f 6a70 313f 32de 24bf 579c e23e
00000080: a22d 5dbf 0537 5e3e 8660 55bf 3a1e 64bf
00000090: 98c6 e7bf ccf9 d1be cc20 c0be bab9 8bbf
000000a0: da32 e43e 0c84 c2bb bd6b 08be 9183 c7bf
000000b0: 0147 5cbf 0696 a83c 15d4 783f 6eab 8bbf
000000c0: 3a9c 853f 0eaa cb3e 9794 3fbf 3ce0 3d3d
000000d0: cb62 71be d57e ca3f 23d1 0abf 7639 883f
000000e0: 16d6 a83f 9c43 59bf 7476 b23e 4757 06bf
000000f0: c2e7 1e3e 50c9 25bf 9e54 18bf 49ce 8ebf
00000100: 94b2 b3bc 72c3 c13f c5bf 8dbf 0fd2 a5bf
00000110: a5f7 b3bf 8a1c 853f 5dd4 cd3f 7a0f 8e3f
00000120: 5857 5fbe f51e 583e 350a 0cc0 ffc7 33bf
00000130: aadb 4abf d111 b8bf bccf 083f 7b48 33bf
00000140: 2f70 e9bd 6732 e63f 3f5b dabe 3501 6dbe
00000150: d28b 453e da50 233f f4f2 93bd f041 b23f
00000160: 3af0 91be 429c 8d3f be54 8dbf b87a 81bf
00000170: 56d0 ec3e bf39 16c0 d330 d73e ed23 c5bf
00000180: 94cd 80be c90b d43e ba2c 673e 80cf 19be
00000190: 6245 643e 8298 873f 03fa c53d 7367 97bf
000001a0: 15be b0be 8112 b9bf e8bf 02bf 414a b53f
000001b0: 6b7f 1640 2acb 64bd 29ce 0b3f 37ec e63e
000001c0: 526a 873f a2de 82bf 0194 7d3e 3215 a93f
000001d0: d215 223f 3dd5 f43e 38b8 31bf 23bf 3c3f
000001e0: 8eb8 4c3e f5d6 06c0 4213 3cbf 9b42 533e
000001f0: 315d 563e cebc 47be 22d2 17bf f9f2 9bbf
00000200: 5255 e33e 5adc c2be 3953 aa3e 5681 333f
00000210: afc9 ee3e 1af9 b43c 197f 24c0 e978 02bf
00000220: 8bd0 c53e b4a1 e73e cad7 503f 5dd0 5abf
00000230: 9847 c83e 685b a0bf d8c3 20bf a08b c8bf
00000240: 7526 04bf f3ea 0bbf 5884 ebbf 41bd 113e
00000250: 58c9 23bf 053f bdbe 3433 223f b0e2 44be
00000260: 2d80 e43f 3ab0 a2be 3d0a 3e3f 7f5f 2bbf
00000270: 5964 a0be 1b43 13bf aa89 99be 2dac 1c3f
00000280: 116b 2cbf 4152 34be dde7 aa3f d86c bbbe
00000290: f6a0 1a40 333d c1be 2d6b 2e3f 4170 253f
000002a0: 7c50 1340 7280 c73e e881 54bc de73 debc
000002b0: 4e0b 9c3f 22fd c5bf b835 ecbc 8050 19bf
000002c0: 7776 973d 8277 39bf 8c07 af3e 046a 553f
000002d0: 3e5b 94bf eca4 0cc0 271d a8bf 3724 09bf
000002e0: e3d8 ec3e ffc5 7cbf f7a8 353f fedd dcbe
000002f0: 7687 83be 63a2 0a40 3095 ec3f 2205 a63e
00000300: c891 9d3f efc1 c33e 0d9b e2be ba9e 7bbf
00000310: 462a f53e 967b f8be 2dbf b73f 2e2e a2bf
00000320: dfc1 74bf a705 6a3f aa4c 863e d663 293f
00000330: 3002 003f ce03 27bf ab43 d3be c500 42bf
00000340: f020 cd3f 3652 9bbf 9c55 9b3e b254 983d
00000350: 595d fa3e ef16 703f 68a0 1bc0 4b18 b3be
00000360: debd 343d 59c2 27c0 bf73 b83f 4bfa 2cbf
00000370: 35bc 0640 554a 19bf 8787 3ebf 295d 36bf
00000380: 1310 edbd 76f8 713f 9033 26bf 8a55 3a3f
00000390: 4db1 d2bf 10db 32bf 68b8 2d3f 1ac1 4fbe
000003a0: e015 3dbf 0379 bc3f 9cb3 7bbf 6cf5 bfbe
000003b0: b1b0 033f 4121 d4be ab78 763d 8f32 53bf
000003c0: 9b77 8cbf 99cb a03e fe41 28bf eb94 ccbf
000003d0: 3ff5 8fbf f80c e1bd 56cd 1abf 2d91 c73f
000003e0: 0bed d6be b4e9 e7be 0da6 b4bf 52cb 25be
000003f0: 9658 e13d d0cc e63c 4619 63be 2b37 ccbe
0.16002183 0.81134707 0.3353939 -0.82000875 1.4841832 0.7043767 -0.17964463 0.8481705
-0.27731654 1.0795251 0.4030163 0.54325646 1.397026 0.67030156 1.2446284 0.17018154
-0.38303196 -1.0677781 0.73970973 -0.78368217 0.55333304 -0.28718096 -0.8358458 -0.6639146
-2.199913 -0.5456991 0.62974805 0.16665778 0.6675011 0.69312155 -0.64401543 0.44259903
-0.86397755 0.21700676 -0.8335041 -0.8910862 -1.8107481 -0.41010892 -0.37525022 -1.0916054
0.44570047 -0.0059361514 -0.13322349 -1.5587026 -0.86045843 0.02057935 0.9719861 -1.0911691
1.0438302 0.3977818 -0.74836105 0.046356425 -0.23572843 1.5819956 -0.5422537 1.0642536
1.3190334 -0.8486879 0.34855998 -0.52476925 0.15518096 -0.64760303 -0.59504116 -1.1156703
-0.021935739 1.513777 -1.1074148 -1.295473 -1.405995 1.0399334 1.6080433 1.1098473
-0.21810663 0.21105559 -2.188123 -0.70227045 -0.7924143 -1.4380437 0.5344198 -0.7003247
-0.113983504 1.7984132 -0.4264774 -0.23144992 0.19291618 0.63795245 -0.07224074 1.3926373
-0.2850359 1.1063311 -1.1041486 -1.0115576 0.46252698 -2.3472745 0.42029437 -1.5401589
-0.25156844 0.4141524 0.22575656 -0.15020561 0.22292092 1.0593417 0.096668266 -1.1828445
-0.3452002 -1.4458772 -0.51074076 1.4163285 2.351527 -0.055857815 0.5461145 0.45102093
1.0579321 -1.0224192 0.2476349 1.3209593 0.63314545 0.47818938 -0.6942172 0.7372915
0.19992277 -2.10687 -0.73466885 0.20630877 0.20933987 -0.19505617 -0.5930501 -1.2183524
0.44401032 -0.3805874 0.3326662 0.70119226 0.46638247 0.022091437 -2.5702574 -0.50965744
0.38635668 0.45240557 0.8157927 -0.8547419 0.39117122 -1.2527895 -0.62798834 -1.566761
-0.5162118 -0.5465538 -1.8399763 0.14232351 -0.639791 -0.36962143 0.6335938 -0.192271
1.7851616 -0.31775075 0.7423437 -0.6694259 -0.3132656 -0.5752427 -0.29987842 0.6120022
-0.6735087 -0.17609502 1.3352009 -0.3660648 2.4160743 -0.37742004 0.6813229 0.6462441
2.3017874 0.38965183 -0.012970425 -0.02715486 1.219095 -1.5467875 -0.028834209 -0.5988846
0.07395642 -0.7244798 0.34185445 0.8336489 -1.1590345 -2.197566 -1.3133897 -0.53570884
0.4625922 -0.9873962 0.70960945 -0.43138117 -0.25689286 2.1661613 1.8483028 0.3242579
1.2310114 0.38233897 -0.4425892 -0.9828907 0.47883815 -0.4853179 1.4355217 -1.2670343
-0.95608324 0.91414875 0.26230365 0.6616796 0.5000334 -0.6524018 -0.41262564 -0.75782424
1.6025677 -1.2134464 0.30338752 0.07438029 0.48899344 0.93784994 -2.4316654 -0.34979472
0.044126384 -2.621237 1.4410323 -0.67569417 2.1052372 -0.59879047 -0.7442555 -0.712359
-0.115753315 0.94519746 -0.6492243 0.7278677 -1.6460358 -0.6986551 0.67859507 -0.20288506
-0.73861504 1.472443 -0.9832094 -0.3749193 0.51441485 -0.4143162 0.06017367 -0.8249902
-1.0974001 0.31405333 -0.65725696 -1.5982946 -1.1246718 -0.10988802 -0.6046957 1.5591179
-0.41977724 -0.4529549 -1.4113175 -0.16190842 0.110032246 0.028173834 -0.2217761 -0.3988584

encoder.gru.weight_ih_l0 f4 [300, 100]
00000000: 1247 a2bd eff7 a0bc 8fbd 42bc af1d a53b
00000010: effd 50bd a832 bf3c 5c70 213d 6c2d 2cbd
00000020: 7c94 93bd 22e4 893d fd1b c9bd 25bc 13bd
00000030: d987 fc3c 1301 dc3b b292 87bd 2704 13b8
00000040: 474a a83d 04ef c23d a93e c03d 0431 a03d
00000050: 45e1 4abd f1c1 35bd 0b24 3bbd 9977 123d
00000060: 0478 48bd b455 ce3c 6b06 69bd 7956 91bd
00000070: aa4b a63d 8a8f e8bc 630b be3d 7b66 bbbc
00000080: 2962 a43c 897d b0bd bd12 2abd e4ce c93d
00000090: 40e5 be3c f05e bb3d d27b 793c 7614 033d
000000a0: 1c63 b23d e604 273d 7323 c23c 9135 72bd
000000b0: c1bd b53d 6608 a23d 6dc9 bebd de19 bcbd
000000c0: 86ee 91bc 25e6 cbbd 86f5 73bd a03f 8b3d
000000d0: 196a 173d 2e63 c83d 3994 873d 2b6b e2bc
000000e0: 3b59 9c3d 8979 6e3d d299 8e3d c0c9 b1bd
000000f0: 0a30 3c3d 4176 763c a226 57ba f651 80bd
00000100: 4136 b83c aef2 fabc 00e8 bd3d fe1c abbd
00000110: efea a43d bb3b b53c 1ead bd3d 8015 a73c
00000120: 97ec 8b3d b4a3 af3d 6dea fbbb 89de 9ebc
00000130: 7c86 193d feca ea3c 58d6 c9bd e851 69bd
00000140: ff0b d0bc a08d c53d 93d8 103b 01b2 abbd
00000150: 9a40 433d 6871 ad3b 9c47 b1bc ca5b ba3d
00000160: 2171 88bd 0047 c3bd 029d a83d 779f 093c
00000170: 309a babd 56d3 753d b0fb 283d 9ab3 8bbd
00000180: c6b8 fe3c b02a 4bbd a565 c0bd b1c6 8abc
00000190: f3dd c53c 3de7 a13d d6c5 90bc a9e2 abbd
000001a0: 09df 663d eb1c b0bd 6f9a f73b 06ab cebc
000001b0: 8b1e 9d3d 3a86 223d 8b85 1ebd 79c6 d0bc
000001c0: dac2 b6bd f0d8 733a b78e 8a3d add3 16bb
000001d0: 0251 5b3d a56c 6ebc c199 bb3d 1339 a53d
000001e0: 85bd b8bd 1c24 a83b c181 9abd ca55 3d3d
000001f0: 3b5a cbbd 70b7 3c3b 1821 0cbc 425a 4a3d
00000200: c242 033c 8857 9fbc 0d28 a43d c63d 0e3b
00000210: a186 343d 5f18 5fbd 1323 05bd b82a 733d
00000220: e272 d0bc d8fc a23d 3722 b9bd d597 c13d
00000230: f5fd 0ebd 07b7 493c cb2b 81bd a67a 7c3c
00000240: 253c a6bd 6a13 69bb 9f62 803c 6fe7 2c3d
00000250: af43 5e3d d8b2 863d 4ef2 633c ff56 7cbd
00000260: 419e a4bd 33f2 b43c 4ae9 27bd bd4a ae3d
00000270: badf 883d 46c1 e73c 6201 b53d 7240 dc3c
00000280: c128 833d 1492 813c 09f6 c63c 4a7d 1c3c
00000290: 0b98 40bc 849f c0bc a5bb 7bbd 1cf6 a83c
000002a0: 2d6a 8c3d 1ba7 fbbc 49cd 93bd 7696 c8bd
000002b0: fc9e 96bd 386b 603c 878b abbd 9b6c 8bbd
000002c0: 7d44 b23c f533 cbbd a644 a6bc 9ab2 29bc
000002d0: c595 893d a57e 14bd 988e 3bbd 23f7 b13c
000002e0: 08c0 1fbd e5f2 a4bd 93ab adbd d5f6 95bd
000002f0: 2b92 413d 4188 94bc d23d 7abc c19d b03d
00000300: 15bd bf3d 707c b93d a52f 7bbd e031 9f3c
00000310: de04 c93d 45e2 c7bd e944 84bd 1241 bc3d
00000320: 4231 69bd f289 4b3d 29c9 933d 6dc9 6f3d
00000330: be55 22bd e810 52bd 488c 91bc 3e92 8f3d
00000340: e994 73bd 4fc4 a0bd 68c2 4b3c 29c0 f43c
00000350: 9291 82bd 5003 19bd 9512 533d e08e 873c
00000360: 6ad5 67bd 2a97 ce3c 619f 743d 37bf 383b
00000370: 26fa ab3d 22e1 5e3d 8af2 2e3d c80f 84bd
00000380: 9e43 373d de4f 74bd 754e 08bd 98f9 0fbd
00000390: 224d b93c 1797 b5bd 9c69 823d 1672 0cbd
000003a0: 10e4 1dbd d53f 42bc 359e d9bb 43c9 b93d
000003b0: daf8 423d 4a70 51bd 40b1 6a3d 1190 99bd
000003c0: 1990 9d3d c347 45bd 197a 993d 9e29 213d
000003d0: a826 ca3d f2c4 973d 8364 11bc b453 af3d
000003e0: 35e1 4ebd 3f74 98bc 2db1 fa3c 3123 bebd
000003f0: 1133 c33c 7ceb 4c3d 730c d93c 9723 94bd
-0.07923712 -0.019649474 -0.011886015 0.005038939 -0.05102342 0.023339584 0.039413795 -0.042035505
-0.072060555 0.06732966 -0.098197915 -0.0360681 0.030826496 0.0067139952 -0.06619777 -3.50514e-05
0.08217292 0.09518245 0.093869515 0.07821849 -0.04953124 -0.04437441 -0.04568867 0.03575859
-0.04894258 0.02518735 -0.056890886 -0.070965715 0.081199005 -0.028388757 0.092795156 -0.022876015
0.020066338 -0.08617694 -0.041521776 0.098539144 0.023302674 0.09148967 0.015227275 0.032001935
0.0871031 0.040776156 0.023698544 -0.059133116 0.08874083 0.07911758 -0.09315763 -0.09184621
-0.017813932 -0.09956006 -0.05956032 0.06799245 0.036966417 0.09784542 0.06620068 -0.027638992
0.07634207 0.058221374 0.06962933 -0.08681059 0.04594425 0.015042842 -0.0008207356 -0.06265633
0.022486808 -0.030633297 0.09272766 -0.08355139 0.080526225 0.022123208 0.09261535 0.020395994
0.06832235 0.08576146 -0.007687858 -0.019393222 0.03748177 0.028661247 -0.09855336 -0.056962878
-0.025396345 0.096461535 0.0022101745 -0.08383561 0.04766903 0.00529306 -0.021640591 0.090995386
-0.066622026 -0.095350266 0.08233072 0.008399836 -0.0911144 0.060016 0.041255653 -0.06821366
0.031093966 -0.049601257 -0.09394387 -0.016940447 0.024153685 0.07905433 -0.01767246 -0.08392841
0.056365047 -0.08599266 0.0075562517 -0.025228035 0.07671841 0.03967879 -0.038701575 -0.025485264
-0.08923884 0.00093020406 0.06765502 -0.0023014352 0.053544052 -0.01455227 0.091601856 0.08067527
-0.09020523 0.0051312577 -0.0754428 0.046224393 -0.099293195 0.002879586 -0.008552812 0.049402483
0.008011522 -0.019450918 0.080154516 0.00217043 0.044073705 -0.0544666 -0.032504153 0.05936691
-0.025445405 0.07958382 -0.09039729 0.09452788 -0.03491016 0.0123117035 -0.06307181 0.015410101
-0.081169404 -0.003556455 0.015672026 0.0422129 0.054263767 0.065770805 0.01391275 -0.061606403
-0.08037997 0.022088146 -0.040993966 0.08510349 0.066832975 0.028290402 0.088381544 0.026886199
0.064042576 0.015816726 0.02428724 0.009551356 -0.011755 -0.023513563 -0.06145825 0.020625167
0.06856189 -0.03071933 -0.072168894 -0.09794323 -0.073545426 0.013697438 -0.08376222 -0.06807824
0.021761173 -0.099220194 -0.020296406 -0.010357523 0.067180194 -0.03625359 -0.045790285 0.02172429
-0.039001495 -0.08054141 -0.08479991 -0.0732247 0.047258537 -0.018131377 -0.015273528 0.08623839
0.093622364 0.09056938 -0.061324734 0.019432962 0.098153815 -0.09759954 -0.06458456 0.09192099
-0.05693174 0.0496921 0.07216103 0.058541704 -0.03963255 -0.051285654 -0.017767087 0.07010315
-0.059468184 -0.07849943 0.012436487 0.029876785 -0.063754216 -0.037356675 0.051531393 0.01654762
-0.056600012 0.025218565 0.059722308 0.0028190145 0.083973214 0.054413922 0.042711772 -0.064483225
0.04474222 -0.05964648 -0.033277947 -0.03515014 0.022619788 -0.08866709 0.063678 -0.03428849
-0.038547575 -0.011856039 -0.006641174 0.09071591 0.047600605 -0.051132478 0.057297945 -0.074981816
0.076935 -0.04816414 0.074939914 0.03934633 0.09870654 0.07410611 -0.0088740615 0.08560887
-0.050507743 -0.018610118 0.030602062 -0.09284056 0.023828061 0.050029263 0.026495194 -0.07233351

encoder.gru.weight_hh_l0 f4 [300, 100]
00000000: 57f1 c03d 7bf7 32bd aa19 4ebd c4a2 473d
00000010: 230f a9bd ea68 863d 9f5c 593b 48ef c7bc
00000020: 5f62 853d 044c f03c 4735 aebc 4622 5e3d
00000030: f886 77bc e010 6e3b ba10 d1bb 280d bfbd
00000040: e45d 293c 4c59 a9bd fcd2 a7bd bb3d 643d
00000050: 934f a83d baca 41bd 1987 b83d a545 7ebd
00000060: 4ffa 623d eded ad3c daef 63bd 4058 b23d
00000070: f95b 2c3d fc1a 4d3d 6791 7a3d f2d9 343c
00000080: fb3e 6d3d 5cbe acbc 3e05 953d 0ede 063c
00000090: f06b 45bc 7114 c1bd d2aa 9abc d0d2 b3bd
000000a0: 6348 c63d 818e b03d febf a43d fb9f dd3c
000000b0: 39cd bdbd 7b56 13bd 444c e5bc 84ae 983d
000000c0: 6f30 56bd 5844 5ebd 0680 37bd 7657 92bc
000000d0: 37ab 35bd 2a4d 3dbc 6d21 933d d261 bd3d
000000e0: cb50 b7bd 03dd 3fbd 830c 8e3b 6388 3cbc
000000f0: 6ca6 543d f8db 15bd 5b72 c03c a4b8 4dbd
00000100: e49f aa3d d22e 8bbd bf02 6ebd 908d b7bd
00000110: 8ada 94bd 6f67 673c d239 63bb 4073 44bd
00000120: 62e7 b1bd 3d87 81bc f268 babd d3f3 013d
00000130: 4b9b 38bc cc03 82bd 09f3 753d 00fd 9e3d
00000140: 9343 11bd 26cd 543d 1505 1aba 1a5a 733d
00000150: ebd7 2fbc 789a a03d 99bb 643b 9bcf ba3c
00000160: 4783 f73c c0b9 a2bd ad82 7fbd c20c 0fbd
00000170: d238 c5bd dd6a b93c 4cfb a13d 9242 4ebd
00000180: 3325 513d 42e1 1b3d 036f c0bd 729f 863d
00000190: 8447 52bd 36a2 a03d 459f 373d 3034 a43d
000001a0: ab37 ca3d df3f 7cbd 92e5 003d 45a5 52bd
000001b0: 9534 f7bb a2fa d43b 1725 80bd a680 8cbd
000001c0: 8371 313d 33ca 3fbd bcb2 223d 3ad1 b83d
000001d0: 1d0d ba3d ceac 92bd c053 d83c 260c 333d
000001e0: 54b5 613d e719 633b 4822 913d 1d30 d1bc
000001f0: 43a2 cb3c 7dbb bd3d a2c6 92bd e16d 903c
00000200: d4a8 8cbc a1e3 af3b 43d4 f73c d6d5 d13c
00000210: e33e 91bd 57bf 97bc 81bb c93c 00ee 783d
00000220: e34c c73d ff5f 22bc 6cd5 043c 1173 503c
00000230: d8f3 2a3c 69b9 583d 3112 10bd 90f1 05bd
00000240: 806f 4fbd 4ada 3cbd 2322 e93c 1af3 1f3d
00000250: 6b85 a0bc 9eaf 83bd 0406 8ebd 4730 1abd
00000260: 9813 723d 94cb 843a fc62 a03d d0cd 57bd
00000270: 6c65 ad3d 2a1c 90bd 9597 7abd a63f 9f39
00000280: d3c1 bdb9 dee8 b83d 1fd5 443d ff9e b93d
00000290: f91e 5ebc 5470 a93b 4a0a 76bd 4a85 c8bd
000002a0: 12b9 c8bd 76e8 9abc c9d2 66bd 17e0 3dbd
000002b0: 4158 b13d ca1f bb3d 6a3e 533b 84e4 193c
000002c0: 080d f73c 56a8 883c b526 853d 1690 ab3d
000002d0: 35f6 13bd 5aec c2bd c955 8a3d d3fd 28bc
000002e0: 52c5 ad3d def1 01bd 79e0 63bd eeb4 4fbd
000002f0: 79f0 7ebd e707 bbbd d4f3 bebd 1322 413d
00000300: 0767 c33c b628 0e3d 170e 65bc d45c 89bd
00000310: 130d cbbd ea91 78bd c78a 9fbc 0a7c cbbc
00000320: 4c4b d0bc 70f8 b73d 4634 16bd c9a7 aa3d
00000330: 09f3 613d 938f 88bd 7806 fabc bb7f 60bd
00000340: 93ff a4bd dd71 a43b 780b c4bd d2c8 86bd
00000350: 1fac 983d fdbd aa3d 8218 ccbd c538 7dbd
00000360: b1b7 c93d 4057 a9bc 998c 993c d1e9 973d
00000370: 31ae f23c fcfb 38bd 216b f23c a11e a7bc
00000380: 9913 07bd 869d 873d ba3f 87bd f552 4c3d
00000390: fe0b c7bc dfb3 693d f710 82bd 027a 063d
000003a0: e01f 8abd 3d15 843d 3ab6 86bd 02c0 ba3d
000003b0: ae0a ca3d b629 4cbc b083 f63c 6c88 64bc
000003c0: d26e 923d b0c2 973d 5fdd a0bc a277 9bbd
000003d0: eac2 76bc ecfb 7cbd 9a43 9c3d 33cb d5bc
000003e0: a9fc ef3c edca 6b3d cae1 69bd dff5 3b3d
000003f0: b369 4f3d f3e7 593d 5003 be3d 5bd5 543c
0.09421032 -0.043693047 -0.050317444 0.04873921 -0.0825484 0.065629795 0.0033166779 -0.02440609
0.065129034 0.029333122 -0.021265639 0.054231904 -0.015107863 0.0036325976 -0.006380168 -0.09328681
0.010337327 -0.08268985 -0.08194539 0.055722933 0.082183026 -0.047312476 0.09010143 -0.062078137
0.055414494 0.021231616 -0.055648662 0.087082386 0.0420799 0.050074562 0.061173823 0.01103829
0.05792139 -0.021086864 0.072763905 0.008231653 -0.01204966 -0.09427727 -0.018880282 -0.08780444
0.096817754 0.086209305 0.08044432 0.027053824 -0.09267659 -0.035971146 -0.027990468 0.07455161
-0.052292284 -0.054264396 -0.044799827 -0.01786397 -0.044352736 -0.011554042 0.0718411 0.09247173
-0.08950957 -0.046841633 0.0043349876 -0.0115071265 0.051916525 -0.03658673 0.023492029 -0.050224915
0.08331278 -0.0679604 -0.058108088 -0.08962548 -0.072682455 0.014123782 -0.0034671915 -0.047961473
-0.08686711 -0.015811557 -0.09102048 0.03172667 -0.0112674935 -0.063483804 0.06004623 0.077631
-0.035464834 0.051953457 -0.0005875391 0.0594121 -0.010732631 0.078419626 0.0034901856 0.022804072
0.030213965 -0.07945585 -0.06238048 -0.034924276 -0.09629978 0.022633964 0.07909259 -0.050356455
0.051060867 0.03805662 -0.09396174 0.065733805 -0.051337734 0.07843439 0.044829626 0.080177665
0.09873899 -0.06158435 0.031468935 -0.051427145 -0.00754411 0.0064996043 -0.06257074 -0.06860475
0.043321144 -0.04682369 0.039721236 0.09024282 0.090845324 -0.07161866 0.026407123 0.043712758
0.05510457 0.003465289 0.07086617 -0.025535638 0.024857646 0.09264276 -0.071667925 0.01763052
-0.017170347 0.0053677117 0.030252581 0.02561466 -0.07092073 -0.018523855 0.024625542 0.06077385
0.09731462 -0.009910583 0.008107524 0.0127227465 0.010434113 0.052911196 -0.0351736 -0.032701075
-0.050643444 -0.046106614 0.02845866 0.0390502 -0.019594869 -0.06429981 -0.06934741 -0.037643697
0.059100717 0.0010131472 0.0783138 -0.052686512 0.0846661 -0.07036622 -0.061179716 0.00030374265
-0.000361933 0.09028791 0.04805481 0.09063529 -0.013557189 0.0051708613 -0.060068406 -0.09791048
-0.09800924 -0.018909674 -0.056353364 -0.046356287 0.08659411 0.09136923 0.0032233247 0.009392861
0.030157581 0.016681831 0.065015234 0.083770916 -0.036123473 -0.09517737 0.067546435 -0.010314423
0.084849015 -0.031724803 -0.055633996 -0.050709657 -0.06224105 -0.091323666 -0.0932385 0.047151636
0.023852838 0.034706794 -0.01398041 -0.06707159 -0.09914603 -0.06068603 -0.019475354 -0.02483942
-0.02542653 0.089829326 -0.036670946 0.08332784 0.055163417 -0.066680096 -0.030520663 -0.054809313
-0.080565594 0.0050184564 -0.095725 -0.06581272 0.074547045 0.08337019 -0.09965612 -0.061821718
0.098494895 -0.020671487 0.0187438 0.07417644 0.029624077 -0.045162186 0.029592099 -0.020400347
-0.032977674 0.06621842 -0.06603952 0.0498838 -0.02429771 0.057056304 -0.06350892 0.0328312
-0.06744361 0.064493634 -0.06577726 0.09118654 0.09865318 -0.012461117 0.03009209 -0.013948541
0.071500435 0.074101806 -0.019636808 -0.075911775 -0.01506112 -0.06176369 0.076300815 -0.02609787
0.029295282 0.057566572 -0.057100095 0.045888778 0.050637912 0.05319972 0.092779756 0.012990321

encoder.gru.bias_ih_l0 f4 [300]
00000000: a82d 1a3b d662 96bd 1331 72bd 8f22 65bb
00000010: 56c9 9a3d eb45 ad3d d403 a0bc d85c c73d
00000020: ea3a b83d 9485 5ebb 5d77 4c3a 92ea 4dbd
00000030: 90db a13d 78be c73d 6b71 5f3d 33a3 a93d
00000040: 8a90 a63d 439f b93d b1b2 78bd fb63 953c
00000050: ba62 04bd 6bbe eabb a44e 6abc d98f c0bb
00000060: 5daa be3d 8394 49bd c109 0a3b f821 f03c
00000070: 5009 9ebc 2c94 a43d f8fc 86bd 991d d53b
00000080: bdc3 743c fa29 18bd 3d50 7dbd 7515 d73c
00000090: 6e6e 553d ce59 b5bd 0550 99bb 3a30 24bd
000000a0: f7f3 e23c 3ea2 97bd 1a22 cc3c aee0 34bd
000000b0: 8e7d 83bd 93db 913c 7cf5 a1bd 732d c53d
000000c0: c397 b63d acd3 4d3d 9c32 4d3d e431 cbbd
000000d0: 9c0e 83bc d66d a8bc 2dd5 c73b c1f3 a2bd
000000e0: 62d2 e6bc 016c b73d abb0 703d 8fa2 fdbb
000000f0: 14ee ac3d 1cdf 78bd 5d4e 4bbd 58c8 ac3d
00000100: 63ac 18bc 78c9 81bc f17b 923d bd84 b03d
00000110: f29d 9f3d 2995 b6bd c6d8 d83c a336 cbbc
00000120: 0ff9 da3c 7dbb 0cbd bffa 8cbd a893 c2bd
00000130: 08a1 f73c 3159 843d bd0c 0f3c 75ec 26bc
00000140: 23f3 c23c 0a7c 133d 2a13 c43d d544 bc3d
00000150: a510 2a3c 453f f23c 206d 6d3d f513 ab3d
00000160: 0f4c a23d 3a0e c7bd 429d b03d f5b8 b33d
00000170: 404d b13d 1cef b33d 48af 45bd 087c 86bc
00000180: b6f3 cbbc 6745 52bd b493 bfbd 70ae d1bc
00000190: 4034 0e3d 3a97 8e3d f6de 3b3d 0f4e 8c3c
000001a0: e632 a3bc e017 a3bd d901 b6bd afdd be3d
000001b0: 3b6e c7bd c854 7b3d 55f3 5c3d d069 fd3c
000001c0: a92d c3bc f330 353d c06e 99bd 7b9e 253d
000001d0: 5cc9 a33d 6f28 5a3d 828a 2e3c 0c34 b8bd
000001e0: 3fb8 7c3d 4d82 a4bd ba11 ac3d 4ce0 c43c
000001f0: 7bb2 6bbd 7c97 2a3d e9d1 503d f54c 00bd
00000200: a04b a0bd aa50 78bd c324 cabd 8810 ba3d
00000210: 4396 c13d 8c34 a83d df59 9f3c 7ade eb3c
00000220: 7355 063d 3b80 8cbd 3996 c5bd b928 983d
00000230: 55bc b73d e539 013d 2a39 ef3c 5601 b03d
00000240: c07e f43c 8813 6c3c f431 653d f2d6 b23d
00000250: 91b6 083d da69 2b3d a5b8 8dbd aa96 fc3c
00000260: e06d e6b8 8b36 843d 11f7 75bc a96f a23c
00000270: 972b 013d 93d0 993d 23be 7d39 a47e 6cbd
00000280: d3f6 b53d 386e 6e3d af63 093b e65c 4dbc
00000290: 0e0e 6f3a d83b aabd 747a ef3c d8c9 a6bc
000002a0: 1d35 9cbd 3966 b0bd 5840 35bc 13e3 df3c
000002b0: db98 7f3d 4f32 9bbd 922c 33bd c87b a0bd
000002c0: 35f3 c53d 59b7 3dbd 8dc4 dc3c 2175 873d
000002d0: 9578 0b3b 1eed 913c 9a06 d63c b0bc 983d
000002e0: 524e 22bd 6c15 063c 366d 5f3d 93dd bc3d
000002f0: c98e 633b dbc8 b33c 39f2 a9bd 16be 22bc
00000300: 5489 0e3d c7fd 223c 837f 10bb 6db3 97bc
00000310: 3d8c 8cbd bff3 a5bd 14b4 1bbc 7e69 653c
00000320: 6ae9 af3d 4764 9f3d 7e1e 883b 75ed b73d
00000330: ceb0 a6bd c2d7 1f3d 2318 163d 3dca 93bc
00000340: 56e5 f3bd b81b 9dba db05 c53d e41f 9abd
00000350: d62b acbb 92b1 25bd bd81 8dbd 286e bc3d
00000360: e85c d73c ee4a 393d 90ab e93d d4db 83bd
00000370: 136c b73b 5151 8f3d 02e0 853d 7110 bfbd
00000380: f3f9 77bd 12fa 223d dbb1 d7bc f7df 9c3d
00000390: 87d3 bdbd 7f75 00bd cbe4 f13b 9169 b93d
000003a0: f283 613d 3338 6ebd c8ee d2bc a257 613d
000003b0: 961c adbd 3aa3 c83c 14be 5c3d 18a4 673c
000003c0: ac51 dc3d 1921 203b c7a6 90bd 9cba 17bd
000003d0: 20ff e9bc 16ba f13b f140 6a3b b8a2 283d
000003e0: 17af b63d cdba ca3d 8cd1 ce3d 8bc9 d73d
000003f0: 4a38 3ebd d828 e53d 86d9 17bd cdba 643d
0.0023525748 -0.0734307 -0.059128832 -0.0034963225 0.07557933 0.084606014 -0.019533075 0.097345054
0.08995612 -0.003395413 0.0007799769 -0.05027253 0.07903206 0.09753126 0.054551523 0.08283081
0.081330374 0.0906358 -0.06071729 0.018236151 -0.032320715 -0.007163813 -0.014300976 -0.005876523
0.09309838 -0.049213897 0.0021062943 0.029313073 -0.01929155 0.08036074 -0.06591219 0.0065037725
0.014939246 -0.037149407 -0.0618441 0.026255349 0.052107267 -0.088550195 -0.0046787285 -0.040085055
0.027704222 -0.07403992 0.024918605 -0.044159584 -0.06420432 0.017804896 -0.079081506 0.096278094
0.08915665 0.050250694 0.050097093 -0.09921625 -0.015998177 -0.020560186 0.0060984106 -0.079566486
-0.02817649 0.08956147 0.058762234 -0.0077403258 0.08443847 -0.06075965 -0.04963528 0.0843665
-0.009318444 -0.015843138 0.07152546 0.08619068 0.077937976 -0.08915169 0.026470553 -0.024806326
0.026730089 -0.03435849 -0.068837635 -0.095008194 0.030228153 0.064623244 0.008731064 -0.010188212
0.023797577 0.036006965 0.09573968 0.09192816 0.010379945 0.029571185 0.057965398 0.08353416
0.07924663 -0.097195104 0.086237445 0.08775512 0.086573124 0.08785841 -0.048262864 -0.016416565
-0.024896484 -0.05133572 -0.09354344 -0.025595874 0.0347178 0.06962438 0.04586693 0.017127065
-0.019921731 -0.07963538 -0.08887071 0.093196265 -0.09737822 0.06136015 0.053942997 0.030934244
-0.023825483 0.044236135 -0.07491827 0.040434342 0.07997391 0.053261217 0.01065314 -0.08994302
0.06169915 -0.080326654 0.084018186 0.024032734 -0.05754326 0.041648373 0.050981436 -0.031323392
-0.07826924 -0.060623802 -0.09870293 0.09085184 0.09452488 0.082131475 0.019452034 0.028792609
0.032796334 -0.068603955 -0.09647793 0.07429642 0.08971468 0.031549353 0.029202063 0.08594005
0.029845595 0.0144089535 0.055955842 0.08732404 0.033377234 0.041848995 -0.06919984 0.030833561
-0.000109877205 0.06455716 -0.0150125185 0.019828634 0.03153571 0.075104855 0.00024198792 -0.05773796
0.088849686 0.05821058 0.0020963957 -0.012534356 0.0009119221 -0.083121955 0.029233195 -0.020359918
-0.07627318 -0.086132474 -0.011062704 0.027329957 0.062401634 -0.07577955 -0.043743677 -0.078361094
0.09665529 -0.046317432 0.026949191 0.066141374 0.002128159 0.017813262 0.026126195 0.07457864
-0.039625473 0.008183818 0.05454751 0.092219494 0.0034722558 0.021946361 -0.082981534 -0.009933015
0.034798935 0.009948201 -0.002204866 -0.018518174 -0.06862686 -0.081031315 -0.009503383 0.014002202
0.08589442 0.07782798 0.0041540256 0.08980838 -0.081391916 0.039024122 0.036644112 -0.01804077
-0.11908977 -0.001198641 0.096202575 -0.07525614 -0.005254249 -0.040452547 -0.06909511 0.09200698
0.026289418 0.045237474 0.11409676 -0.06438413 0.0055976002 0.06997932 0.06536867 -0.09329308
-0.060541105 0.039789267 -0.026329925 0.076599054 -0.09268861 -0.031362053 0.0073820106 0.09053338
0.055057473 -0.058159065 -0.025748625 0.055015214 -0.08452718 0.024491895 0.05389221 0.014138244
0.10757765 0.002443379 -0.0706306 -0.0370432 -0.028564036 0.0073769195 0.0035744275 0.041170806
0.089201145 0.09898911 0.10098562 0.10536488 -0.0464404 0.11189431 -0.03707268 0.05584221

encoder.gru.bias_hh_l0 f4 [300]
00000000: df87 1fbd 653d 463d 310e 89bd cc5b c7bd
00000010: c6b1 483d d59e be3d 0a91 893d a2cb b0bd
00000020: 8a6a 7b3c d734 b3bd 8244 3cbd 4bf8 823d
00000030: c3fa 88bd 346d 4bbc cf35 7f3d ebc6 a03d
00000040: ddcb 9cbd 3dc2 0e39 4627 45bc cfc7 6e3d
00000050: 3e30 af3d a191 5abd 8f8a 1b3d 2505 71bc
00000060: c574 c3bd 97e4 553d 52b3 f23c c893 ef3c
00000070: 6369 083d 9d04 65bd f81d 6fbc b17f f5bc
00000080: bf1c b93c 5ae3 bd3d 44da b03d 7328 92ba
00000090: f284 0fbd 2a69 9a3d 7190 8b3d 6a23 413d
000000a0: d899 753c 7d6f aa3d 7bcb b6bd a634 983d
000000b0: 3dde a93d cb38 a03d 8284 553d b322 15bd
000000c0: 440f b9bc a4db 193d e846 14bd e8e1 a83d
000000d0: 0c7a 133d d645 173b 8474 7b3d 6331 8e3d
000000e0: d5a4 973d 7e62 c5bd ff96 b7bc d888 bc3c
000000f0: 930f 59bd 79ec 9a3d f46e 9e3c 8575 85bd
00000100: dd61 c33d c0bc 123d b317 eb3c 9f40 26bd
00000110: 5b90 c3bd ec10 97bd 0e1e 803d 9f19 7e3d
00000120: 4b11 c23c f3a2 5dbd 78c3 a6bd 563f 383d
00000130: 0db3 82bd c998 863d a755 57bd 83ea 923d
00000140: a7bc b2bd a2d3 c83b 7e12 513d 33f1 953d
00000150: 5c84 29bd c694 a6bd 53b5 c53d a7b7 b43d
00000160: ab52 8ebd c7d3 bfbd 04c0 ac3d 191c c3bc
00000170: 29c3 8ebb d359 89bd 3b7f 20bd fbdf 07bd
00000180: 2b7c a83d 5770 f1bc 91e9 7abd d38f e23b
00000190: abde b03d 4c9f 47bd 8bc7 c4bd 4c2e 18bd
000001a0: 3ab2 83bc 1a20 963d 6430 a63c 502c 1d3d
000001b0: 3356 cbbd 4d1b 3ebc b53c 293d ad16 723d
000001c0: 13b1 733d 2998 a33d 8bf3 1abd 4b26 043c
000001d0: 61bb 2ebd b3a8 89bc 1e9a 40bd 44c5 9cbd
000001e0: d374 8cbd fdf8 a4bd 9718 89bd b553 a0bd
000001f0: 764d 3a3d 70ea b5bc aff3 af3d 9acc bc3c
00000200: d39e b73c 86df eb3b 66f2 cebd f05f debb
00000210: b983 2c3d 3690 6bbb 9072 99bd 0de8 16bc
00000220: bc44 a1bb d1a5 3fbd 56a2 b83d 7794 ae3d
00000230: 9b5a a2bd 1bf2 adbc a71d 03bd 1437 8cbd
00000240: 1f83 80bd da7b 823c 7362 58bc d731 273d
00000250: 39a3 96bd 358b edbb 8902 47bc 5f96 b0bc
00000260: 703e 86b9 fe31 80bd 6fca 1f3c 92f9 753d
00000270: adba 76bc 390e e0bb 6410 c03d 15ec 83bd
00000280: abf6 813d 7384 85bd 73cd 2d3d a618 413b
00000290: a3e1 acbd bee2 d63c db62 973d 511d 72bd
000002a0: 2fae 8b3d 3d60 863d fc9e c2bc cbb2 42bd
000002b0: d280 5dbd f999 a8bc db78 a6bc e506 963d
000002c0: 4828 36bb b24b 6cbd d36b 973a c9f9 26bd
000002d0: b8d8 5abd 4952 10bd 6e75 3fbc e22d d3bd
000002e0: 99f9 7cbc a878 09bd 90aa c83d 85e6 32bd
000002f0: daa8 423d 885c 653d e664 613d 39b2 9a3d
00000300: cac3 61bd 9aab 68bd be2f bebd 4545 73bd
00000310: fa46 1abd 2bc6 963d 0a31 9fbd 61a3 c3bd
00000320: fb4d fe3c 3dd9 07bd 1169 86bd fe5a 983d
00000330: ff50 a33d c48e 14bd 6b32 c0bd c321 a8bd
00000340: e391 73bd 6f9f aebd d44f d83c 985a a23d
00000350: bc3c 133d c4f7 6f3d a658 383d 5609 c0bc
00000360: 2cf5 973c 37e9 a9bd 4903 84bb 9ca0 e33c
00000370: e238 5a3d f35b 37bd b44b b4bd 08a4 60bb
00000380: 5dff d03c 1518 443c 091f e03c 0a89 a53d
00000390: b2a4 ae3d 6df2 c9ba e653 ae39 654f 4abd
000003a0: 6026 90bc 4340 aabd 665f 79bd 3db4 593d
000003b0: 5eef 59bd 34a7 e43d bdac d9bc f990 673c
000003c0: 66db f33b fee4 d0bc 632d 0a3b 7b00 833c
000003d0: d628 de3a 198a 27bd ae92 7e3d bd70 173c
000003e0: 6b00 cabc bd82 6d3d fb1c 6e3d b030 873d
000003f0: 170b 9ebd 0f2f 5b3d 0201 acbd 6a94 643d
-0.038947936 0.048398394 -0.0669216 -0.09734306 0.048997663 0.093076386 0.06717117 -0.0863259
0.015345225 -0.08750313 -0.04596377 0.063950144 -0.06688454 -0.012416173 0.062307175 0.078504406
-0.07656071 0.00013614535 -0.012033289 0.05829602 0.08554123 -0.05336154 0.037973937 -0.014710699
-0.095437564 0.052219953 0.029626522 0.029245272 0.03330363 -0.055912603 -0.014594547 -0.029968115
0.022596715 0.092718795 0.08635381 -0.0011150971 -0.035038896 0.0753959 0.068146594 0.047152914
0.0149902925 0.08322046 -0.089255296 0.07431917 0.08294342 0.078233324 0.052128322 -0.036410045
-0.022590287 0.03756298 -0.036200434 0.08246213 0.036005065 0.0023082397 0.061390415 0.069430135
0.07404486 -0.096379265 -0.022410868 0.023014471 -0.05299337 0.07564635 0.019340016 -0.06516556
0.0954015 0.035824537 0.028697824 -0.04058897 -0.09549018 -0.073762745 0.062557325 0.062036153
0.023689887 -0.05411048 -0.081427515 0.044982277 -0.063818075 0.0657211 -0.05257192 0.07173636
-0.08727389 0.006128744 0.051043026 0.07321396 -0.041385993 -0.08133845 0.096537255 0.088240914
-0.069493614 -0.09366565 0.084350616 -0.023817109 -0.004356761 -0.06706586 -0.039183836 -0.03317259
0.08226808 -0.029472513 -0.061257903 0.006914118 0.086362205 -0.0487359 -0.09608372 -0.037153527
-0.016076196 0.07330342 0.020286746 0.038372338 -0.099285506 -0.011603189 0.04131766 0.059103657
0.059495043 0.079880066 -0.037829917 0.00806577 -0.042659167 -0.016804075 -0.047021978 -0.07654813
-0.0685822 -0.08055303 -0.06694143 -0.07828466 0.04548403 -0.022206515 0.08591401 0.02304678
0.0224146 0.007198277 -0.101048276 -0.006786339 0.042117808 -0.003594411 -0.07492554 -0.009210599
-0.004921524 -0.046788994 0.09015338 0.08524411 -0.07927438 -0.021233609 -0.0320107 -0.06846443
-0.06275009 0.015928198 -0.013207066 0.040819015 -0.07355351 -0.007249261 -0.0121466005 -0.021556078
-0.0002560499 -0.06259535 0.009752854 0.060052462 -0.015059155 -0.006837633 0.09378126 -0.064415134
0.06345876 -0.06519403 0.04243226 0.0029464155 -0.08441474 0.026231166 0.07391902 -0.05910999
0.06820332 0.06561325 -0.02375745 -0.04753379 -0.05407793 -0.020581232 -0.0203213 0.07325534
-0.0027795006 -0.057689376 0.001155252 -0.040765557 -0.053429335 -0.035234723 -0.011685712 -0.10311486
-0.015440368 -0.033562332 0.09798157 -0.04367687 0.04752431 0.055996448 0.055027865 0.075535245
-0.05511836 -0.056804277 -0.0928645 -0.059392232 -0.037665345 0.07362016 -0.07773025 -0.095526464
0.031043043 -0.03316616 -0.065630086 0.074392304 0.07974433 -0.036268964 -0.093846165 -0.082095645
-0.0594653 -0.08526503 0.026405253 0.07927436 0.035946593 0.058585897 0.045006417 -0.023441952
0.018549524 -0.08296435 -0.004028712 0.027786545 0.053276904 -0.044765424 -0.08803502 -0.0034277458
0.025512392 0.011968632 0.027358549 0.08082779 0.08527507 -0.0015407332 0.00033250375 -0.049392123
-0.017596424 -0.08313038 -0.060881995 0.053150404 -0.053206794 0.11164704 -0.026571626 0.014133685
0.007441926 -0.025499817 0.0021084181 0.01599144 0.0016949426 -0.040903185 0.062151603 0.0092431875
-0.024658402 0.05798601 0.058133107 0.06601083 -0.07716959 0.053511675 -0.0839863 0.0558056

decoder.embedding.weight f4 [189, 100]
00000000: 733a ac3f c034 b2be 11dd babe 0468 b03d
00000010: 2678 023f 9ffb f7bf 5a35 033e b8dd f5bd
00000020: 63b8 2bbf fe82 c3be c5cd c73e 9a4c a5bf
00000030: 71f3 7f3a 85d3 8b3e 8a9e ca3e 5afe 8dbb
00000040: 9095 2e3d fd16 0fc0 df91 503f 3dbb 98bf
00000050: 5254 89bf 5bbb 20c0 aa3b e83e 2478 51bf
00000060: feab c2bf d280 fbbe 8f6a e8bd 1f40 95bf
00000070: c945 99bd e2c4 313f 22ed 15be 5b6f ebbe
00000080: 9dfb 92bf 875c 1b3f 2b6a ddbc dc2d abbe
00000090: 6649 203f c9be 0bbf 52fa 0740 9604 8dbf
000000a0: f635 a73e e6e9 473f 7986 1840 98e9 5d3e
000000b0: 7a78 44bf 610a e83d 6731 7b3e b894 eebf
000000c0: e3fd a33d 5f12 af3f 4713 f7be d58f 503f
000000d0: 5e9f c53f b2b9 e63e 16aa debf ca5d c1be
000000e0: df9b 033f 838f aa3c 3383 c9be a9a7 083e
000000f0: 5ff1 3abe e5a3 a43d da0b 1e3f d5a7 67bf
00000100: 7f08 0140 fda8 963e 7915 80bf d588 0b3f
00000110: 8eb3 0dbf 6bd3 26be 1d20 0d40 8ce4 32bf
00000120: fc57 9c3f d6eb 37bf 7e0d 893d 5d53 45bf
00000130: 690f cfbf 1bb6 d4bf 3a5b 66bf 00bd 973f
00000140: 322b 993f 6c28 1b3f ee45 953e 1c24 743f
00000150: 4c3c 833e a90a 4f3e 8063 423f 799b fe3f
00000160: 0dda 443f b1d4 633f 8d3d a3bf 7e8e babe
00000170: 8ae3 8b3f 2bcd 7bbf bbd3 03bf 1683 273e
00000180: da0c 7c3e bfac 433f e70c 943f 2adc 53bf
00000190: 71f7 ecbe fe7d 333f 7e78 8dbf 5a79 a73f
000001a0: ba97 fbbf f189 203e 8ff7 6540 7858 9abe
000001b0: b132 f5be 6e0c 50bf 4385 49bf 1231 b1bf
000001c0: 5522 0d40 9432 1bbf c703 bb3e cec5 0940
000001d0: 12bc e8bf 44fb 3d3e 5670 d9be 3677 5dbe
000001e0: 83b0 eabe 184f a9bf c7bc 873e b884 3f3e
000001f0: f005 603f aabc afbf fa73 b2bd ea8d c83f
00000200: 8d65 0e3f f43b f9be e9dc 23bd 26ba 82bf
00000210: e333 5bbe 36db 32bf d93c 2abf f180 783d
00000220: 42c6 efbe cfe3 923f b37f 2cbe f807 f53f
00000230: 8338 ddbd 2ea3 71be f892 1dbf 68e8 b23f
00000240: 6521 eb3e 1658 ce3d 3398 443f 4996 44bf
00000250: e25c 223f 8f9a 953f fc97 203e 80ae f4bf
00000260: 3a69 58bf 2719 4dbf 2dce 7abf 2faf 673f
00000270: fb8a ba3f 915e 41be 4923 7dbf 199c 0bbf
00000280: 21ef 29bf 1cc6 1dbf f841 133e 0698 4b3f
00000290: 4598 3fbf e973 d83e e957 8c3d f4fb 72be
000002a0: c729 64be 0a73 a53f 1b65 373f 9cc7 583f
000002b0: b990 ee3e 58d8 993f aeb4 c0bf 4720 8c3f
000002c0: 1e52 81bf 7f3a 1abf 6caf 113f b64a 93bb
000002d0: 36fb efbf 5b0f 97be 6964 5bbf bead ed3f
000002e0: 5c96 033f edcb 413f 8dab 9bbf 3ba7 11bf
000002f0: ff24 54bf c91c 833f fc96 75bf 560d b9be
00000300: bacb cf3f 80a9 29bf 4829 b63e b033 0dbf
00000310: c2c1 4cbf 0b4d 1f3f 6e55 9ebf 4e38 053f
00000320: 64ac b83f 9402 f73f 75c9 6d3f e65e 8fbf
00000330: 9132 b83f 97bc c03e ee12 40be a307 e5be
00000340: 4260 afbf d624 7dbf 3166 44be f294 f23f
00000350: 7e60 edbf 9b6c dc3f 1d47 e43e ac75 3b3f
00000360: e2dd 91bf 5bc6 37bf ed04 e73e ff4e 82bb
00000370: 77fc 0340 9ba4 abbe 1777 e93f b966 853f
00000380: c27a 17bf 4e9a 4cbf ad54 923f 9e47 cf3f
00000390: d812 1e3f b328 bfbe 2223 173f 8748 d23f
000003a0: d51b 52bf 31c9 e93d 21f4 ce3f 833a 07bf
000003b0: 34e4 28bf b180 993f 92e0 8ebf 33a9 07bf
000003c0: c7cf b73f 3204 acbf 5174 533f c860 3dbf
000003d0: 3780 3240 21fa 2b3f 7e09 fdbd 9df4 d63f
000003e0: 8a9d 37be 915c 56be 6bfb 02bf 217e 073e
000003f0: bee4 733f 4f9f 59bf 9212 483e e9fb bdbe
1.3455337 -0.3480587 -0.36496785 0.086135894 0.5096458 -1.9373664 0.12813321 -0.1200518
-0.67078227 -0.38185877 0.39024177 -1.2914002 0.00097637536 0.27309814 0.3957408 -0.0043332996
0.042623103 -2.235778 0.8147258 -1.193214 -1.0728858 -2.5114353 0.4535802 -0.81823945
-1.5208738 -0.4912172 -0.113484494 -1.1660193 -0.074840136 0.69441044 -0.1464124 -0.45983395
-1.1483036 0.6068806 -0.027028164 -0.33433425 0.62612 -0.5458799 2.1246533 -1.1017025
0.32658356 0.78091276 2.3832076 0.2167114 -0.7674633 0.113301046 0.24530564 -1.8639135
0.080074094 1.3677481 -0.48256895 0.8146947 1.543926 0.4506355 -1.7395656 -0.37766868
0.51409715 0.020820385 -0.3935791 0.13345207 -0.18256138 0.08039073 0.61736834 -0.90490466
2.0161436 0.29425803 -1.0006553 0.54505664 -0.55352104 -0.16291587 2.205085 -0.69879985
1.2214351 -0.7184423 0.066920266 -0.7708033 -1.6176578 -1.6618074 -0.8998295 1.1854553
1.1966307 0.60608554 0.29154915 0.953676 0.2563194 0.2021891 0.75933075 1.9891196
0.7689522 0.88996416 -1.2753159 -0.36436838 1.0928814 -0.98359936 -0.5149495 0.16358599
0.24614277 0.76435465 1.1566437 -0.8275782 -0.46282533 0.70114124 -1.1052396 1.3083909
-1.9655678 0.1567762 3.5932348 -0.3014562 -0.47890237 -0.81268966 -0.78718966 -1.38431
2.2052205 -0.6062405 0.3652632 2.152698 -1.8182395 0.18552881 -0.42468518 -0.21627507
-0.45837793 -1.3227262 0.26511213 0.18702972 0.8750906 -1.3729451 -0.08713527 1.5668309
0.55623704 -0.48678553 -0.0400056 -1.0213058 -0.21406512 -0.6986574 -0.66499096 0.060669843
-0.46830946 1.1475772 -0.16845588 1.9143057 -0.108017944 -0.23597404 -0.6155238 1.3977175
0.45923916 0.10075395 0.7679474 -0.76791817 0.6342298 1.1687793 0.15682977 -1.9115753
-0.84535563 -0.80116504 -0.9797085 0.90501684 1.4573663 -0.1888373 -0.98881966 -0.5453506
-0.66380507 -0.61630416 0.14380634 0.79528844 -0.7484172 0.42275932 0.06852705 -0.23728925
-0.22281562 1.2925732 0.7163865 0.8467958 0.4659479 1.2019148 -1.5055139 1.094735
-1.0103185 -0.6024551 0.569083 -0.00449499 -1.8748538 -0.29503903 -0.8570009 1.8568647
0.51401305 0.7570179 -1.2161728 -0.568958 -0.8286895 1.024316 -0.9593351 -0.36142987
1.6234047 -0.6627426 0.3557837 -0.55156994 -0.7998315 0.62226933 -1.2369821 0.5203904
1.442761 1.9297662 0.92885524 -1.1200836 1.4390432 0.37643883 -0.18757221 -0.4473239
-1.370125 -0.9888433 -0.19179608 1.8951705 -1.8545072 1.7220644 0.44585505 0.7322643
-1.1395838 -0.7178704 0.45120946 -0.003976702 2.0622842 -0.33524022 1.8239468 1.0421973
-0.5917169 -0.7992295 1.1432091 1.6193731 0.61747503 -0.3733574 0.59037983 1.6428384
-0.8207372 0.11415327 1.6168252 -0.52823657 -0.6597321 1.1992399 -1.1162283 -0.5299255
1.4360284 -1.343878 0.8259936 -0.739758 2.7890756 0.6717854 -0.12355326 1.67934
-0.1793119 -0.20933749 -0.51164883 0.13231708 0.9527091 -0.8500871 0.19538334 -0.37106255

decoder.attn.weight f4 [15, 200]
00000000: f94c 17bd 6679 473d dcab 7f3d 77c3 06bd
00000010: 7b20 18bd 9062 5ebd 4e78 89bd e2d2 01bd
00000020: e6d1 4c3c 5659 60bd a2bc 81bd cbb6 f53b
00000030: 5a85 dcbc 91f6 15bd 2c05 d8bc 0925 6c3d
00000040: 6997 bfbc 1cba f4bc ba4e 853c c2c5 63bd
00000050: 62d9 0c3d eea4 133d 51c6 e13c b8e8 3dbd
00000060: a541 1cbd 373f b3bc 35a1 013d 95f7 20bd
00000070: 8c63 753d 2e0a 8a3d b50a 273c 0f80 58bc
00000080: 7ba5 e33a 271a 553d a893 783c 05ec 3abd
00000090: 003c 083d 9ded 9fbc fa7a 70bc 69ae b03c
000000a0: 69df 67bd 9fbc 7e3d d537 38bd 4df9 0f3d
000000b0: 43cd 933c e5f7 963b 75ad 84bc 3d8b 293d
000000c0: f719 5b3d 8081 98bb db9c 37bd a711 1fbc
000000d0: dbdc 66bd 6751 573c 7f8e 3a3d 9c31 253d
000000e0: 8ae1 2c3d 4258 013d 8246 74bd 6972 7a3d
000000f0: 0eff 6c3d 2588 6ebd b16e 633b 6376 c3bb
00000100: 9440 ae3c 0048 89bd 47a5 63bd 4e62 c7bc
00000110: e6c9 843c 49ce 873d 0ea5 053d e08d 753d
00000120: 9ade 323d d85d 93bd 7186 02bc 9663 8a3d
00000130: 1ff7 003d b5c5 c1bc 7709 ec39 a625 83bd
00000140: e818 143d c4d8 e2bc 27fd 273d 2a64 853d
00000150: 0f8c 473d d5f9 20bd 0732 3cbd 9f37 95bb
00000160: a58c e93c efb8 2e3d 77b7 253d 0d75 803c
00000170: febd 90bd efe3 213d 8304 fe3c 2f3a 27bd
00000180: 5397 6c3d 3e13 50bd 9dfc ce3c adae 393c
00000190: 3665 33bd 254c 01bd 90f7 40bd 7ce6 78bd
000001a0: 7752 943c 9474 78bd d607 83bb e342 80bd
000001b0: a061 52bc d564 39bd c06c 3f3d 7a45 c4bc
000001c0: 3d73 8abd da9a 6ebd cc5f 56bd 115a 4d3d
000001d0: 198c 5ebd b01c 783d c774 503c 6349 62bd
000001e0: d5f1 b2bb b22c 843d 443d 6d3d 3bde 3fbd
000001f0: 5a92 a53c d01c 82bb 3d7b f93c 99eb 6abd
00000200: dc33 80bc 427c e2bb 035f 033d e723 46bd
00000210: f188 7bbd 20c8 c8bc 7b6d 22bd 592c 0bbd
00000220: 017f 913d 0d70 b4bc 3677 393c 6360 883c
00000230: 55d1 f8bc 4138 56bd cddd 7f3d 9845 51bd
00000240: f90a 8abd a7c9 5bbd 5d80 f13c 8f44 8ebd
00000250: 8aae 1c3d f1f9 dabc d31c 003d 766a 133c
00000260: faff c23c 2b28 103d 6ffd 83bd 1180 16bd
00000270: e765 2a3b 6a88 be3c 5f69 1c3b 7a09 8ebd
00000280: 04a9 4dbd 9af1 0b3d c8ed deba 6c4f 1ebc
00000290: 50b3 083d 2a20 79bd a72a bc3c 6245 4c3b
000002a0: b89b b9bc b537 0ebd b1f4 e93c 5f29 0d3d
000002b0: f8b1 ba3c 88d5 633d d20d 84bd 3c00 6e3d
000002c0: 2fdb 0e3c 3aba 89bd 14f2 4dbd 2f09 c4bc
000002d0: a328 66bc 6174 873d 1324 4fbd 6805 81bd
000002e0: 7373 e4bc d469 06bd 093f bc3c 1afd c33c
000002f0: 29ed 15bd ca53 89bd 28de 3bbd b030 adbb
00000300: 562b 05bd 6f0e f23b e124 f93c 629e 843d
00000310: 2ff7 723d 9ae8 553c 6f3a 863c f35e de3c
00000320: 4b7a 783d f680 d2bc ce3e 473c 085f 933d
00000330: 1239 2fbd e0a2 5d3d 06ac aabc 0678 adbc
00000340: 389f 0a3d 726e 45bd 4d7d 3d3d 4650 2b3d
00000350: eecf 2cbd cc10 e4bc eb23 763d 6831 963c
00000360: 619c 833b 657c 543d 6f28 573d f279 093c
00000370: f2bd 78bd 86e1 abbc 854d 2dbd bbbb 8abd
00000380: e495 32bb e305 78bd 89df 69bc a4b5 9abc
00000390: 3ae5 4e3c a0a5 78bd 7194 01bd 8b23 6f3d
000003a0: f3fe 4b3c d662 493d 0d11 083d 50d0 b23c
000003b0: f205 11bd 3895 73bd 071c 7fbd af2c 8bbc
000003c0: f758 77bd 9f9e 133d aa52 843c a75a f33c
000003d0: 8727 103d 768c 133d 7a7b 4abd 7d8c acbc
000003e0: 2627 7cbc 72ba 323d 7b00 81bd 72d4 e0bc
000003f0: b1be 60bd 462c 083d b497 0f3c a6f3 8f3d
-0.03693864 0.04869976 0.062419757 -0.032901254 -0.03714035 -0.054293215 -0.067123994 -0.031695254
0.012501216 -0.054772697 -0.06334807 0.0074985973 -0.026919056 -0.036612097 -0.026369654 0.057652507
-0.023387628 -0.0298739 0.016272891 -0.05560852 0.034387 0.03604596 0.027560385 -0.046364516
-0.03814854 -0.02188073 0.03164788 -0.039298613 0.05990939 0.06740223 0.010195424 -0.013214125
0.0017368043 0.052026894 0.015171923 -0.045635242 0.033260345 -0.019522483 -0.014677757 0.02156754
-0.056609545 0.0621916 -0.04497512 0.03514986 0.018042212 0.004607188 -0.016195992 0.041392554
0.05349156 -0.0046541095 -0.044827323 -0.0097087985 -0.056362968 0.013141966 0.04554605 0.040330514
0.04220728 0.03157831 -0.059637554 0.061144266 0.057860427 -0.058235306 0.0034703428 -0.0059650405
0.021271028 -0.06703186 -0.055577543 -0.024338868 0.016209554 0.06631143 0.03262811 0.059949756
0.04366932 -0.07195634 -0.007966624 0.06757276 0.031485673 -0.023653844 0.0004502048 -0.06403665
0.036156565 -0.027691253 0.04101291 0.065132454 0.048717555 -0.03930076 -0.045946147 -0.0045537497
0.028509447 0.042656835 0.04045817 0.015680814 -0.07067488 0.039524015 0.03100801 -0.040826973
0.0577615 -0.0507996 0.02526694 0.01133315 -0.043797694 -0.031566758 -0.047111094 -0.060766682
0.018105729 -0.060658053 -0.003998737 -0.06262758 -0.012840658 -0.045262177 0.04673457 -0.02395891
-0.06760261 -0.058253147 -0.052337453 0.050134722 -0.054332826 0.060574234 0.012723154 -0.05524577
-0.0054609575 0.064538375 0.057919756 -0.046842795 0.020211387 -0.00397072 0.030454272 -0.05735359
-0.015649728 -0.0069117853 0.032073032 -0.048374083 -0.061409894 -0.02450949 -0.03965519 -0.03397784
0.07104302 -0.022026086 0.011319926 0.016647523 -0.030373255 -0.05229974 0.062467385 -0.05109176
-0.06740374 -0.053659108 0.029480154 -0.0694667 0.03825239 -0.02673051 0.03127749 0.00899755
0.0238037 0.035194557 -0.06444823 -0.036743227 0.002600068 0.023258407 0.0023866517 -0.06935401
-0.050210014 0.034165956 -0.001700812 -0.00966249 0.03337413 -0.06082169 0.022969557 0.0031169285
-0.02265726 -0.034721095 0.02855906 0.034463283 0.02278994 0.05562356 -0.064479485 0.058105692
0.00871925 -0.06724973 -0.05027969 -0.02393016 -0.0140477745 0.066139944 -0.050571512 -0.06299859
-0.027887082 -0.03281577 0.022979276 0.0239244 -0.036603127 -0.067054346 -0.04586616 -0.005285345
-0.03251203 0.0073869745 0.030413093 0.064755216 0.059317764 0.013055945 0.016385285 0.027144885
0.060663503 -0.025696259 0.01216097 0.0719586 -0.042779036 0.054110408 -0.02083398 -0.021175396
0.03384325 -0.048201032 0.046262074 0.0418246 -0.042190485 -0.02784004 0.060092848 0.018334106
0.0040164446 0.051876444 0.052528795 0.00839089 -0.06072802 -0.020981561 -0.042310257 -0.06774088
-0.0027249986 -0.06055249 -0.014274486 -0.018885441 0.012627894 -0.060704827 -0.031635705 0.058383506
0.012450921 0.049166523 0.033219386 0.021827847 -0.03540606 -0.059468478 -0.06228259 -0.01698908
-0.060387578 0.036039945 0.016152699 0.029706312 0.035193946 0.036022626 -0.049434163 -0.021063084
-0.015390193 0.04363484 -0.0629892 -0.027445052 -0.054869357 0.033245347 0.008764196 0.07028894

decoder.attn.bias f4 [15]
00000000: fbd9 72bd 7b78 62bb 6f44 bbbc 7a69 8abc
00000010: 14a6 eabb 5315 1bbd 55f8 04bc f48f 3bbd
00000020: eeb8 253d 682e 05bd c7a2 6d3c 064f 66bd
00000030: 3b1d 6e3c e477 36bd bb8a dd3c
-0.059289914 -0.0034556675 -0.02285978 -0.016895998 -0.0071609113 -0.037862133 -0.008115848 -0.04579158
0.040459566 -0.03251496 0.014504141 -0.056227706 0.014533336 -0.04454793 0.02704369
