best_models/seq2seq-2021-03-22-09-35-39.pt (torch, 262479 bytes, 16 tensors)

encoder.embedding.weight f4 [162, 50]
0	0x3e1f1f29	0.1553923
1	0xbf9b9987	-1.2156228
2	0xbe3b4e4f	-0.18291591
3	0xbf8be7ed	-1.0930153
4	0x3ea8d229	0.3297284
5	0x3f69d394	0.9133847
6	0x3fb9a1ad	1.4502465
7	0xbd0b0f2c	-0.033950016
8	0x3b915d47	0.0044361684
9	0x3fa56ea4	1.292439
10	0xbfa8eab0	-1.3196621
11	0xbf3c6f81	-0.7360764
12	0xbc9cda13	-0.019146955
13	0x3df31e72	0.11871041
14	0xbfce1974	-1.6101518
15	0x3e5419de	0.20712993
16	0xbf0d9c80	-0.55316925
17	0x3ef3516f	0.47523066
18	0xbf167e9e	-0.5878695
19	0x3f31aab2	0.69401085
20	0xbf397d36	-0.7245668
21	0xbf98aa3c	-1.1926951
22	0x3e43c6df	0.19118832
23	0x3f096301	0.5366669
24	0xbfc05600	-1.5026245
25	0xbdc8e21c	-0.09808752
26	0xbd67a0ee	-0.05654996
27	0x3f1b6395	0.60698825
28	0xbff1b944	-1.8884664
29	0x3f1d35d3	0.61410254
30	0xbf79d010	-0.97583103
31	0xbe2ac580	-0.16676903
32	0xbe1d4923	-0.1535993
33	0xbf270e5f	-0.65256304
34	0xbe19d9d6	-0.15024504
35	0x3f68f338	0.9099612
36	0x3f493584	0.78597283
37	0x3f86037b	1.0469812
38	0x3f867bbc	1.0506511
39	0x3f13bd17	0.57710403
40	0x3f2b1c1e	0.6683978
41	0x3f4c5e83	0.79831713
42	0x3e08d8b2	0.13363913
43	0x3f8b24b1	1.0870572
44	0xbef2638e	-0.4734158
45	0xbf4410ac	-0.7658794
46	0x3fad5465	1.354138
47	0xbfcd1a79	-1.6023704
48	0x3f2f8c2c	0.6857326
49	0xbf021f63	-0.5082914
50	0xbfad2266	-1.3526123
51	0xbf0f3617	-0.5594191
52	0xbfad36f9	-1.3532401
53	0xbf63fab8	-0.8905444
54	0xbe9ecc73	-0.31015357
55	0x3e9c46b2	0.30522686
56	0x3dcb0eb5	0.099149145
57	0xbf8c4b48	-1.0960474
58	0x3e136e3d	0.14397521
59	0x3eda2961	0.42609695
60	0x3ed92bd9	0.42416266
61	0x3f25f301	0.6482392
62	0xbf8f3dec	-1.1190772
63	0xbca8495f	-0.020542799
64	0xbeaa1a5d	-0.3322324
65	0xbf347d85	-0.7050403
66	0xbf49c607	-0.7881779
67	0xbf842f01	-1.0326844
68	0xbfd4477e	-1.6584318
69	0xbef48a94	-0.47761977
70	0xbf714a05	-0.9425357
71	0x3e89bce8	0.26901937
72	0x3fbf0c68	1.4925661
73	0x3f7886f5	0.9708093
74	0xbfbc5ee9	-1.4716464
75	0xbe1c85e6	-0.15285453
76	0xbf62d667	-0.886084
77	0x3e88e544	0.26737416
78	0x3f81fa99	1.0154601
79	0xbf12624d	-0.57181245
80	0xbe82a79e	-0.25518507
81	0x3fbbda2a	1.4675953
82	0xbf79ce36	-0.9758028
83	0x3e166704	0.14687735
84	0xbfdd59cd	-1.729303
85	0x3f382396	0.719293
86	0x3f453d79	0.77046925
87	0xbe9ec6a8	-0.31010938
88	0x3f877b3f	1.0584487
89	0x3d839cea	0.06426413
90	0xbf512dd6	-0.81710565
91	0xbbae2a43	-0.0053150966
92	0x3f50c113	0.8154461
93	0xbfae40f2	-1.361357
94	0xc017ac59	-2.3698943
95	0xbef08f66	-0.46984404
96	0xbfdd0096	-1.7265804
97	0xbf829257	-1.0200909
98	0x3fdace36	1.709418
99	0xbe4d39aa	-0.20041528
100	0xbfcc1cfc	-1.5946345
101	0x3fe45a84	1.7840123
102	0x3e781880	0.24228096
103	0x400f50d5	2.2393086
104	0x3fa045b7	1.2521275
105	0x3fb9de73	1.4521011
106	0xbf209b94	-0.62737393
107	0xbf187d52	-0.59566224
108	0x3ecb155a	0.39664727
109	0xbff4b07f	-1.9116362
110	0x3fee7c0d	1.8631607
111	0x3e1f74da	0.15571919
112	0xbeee6b17	-0.46566078
113	0x3f03093c	0.51185966
114	0xbe80a51a	-0.25125962
115	0xbe15bc5e	-0.14622638
116	0xbf400302	-0.7500459
117	0x3f14a0be	0.58057773
118	0xbe8d9762	-0.27654558
119	0x3fa85a57	1.315257
120	0xbf4f6c06	-0.81024206
121	0x3f601e0c	0.8754585
122	0x3f21b785	0.63170654
123	0x3f96f516	1.1793544
124	0xbfab5aaf	-1.338705
125	0x3fe66224	1.79987
126	0xbd445d9d	-0.04794084
127	0xbf9fa7c3	-1.2473072
128	0x3fae06bc	1.3595805
129	0xbe80b204	-0.25135815
130	0xbf7b2ff1	-0.9812003
131	0x3fdceeb5	1.7260348
132	0xbf27e4e7	-0.6558365
133	0x3ec88f0e	0.39171642
134	0xbf61be1f	-0.88180727
135	0x3e76b8d3	0.24093942
136	0x3d031073	0.03199811
137	0xbd706651	-0.058691327
138	0x3f842b6a	1.0325749
139	0x3eedd0bb	0.4644831
140	0xbf9741c7	-1.1816949
141	0x3ffadb0e	1.95981
142	0xbf774917	-0.965959
143	0x3edb476d	0.4282793
144	0x3fa8212c	1.3135123
145	0xbecfcf95	-0.4058806
146	0xbf0c8c0a	-0.5490118
147	0x3f0915eb	0.5354907
148	0x3ef4a037	0.47778484
149	0x3e983538	0.29728103
150	0xbfe1854b	-1.7618803
151	0x3e1aad8e	0.15105268
152	0xbea2535d	-0.31704226
153	0x3e8ca5ac	0.27470148
154	0xbfad6c28	-1.3548632
155	0x400d7bba	2.2106767
156	0xbefc6117	-0.49292824
157	0x3f06f89b	0.5272309
158	0x3eeb7f99	0.45995787
159	0xbf319e74	-0.69382405
160	0x3f9092f9	1.1294852
161	0xbedf8002	-0.4365235
162	0x3f11b7f1	0.569213
163	0xbfbadf37	-1.459937
164	0x3fe148fb	1.7600397
165	0xbfe0f4a4	-1.7574658
166	0xc0224bbe	-2.535873
167	0xbfdf8ec8	-1.7465448
168	0x3fbaba2e	1.4588068
169	0x3e53c95e	0.20682284
170	0x3e07701a	0.13226357
171	0xc0042479	-2.064726
172	0xbf2f00da	-0.68360674
173	0x3eb858e2	0.36005312
174	0x3f765056	0.9621633
175	0x3e4fe3a9	0.20301689
176	0x3d9127cc	0.07087669
177	0x3f5bb121	0.8581715
178	0x3f86f9a4	1.0544934
179	0x3f04426f	0.5166387
180	0xbf622db3	-0.8835098
181	0x3f062ac4	0.52409005
182	0x3fc6faaa	1.5545247
183	0x3f32ad72	0.69795907
184	0xbff3d44b	-1.9049162
185	0xbfa346ce	-1.2755983
186	0x3f8df050	1.1088963
187	0x3fb6996b	1.426557
188	0x3fa668af	1.3000697
189	0xbf76881b	-0.9630143
190	0xbe7ad696	-0.2449592
191	0x3da6854d	0.08130894
192	0xc009aa7c	-2.1510305
193	0xbdc5dfa6	-0.09661798
194	0xbfb8caaa	-1.4436848
195	0x400981bf	2.148544
196	0xbf3338fd	-0.7000883
197	0xc0222e6c	-2.5340834
198	0xbfad37c6	-1.3532646
199	0xbd9ebcf4	-0.07750884
200	0xbd145cf3	-0.036221456
201	0x3d92dd30	0.071710944
202	0xbec88cd2	-0.39169937
203	0x3eb61650	0.35563898
204	0x3ec74b03	0.38924417
205	0x4027616b	2.615321
206	0x3f12075f	0.570425
207	0x3f8f7115	1.1206385
208	0x3eec3074	0.46130717
209	0x3f4e7e8a	0.80661833
210	0xbf038753	-0.51378363
211	0xbf74f8f6	-0.95692384
212	0xbf99c0bc	-1.2011943
213	0xbf6d2136	-0.926288
214	0xbf6063fc	-0.87652564
215	0x3ee1a8b4	0.44074023
216	0x3d9580dc	0.072999686
217	0x3eab3e29	0.33445862
218	0xbf9a804e	-1.2070405
219	0xbf86a3a6	-1.0518692
220	0xbf4a6953	-0.7906696
221	0xbf325a1f	-0.69668764
222	0xbf6b0dc2	-0.9181787
223	0xc02981f6	-2.6485572
224	0x4013eb3a	2.311232
225	0x3ff66cd3	1.925196
226	0xbdf1deac	-0.118100494
227	0x3f534ffd	0.8254393
228	0x3fb1615e	1.3857839
229	0xbf0046f2	-0.50108254
230	0xbebb7a47	-0.36616728
231	0xbf19acf2	-0.6002952
232	0x3f27b307	0.6550755
233	0xbe1b3451	-0.15156676
234	0xbf54a574	-0.8306496
235	0xbc803616	-0.01565079
236	0x3fa28fa2	1.2700083
237	0xbe85b5b1	-0.26115182
238	0x3f894317	1.0723599
239	0xbff23034	-1.892096
240	0xbf527fb7	-0.8222613
241	0x3fa05981	1.2527314
242	0xbe5c6db6	-0.21526226
243	0xbf79f363	-0.97637004
244	0xbf91beea	-1.1386387
245	0x3ff9d709	1.9518749
246	0x3fc415aa	1.5319111
247	0x3fd029fd	1.6262814
248	0xbff950fc	-1.947784
249	0x3f44a8fc	0.7682035
250	0xbfe91581	-1.8209687
251	0xbf7f8f5e	-0.99828136
252	0x3f504596	0.8135618
253	0xbefc25ba	-0.49247533
254	0xbfbe66f0	-1.4875164
255	0x3f39fecd	0.7265442

encoder.gru.weight_ih_l0 f4 [150, 50]
0	0xbdf73206	-0.12070088
1	0x3ba980f6	0.005172844
2	0x3d1c0366	0.03808918
3	0x3d58a416	0.05289086
4	0x3aacfa61	0.0013197177
5	0x3dbb68a3	0.09150817
6	0x3d6fc8de	0.05854117
7	0x3daa8af1	0.08327282
8	0x3d9ebd7a	0.077509835
9	0x3e090f1d	0.13384672
10	0xbe00ba3a	-0.1257104
11	0x3d8fa029	0.0701297
12	0x3ddaa062	0.10675122
13	0xbda37ca4	-0.07982758
14	0xbbf2f2ee	-0.0074142134
15	0xbd3d58e9	-0.04622737
16	0xbdc69ea8	-0.0969823
17	0xbcc3ff7e	-0.02392554
18	0xbdaa8142	-0.08325435
19	0xbde3061c	-0.1108515
20	0xbd1193a6	-0.0355412
21	0xbe07b330	-0.13251948
22	0xbdb809b8	-0.08986229
23	0x3d27cbe2	0.040965922
24	0x3e057d45	0.13036068
25	0xbd9a87de	-0.07545446
26	0xbdd5fc8c	-0.1044856
27	0xbd0d634e	-0.034518532
28	0x3d56bccb	0.05242614
29	0x3d32306e	0.043503217
30	0xbc812fd8	-0.015769884
31	0xbd824abb	-0.0636191
32	0x3d022e23	0.03178228
33	0x3ca42f59	0.020042108
34	0x3e0cd8b7	0.13754545
35	0xbd85f902	-0.06541635
36	0x3df24414	0.11829391
37	0xbd717b75	-0.05895563
38	0x3cb2ed18	0.02184157
39	0xbe0f7fe2	-0.14013627
40	0xbdcd5d5b	-0.10027572
41	0xbd99be17	-0.0750696
42	0x3ddf6033	0.109070204
43	0xbe02ebe5	-0.12785299
44	0x3d62e900	0.055397987
45	0xbe09c9f9	-0.13455953
46	0x3bb64723	0.0055626794
47	0xbcbb62fa	-0.022874344
48	0x3cbd39fd	0.02309894
49	0x3e0c1e96	0.13683543
50	0x3defdc06	0.11711888
51	0x3c8183aa	0.015809853
52	0xbc449795	-0.011999031
53	0x3c1bd066	0.009510135
54	0x3de76b8b	0.11299809
55	0x3bbae982	0.005704106
56	0xbd8602d8	-0.06543511
57	0x3da71d24	0.08159855
58	0xbcde3d51	-0.027128847
59	0x3e079352	0.13239792
60	0xbbb6727a	-0.005567846
61	0x3d009901	0.031395916
62	0xbd865d6e	-0.06560789
63	0x3c85b10c	0.016319774
64	0xbd54e648	-0.051977426
65	0xbe023122	-0.12714055
66	0x3dc5db1c	0.096609324
67	0x3e05a456	0.1305097
68	0xbd909042	-0.07058765
69	0xbd9bedec	-0.07613739
70	0x3d9749b4	0.07387105
71	0x3e051be6	0.12998924
72	0xbd73f63d	-0.059561003
73	0xbdcff4d5	-0.1015412
74	0xbd1475c6	-0.03624513
75	0xbdf27b3e	-0.11839913
76	0xbde89271	-0.113560565
77	0xbb458261	-0.0030137526
78	0x3cde7bb1	0.02715859
79	0xbcc7884e	-0.024356987
80	0xbcabf8fe	-0.020992752
81	0x3c3f887b	0.011690254
82	0x3d5fa977	0.054604974
83	0x3dd92f21	0.10604692
84	0xbdfaf85f	-0.12254404
85	0x3df65fed	0.12030015
86	0xbe0ae431	-0.1356361
87	0xbdd86caf	-0.10567605
88	0xbd5bfa28	-0.053705364
89	0xbd41c7b4	-0.047309592
90	0x3d2e55b1	0.04256219
91	0x3d9e7000	0.07736206
92	0x3cbae239	0.02281295
93	0x3d871a8b	0.065968595
94	0x3d03f4ef	0.03221601
95	0xbdfc5969	-0.12321741
96	0xbdfed7a9	-0.12443478
97	0xbe09f0a0	-0.13470697
98	0x3cfb4243	0.030671244
99	0x3dd261c6	0.10272555
100	0xbdf0ce08	-0.11758047
101	0xbc323d58	-0.010878883
102	0xbd9a2cc4	-0.075280696
103	0xbe0012a9	-0.12507118
104	0xbe093991	-0.13400866
105	0x3d93ba14	0.07213226
106	0x3d91f57d	0.07126901
107	0x3e0ba956	0.13638815
108	0x3d4c6770	0.049903333
109	0x3da4ee33	0.080532454
110	0xbdb72a81	-0.08943654
111	0x3d5ae274	0.05343862
112	0x3d6a1d3c	0.057156786
113	0xbe0e583e	-0.13900849
114	0x3d844c81	0.064599045
115	0x3ded5e72	0.1159028
116	0xbc77174f	-0.015081241
117	0xbc374ab0	-0.0111872405
118	0x3d871807	0.0659638
119	0xbdddebc4	-0.10835984
120	0xbe070185	-0.13184173
121	0xbd449013	-0.047988962
122	0x3dc17a68	0.09447175
123	0x3e05b3f3	0.13056926
124	0xbc944ae3	-0.018102115
125	0xbdf73e5e	-0.120724425
126	0xbd154478	-0.03644225
127	0x3cd97c65	0.026548574
128	0xbd05d14e	-0.03267031
129	0x3d117c1f	0.03551876
130	0xbd973fd3	-0.073852204
131	0x3d08c2b6	0.033388816
132	0xbd798e35	-0.060926635
133	0xbc43e291	-0.011955873
134	0xbcadf472	-0.021234725
135	0xbd85d8cd	-0.06535492
136	0x3d5843e8	0.052799135
137	0xbde30a04	-0.11085895
138	0xba33f1a3	-0.0006864315
139	0xbe0daf7d	-0.13836475
140	0x3d6b8ff5	0.057510335
141	0xbde692c9	-0.11258466
142	0x3b9a9ac4	0.0047181565
143	0x3d256d68	0.04038754
144	0x3d1e8e0c	0.038709685
145	0x3c9f1ac6	0.019421946
146	0xbe01d0fd	-0.12677379
147	0x3d13e104	0.036103263
148	0x3deb1265	0.11478118
149	0x3e0a0eeb	0.13482253
150	0x3cd9f383	0.026605373
151	0xbdf41f46	-0.119200274
152	0x3dc5a337	0.096502714
153	0xbdd05c1c	-0.101738185
154	0xbc88a0eb	-0.016678294
155	0xbe091b4a	-0.13389316
156	0xbda55911	-0.08073629
157	0x3b19abe3	0.00234484
158	0x3e10229d	0.14075704
159	0xbde21fec	-0.11041245
160	0xbbf9f5bc	-0.007628171
161	0x3d7d9994	0.06191404
162	0xbdc89def	-0.097957484
163	0x3cf8b228	0.030358389
164	0x3caab98e	0.020840432
165	0x3dcc043a	0.09961744
166	0xbdba2789	-0.09089572
167	0xbd5e4043	-0.054260504
168	0xbdea52e6	-0.11441593
169	0xbd93ee14	-0.07223144
170	0x3e0a3660	0.13497305
171	0x3d055f2c	0.032561466
172	0xbdd7f683	-0.10545065
173	0xbaa74642	-0.0012762027
174	0x3dcd2e20	0.10018563
175	0xbdd65069	-0.10464556
176	0xbde3ad5f	-0.11117052
177	0x3b265869	0.0025382286
178	0x3de2c73d	0.11073158
179	0x3dd132c4	0.10214761
180	0xbdc3621e	-0.09540199
181	0xbd0a06ea	-0.033698
182	0xbb904d11	-0.0044037183
183	0xbd80bc95	-0.06285969
184	0xbe0bb9da	-0.13645115
185	0xbcc981e7	-0.024598075
186	0x3d0775d1	0.033071343
187	0x3d6339a4	0.055474892
188	0xbd90a83a	-0.07063337
189	0xbe070894	-0.13186866
190	0xba0d6eb4	-0.0005395219
191	0x3d753d93	0.059873175
192	0xbd239f8a	-0.03994707
193	0x3e073450	0.1320355
194	0xbc1bc1b8	-0.009506635
195	0x3d0df9e3	0.03466214
196	0x3dde8785	0.10865692
197	0xbda875cb	-0.08225592
198	0x3d55bf9e	0.052184694
199	0xbddcdd0e	-0.1078435
200	0xbdc87987	-0.097888045
201	0x3de381b0	0.1110872
202	0x3e0b68a6	0.13614139
203	0xbd988cff	-0.07448768
204	0xbe020edc	-0.12700981
205	0xbdcc3153	-0.09970345
206	0x3e009462	0.12556604
207	0xbda21285	-0.079136886
208	0xbd95c38b	-0.073126875
209	0x3dff00bc	0.12451312
210	0x3dd96e51	0.10616744
211	0xbc17171b	-0.009221817
212	0xbd801f30	-0.062559485
213	0xbb9a711a	-0.00471319
214	0x3d86fdec	0.065914005
215	0xbd4b98f2	-0.049706407
216	0xbd5c395e	-0.053765647
217	0xbd548147	-0.0518811
218	0xbd0034b7	-0.031300273
219	0xbdeda3be	-0.11603497
220	0x3c2b3852	0.0104504395
221	0x3dfaa485	0.12238411
222	0xbdea3c2a	-0.11437257
223	0xbc0d4d38	-0.008624367
224	0xbda59297	-0.080846004
225	0x3db3058e	0.08741294
226	0x3d9dfd97	0.07714384
227	0xbdc45b42	-0.095877185
228	0x3c894f0c	0.016761325
229	0xbd1c7274	-0.03819509
230	0x3acdd12f	0.00157026
231	0xbdfe9826	-0.12431364
232	0x3c6281cb	0.01382489
233	0x3ddf38a6	0.10899477
234	0x3d29ccc6	0.041455053
235	0x3d8283fa	0.06372829
236	0x3dafa8bd	0.08577106
237	0xbc7d44ed	-0.015458328
238	0x3d1a780e	0.03771215
239	0x3c400805	0.011720662
240	0xbc584b2b	-0.013201515
241	0x3d3185c5	0.043340463
242	0xbd0a0775	-0.033698518
243	0xbda044f9	-0.078256555
244	0xbc845aed	-0.016156638
245	0xbe0601e8	-0.13086665
246	0xbd13df59	-0.036101673
247	0xbdcf3201	-0.10116959
248	0xbda3dfc5	-0.08001665
249	0x3e03360f	0.1281359
250	0xbbf81ae3	-0.0075715645
251	0xbcf4025d	-0.029786283
252	0x3d86c141	0.06579829
253	0xbd525753	-0.05135281
254	0x3df3d1ae	0.119052276
255	0xbda1c019	-0.07897968

encoder.gru.weight_hh_l0 f4 [150, 50]
0	0xbdc62413	-0.09674849
1	0x3dca105a	0.098664
2	0xbd2ab5c9	-0.04167727
3	0x3d7f4308	0.062319785
4	0x3c13797a	0.00900113
5	0xbd33b011	-0.043869082
6	0x3d027ace	0.031855397
7	0x3dd4eb69	0.103964634
8	0x3b8eb8cc	0.0043555256
9	0x3df38e98	0.11892432
10	0x3d645742	0.055747278
11	0xbdf00bfc	-0.11721036
12	0x3c1a57cd	0.009420347
13	0xbd6955ee	-0.056966715
14	0xbde125ab	-0.10993513
15	0x3d87fb81	0.066397674
16	0x3d2bbbdc	0.041927204
17	0xbd367389	-0.044543777
18	0xbd21f687	-0.039541747
19	0x3c94b4c0	0.018152595
20	0xbd8234eb	-0.063577496
21	0x3e05acc1	0.13054182
22	0x3db3e20d	0.0878335
23	0xbe0f1481	-0.13972665
24	0xbdfc3220	-0.12314248
25	0xbcd83969	-0.026394563
26	0x3dce8dd1	0.10085643
27	0xbd9df4bc	-0.07712695
28	0x3dd598e7	0.104295544
29	0x3e0edd9c	0.13951725
30	0xbcc0a769	-0.023517327
31	0x3dacf92d	0.08445964
32	0xbdad5f91	-0.084654935
33	0x3de92f58	0.11385983
34	0x3d063662	0.032766707
35	0xbd9932c6	-0.074803874
36	0xbdb9d1c4	-0.09073213
37	0xbd0f5e83	-0.035002243
38	0x3e0e4056	0.1389173
39	0x3d6c75e1	0.057729606
40	0xbd92cadb	-0.07167598
41	0x3ce74aeb	0.028233966
42	0xbe0dd7cc	-0.13851851
43	0x3e089346	0.1333743
44	0xbdb03f3d	-0.08605812
45	0xbbc03840	-0.0058660805
46	0xbcfee101	-0.03111315
47	0x3d8bd03f	0.06826829
48	0xbcc2b46a	-0.023767669
49	0xbd589b0d	-0.052882243
50	0x3e0b64b9	0.13612641
51	0x3dc8b0d4	0.09799352
52	0xbe0b6599	-0.13612975
53	0x3dff4e69	0.124661274
54	0xbd99c1f4	-0.07507697
55	0xbdeda736	-0.116041586
56	0x3cd6ec4e	0.026235726
57	0x3d8ef68e	0.0698062
58	0x3d98be6b	0.07458194
59	0xbc3da2da	-0.011574471
60	0xbb7a6e38	-0.0038212668
61	0x3d17f4ae	0.03709858
62	0xbda6f278	-0.08151716
63	0x3e011ca7	0.12608586
64	0x3d504bf7	0.050853696
65	0x3c402cc1	0.01172942
66	0xbde2d28b	-0.11075314
67	0x3dfe6734	0.12422028
68	0x3d8532b4	0.065038115
69	0xbe076861	-0.13223411
70	0xbe0ae0f9	-0.13562383
71	0xbe0bfbfc	-0.13670343
72	0xbd994b50	-0.07485068
73	0xbdbe8a80	-0.093037605
74	0x3d2cd754	0.04219754
75	0xbcfeeab6	-0.031117778
76	0xbd968766	-0.07350044
77	0x3d720e8a	0.059095897
78	0xbce2d28a	-0.027688283
79	0xbc7fc1bc	-0.015610155
80	0x3dd3e233	0.103458785
81	0x3dd05825	0.10173062
82	0x3c396a70	0.011316881
83	0xbdbb9eeb	-0.091611706
84	0x3dcba969	0.09944422
85	0xbcbcc2a6	-0.023042034
86	0xbd02f0e8	-0.031968027
87	0x3d26ae8a	0.040693797
88	0x3d3a8ab7	0.045542445
89	0xbce07614	-0.027400054
90	0xbe0c9173	-0.1372736
91	0xbdd63981	-0.10460187
92	0xbe0c9794	-0.13729697
93	0x3dda35ce	0.10654794
94	0xbd81f5bb	-0.063456975
95	0x3db2e766	0.08735542
96	0x3dd63a80	0.10460377
97	0xbe024c1d	-0.12724347
98	0x3de00074	0.109375864
99	0xbd8f570d	-0.069990255
100	0xbda47018	-0.08029193
101	0xbdd732b9	-0.105077215
102	0x3aff389a	0.0019471825
103	0xbcf7a92c	-0.030232035
104	0xbdb37317	-0.08762186
105	0x3c833c6c	0.016020022
106	0xbdaee06f	-0.08538901
107	0x3e0fa1af	0.14026521
108	0x3e03d25e	0.12873217
109	0xbd7f16b1	-0.0622775
110	0xbda324ba	-0.079659894
111	0x3d44d65a	0.048055984
112	0x3c3aaa81	0.01139319
113	0xbc93ca25	-0.018040726
114	0x3dba80d4	0.09106603
115	0x3db194fb	0.08670994
116	0xbd832876	-0.06404202
117	0xbca4f188	-0.020134702
118	0xbbebd6f4	-0.0071972553
119	0x3daa7557	0.08323162
120	0xbdcf035b	-0.10108062
121	0x3d481763	0.04885043
122	0x3d2b869a	0.041876413
123	0x3cd5e4a3	0.026109999
124	0xbe04ad05	-0.12956627
125	0x3d9429d7	0.07234543
126	0x3def20ab	0.11676153
127	0xbd13e9ab	-0.036111515
128	0x3d36612c	0.044526264
129	0xbdff38f4	-0.12462035
130	0xbdab1ef1	-0.08355511
131	0x3dce477d	0.10072229
132	0x3dd2ed19	0.10299129
133	0x3d4aaac4	0.04947926
134	0x3ddbbebe	0.107297406
135	0xbdca989a	-0.09892388
136	0xbd62cf8c	-0.055373713
137	0xbd2119e9	-0.03933135
138	0xbdfa4bb8	-0.122214735
139	0x3dcee66b	0.101025425
140	0x3dc17226	0.094456
141	0xbd064b39	-0.03278658
142	0xbd64c295	-0.05584963
143	0x3b0ac86f	0.0021176597
144	0x3d92925e	0.071568236
145	0xbdd8ee61	-0.10592342
146	0xbd251eb0	-0.04031247
147	0xbddcd2de	-0.10782407
148	0xbd04d681	-0.03243113
149	0xbcea25fc	-0.028582565
150	0xbdd49675	-0.1038026
151	0xbdc9ec19	-0.09859485
152	0xbd81ed59	-0.063440986
153	0x3d979c57	0.07402866
154	0x3d85c9fa	0.065326646
155	0x3da0e174	0.07855502
156	0xbd36d2fe	-0.04463481
157	0xbd8d9281	-0.06912709
158	0x3dfefdd4	0.124507576
159	0xbd354883	-0.044258606
160	0xbdb13244	-0.086521655
161	0x3d5d32be	0.05400347
162	0x3dc9e41f	0.09857964
163	0xbd906a12	-0.07051481
164	0x3e00d627	0.12581693
165	0x3de610a9	0.112336464
166	0xbd265480	-0.04060793
167	0xbdf69e7e	-0.12041949
168	0xbda0d1c0	-0.07852507
169	0x3cf7e3ec	0.030260049
170	0x3e0f4c20	0.13993883
171	0xbd963896	-0.07335012
172	0xbdb7f094	-0.089814335
173	0x3dbb51e0	0.09146476
174	0x3d14fb25	0.036372323
175	0xbe095e46	-0.13414869
176	0x3d9e4f10	0.07729924
177	0xbd8affe3	-0.06787088
178	0x3d8287cc	0.063735574
179	0x3e002f0d	0.12517948
180	0x3d5bb0fe	0.05363559
181	0x3e01ae48	0.1266414
182	0xbde839ea	-0.11339171
183	0xbdcdf5c2	-0.1005664
184	0x3d927e93	0.07153048
185	0xbdc2b854	-0.09507814
186	0x3d863ecf	0.065549485
187	0xbd8b9743	-0.0681596
188	0xbdb5619b	-0.088565074
189	0xbdb5ebe7	-0.088828854
190	0x3b9409cd	0.00451777
191	0x3d17befc	0.03704737
192	0x3df40956	0.11915843
193	0xbbd30514	-0.0064398143
194	0xbda1a157	-0.07892101
195	0xbe0e369d	-0.13888021
196	0xbe0e32b0	-0.13886523
197	0xbe0289e4	-0.12747914
198	0xbe0fee83	-0.14055829
199	0xbdd378ca	-0.10325773
200	0xbd91ab52	-0.07112755
201	0x3dfadec2	0.12249519
202	0xbd283085	-0.041061897
203	0xbd206891	-0.039162222
204	0x3d661603	0.056173336
205	0xbd8a2e12	-0.067470685
206	0x3dac3bb3	0.08409824
207	0xbd8f0b56	-0.06984584
208	0x3c95b3b2	0.018274162
209	0xbdb5aaec	-0.088704914
210	0x3db442b1	0.08801783
211	0xbdfcc63a	-0.12342496
212	0x3e042f39	0.12908639
213	0xbd3eead0	-0.046610653
214	0xbcb2ab6d	-0.021810258
215	0x3da2ea7c	0.079548806
216	0xbcd77a1e	-0.026303347
217	0xbe006c4d	-0.12541313
218	0x3bcda090	0.006275244
219	0xbde31682	-0.110882774
220	0xbbdf59f2	-0.0068161422
221	0xbd86666f	-0.065625064
222	0xbd4cc9cf	-0.049997147
223	0x3bc262dc	0.005932195
224	0xbd8331be	-0.06405972
225	0xbda55740	-0.08073282
226	0x3d5e5c87	0.05428746
227	0xbd9ec979	-0.077532716
228	0x3df03fec	0.11730942
229	0xbd60fc0c	-0.05492787
230	0x3d9b8527	0.07593756
231	0xbd93579b	-0.07194444
232	0x3d9eff88	0.077635825
233	0xbd546c17	-0.051860895
234	0xbd84d04f	-0.06485044
235	0xbcadefb7	-0.021232469
236	0x3d8c67a9	0.06855709
237	0x3df48184	0.11938766
238	0x3d3f6106	0.046723388
239	0x3dbbb44b	0.091652475
240	0x3db677af	0.089095466
241	0x3df644b7	0.12024825
242	0x3de43dcf	0.111446016
243	0xbda5b9e6	-0.08092098
244	0xbc35f0f4	-0.011104811
245	0x3ba75619	0.005106699
246	0x3d84f1ab	0.06491407
247	0xbcbe2d71	-0.023215028
248	0xbd8c66ee	-0.0685557
249	0x3e02be92	0.1276801
250	0x3d9acb7a	0.07558341
251	0x3dc74e34	0.09731713
252	0xbe0ba93c	-0.13638777
253	0x3b8f4a77	0.0043728906
254	0x3c5902eb	0.013245325
255	0x3dcab0ce	0.09897004

encoder.gru.bias_ih_l0 f4 [150]
0	0xbb99e994	-0.004697034
1	0xbd9f7a39	-0.07786984
2	0x3dfac17a	0.12243934
3	0x3dc7bbb2	0.09752597
4	0x3df6e556	0.12055461
5	0x3e0a86fe	0.13528058
6	0x3db8fb7e	0.09032343
7	0x3db62621	0.08893991
8	0x3e07d699	0.13265456
9	0x3dac474a	0.08412035
10	0xbda5bfc1	-0.08093215
11	0xbd65dc73	-0.05611844
12	0x3d4de339	0.050265525
13	0xbd84c084	-0.06482032
14	0x3d916364	0.070990354
15	0x3c246345	0.010033433
16	0xbd5b6216	-0.05356034
17	0xbd0a6b16	-0.03379353
18	0xbdcda901	-0.100420006
19	0x3d5b733d	0.053576697
20	0x3d36b2d8	0.044604152
21	0x3dab9ccf	0.08379518
22	0x3cc4bf17	0.0240169
23	0x3c61c8a8	0.01378075
24	0x3e10c0ef	0.14136098
25	0xbb99a0c5	-0.0046883547
26	0xbd158906	-0.03650763
27	0xbdc3ca49	-0.09560067
28	0xbb2d34c8	-0.0026429165
29	0x3d4708ea	0.048592485
30	0xbcb243fb	-0.021760931
31	0xbdfcfff2	-0.12353505
32	0x3e0f3a31	0.13987042
33	0xbdfa64e5	-0.12226275
34	0x3d0ec642	0.034857042
35	0x3dec4090	0.11535752
36	0xbda782ce	-0.08179246
37	0xbd256837	-0.04038259
38	0x3c9af5e3	0.018916076
39	0x3dcd34d1	0.100198396
40	0xbcc88acb	-0.024480244
41	0x3cfbcfbd	0.030738706
42	0xbe08fced	-0.13377734
43	0x3d31b0cf	0.04338151
44	0xbe0c8e1a	-0.13726082
45	0xbd918b68	-0.07106668
46	0x3c5b51e4	0.013386223
47	0x3de125e4	0.10993555
48	0x3d88fbef	0.066886775
49	0x3df684fb	0.12037083
50	0x3e013299	0.12616958
51	0xbcafcda2	-0.021460358
52	0xbd58748c	-0.052845523
53	0xbdfd5fa5	-0.12371758
54	0xbd4cfccf	-0.050045785
55	0xbd9329e7	-0.071857266
56	0x3d700306	0.058596633
57	0x3e0035a2	0.1252046
58	0x3d06f2e1	0.03294647
59	0xbdcd9286	-0.10037713
60	0x3cd5b6d7	0.026088161
61	0xbe028262	-0.1274505
62	0x3d6cc9db	0.057809692
63	0xbb99d08b	-0.0046940497
64	0x3cf23712	0.029567275
65	0x3c3bfb92	0.011473553
66	0xbd370cdd	-0.04469
67	0x3d42b8d4	0.047539547
68	0xbe165e66	-0.14684448
69	0x3e0678cb	0.13132016
70	0xbc2a3207	-0.010387904
71	0xbe0e17a4	-0.13876206
72	0xbdafbbf1	-0.08580769
73	0xbd5be509	-0.05368522
74	0xbb08de4b	-0.002088445
75	0x3d618346	0.055056833
76	0x3defff6a	0.11718638
77	0xbbbaf53f	-0.005705505
78	0xbd9049de	-0.07045339
79	0xbd2efcf1	-0.042721692
80	0xbde72040	-0.11285448
81	0xbd9668a3	-0.073441766
82	0x3cd0becc	0.025481604
83	0xbd645514	-0.0557452
84	0xbd10f56c	-0.035390303
85	0x3dc50716	0.09620492
86	0xbc5deeab	-0.013545672
87	0xbd7b1012	-0.061294623
88	0x3cf04cec	0.029333554
89	0xbd0962c5	-0.03354146
90	0x3db5205a	0.08844061
91	0x3e038042	0.12841895
92	0x3d4256cd	0.04744606
93	0xbd695b66	-0.05697193
94	0x3d7a23ee	0.06106942
95	0x3d4f9c55	0.0506862
96	0x3db02496	0.08600728
97	0x3db7ae9d	0.08968852
98	0x3dcc418f	0.09973442
99	0xbdbfe8d8	-0.09370583
100	0xbe067238	-0.13129508
101	0xbe29f043	-0.16595559
102	0x3cced257	0.025246782
103	0xbd68ed3d	-0.056866873
104	0xbdc46d10	-0.095911145
105	0xbd2e493c	-0.04255031
106	0x3df9277d	0.12165735
107	0xbd96524b	-0.07339915
108	0x3df46be6	0.119346425
109	0xbe27ad74	-0.16374761
110	0xbad64042	-0.0016346055
111	0xbd843fa2	-0.064574495
112	0x3d09f956	0.03368505
113	0x3d06280c	0.032753035
114	0xbe0adfb3	-0.13561897
115	0xbe0470de	-0.1293368
116	0xbd82756b	-0.06370052
117	0x3dfbc43b	0.12293287
118	0xbd03e222	-0.03219808
119	0xbd727d89	-0.05920175
120	0x3cc844ba	0.024446834
121	0xbd098dad	-0.03358238
122	0x3d9d6921	0.076860674
123	0x3d2e6785	0.042579193
124	0xbc44c2e3	-0.012009355
125	0xbcf63a37	-0.030057056
126	0x3d860e28	0.06545669
127	0x3e0bf0b0	0.13666034
128	0x3e1b45d8	0.15163362
129	0x3d516eab	0.05113093
130	0x3e21652f	0.15761255
131	0xbda47559	-0.08030195
132	0xbe104c8b	-0.14091699
133	0xbd93d64d	-0.07218609
134	0xbda55281	-0.08072377
135	0x3d981f31	0.07427824
136	0xbe1a187d	-0.15048404
137	0x3e0fe87c	0.1405353
138	0x3df97c31	0.12181891
139	0xbe4f104d	-0.20221062
140	0x3d852f8c	0.065032095
141	0x3dd2bf66	0.102904126
142	0xbd3b73cb	-0.045764726
143	0xbd27a3d5	-0.040927727
144	0xbd9bb2da	-0.076024726
145	0xbe19b499	-0.15010299
146	0xbdfa6a5d	-0.122273184
147	0xbdd1a5a6	-0.10236673
148	0xbe1e0d7d	-0.15434833
149	0xbd88d636	-0.066814825

encoder.gru.bias_hh_l0 f4 [150]
0	0x3dbc772d	0.092024185
1	0x3dd4a44b	0.10382899
2	0xbddac66c	-0.10682377
3	0xbcfb8ca9	-0.03070672
4	0x3d1449d3	0.036203217
5	0x3e0ef7de	0.13961741
6	0xbc8d66e9	-0.017260985
7	0xbd9f66a1	-0.07783247
8	0xbd9114dc	-0.07084057
9	0x3dea4ae4	0.114400655
10	0x3d50d7cd	0.050987054
11	0x3e09bf06	0.13451776
12	0xbd35d349	-0.04439095
13	0xbddbf8b0	-0.10740793
14	0x3d6839a6	0.056695603
15	0xbca1018c	-0.019654058
16	0x3d3b17ca	0.045676984
17	0xbde9a10a	-0.11407669
18	0xbce95d03	-0.028486734
19	0xbd38a1fb	-0.04507635
20	0xbd232be2	-0.03983677
21	0xbdbd650d	-0.092477895
22	0xbcf83455	-0.030298391
23	0x3d69524f	0.05696326
24	0x3d3f02b8	0.046633452
25	0xbe0730e7	-0.13202249
26	0x3c6d74c5	0.014493172
27	0x3df9bfbd	0.12194774
28	0x3dd23c32	0.102653876
29	0xbda946d6	-0.08265464
30	0xbddd0a7f	-0.107930176
31	0x3e0e124a	0.13874164
32	0xbdd9efd2	-0.10641445
33	0x3de4530f	0.11148655
34	0x3cf1e52e	0.029528227
35	0x3e039383	0.1284924
36	0x3e0d3951	0.13791396
37	0x3ce39f95	0.027786056
38	0x3dfbd27c	0.12296006
39	0xbe073462	-0.13203576
40	0xbc7bbd8d	-0.015365017
41	0xbd3419da	-0.043969966
42	0x3d6c97bb	0.05776189
43	0xbe0e70fb	-0.13910286
44	0xbc8c5d1e	-0.017134245
45	0xbd90cce3	-0.07070329
46	0x3dd8b0a4	0.105805665
47	0xbda62cf4	-0.08114043
48	0xbd6e222c	-0.058138058
49	0xbb9a400b	-0.0047073415
50	0x3dd5e2f6	0.1044368
51	0x3e0ae148	0.135625
52	0x3d78e1cc	0.06076221
53	0xbca2cdd0	-0.01987353
54	0xbda9398a	-0.08262928
55	0x3c51b481	0.012799383
56	0x3c633c11	0.013869301
57	0xbc857b21	-0.016294064
58	0x3da41b17	0.080129795
59	0xbda8baf5	-0.08238784
60	0x3dd36138	0.103212774
61	0x3b0b89f8	0.0021291953
62	0x3d7c4a1f	0.061594125
63	0x3dfd9e7a	0.12383743
64	0xbdf9f4bc	-0.122048825
65	0x3da98dea	0.08279021
66	0x3de4fb4d	0.11180744
67	0xbdec545c	-0.11539528
68	0x3dd46bef	0.10372149
69	0x3d5b151f	0.05348694
70	0xbce6cd94	-0.0281742
71	0x3ab0d60e	0.0013491528
72	0x3d313569	0.043263827
73	0x3e015832	0.126313
74	0x3d679be2	0.056545146
75	0xbdc9d470	-0.09854972
76	0x3d04f986	0.032464527
77	0xbc332356	-0.010933718
78	0x3bcf0872	0.0063181454
79	0xbd6d4653	-0.057928395
80	0xbe066c4e	-0.13127252
81	0xbddf6ea3	-0.10909774
82	0x3ad7efd2	0.001647467
83	0x3b836afb	0.004010556
84	0xbd890c2c	-0.06691775
85	0xbd773e1c	-0.060361966
86	0xbdf8a4c6	-0.12140803
87	0xbdb3e134	-0.087831885
88	0xbd7481df	-0.059694167
89	0xbd9ca702	-0.07649042
90	0xbde93ef5	-0.11388961
91	0xbdce0d33	-0.10061111
92	0xbd4d7cad	-0.05016773
93	0x3d853c50	0.06505644
94	0xbd06d299	-0.032915685
95	0xbd89fc2d	-0.06737552
96	0x3d3624c1	0.044468645
97	0xbd832835	-0.06404153
98	0x3de663e3	0.11249521
99	0x3d4db38c	0.050220057
100	0x3d09c56b	0.033635538
101	0x3dd1cb2c	0.1024383
102	0xbc8506c4	-0.016238578
103	0xbdab8bf5	-0.08376304
104	0x3ddd7622	0.10813548
105	0xbdd30a36	-0.10304682
106	0xbd036c25	-0.032085557
107	0x3d80e49d	0.062936045
108	0xbd31ae0e	-0.043378882
109	0xbcdce8af	-0.026966421
110	0x3dc5f6e0	0.09666228
111	0x3d81c32e	0.06336056
112	0x3c8148d7	0.015781803
113	0x3dd31819	0.10307331
114	0x3d9fd559	0.07804365
115	0xbd8cf5cb	-0.06882819
116	0xbe1caca6	-0.15300235
117	0xbd83df48	-0.06439072
118	0x3e0fa4e6	0.14027748
119	0x3c656e9f	0.014003425
120	0x3e2cea68	0.16886294
121	0x3d8441bd	0.06457851
122	0x3c45562f	0.012044474
123	0x3e03e808	0.12881482
124	0x3a9981c9	0.0011711653
125	0x3ded7e9f	0.11596417
126	0x3cd28716	0.02569918
127	0x3ac69bc8	0.0015152628
128	0x3e16f934	0.14743501
129	0x3d99fa6e	0.07518469
130	0x3d4c1ad2	0.049830265
131	0xbdb81d2c	-0.08989939
132	0xbdb221c5	-0.08697847
133	0xbe26020a	-0.16211715
134	0xbda79692	-0.08183016
135	0x3d9bcea6	0.076077744
136	0xbde5037f	-0.111823075
137	0x3d0b9964	0.03408183
138	0x3d37099c	0.0446869
139	0x3dd9cd14	0.10634819
140	0xbd64559a	-0.0557457
141	0xbd1f42db	-0.038882118
142	0x3dc45ec9	0.09588391
143	0xbcde90bd	-0.027168626
144	0xbd65423e	-0.055971377
145	0xbddfd7c5	-0.10929827
146	0x3e0c28b5	0.13687404
147	0xbbcbf4cb	-0.00622425
148	0xbd916c73	-0.07100763
149	0xbd2a242b	-0.0415384

decoder.embedding.weight f4 [189, 50]
0	0xbd234928	-0.03986469
1	0xbe77b7df	-0.24191235
2	0xc016de1a	-2.357306
3	0xbf40368d	-0.7508324
4	0x3eb2c58d	0.34916344
5	0x3fa11f8b	1.2587751
6	0x3fb43b05	1.4080511
7	0xc021347a	-2.518828
8	0x3e39e648	0.18154252
9	0xbf4e5167	-0.8059296
10	0x3e8fc62f	0.2808089
11	0x3fc4ebe1	1.5384485
12	0xbf20f8b6	-0.628795
13	0x3f146024	0.579592
14	0xbf0839cc	-0.5321319
15	0xbea48a8f	-0.32136962
16	0x3ec6b270	0.38808012
17	0x3f54030d	0.82817155
18	0xbf465bcd	-0.77483827
19	0xbeaaf025	-0.3338634
20	0xbd9aeb2f	-0.07564389
21	0x3e883be8	0.26608205
22	0x3fd008c0	1.625267
23	0x3fc6bb05	1.5525824
24	0xc00d2d1d	-2.2058785
25	0x3de5bf4b	0.11218127
26	0xc0144d10	-2.3172035
27	0x3f206266	0.62650144
28	0xbf16296a	-0.5865694
29	0xbfb01475	-1.3756243
30	0xbfb48370	-1.4102612
31	0xbfad635d	-1.3545948
32	0xbeb1bee6	-0.34715956
33	0x3fb56d12	1.4173911
34	0x3db6d2d9	0.08926935
35	0xbe59bc13	-0.21263151
36	0x3ec3c41a	0.3823555
37	0xbfdebaf5	-1.7400805
38	0xbe466580	-0.19374657
39	0x3f640d01	0.8908234
40	0xbe57ca92	-0.21073368
41	0x3f1d31c3	0.61404055
42	0xbe9daf74	-0.30797923
43	0x3f339bce	0.70159614
44	0xbf012a95	-0.504556
45	0xbfdc9ceb	-1.7235388
46	0xbf7bfdb2	-0.98433983
47	0x3e3ac250	0.18238187
48	0xbfbf8dc3	-1.4965137
49	0x3eb8cb90	0.36092806
50	0x3e5ce73a	0.21572581
51	0xbf7f71d3	-0.99783057
52	0x3f879428	1.0592089
53	0x3fe80d29	1.8129016
54	0x3fef8e54	1.871531
55	0x3fb473fe	1.4097898
56	0x3ed9b010	0.42517138
57	0xbec4a038	-0.38403487
58	0xbfc87373	-1.5660232
59	0xbfee59d9	-1.8621169
60	0x3f893d92	1.0721915
61	0xbf3b2a78	-0.7311168
62	0x3fab4118	1.337924
63	0x3fae3c1d	1.3612095
64	0xbfb7e7eb	-1.4367651
65	0xbfd2df5f	-1.6474417
66	0xbf91d86c	-1.1394172
67	0x3f149c44	0.5805094
68	0x3ec8ea44	0.3924123
69	0xbf289357	-0.6584982
70	0x3f93bb51	1.154154
71	0x3f40f6f9	0.7537685
72	0xbe8d0d96	-0.27549428
73	0x3ed28b72	0.41122013
74	0x3d6abd81	0.05730963
75	0xbf2ef2bc	-0.68339133
76	0x3ecdb1c6	0.40174693
77	0xbfd26491	-1.643694
78	0xbf756c85	-0.9586871
79	0xbf933fd9	-1.150386
80	0x40280dc7	2.625841
81	0xbd90a1a2	-0.07062079
82	0x3fcf2b07	1.6185006
83	0x3fda15d8	1.7037916
84	0x3f41b4d9	0.75666577
85	0x3f279f81	0.6547776
86	0xbfd139d2	-1.634577
87	0xc007cd09	-2.1218894
88	0x3e291c6c	0.16514748
89	0xbee44cfd	-0.44589987
90	0x3f065e43	0.5248758
91	0x3fda83fa	1.7071526
92	0x3ed94aa1	0.4243975
93	0x3f42f6a3	0.7615759
94	0x3fce18ff	1.6101378
95	0x3eed38f8	0.46332526
96	0x3f929874	1.1452775
97	0x403ebbc9	2.9802115
98	0xbe7e06a7	-0.24807225
99	0x3f47cf5e	0.7805079
100	0xbf337754	-0.70103955
101	0xbfec0094	-1.8437676
102	0x3ee26626	0.44218558
103	0xbf57758f	-0.84163755
104	0x3dd0e565	0.102000035
105	0x3f812fe3	1.0092739
106	0xbc111977	-0.008856169
107	0x3f832551	1.0245763
108	0xbe16c75a	-0.14724484
109	0x3f0d6e46	0.5524639
110	0x3f245e58	0.6420646
111	0xbfa1b2b9	-1.2632667
112	0xbe83b1a6	-0.25721473
113	0xbebd8bda	-0.3702076
114	0x3f532344	0.82475686
115	0x3fe024da	1.7511246
116	0xbfb24dca	-1.3929989
117	0xbf431f95	-0.76220065
118	0xbeefc331	-0.46828607
119	0x3d13a7ff	0.036048885
120	0xbfbe14bd	-1.4850079
121	0xbe5911fa	-0.21198264
122	0x3eb6d7eb	0.35711607
123	0x3fe3590a	1.7761548
124	0x3f854fe9	1.0415012
125	0x3eb68b66	0.35653228
126	0x3ec9154c	0.3927406
127	0x3fcdb454	1.6070657
128	0xbdc26258	-0.09491414
129	0xc022eee3	-2.5458305
130	0xbf8c13dd	-1.0943562
131	0x3f0320df	0.5122203
132	0x3e9a5df4	0.30149806
133	0x3f1fbdaa	0.6239878
134	0xbf9e1881	-1.2351228
135	0x3dab74c6	0.08371882
136	0x3f13c0ba	0.5771595
137	0xbf6b5ece	-0.91941535
138	0x3fa79ab2	1.3094084
139	0xbfbbfaa6	-1.4685867
140	0x3e0bf1b2	0.13666418
141	0xbf81efb0	-1.0151272
142	0x3f78eacc	0.9723327
143	0x3f4dea67	0.80435795
144	0xbf2f636e	-0.6851109
145	0x3f0db3a5	0.5535224
146	0xbfab6484	-1.339005
147	0x3f8aa89c	1.0832705
148	0x3ec2c0ee	0.3803782
149	0xbfb70ceb	-1.4300817
150	0x3eb8d3cf	0.36099097
151	0x3f882ee7	1.0639313
152	0x3e981550	0.2970376
153	0x3e1a6f97	0.1508163
154	0xc015935a	-2.3371186
155	0x3e6d8f36	0.23199162
156	0x3fdd72b9	1.7300636
157	0xbe82341c	-0.2543038
158	0x3fd0d75d	1.6315724
159	0xbfba102f	-1.4536189
160	0xbf8b6ddf	-1.0892905
161	0xbfd6eacb	-1.6790403
162	0x3f2acc4d	0.6671799
163	0xbf509ba5	-0.81487495
164	0xbd74d1e4	-0.05977048
165	0x3fddc888	1.7326822
166	0x40079411	2.1184123
167	0xbf187344	-0.5955088
168	0xbf6a09cb	-0.9142119
169	0x3f80afd6	1.0053661
170	0x3e57e892	0.21084812
171	0xbdcd232d	-0.10016475
172	0x3eb6e7d9	0.3572376
173	0x3f8c48b5	1.0959688
174	0x3f6a1264	0.9143431
175	0x3f8fa957	1.1223553
176	0xbfbf50c7	-1.4946526
177	0xc00447ea	-2.0668893
178	0x3eb315c3	0.3497754
179	0xbe9a7125	-0.30164447
180	0xbeac6297	-0.33668968
181	0x3e548150	0.20752454
182	0xbeb4801a	-0.35253984
183	0x3fcbace8	1.5912142
184	0xbf3be1a9	-0.73391205
185	0x3f2a03a8	0.6641183
186	0x3ea96f46	0.33092707
187	0xbce7ef54	-0.028312363
188	0xbf0321f0	-0.5122366
189	0x3f40b452	0.75275147
190	0xbeeb1903	-0.4591752
191	0x3ebb29b4	0.36555254
192	0x3ee76a91	0.4519849
193	0x3f61c544	0.8819163
194	0x3e87d45c	0.26529205
195	0xbe8d5d2d	-0.2761015
196	0xbf927c0b	-1.1444105
197	0xbe5dea51	-0.21671416
198	0xbfc977ad	-1.5739647
199	0xbf8bde9e	-1.0927312
200	0x3fd8e82a	1.6945851
201	0x3ed59202	0.41712958
202	0xc039969a	-2.899817
203	0xbf75c5e4	-0.9600508
204	0x3f5f0c85	0.8712848
205	0x3e0a55c2	0.13509277
206	0xbe1bc578	-0.15212047
207	0xbf5ddded	-0.86666757
208	0xbf6cac56	-0.92450464
209	0x3fa4549f	1.2838324
210	0x3fb2710a	1.3940747
211	0x3b31b5c4	0.0027116397
212	0x3e9d6edb	0.3074864
213	0x3f440db0	0.76583385
214	0x3e9336fc	0.28752887
215	0x3e8d1b09	0.2755969
216	0xbeb22780	-0.3479576
217	0xbe2c4f5c	-0.16827148
218	0xbe722f8d	-0.23650952
219	0xbfb8d158	-1.4438887
220	0xbfbcedd2	-1.4760077
221	0xbeb924b4	-0.36160815
222	0x3f282e24	0.65695405
223	0xbf56c239	-0.8389011
224	0x3e6b4aed	0.229778
225	0xbfc05edd	-1.502895
226	0xbea81a82	-0.32832724
227	0xbf856b4a	-1.0423367
228	0x3f2024c9	0.6255613
229	0x3f738633	0.95126647
230	0xbff66d0a	-1.9252026
231	0xbf576b73	-0.8414833
232	0x3ed3d871	0.4137607
233	0xbfa60b85	-1.2972265
234	0x3e31674a	0.17324558
235	0xbf80df2f	-1.006811
236	0xbf76aa53	-0.96353644
237	0xbde86c0a	-0.11348732
238	0x3fb0e44c	1.3819671
239	0xbf96ce94	-1.1781793
240	0xbd48ce4e	-0.049024872
241	0xbe501167	-0.20319138
242	0x3fabb9e9	1.341611
243	0x3eb757f0	0.35809278
244	0xbf9213ca	-1.1412289
245	0xbd1bcac4	-0.03803517
246	0x3e87531f	0.26430604
247	0xbf18d10c	-0.5969398
248	0x3fcf665d	1.6203114
249	0xbf377906	-0.7166904
250	0x3f6c731e	0.92363155
251	0x3f11db51	0.56975275
252	0xbf694b5b	-0.9113061
253	0xbf3389eb	-0.7013232
254	0x3fd1baef	1.6385173
255	0x3f05a973	0.52211684

decoder.attn.weight f4 [15, 100]
0	0x3dcc35ac	0.099711746
1	0xbd8dfd2d	-0.06933055
2	0x3d3359ae	0.043786697
3	0x39a69d40	0.00031779148
4	0x3d385bc3	0.045009386
5	0x3d1041b3	0.035218906
6	0xbd6d8651	-0.057989422
7	0xbda852bb	-0.082189046
8	0xbd0be8e3	-0.034157645
9	0x3d20ba7a	0.039240338
10	0xbce55fce	-0.027999785
11	0xbd92fde6	-0.071773335
12	0x3d40072e	0.046881847
13	0x3daebbb5	0.08531896
14	0x3d9f4f60	0.077788115
15	0x3d804ae8	0.06264287
16	0xbd94ddad	-0.07268844
17	0xbd9defa5	-0.07711724
18	0xbda87756	-0.082258865
19	0xbce25bfc	-0.027631752
20	0xbd0b5b37	-0.034022536
21	0x3d48ec61	0.049053553
22	0x3db48974	0.088152796
23	0xbc8f75a5	-0.017512152
24	0xbd895a7f	-0.06706714
25	0xbdab1a5d	-0.08354638
26	0x3d902b78	0.07039541
27	0x3d747074	0.059677556
28	0x3cd4742b	0.0259343
29	0x3bf1e9f3	0.0073826252
30	0xbd311f8a	-0.04324297
31	0x3cda8c3f	0.026678203
32	0xbcf7ee6d	-0.030265057
33	0x3d1b86c9	0.037970338
34	0x3d20a95a	0.039224006
35	0xbd1641f0	-0.036683977
36	0x3da13b69	0.0787266
37	0xbd86a10e	-0.065736875
38	0xbd0343e6	-0.032047175
39	0x3d05f675	0.032705743
40	0xbd851dc5	-0.06499819
41	0xbd05b0bf	-0.03263926
42	0xbb93103e	-0.00448802
43	0xbcca5722	-0.024699751
44	0x3cca5788	0.024699941
45	0x3dacc002	0.0843506
46	0x3d88d7ff	0.06681823
47	0x3d700a71	0.058603708
48	0xbb188fef	-0.002327915
49	0xbdafbfbd	-0.08581493
50	0xbd8e5920	-0.06950593
51	0x3d97c526	0.0741065
52	0x371169bc	8.667292e-06
53	0xbc05b662	-0.008161159
54	0xbb4ff389	-0.0031730852
55	0xbda61d67	-0.08111077
56	0x3bf5f90d	0.007506496
57	0xbcad1259	-0.021126913
58	0xbc8e23f5	-0.01735113
59	0x3dca2a10	0.09871304
60	0xbc4f10f2	-0.012638317
61	0xbc797f36	-0.015228083
62	0x3c05c375	0.008164276
63	0x3d348a0f	0.044076975
64	0xbcad7519	-0.021174
65	0x3d95fd7d	0.0732374
66	0xbc0b6527	-0.008508003
67	0xbd446377	-0.04794642
68	0xbd803060	-0.06259227
69	0x3ba14689	0.0049217385
70	0xbdaaa739	-0.083326764
71	0x3d282574	0.041051343
72	0xbd244ac1	-0.040110353
73	0x3d966e78	0.07345289
74	0xbc371a1a	-0.011175657
75	0xbcc29c1c	-0.02375608
76	0xbdc6dfd5	-0.09710661
77	0xbccce138	-0.025009736
78	0x3d985a89	0.07439143
79	0x3caef8a9	0.021358805
80	0x3dadf4da	0.08493967
81	0xbcb43d4c	-0.022001885
82	0xbd111f7f	-0.035430428
83	0x3d06ff41	0.032958273
84	0xbc445ede	-0.011985509
85	0x3d87c719	0.06629772
86	0x3b00d82c	0.0019660098
87	0xbd60862b	-0.054815453
88	0xbdc52dff	-0.09627914
89	0x3d49643c	0.049167857
90	0xbd6d2fe4	-0.057907
91	0xbccf4e78	-0.025305972
92	0x3d8e90eb	0.06961235
93	0x3d9cd53a	0.07657857
94	0xbd1fde60	-0.039030433
95	0x3daa3014	0.083099514
96	0xbdaec840	-0.085342884
97	0x3dbc0dfd	0.091823556
98	0x3db24585	0.08704666
99	0x39809c33	0.0002453044
100	0xbd0e69bb	-0.0347688
101	0x3c85824b	0.01629748
102	0x3dbd0be4	0.092307836
103	0x3ceb1f8e	0.02870157
104	0xbc2c2e03	-0.010509017
105	0x3ccc782f	0.024959652
106	0xbbabbfda	-0.0052413763
107	0x3da1cc8d	0.07900343
108	0xbda7ccd2	-0.08193363
109	0x3dadb684	0.08482078
110	0x3ceff330	0.029290766
111	0x3db1fe49	0.08691079
112	0x3d1c4ec1	0.038161043
113	0xbd3b0b91	-0.045665327
114	0xbd62e888	-0.05539754
115	0xbda5d71e	-0.08097671
116	0x3d66efc5	0.056381006
117	0xbcc6e208	-0.024277702
118	0xbd809677	-0.06278699
119	0xbdbe2d11	-0.092859395
120	0xbcffb7b7	-0.031215532
121	0x3da69f80	0.08135891
122	0x3db0bdcf	0.08629953
123	0xbdb2aa37	-0.08723872
124	0xbd07fa2a	-0.03319756
125	0x3c9f24a4	0.019426651
126	0xbd3b5420	-0.045734525
127	0xbd8c8427	-0.068611436
128	0xbdadb69f	-0.08482098
129	0x3c8a6a38	0.016896352
130	0xbda107e3	-0.078628324
131	0xbcb48c1e	-0.02203947
132	0x3da98d42	0.08278896
133	0x3db073fa	0.08615871
134	0x3d4cfdaa	0.0500466
135	0x3dcbd754	0.0995318
136	0xbdad4f4f	-0.084623925
137	0x3d3c70be	0.046005957
138	0xbda5ce1a	-0.080959514
139	0xbdb5bbba	-0.088736966
140	0x3d8ea814	0.06965652
141	0xbcdd2627	-0.026995732
142	0x3d4e3d01	0.050351147
143	0x3c4876cc	0.012235355
144	0xbdc306b5	-0.09522764
145	0x3daa9b1e	0.083303675
146	0x3d844003	0.06457522
147	0xbd8a1d8d	-0.067439176
148	0xbcc3ec05	-0.023916254
149	0x3d6ea360	0.058261275
150	0x3c6c7d3b	0.014434154
151	0xbdac2d60	-0.08407092
152	0x3d379f04	0.044829383
153	0xbd379fa1	-0.04482997
154	0xbd4a1c1d	-0.049343217
155	0xbd8f1372	-0.06986131
156	0xbcbe2b31	-0.023213955
157	0x3dc44c14	0.09584823
158	0xbd922c18	-0.071373165
159	0x3d3b8714	0.045783117
160	0x3d4cef92	0.05003316
161	0x3dba0032	0.090820685
162	0x3dc2b72f	0.09507596
163	0xbd879c2b	-0.066215836
164	0x3c526a13	0.012842673
165	0xbd3cc55c	-0.046086654
166	0x3d0b83f8	0.034061402
167	0xbd51d55a	-0.05122886
168	0xbdc415d4	-0.09574476
169	0x3c212b0d	0.009836924
170	0x3dc6509e	0.09683345
171	0x3db35544	0.087564975
172	0xbceeb3f9	-0.029138552
173	0x3d90e218	0.07074374
174	0x3cd74661	0.026278676
175	0xbdb29efa	-0.087217286
176	0x3d8b45fa	0.06800456
177	0x3d383128	0.044968754
178	0x3dcb12bd	0.099156834
179	0x3a0887c5	0.00052082195
180	0x3c415a18	0.011801265
181	0x3c1bdfff	0.009513854
182	0x3dbcb967	0.0921505
183	0xbd46e486	-0.04855778
184	0xbca4e457	-0.020128412
185	0xbd8c0ffe	-0.06838988
186	0x3dc03b18	0.09386271
187	0xbc1cbf51	-0.009567098
188	0xbcf4555c	-0.029825859
189	0x3d89e676	0.0673341
190	0x3d6e4b03	0.058177005
191	0x3d4a2116	0.04934796
192	0x3c8951c9	0.016762631
193	0xbd26f3c9	-0.040759835
194	0xbca059cf	-0.019574074
195	0x3c6e5969	0.014547684
196	0xbdbf2290	-0.09332764
197	0xbd2b7fce	-0.04186993
198	0x3ccc077e	0.024905916
199	0xbdbc82fb	-0.0920467
200	0x3d334ba6	0.043773316
201	0x3dc17b97	0.09447401
202	0xbd54c284	-0.051943317
203	0xbda9ac1d	-0.08284781
204	0xbd311933	-0.043236922
205	0x3bb1c5d9	0.0054251966
206	0x3dbbd469	0.091713734
207	0x3db3c17b	0.08777138
208	0xbc94af5a	-0.01815002
209	0xbd2413fe	-0.04005813
210	0xbdc0b216	-0.09408967
211	0x3ce021fd	0.027359957
212	0x3d880b51	0.066427834
213	0x3d7c0ee8	0.061537653
214	0xbda86c1b	-0.082237445
215	0x3d821c0c	0.06353006
216	0x3d71d7ed	0.059043813
217	0x3db1d689	0.086834975
218	0xbd04a6e5	-0.032385726
219	0xbdc981e7	-0.0983923
220	0xbd69187c	-0.056908116
221	0xbdc4a036	-0.0960087
222	0x3c7e918e	0.015537633
223	0x3d95d552	0.07316078
224	0x3d0afb35	0.033930976
225	0xbda2d0bc	-0.07949969
226	0x3d985077	0.074372225
227	0x3d2440de	0.040100925
228	0x3d290271	0.041262094
229	0x3bf1409f	0.0073624398
230	0xbd46bc83	-0.048519623
231	0x3d2bf888	0.041985065
232	0xbd8906b4	-0.06690732
233	0x3cc9a35c	0.024614029
234	0x3dbfbf4c	0.09362659
235	0xbc215d63	-0.009848925
236	0xbc89dc8c	-0.016828798
237	0x3cf69a7e	0.030102964
238	0xbda8ab7a	-0.082358316
239	0xbd50b281	-0.050951485
240	0xbd91c1fd	-0.071170785
241	0xbd8bb9d8	-0.06822556
242	0xbd3e56e5	-0.046469588
243	0x3da8a16a	0.08233912
244	0x3cac9279	0.021065937
245	0x3c9a9798	0.018871114
246	0xbdbbd6fd	-0.09171865
247	0xbd4ef7b7	-0.050529208
248	0x3c8213f6	0.015878659
249	0x3da971ee	0.082736835
250	0x3cb0d1ec	0.021584474
251	0xbd91b563	-0.07114675
252	0x3d8b87b1	0.068129905
253	0xbd7df3a7	-0.061999943
254	0x3c347147	0.011013336
255	0xbda5b263	-0.08090665

decoder.attn.bias f4 [15]
0	0x3c256520	0.010094911
1	0xbd23be48	-0.03997639
2	0x3da1687b	0.07881256
3	0xbd468a63	-0.04847182
4	0xbd44a5e8	-0.048009783
5	0x3d9457a9	0.07243282
6	0x394256c4	0.00018533604
7	0xbd891c5d	-0.06694863
8	0xbd9f2d09	-0.07772262
9	0xbdc8a862	-0.097977415
10	0x3d8c331d	0.068456866
11	0xbcc0dda9	-0.023543196
12	0xbd62e32d	-0.055392433
13	0xbdbf098e	-0.09327994
14	0x3bcaa507	0.0061842236

decoder.attn_combine.weight f4 [50, 100]
0	0x3d3f4455	0.046696026
1	0x3db3f822	0.08787562
2	0x3cef6f34	0.02922783
3	0x3dbab69c	0.09116861
4	0xbd68a545	-0.05679824
5	0xbcb1661c	-0.021655135
6	0x3d9a95da	0.07548113
7	0x3d9522d9	0.07282037
8	0xbca76b5f	-0.02043694
9	0x3d61fc9d	0.05517255
10	0xbd0bab8c	-0.034099147
11	0xbd6403eb	-0.0556678
12	0xbd80ff77	-0.06298726
13	0x3d6f5a8b	0.058435958
14	0xbd9d9e84	-0.0769625
15	0x3da49f48	0.08038193
16	0x3d4fbacd	0.050715256
17	0x3d75081a	0.05982218
18	0x3da97d73	0.08275881
19	0x3cd039a9	0.02541812
20	0xbc87b5e7	-0.01656623
21	0xbc81024f	-0.015748171
22	0xba374483	-0.0006991105
23	0x3d8984a5	0.06714753
24	0x3d5c824e	0.053835206
25	0x3b3f8a7b	0.0029226828
26	0x3d94468d	0.07240019
27	0xbc2229b4	-0.009897638
28	0xbc4b9be9	-0.012427309
29	0x3d9d98de	0.07695173
30	0xbc977036	-0.018486124
31	0x3cffecc0	0.03124082
32	0xbdbc8ffc	-0.0920715
33	0xbc47dd8d	-0.012198818
34	0xbd89d736	-0.06730501
35	0x3d86eb2c	0.06587824
36	0x3dac2aeb	0.084066235
37	0xbc37395b	-0.011183108
38	0x3d3acf90	0.045608103
39	0xbcea3c15	-0.028593102
40	0xbdaee470	-0.08539665
41	0x3d3c42c3	0.045962106
42	0xbd513bcc	-0.051082417
43	0x3c2d8718	0.010591291
44	0xbd5c22ec	-0.05374424
45	0xbd9bd1c4	-0.07608369
46	0xbc72fb68	-0.014830448
47	0xbd963d9d	-0.073359706
48	0x3caab0cd	0.020836258
49	0x3d630694	0.055426195
50	0x3dc70160	0.09717059
51	0x3cc23f87	0.023711933
52	0x3c30e67d	0.01079714
53	0xbcc7abc4	-0.024373896
54	0x3dbd5595	0.09244839
55	0xbc88bc18	-0.016691253
56	0x3d9e8ad0	0.0774132
57	0x3cda12d0	0.026620299
58	0x3d37efb4	0.044906333
59	0xbd66d8f7	-0.056359258
60	0x3db03f15	0.08605782
61	0xbb4a580e	-0.0030875239
62	0x3d8ef773	0.06980791
63	0xbd504e04	-0.05085565
64	0xbd6133f3	-0.054981183
65	0x3d4ed5fe	0.050497048
66	0xbd8a3c42	-0.067497745
67	0xbd6a7419	-0.057239626
68	0xbd3384d3	-0.043827843
69	0xbccfe12e	-0.025375929
70	0x3c0c7844	0.008573595
71	0xbd9e96ac	-0.07743582
72	0xbdb9f64b	-0.0908018
73	0x3c291d4c	0.010321926
74	0x3d1958a0	0.037438035
75	0x3d2088c0	0.039192915
76	0xbcce030b	-0.025147935
77	0xbdb4226c	-0.08795628
78	0x3d837eb9	0.06420655
79	0xbd2dcec5	-0.04243352
80	0xbda5add6	-0.08089797
81	0x3cbe52bf	0.023232816
82	0x3ccef0e2	0.025261346
83	0xbdac79cb	-0.08421668
84	0x3c4add9b	0.012381936
85	0x3d0828e4	0.03324212
86	0xbd0dd721	-0.03462899
87	0x3d81dc06	0.06340794
88	0xbcdd1094	-0.026985444
89	0x3c6c0f2a	0.014407912
90	0x3d8a99ac	0.06767592
91	0x3c918928	0.017765597
92	0x3d14c454	0.036320046
93	0xbdcaf926	-0.099108025
94	0xbd6f8977	-0.058480706
95	0xbca17ecc	-0.019713782
96	0xbcacd988	-0.02109982
97	0x3d074e29	0.033033524
98	0xbd81a96f	-0.06331145
99	0xbc70242f	-0.014657064
100	0xbd026c29	-0.03184143
101	0x3d62a38f	0.055331763
102	0x3dcd1eb3	0.10015621
103	0xbcb61131	-0.022224994
104	0x3b9759f5	0.004618878
105	0xbdc253f7	-0.09488671
106	0x3c8e3876	0.017360907
107	0x3cb611ce	0.022225287
108	0xbcc89b5d	-0.024488145
109	0x3d6ca328	0.057772785
110	0x3da45323	0.080236696
111	0x3d82d80b	0.06388863
112	0xbdb2cf5a	-0.087309554
113	0xbd6765d8	-0.05649361
114	0xbd29087e	-0.041267864
115	0xbcbef4d2	-0.023310099
116	0xbb152d40	-0.0022762567
117	0xbd96d3a3	-0.07364585
118	0x3ce632c9	0.028100388
119	0xbdc92799	-0.09822006
120	0x3d78a449	0.06070355
121	0xbd1ef9e8	-0.038812548
122	0x3d85b65e	0.065289244
123	0x3d3e03ad	0.046390224
124	0x3d107692	0.035269327
125	0x3c82fae7	0.01598878
126	0x3db1b5c6	0.08677249
127	0x3d774404	0.0603676
128	0x3d828052	0.063721314
129	0xbd6bd589	-0.05757669
130	0x3d761d35	0.060086448
131	0xbc33a7c3	-0.0109652905
132	0x3da4d611	0.080486424
133	0x3d2eebbf	0.042705294
134	0xbc0b5ced	-0.008506042
135	0x3b09a8d2	0.0021005166
136	0x3d0c827b	0.034304123
137	0x3c145480	0.0090533495
138	0x3d165448	0.03670147
139	0xbdca7b81	-0.09886838
140	0x3c7f7aad	0.015593213
141	0x3c75dbce	0.015006019
142	0x3dc0770d	0.09397707
143	0xbd614439	-0.054996703
144	0xbda7fc39	-0.082024045
145	0x3de5a4ce	0.112130746
146	0x3a303b68	0.00067227194
147	0x3d3fbded	0.046811987
148	0x3c426c62	0.011866661
149	0x3d433d49	0.047665868
150	0x3cac4649	0.021029608
151	0x3da9b150	0.08285773
152	0xbd0c5f05	-0.034270305
153	0xbd675c2e	-0.056484394
154	0x3d213eee	0.039366655
155	0x3d8d6c5e	0.06905435
156	0x3daa1815	0.083053745
157	0xbd273123	-0.040818345
158	0x3b7be134	0.0038433792
159	0xbcab536e	-0.020913806
160	0x3bebe7ae	0.007199249
161	0xbc9ae75f	-0.018909154
162	0x3c80a3be	0.015703078
163	0x3d422ddf	0.047407027
164	0xbd83a925	-0.06428746
165	0xbdc61fe7	-0.09674054
166	0x3bb45707	0.0055035385
167	0x3d62c915	0.055367548
168	0xbda15ba0	-0.07878804
169	0x3d8e78fd	0.069566704
170	0xbd04f7a9	-0.03246275
171	0x3d44f6bd	0.04808687
172	0xbd3cb6cd	-0.04607277
173	0x3d9275ea	0.071513966
174	0x3dc0cfd4	0.0941464
175	0xbc76095a	-0.015016878
176	0xbd8fc754	-0.07020441
177	0xbd326773	-0.043555688
178	0x3d568ebf	0.052382227
179	0x3dc3ad3a	0.09554525
180	0x3d5ef560	0.054433227
181	0x3db116e0	0.08646941
182	0x3d496fd1	0.049178902
183	0xbcaf4c65	-0.021398732
184	0x3d3df317	0.046374407
185	0x3d8bf1cb	0.06833228
186	0x3a9ed604	0.0012118225
187	0xbbb3c665	-0.005486297
188	0xbd14545d	-0.036213268
189	0x3cf2ab4e	0.0296227
190	0x3dbb8043	0.09155323
191	0x3aa02854	0.001221905
192	0xbd048b88	-0.03235963
193	0x3d8e9ae1	0.069631346
194	0x3db4a328	0.08820182
195	0xbd0bf07f	-0.0341649
196	0xbcfa23e8	-0.0305347
197	0xbd911f44	-0.070860416
198	0x3c519157	0.012790999
199	0x3dba28ba	0.09089799
200	0x3e099052	0.1343396
201	0x3da4bd01	0.08043862
202	0xbdd84d1a	-0.10561581
203	0xbcbfdcc6	-0.023420703
204	0x3ca5deca	0.020247836
205	0xbdb03b54	-0.08605066
206	0x3df96fb4	0.12179509
207	0xbd5a2814	-0.053260878
208	0xbdf5523c	-0.119785756
209	0xbc0f1396	-0.008732697
210	0xbda1efe8	-0.079070866
211	0xbd838ad4	-0.06422964
212	0xbca34437	-0.019929988
213	0x3cf8c221	0.030366005
214	0x3da5195b	0.08061477
215	0x3dc6c538	0.09705585
216	0xbe059658	-0.13045633
217	0xbd3b834c	-0.04577951
218	0xbd95ac57	-0.07308262
219	0xbcbeeaa3	-0.023305243
220	0x3d24c5fa	0.040227868
221	0xbd97cd91	-0.074122556
222	0x3c6d77b8	0.014493875
223	0x3dc87657	0.097881965
224	0xbda26902	-0.07930185
225	0x3a14992c	0.00056685763
226	0x3db28488	0.087166846
227	0x3d02794e	0.031853966
228	0x3d29a586	0.04141762
229	0xbc16d1ea	-0.009205321
230	0xbd8c5ce7	-0.06853657
231	0x3dc50fe7	0.09622174
232	0xbbed9077	-0.0072498876
233	0xbd3dfa65	-0.046381373
234	0xbb4ce333	-0.003126335
235	0xbdd4215b	-0.103579246
236	0xbe368f97	-0.17828213
237	0x3dd61648	0.104534686
238	0x3ac02911	0.0014660676
239	0xbc70bead	-0.014693898
240	0xbda3415c	-0.07971451
241	0x3e022211	0.12708308
242	0xbddcbd9d	-0.10778353
243	0x3d9538d8	0.07286233
244	0x3cfc226f	0.030778138
245	0x3d9e7ef8	0.07739061
246	0x3ddc4ae7	0.10756474
247	0xbdf802a5	-0.121098794
248	0x3d1769a8	0.036965996
249	0xbdee73d1	-0.11643184
250	0xbc4fe39b	-0.012688543
251	0x3bf6880f	0.0075235437
252	0x3d86c939	0.06581349
253	0xbdac872e	-0.08424221
254	0x3ccab8b8	0.024746284
255	0x3bba7610	0.0056903437

decoder.attn_combine.bias f4 [50]
0	0xbd8d52b5	-0.06900541
1	0xbce7debc	-0.02830445
2	0x3e177940	0.14792347
3	0x3d586a42	0.05283571
4	0xbc8ea23f	-0.01741135
5	0x3d1bab2b	0.038005035
6	0x3d9329f4	0.07185736
7	0x3e492910	0.1964457
8	0xbd8af119	-0.06784267
9	0x3ddf4e66	0.10903625
10	0xbd0ef70d	-0.034903575
11	0x3da96bf2	0.08272542
12	0x3d599a13	0.053125452
13	0x3d470e44	0.04859759
14	0x3c2d6fbd	0.0105857225
15	0xbc8f73b5	-0.017511228
16	0xbd39c666	-0.045355223
17	0xbd3b2a9f	-0.045694944
18	0x3cf0c2b2	0.029389713
19	0x3d01d112	0.031693526
20	0x3d2f33fa	0.042774178
21	0x3d87c62e	0.06629597
22	0x3dc49f52	0.096007004
23	0x3cd2321b	0.025658658
24	0x3d73529d	0.059404958
25	0xbc9e7bfb	-0.019346228
26	0x3ca70e89	0.020392673
27	0x3d26f629	0.0407621
28	0xbc05876f	-0.008149966
29	0x3d927edd	0.071531035
30	0x3e0726e2	0.13198426
31	0xbc3eaa37	-0.011637262
32	0x3db6ecfa	0.089319184
33	0xbb013532	-0.0019715545
34	0x3dc96e07	0.09835439
35	0x3cafce0f	0.021460561
36	0x3d57a0f4	0.05264373
37	0x3e1529a2	0.14566663
38	0xbc54bccd	-0.012984467
39	0x3d8d65b7	0.06904166
40	0x3dfe4608	0.12415701
41	0xbc1f96fb	-0.009740586
42	0x3e1008dd	0.14065881
43	0x3dd73397	0.10507887
44	0x3e02e9f4	0.12784559
45	0xbc432b5e	-0.011912195
46	0xbd643b77	-0.055720773
47	0x3d5f5e53	0.054533314
48	0x3e0da583	0.13832669
49	0x3cab3f7d	0.020904297
