best_models/seq2seq-1-5.402590.pt (torch, 17935 bytes, 16 tensors)

encoder.embedding.weight f4 [141, 5]
0	0xbea24a00	-0.31697083
1	0x3f989e9c	1.1923404
2	0xbfbd1389	-1.4771587
3	0xbfafd8a7	-1.3737992
4	0x3edb14c9	0.42789295
5	0x3eabf7cd	0.33587494
6	0x3ee310ec	0.44348848
7	0x3e7a4619	0.24440803
8	0x3ba3f8f3	0.0050040423
9	0xbfdd63b3	-1.7296051
10	0xbf12febd	-0.5741995
11	0x3f2c6e30	0.6735563
12	0xbfaea5cb	-1.3644346
13	0x3fc9d3ac	1.5767722
14	0x3ecb1d60	0.3967085
15	0x3fbd166c	1.4772468
16	0x3d81bd93	0.063349865
17	0xbf483f9f	-0.7822208
18	0x3f21bff2	0.6318351
19	0xc002dae2	-2.0446095
20	0xbeace28d	-0.33766595
21	0x401946de	2.3949504
22	0x3dd7c7ad	0.10536132
23	0x3ef8104e	0.4844994
24	0xbaa86b1b	-0.0012849303
25	0x3fcae754	1.5851846
26	0xbdcaab11	-0.098959096
27	0x3f08e9ff	0.5348205
28	0xbfbfaacf	-1.4974002
29	0x3f89c20a	1.0762341
30	0x3f50309e	0.81324184
31	0x3fc89b80	1.5672455
32	0xbf6b87e8	-0.9200425
33	0xbf86e9a4	-1.0540051
34	0x3f294068	0.661139
35	0x3df5b11d	0.11996672
36	0xbf90f33d	-1.132423
37	0xbf866f18	-1.0502653
38	0x3eb1c29b	0.34718785
39	0xbf2b6d38	-0.6696353
40	0xbf07bd8b	-0.53023595
41	0xbf48a123	-0.78370875
42	0x3f7e08b7	0.9923205
43	0x3fde2b54	1.7356973
44	0xbf85fcb0	-1.0467739
45	0xbed5ab0e	-0.41732067
46	0xbf8f65b2	-1.120291
47	0xbd96ef0b	-0.073698126
48	0x3fb6c451	1.4278661
49	0xbf7f46cf	-0.9971742
50	0x3f326b48	0.6969495
51	0x3fba0254	1.453196
52	0x3f4810f7	0.78150886
53	0x3fb62ef6	1.4233081
54	0x3edd4795	0.43218675
55	0x3e486a72	0.19571856
56	0xc0245d96	-2.568212
57	0x3ecff709	0.4061816
58	0x3fbd8159	1.4805099
59	0xbd8c984c	-0.06864986
60	0x3dfbb7d1	0.122909196
61	0x3fa80c80	1.3128815
62	0xbf1df29e	-0.6169833
63	0xbfe6fcd2	-1.8045905
64	0xc003ecd9	-2.061331
65	0x3ffaefbe	1.9604414
66	0x3f0254c9	0.5091062
67	0xbf39d7e2	-0.72595036
68	0xbdc29e99	-0.09502906
69	0x3f5302df	0.82426256
70	0x3f8dab32	1.106787
71	0x3f5da9f0	0.8658743
72	0x3f8add6f	1.0848826
73	0xbedacb5e	-0.42733282
74	0xc013f03e	-2.3115382
75	0x3f8e1144	1.1099019
76	0x401e3be7	2.4724061
77	0x3e0a47ad	0.13503905
78	0xbf7c4eeb	-0.9855792
79	0x3d9c1560	0.076212645
80	0xbe822f1e	-0.25426573
81	0x3f74f3ed	0.956847
82	0xbdc0fba3	-0.09422996
83	0xbe21a93b	-0.15787213
84	0xbf09f8ee	-0.5389546
85	0xbe69bdf8	-0.22826374
86	0x3c533108	0.012890108
87	0x3ef44e34	0.47715914
88	0xbf865ba9	-1.0496722
89	0xbef995ab	-0.48747
90	0x3f71ed64	0.94502854
91	0xbdd3c04c	-0.10339412
92	0x3f2a87c0	0.6661339
93	0xbfccaafb	-1.5989679
94	0xbe2ef619	-0.17086066
95	0xbd33565c	-0.04378353
96	0xbf857cee	-1.042875
97	0x3db38bd8	0.087669075
98	0x3fba0f0e	1.4535844
99	0x3ec1f8cc	0.3788513
100	0x3f291f3b	0.6606328
101	0x3ea88c6d	0.32919636
102	0xbfad01f2	-1.3516219
103	0x3f8784c0	1.0587387
104	0x3f3890b6	0.7209581
105	0x3dfbd8a9	0.12297184
106	0x3f8d4f04	1.1039739
107	0x3f6ba993	0.92055625
108	0xbfa0e704	-1.25705
109	0xbf8e5990	-1.1121082
110	0x3e98ccb6	0.29843682
111	0x3f921982	1.1414034
112	0x3ee7bf87	0.4526331
113	0xbe10fedd	-0.14159723
114	0x3f0b3957	0.5438437
115	0xbf4d4947	-0.8018994
116	0x3f9d338a	1.2281353
117	0xbf0ad05d	-0.5422419
118	0xbe556c41	-0.20842077
119	0x3f806e0f	1.0033587
120	0xbefc7718	-0.4930961
121	0xbfc4e047	-1.5380944
122	0x3fbf9f67	1.4970521
123	0x3e2a19d5	0.16611417
124	0x3eaed962	0.34150225
125	0xbde42b5e	-0.11141084
126	0x3f999e83	1.2001499
127	0xbd64e43d	-0.055881727
128	0xbfabb7c4	-1.3415456
129	0xbf239578	-0.63899946
130	0x3f2ecc35	0.68280345
131	0x3f6a5d01	0.9154816
132	0xbe936098	-0.28784633
133	0xbcfb1ad2	-0.030652437
134	0xc02ce2ad	-2.7013352
135	0x3d935e25	0.07195691
136	0x3fc0cd10	1.506258
137	0x3fdea1aa	1.7393086
138	0x3dd699e2	0.104785696
139	0x3f778a0f	0.96695036
140	0x3f4c7694	0.79868436
141	0xbfea1c42	-1.8289874
142	0x3fe95e1a	1.8231843
143	0x3fa62917	1.298129
144	0xbf35f5bf	-0.71078104
145	0x3d12af62	0.03581179
146	0x3f8de881	1.108658
147	0x3f9632a5	1.1734205
148	0xbfe6cda4	-1.8031507
149	0x3fa61714	1.2975793
150	0xbf90ff58	-1.1327925
151	0x3fefce55	1.8734843
152	0xbfa64409	-1.2989513
153	0xbf164706	-0.58702123
154	0xbdd59017	-0.104278736
155	0x3e6851d0	0.22687459
156	0xbfbf2f97	-1.4936398
157	0x3f5ca9ad	0.86196405
158	0x3ed2d7c0	0.4118023
159	0xbe9b9a44	-0.30391133
160	0xbfe17706	-1.7614448
161	0xbf495522	-0.7864553
162	0x3f0dc754	0.55382276
163	0xbf55b00b	-0.83471745
164	0xbd4b45d2	-0.049627133
165	0x3ef06a95	0.46956316
166	0x3f230d9f	0.6369266
167	0xbf475871	-0.77869326
168	0xbe7518da	-0.23935261
169	0x3f4114cd	0.75422364
170	0xc004c33c	-2.0744162
171	0x3f3e6a8e	0.7438134
172	0x3e9d08c9	0.30670765
173	0x3ffd6213	1.9795555
174	0xbf5c6a41	-0.8609963
175	0xbedf0d62	-0.43564898
176	0xbf0b9d2c	-0.545367
177	0x3f9cf17b	1.2261194
178	0xbf44d4f7	-0.7688746
179	0x3c043957	0.0080703115
180	0x3f7c2bf7	0.98504585
181	0xbfb6daf9	-1.4285575
182	0xbf8717d0	-1.0554142
183	0xbf121296	-0.5705961
184	0xbef8c6a4	-0.4858905
185	0xbebaab8f	-0.36459014
186	0xbfc45cfc	-1.5340877
187	0x3f705a25	0.9388755
188	0xbed671ed	-0.41883793
189	0xbf407177	-0.75173134
190	0x3f71a64b	0.9439437
191	0x3e8001cb	0.25001368
192	0xbf5eb21a	-0.8699051
193	0x3e9c1edc	0.30492294
194	0xbef64965	-0.4810287
195	0xbd23bf76	-0.039977513
196	0xbf79d495	-0.9759
197	0xbf884cd7	-1.064845
198	0x3fb863d0	1.440546
199	0x3f9e346c	1.2359748
200	0x3ebf6936	0.37384957
201	0xbec698ff	-0.38788602
202	0xbe016211	-0.12635066
203	0x3fbcfaf7	1.4764088
204	0xbf845b4e	-1.0340364
205	0x3f919a45	1.1375204
206	0x3f75e7e9	0.9605699
207	0x3d5f0792	0.05445058
208	0x3f8f9ccf	1.1219729
209	0xbe8457d5	-0.2584826
210	0x3f94994c	1.1609282
211	0x3f93d77e	1.1550138
212	0xbdc2b19e	-0.09506534
213	0xc041ffda	-3.031241
214	0x3eec46cf	0.46147773
215	0x3f8d5686	1.104203
216	0x3dcd1180	0.100131035
217	0xbfa7a3d5	-1.3096873
218	0xbf168fec	-0.5881336
219	0x3ddbca12	0.10731901
220	0x3f10b4ec	0.56526065
221	0xbf376b88	-0.71648455
222	0xbfcacd0e	-1.5843828
223	0xbfd200c4	-1.6406484
224	0xbe5d73b4	-0.21626168
225	0x3fc4d4fa	1.5377495
226	0x3e551153	0.2080739
227	0xbfcdfb5e	-1.6092336
228	0x3e6a2c53	0.22868471
229	0x3f1b9565	0.6077483
230	0x3f968771	1.1760083
231	0x3f8a0ac6	1.0784538
232	0x3e2d6075	0.16931327
233	0x3f540d69	0.8283296
234	0x3f6e6690	0.9312525
235	0xbee84c01	-0.45370486
236	0xc019d8fb	-2.4038684
237	0xbf992b93	-1.1966423
238	0xbf41a9e0	-0.75649834
239	0x3efe5742	0.49675947
240	0xbeb22b1d	-0.34798518
241	0x3f919447	1.1373376
242	0x4004cddd	2.075065
243	0x3e9f758e	0.31144375
244	0xbed1328c	-0.40858877
245	0xbf62a8b7	-0.8853869
246	0xc0176cd7	-2.366018
247	0xbecd5bd9	-0.40109137
248	0x3ebad817	0.36492988
249	0xbf2a8b67	-0.6661896
250	0xbf30a6a8	-0.690043
251	0x3f27140e	0.65264976
252	0xbebc53e6	-0.3678276
253	0x3e9a942f	0.3019118
254	0xbf93897f	-1.1526335
255	0xbd75c91e	-0.060006253

encoder.gru.weight_ih_l0 f4 [15, 5]
0	0x3d946b3b	0.07247015
1	0xbdf9c17d	-0.12195108
2	0x3e5c32d2	0.21503761
3	0x3d064554	0.03278096
4	0xbea92059	-0.33032492
5	0x3ecfb9ef	0.40571544
6	0x3d197225	0.037462372
7	0x3d163908	0.036675483
8	0xbcb88177	-0.022522671
9	0xbedec0b2	-0.4350639
10	0x3e87c9ee	0.26521248
11	0xbd9e1a52	-0.07719864
12	0xbd9fe5e6	-0.078075215
13	0xbeac5044	-0.33654988
14	0xbec49a01	-0.38398746
15	0xbeb8a616	-0.36064214
16	0xbead13bd	-0.33804122
17	0x3e04350a	0.12910858
18	0xbed9594c	-0.4245094
19	0x3ec0deab	0.37669882
20	0x3dfa8992	0.12233271
21	0xbead199e	-0.33808607
22	0xbe980c8b	-0.2969707
23	0x3d79c829	0.060981903
24	0x3ece3ca5	0.40280643
25	0xbec07066	-0.37585753
26	0xbec8cf57	-0.39220688
27	0x3c36521a	0.011127973
28	0xbe6272b4	-0.22114068
29	0x3e8a0cfb	0.26963028
30	0x3ed59e99	0.41722563
31	0xbee133e2	-0.43984896
32	0x3e5cedae	0.21575043
33	0xbeb15abb	-0.34639534
34	0xbec7a3bc	-0.38992107
35	0xbc6777a0	-0.014127642
36	0x3dbcdf3f	0.09222268
37	0xbe1024f4	-0.14076596
38	0x3dc61675	0.09672252
39	0x3ebaf985	0.36518493
40	0x3ee2fc13	0.44332942
41	0x3e86ee1b	0.26353535
42	0x3e2ec339	0.17066659
43	0xbe9eecbc	-0.3103999
44	0x3def4ff9	0.116851754
45	0xbe85c3fb	-0.26126084
46	0x3ebed2b0	0.37270117
47	0xbec92ae6	-0.3929054
48	0x3ecb9dfd	0.39768973
49	0x3dd89cab	0.10576757
50	0xbe0ee547	-0.1395465
51	0xbe745cde	-0.23863551
52	0x3e0fcd5c	0.14043182
53	0xbb545e28	-0.0032404754
54	0x3dac210d	0.084047414
55	0xbe237dc6	-0.15965948
56	0xbe324613	-0.17409544
57	0x3ead2ce9	0.33823326
58	0xbe102aad	-0.1407878
59	0x3e6a5712	0.22884777
60	0xbe9f52d2	-0.31117874
61	0x3ea03f54	0.31298316
62	0x3e8a452c	0.270059
63	0xbc1fe5b6	-0.009759357
64	0xbeabb965	-0.33539882
65	0xbe9da1cb	-0.307875
66	0x3e508271	0.2036226
67	0x3c684774	0.014177192
68	0xbe8a0033	-0.26953277
69	0x3dd460ed	0.103700496
70	0xbd8873f2	-0.0666274
71	0xbe1e4287	-0.15455066
72	0xbedd4c76	-0.43222398
73	0x3edbe8c5	0.42951027
74	0xbe8bf342	-0.27334028

encoder.gru.weight_hh_l0 f4 [15, 5]
0	0xbe07405d	-0.13208146
1	0xbeb4d22c	-0.35316598
2	0x3e056ee9	0.1303059
3	0x3eb1da36	0.34736794
4	0x3ea00383	0.3125268
5	0xbe39a6f4	-0.18130094
6	0x3d0003ac	0.0312535
7	0xbe2cb242	-0.16864875
8	0x3e972d83	0.2952691
9	0x3ea92d39	0.33042315
10	0x3eb66b7e	0.35628885
11	0x3e1aa01c	0.1510014
12	0xbe710b59	-0.23539485
13	0xbe569b67	-0.20957719
14	0xbd8a1a9c	-0.067433566
15	0x3e1ae7bc	0.15127462
16	0x3ece073a	0.40239888
17	0x3e3eaab0	0.186198
18	0x3e6900b4	0.22754174
19	0x3ebaf7fb	0.3651732
20	0x3eb59cdb	0.35471234
21	0xbe92435b	-0.28567013
22	0xbd08b2b3	-0.033373546
23	0xbe213804	-0.15744025
24	0xbe0d7b25	-0.13816507
25	0xbed253c6	-0.4107954
26	0xbe99e406	-0.3005678
27	0xbe67a657	-0.22622047
28	0xbd82d455	-0.06388155
29	0xbede901f	-0.4346933
30	0xbed28f75	-0.41125074
31	0xbe1362d9	-0.14393176
32	0xbea8f43d	-0.3299884
33	0x3edaa2e4	0.427024
34	0x3e77bbda	0.24192753
35	0xbda08716	-0.078382656
36	0x3eb9bf67	0.3627884
37	0x3d899764	0.067183286
38	0x3ce3fdbf	0.027830957
39	0xbdbd5ee3	-0.09246614
40	0x3e8a67be	0.27032274
41	0x3e9ede9c	0.31029212
42	0x3eb23d7d	0.34812537
43	0x3e9e58cb	0.3092712
44	0x3d16161e	0.036642186
45	0x3e90b919	0.28266218
46	0xbe8d21d7	-0.2756488
47	0xbdac0c5f	-0.08400797
48	0xbc3cd0fe	-0.011524437
49	0x3dc6922e	0.0969585
50	0x3d444ce1	0.04792488
51	0xbeca31fd	-0.39491263
52	0xbe5185e3	-0.2046123
53	0xbe6f97ce	-0.23397753
54	0x3dc0a915	0.0940725
55	0x3ea5f290	0.32411623
56	0x3e0bcc33	0.13652115
57	0xbe1dd32d	-0.15412588
58	0xbe15f232	-0.14643171
59	0xbeb0a8fa	-0.3450392
60	0xbe0e2546	-0.13881406
61	0xbe9999df	-0.30000207
62	0x3edd2cc3	0.43198213
63	0xbe0b5058	-0.13604867
64	0xbe7c630a	-0.24647155
65	0x3dd8ee84	0.10592368
66	0x3e785d09	0.2425424
67	0x3edb374f	0.42815635
68	0xbe7781df	-0.24170636
69	0x3ec7b6d0	0.39006662
70	0x3e8f1cf4	0.27951777
71	0xbc32e805	-0.010919576
72	0x3e1e27cb	0.15444867
73	0xbe5c30df	-0.21503018
74	0xbe5e403d	-0.21704192

encoder.gru.bias_ih_l0 f4 [15]
0	0xbd13dd88	-0.03609994
1	0xbd377bc1	-0.044795755
2	0xbde70461	-0.11280132
3	0xbda843c8	-0.08216053
4	0x3e22e3b6	0.15907177
5	0xbe009ba1	-0.12559368
6	0x3de1caa6	0.1102498
7	0xbe2887ba	-0.16458026
8	0x3cf0ac9b	0.02937918
9	0xbecdca52	-0.4019342
10	0xbecdffef	-0.40234324
11	0x3e560fac	0.20904416
12	0xbe3a3ac9	-0.18186487
13	0x3e3b3ac1	0.18284132
14	0x3d49013e	0.04907345

encoder.gru.bias_hh_l0 f4 [15]
0	0x3ed57911	0.4169393
1	0xbe728fd7	-0.23687683
2	0xbee1bb05	-0.44087997
3	0x3ea48172	0.3213001
4	0x3e0457f2	0.12924173
5	0x3ed2dde6	0.4118492
6	0xbeccaccb	-0.3997558
7	0xbecd79e3	-0.40132055
8	0xbe99621a	-0.29957658
9	0xbd8a1420	-0.0674212
10	0xbe03deaf	-0.12877916
11	0xbeb3cb91	-0.35116246
12	0x3e3f5488	0.1868459
13	0xbd02c911	-0.031930033
14	0x3d335ee9	0.043791685

decoder.embedding.weight f4 [171, 5]
0	0xbc4f6899	-0.012659215
1	0x3def7d69	0.11693842
2	0x4003e217	2.0606744
3	0x3d930c70	0.07180107
4	0x3f461145	0.773701
5	0x3d21c0c2	0.03949047
6	0xbf14d33e	-0.5813483
7	0x3fa2974c	1.2702422
8	0x3f51c076	0.819343
9	0x3ef161c2	0.47144896
10	0xbdc45da8	-0.09588176
11	0xbf9e19a6	-1.2351577
12	0x3e726220	0.23670244
13	0xbfa9d2df	-1.3267478
14	0x3f81b986	1.0134742
15	0xbf4a681f	-0.79065126
16	0xbf0de366	-0.5542511
17	0x3fd8bba9	1.6932269
18	0x3cffa3ef	0.0312061
19	0x3f0ac003	0.54199237
20	0x3f8de7ce	1.1086366
21	0x3fc8ad54	1.5677896
22	0xbf0e8d77	-0.5568461
23	0xbee0159b	-0.43766484
24	0x3c15237d	0.009102699
25	0x3f41a11b	0.7563645
26	0x3f8a56b9	1.0807716
27	0x3f169675	0.5882333
28	0x3f5e73fb	0.8689572
29	0x3fc4a2c2	1.536217
30	0xbede0d04	-0.43369305
31	0x3da3f667	0.08005982
32	0x3ed61d3d	0.41819182
33	0x3ebea091	0.37231877
34	0x3fd2705a	1.6440537
35	0xbec2aa67	-0.38020632
36	0x3fa3f9ee	1.2810647
37	0x3eeed77c	0.46648777
38	0x3e8f72e5	0.28017345
39	0xbfa5e46c	-1.2960334
40	0x3fb0baeb	1.3807043
41	0xc008dde0	-2.1385422
42	0xbca8373f	-0.020534156
43	0xbfc7b22e	-1.5601251
44	0x3f995739	1.1979743
45	0xbf72b59f	-0.9480838
46	0xbe81c242	-0.2534352
47	0xbf1fd93f	-0.62440866
48	0xbf7d80f5	-0.990249
49	0xbf46ebf6	-0.777038
50	0xbff00393	-1.8751091
51	0x3e55c671	0.2087648
52	0xbf52fd09	-0.8241735
53	0x3fc98942	1.5745013
54	0xbf84793b	-1.0349497
55	0xbe86826a	-0.26271373
56	0xbff19bf8	-1.8875723
57	0x3eecdb80	0.46261215
58	0x3f0dc157	0.5537314
59	0xbe1e2c02	-0.15446475
60	0x3fd53460	1.6656609
61	0xc01de7f1	-2.4672816
62	0xbe59035a	-0.21192685
63	0xbf45632d	-0.77104455
64	0xbe802402	-0.25027472
65	0xbe00eb6b	-0.12589805
66	0xbf26ff36	-0.6523317
67	0xbdfda279	-0.12384505
68	0xbf33bacd	-0.7020691
69	0xbf110581	-0.56649023
70	0xbfec308f	-1.8452319
71	0x3f967070	1.1753063
72	0xbdb166ed	-0.0866221
73	0x3f0aff1a	0.54295504
74	0x3c9f58cf	0.019451527
75	0x3fc7e2c6	1.5616081
76	0x3f691a51	0.9105578
77	0xbf3a539a	-0.72783816
78	0xbc4247e5	-0.011857961
79	0xbf84a606	-1.0363166
80	0x3f17cdef	0.59298605
81	0xbf64ecdc	-0.8942392
82	0xbf708267	-0.9394898
83	0x3fa1db28	1.2645006
84	0x3e15790d	0.14596958
85	0xbf066e25	-0.5251182
86	0xbf5cc3ca	-0.8623625
87	0xbedb0d4b	-0.4278358
88	0xbfea0254	-1.828196
89	0x3fa19141	1.2622453
90	0xbf2dfeb1	-0.67966753
91	0xbdd62afb	-0.104574166
92	0xbd0add1f	-0.033902284
93	0xbf898efb	-1.0746759
94	0xbd080863	-0.033211123
95	0x3f3b0111	0.730485
96	0xbf8349db	-1.0256914
97	0xbdbc5ce8	-0.09197408
98	0x3c538010	0.01290895
99	0x3e38363e	0.17989442
100	0xbfd82006	-1.6884773
101	0x3e13c61d	0.14431043
102	0x3fbb84ec	1.464994
103	0xbfd18e1a	-1.6371491
104	0xbd9fccc2	-0.07802726
105	0x3e187297	0.14887463
106	0xbdd581b2	-0.10425128
107	0x3fa10198	1.2578611
108	0xbf89db4d	-1.077005
109	0x3fe03b59	1.7518111
110	0x3e203b0b	0.15647523
111	0xbf526314	-0.8218243
112	0x3ea049cd	0.31306306
113	0x3fddf7d8	1.7341261
114	0x3d881ad8	0.06645745
115	0x3f7ebeec	0.99510074
116	0x4014f028	2.327158
117	0x3f04f51f	0.51936525
118	0xbf491e2b	-0.7856166
119	0x3dd05051	0.10171569
120	0x3ec04fd4	0.37560904
121	0xbcb8879d	-0.022525603
122	0xbf9783b2	-1.1837065
123	0xbf0b851d	-0.5449999
124	0x3fb84673	1.4396499
125	0x3ee0bf8e	0.43896145
126	0xbf867211	-1.050356
127	0xbf9c5cef	-1.2215861
128	0x3fa598ee	1.2937295
129	0xbf238d77	-0.63887733
130	0xbf254eb8	-0.6457324
131	0xbe4abb33	-0.19797973
132	0x3f358484	0.7090533
133	0xbf6d25b0	-0.9263563
134	0xbd046d04	-0.032330528
135	0x3f45f874	0.77332234
136	0xbde78d6d	-0.11306272
137	0xbfd91def	-1.696226
138	0x3f430e66	0.76193845
139	0xbfe82106	-1.8135078
140	0xbfdbb6e6	-1.7165191
141	0xbf4c3e37	-0.7978243
142	0xbf49d56e	-0.7884129
143	0xbe4cbc05	-0.19993599
144	0xbecfbac6	-0.40572184
145	0xbe469389	-0.19392218
146	0x3fb6a09d	1.4267765
147	0xbde03892	-0.1094829
148	0x3f093c73	0.53607863
149	0x3f854801	1.0412599
150	0x3fab99ce	1.3406312
151	0x3e277295	0.16352303
152	0x3f511d44	0.8168528
153	0x3e0d0cb9	0.13774385
154	0x3fe4bd53	1.7870277
155	0xbf10abfa	-0.56512415
156	0xbf17bda4	-0.59273744
157	0x3e4867f5	0.19570906
158	0x3eee53dc	0.46548355
159	0xbfb0e792	-1.382067
160	0x3f3d18a6	0.73865736
161	0xbf664155	-0.8994344
162	0xbf878772	-1.058821
163	0x3f850223	1.0391277
164	0xbff3aeca	-1.9037716
165	0xbede10e9	-0.43372276
166	0xbf8a1d82	-1.0790255
167	0x3f329c0d	0.69769365
168	0x3f5826be	0.84434116
169	0x3f95889c	1.1682315
170	0xbe135bc9	-0.14390482
171	0x3f1a872d	0.6036251
172	0x3ed86824	0.42266953
173	0xbefad958	-0.48993945
174	0x4045ccb8	3.09062
175	0xbf7bb772	-0.9832679
176	0x3e919e36	0.28441018
177	0x3e520d43	0.20512871
178	0x3f8384eb	1.0274938
179	0x3fdcf6ba	1.7262795
180	0x3e0a7d1c	0.13524288
181	0x3ea8f080	0.32995987
182	0xbf4a192c	-0.7894466
183	0x3f6d75c6	0.92757833
184	0xbe988fc1	-0.29797176
185	0x3f245e09	0.64205986
186	0xbeb70be2	-0.35751253
187	0xbf7ff082	-0.9997636
188	0xbf28cfee	-0.65942276
189	0xbfc72786	-1.5558937
190	0xbf16b045	-0.58862716
191	0xbec34ce7	-0.3814461
192	0x3fb4d5f8	1.4127798
193	0x3f6222d1	0.88334376
194	0x3d77b90f	0.06047922
195	0x40071207	2.1104753
196	0xbe673421	-0.2257848
197	0xbe180b2c	-0.14848012
198	0x3fcdaf37	1.6069096
199	0x3e2d27ba	0.16909686
200	0xbe709269	-0.23493351
201	0xbf078340	-0.52934647
202	0x3fa5d936	1.2956913
203	0xbdb92ed2	-0.090421334
204	0xbf73dcf9	-0.9525905
205	0xbfa6ffee	-1.3046854
206	0xbe390d77	-0.18071543
207	0xbd52b4b2	-0.051441856
208	0x3edad516	0.42740697
209	0xbefb8864	-0.49127495
210	0x3fe6dab7	1.8035496
211	0x3f814ca8	1.0101519
212	0xbf8e5018	-1.1118193
213	0xc004bea9	-2.074137
214	0x3f856003	1.0419925
215	0x3e94ccc8	0.29062486
216	0xbf022d39	-0.50850254
217	0x3e6d957d	0.23201557
218	0x3f4c5d11	0.7982951
219	0xbfcecabc	-1.615562
220	0x3ef1ad1a	0.4720238
221	0x402801de	2.625114
222	0x3f967d61	1.1757013
223	0xbf7c7c62	-0.98627293
224	0xbfc62583	-1.5480198
225	0x3edb941c	0.42886436
226	0xbef898e3	-0.48554143
227	0xbf6107c2	-0.8790246
228	0xbe40c84e	-0.1882641
229	0xc01e8cc1	-2.477341
230	0xbfa28d83	-1.2699436
231	0xbfa37cf6	-1.277251
232	0x3f2c023d	0.67190915
233	0xbe81c056	-0.25342053
234	0xbfdbdb7e	-1.7176359
235	0xbe02807f	-0.1274433
236	0x3f028c51	0.50995356
237	0x3f17faa5	0.5936683
238	0xbe1dded6	-0.15417036
239	0x3ef30025	0.47461048
240	0x3f7f07a5	0.9962104
241	0x3f318cfb	0.69355744
242	0xbeed0abb	-0.4629725
243	0xc037124e	-2.8604922
244	0xbe7ad0c5	-0.24493702
245	0x3f0e35d8	0.5555091
246	0x4056e497	3.357702
247	0xbfce2c8a	-1.6107342
248	0xbf7745c7	-0.96590847
249	0x3faa93ec	1.3326392
250	0xbf26575d	-0.64977056
251	0x3f5cad64	0.86202073
252	0x3f32a1e9	0.69778305
253	0x4012f432	2.2961545
254	0x3efbb38e	0.49160427
255	0xbf6c5349	-0.92314583

decoder.attn.weight f4 [15, 10]
0	0xbcd0c8a5	-0.0254863
1	0xbe3e4711	-0.18581797
2	0x3c6a7efe	0.014312504
3	0x3dac39f8	0.08409494
4	0xbe304196	-0.17212519
5	0xbd810b61	-0.063009985
6	0xbe051f4e	-0.13000223
7	0x3e6872e9	0.22700085
8	0x3e9fe21b	0.31227192
9	0x3e7b4f1d	0.24541898
10	0x3e3acf89	0.18243231
11	0x3d4aa1e5	0.0494708
12	0xbe412a0b	-0.18863694
13	0xbe76b5ce	-0.2409279
14	0xbdbd63a6	-0.09247522
15	0x3da55900	0.08073616
16	0x3e065519	0.131184
17	0xbe29ec30	-0.16594005
18	0xbe2d0140	-0.16895008
19	0xbd27e584	-0.040990368
20	0x3e40c210	0.18824029
21	0x3e325769	0.17416157
22	0x3e98d56b	0.29850325
23	0x3e855b16	0.26046056
24	0x3db748ef	0.08949458
25	0xbe2697ab	-0.16268794
26	0xbde46907	-0.11152845
27	0xbccb2670	-0.024798602
28	0xbe23aaa5	-0.15983064
29	0x3e60fce6	0.21971473
30	0xbda395b2	-0.079875365
31	0x3ea101f4	0.31446803
32	0xbd563486	-0.052296184
33	0xbe8b3687	-0.2719004
34	0xbe65e1a3	-0.22449355
35	0x3dcf92dc	0.10135433
36	0xbe4bee67	-0.19915162
37	0x3e5d088d	0.21585293
38	0x3d6faa73	0.058512162
39	0xbe4a8e90	-0.19780946
40	0xbe9e6303	-0.30934915
41	0x3da58056	0.08081119
42	0xbd94f0ba	-0.072724774
43	0x3e763cac	0.24046582
44	0x3e67e44c	0.22645682
45	0x3d06ee70	0.032942235
46	0x3e6d409e	0.23169181
47	0x3e47aeab	0.19500224
48	0xbdc49fd6	-0.09600799
49	0x3daaf16a	0.08346827
50	0xbe3d09a7	-0.18460713
51	0xbd73902b	-0.05946366
52	0x3e83a6df	0.2571325
53	0xbe33880d	-0.17532368
54	0x3c8fc6c7	0.01755084
55	0xbd8da7ef	-0.069167964
56	0x3d5b56cf	0.053549584
57	0x3e2241d9	0.15845431
58	0xbe1453fb	-0.14485161
59	0x3dbb4113	0.09143271
60	0xbe29ee2b	-0.1659476
61	0x3e4ed8cb	0.20199887
62	0xbe82edc1	-0.25572017
63	0x3d46d68b	0.048544448
64	0x3e9e6275	0.30934492
65	0x3e587d99	0.21141662
66	0xbd22c4d8	-0.039738506
67	0x3e877d34	0.2646271
68	0xbe9b76ef	-0.30364177
69	0x3c2f7608	0.010709293
70	0x3dfc8f37	0.123320036
71	0x3e11de6f	0.14245008
72	0x3d8f6248	0.070011675
73	0x3e4eeb9e	0.20207068
74	0xbe420f99	-0.18951263
75	0x3ccf4141	0.02529967
76	0xbe7ee722	-0.24892858
77	0x3cce8643	0.025210505
78	0xbcc49fa2	-0.0240019
79	0x3e25ddcc	0.1619789
80	0x3e9af69a	0.30266267
81	0x3e8de394	0.2771269
82	0x3d53fc13	0.05175407
83	0x3dcb98f0	0.0994128
84	0x3dede6a2	0.11616255
85	0xbd61228a	-0.05496458
86	0xbe9d1429	-0.30679443
87	0x3e217f27	0.15771161
88	0xbaffa0dc	-0.0019502896
89	0xbd722bdf	-0.05912387
90	0xbdc2b63a	-0.09507413
91	0x3e20c670	0.15700698
92	0xbd344bd7	-0.04401764
93	0x3d5fcd61	0.054639224
94	0xbe17b31c	-0.14814419
95	0xbe2caec0	-0.16863537
96	0xbbd82db8	-0.006597247
97	0x3e5f71b7	0.21820723
98	0xbdf77781	-0.120833404
99	0x3d08641f	0.033298608
100	0xbe5a374a	-0.21310154
101	0x3e3c9e51	0.18419768
102	0x3e964f7a	0.2935751
103	0xbd1406be	-0.036139242
104	0xbe2163a6	-0.15760669
105	0xbe9b3ce2	-0.30319887
106	0x3d028e04	0.031873718
107	0x3c9b10ac	0.018928848
108	0x3e64f369	0.22358479
109	0xbe80c898	-0.2515304
110	0x3e69915a	0.22809353
111	0xbe852ea3	-0.26012143
112	0xbe732222	-0.2374349
113	0xbe3d1f32	-0.18468931
114	0xbe97d3f2	-0.2965389
115	0x3d413444	0.047168985
116	0x3da3bf92	0.079955235
117	0xbe48d903	-0.19614033
118	0xbdd97d39	-0.106195875
119	0x3e81ab38	0.25325942
120	0x3e710307	0.23536311
121	0xbe2074a0	-0.15669489
122	0xbd992367	-0.074774556
123	0xbe3be451	-0.18348815
124	0x3d4e83fe	0.050418846
125	0x3d03e1a3	0.032197606
126	0x3e3f3246	0.18671522
127	0x3e363151	0.1779225
128	0x3e90de73	0.28294715
129	0x3e07df8c	0.1326887
130	0xbb25dd38	-0.0025308859
131	0x3d5ac24e	0.05340796
132	0x3e83cc9e	0.25742048
133	0xbe4eb2e7	-0.20185433
134	0x3e202dc1	0.15642454
135	0xbe36bf64	-0.17846447
136	0x3c9192da	0.01777022
137	0xbe85ce29	-0.2613385
138	0x3dd0b999	0.1019165
139	0xbe59048d	-0.21193142
140	0x3d06a3da	0.032871105
141	0xbdeeb40f	-0.11655437
142	0x3df9d249	0.12198312
143	0xbe6760c6	-0.2259551
144	0xbe33774a	-0.17525974
145	0xbd868959	-0.06569166
146	0x3e5c1f18	0.21496236
147	0x3ddf46f7	0.10902207
148	0xbd8592e0	-0.06522155
149	0x3e80e349	0.25173405

decoder.attn.bias f4 [15]
0	0x3dba2154	0.09088388
1	0x3c9df521	0.019281926
2	0x3e452523	0.19252448
3	0x3cc0daed	0.023541892
4	0xbe45be43	-0.1931086
5	0xbe65185e	-0.22372577
6	0xbd83e507	-0.06440168
7	0x3e1e4d2e	0.15459129
8	0xbdba429e	-0.090947375
9	0xbe6e8617	-0.23293339
10	0x3e41ce43	0.18926339
11	0x3e5061ea	0.20349851
12	0x3e096e9a	0.13421097
13	0x3db1b905	0.08677868
14	0x3d6b8771	0.057502214

decoder.attn_combine.weight f4 [5, 10]
0	0xbdfe021f	-0.12402748
1	0xbdf11b76	-0.11772816
2	0x3e377325	0.17915018
3	0x3de5c846	0.1121984
4	0x3c30a1af	0.010780736
5	0xbe757e11	-0.23973872
6	0xbe8f7756	-0.28020734
7	0x3e48c65f	0.19606923
8	0x3dea874a	0.114515856
9	0x3e618154	0.22021991
10	0xbe868eb7	-0.26280758
11	0x3d9b5e46	0.075863406
12	0xbe198f60	-0.149961
13	0x3d053d47	0.03252914
14	0x3e55ff10	0.2089808
15	0x3e112175	0.14172919
16	0x3e00b8c6	0.12570485
17	0xbde7695c	-0.112993926
18	0xbe6e7bc4	-0.232894
19	0x3e2f4b7c	0.17118639
20	0xbcac1631	-0.021006675
21	0xbe7deba8	-0.24796927
22	0x3e6897f7	0.2271422
23	0x3d6499ba	0.055810668
24	0x3da8f979	0.08250708
25	0x3e1f3bca	0.15550151
26	0xbe20c820	-0.15701342
27	0xbe0d3d84	-0.13792998
28	0xbdaf7d7c	-0.08568856
29	0x3cc7fd55	0.02441279
30	0x3e501b71	0.20322968
31	0xbe3cab1e	-0.18424651
32	0xbe802757	-0.25030014
33	0x3d23fa73	0.04003377
34	0x3e6b157f	0.22957419
35	0x3e24af11	0.16082408
36	0xbd1bf353	-0.03807385
37	0x3e6db3b2	0.2321308
38	0x3e0f5029	0.13995422
39	0xbe1bd80f	-0.15219139
40	0x3d1dc0d9	0.038513992
41	0x3dcaddab	0.09905561
42	0x3d64ec07	0.055889156
43	0x3e397dc3	0.1811438
44	0x3e403399	0.18769683
45	0x3e314bed	0.1731412
46	0x3e4ef173	0.20209293
47	0xbe9cac87	-0.30600378
48	0xbe27014c	-0.16309088
49	0xbe120a0f	-0.1426165

decoder.attn_combine.bias f4 [5]
0	0x3cef102d	0.029182518
1	0x3e23211f	0.15930603
2	0xbdf1fb90	-0.1181556
3	0x3e817207	0.25282308
4	0x3e280131	0.16406704

decoder.gru.weight_ih_l0 f4 [15, 5]
0	0xbe1cd483	-0.15315442
1	0x3d24fe9b	0.040281873
2	0xbdcfad4c	-0.10140476
3	0x3d8d7362	0.06906773
4	0xbd7a8df5	-0.061170537
5	0x3de35b9b	0.11101457
6	0xbe935ea1	-0.28783134
7	0xbdb09428	-0.086220086
8	0x3edcadf4	0.43101466
9	0xbdd3ae09	-0.10335929
10	0xbebe7f42	-0.37206465
11	0x3ed5f89a	0.4179123
12	0xbeaf05b0	-0.34184027
13	0xbeab9c49	-0.33517674
14	0xbd8b94e6	-0.068155095
15	0x3eafd8cf	0.343451
16	0xbe15d721	-0.14632846
17	0x3e744cd9	0.2385744
18	0xbebb54e3	-0.365882
19	0xbeb67064	-0.35632622
20	0xbea7b9d1	-0.32758954
21	0xbde79a06	-0.113086745
22	0xbbedde5d	-0.007259174
23	0xbeae80a6	-0.34082526
24	0xbe1648a7	-0.14676152
25	0x3ea751f4	0.32679713
26	0xbe093629	-0.13399567
27	0xbe8a08f6	-0.26959962
28	0x3dc546b6	0.09632628
29	0xbd9fc315	-0.07800881
30	0x3ee183c2	0.44045836
31	0x3e1d5748	0.15365326
32	0xbe0d7b62	-0.13816598
33	0x3d835e1d	0.06414435
34	0x3ede2183	0.43384942
35	0x3ea3ff2d	0.3203062
36	0xbdd3c77f	-0.10340785
37	0xbe1cb0b4	-0.15301782
38	0x3da51496	0.08060567
39	0x3ec31640	0.38102913
40	0xbee042e7	-0.43801042
41	0xbede0ff1	-0.43371537
42	0xbed32841	-0.4124165
43	0xbe8485b2	-0.2588325
44	0x3de9a1f2	0.11407842
45	0x3c12a886	0.008951312
46	0x3e7b1055	0.24517949
47	0x3e142fd0	0.14471364
48	0xbc156abd	-0.009119687
49	0xbeb11e6c	-0.34593523
50	0x3ec6a223	0.38795575
51	0xbdb9caf0	-0.090719104
52	0xbebc99be	-0.36836046
53	0xbe58cb3e	-0.2117128
54	0xbd9a9e56	-0.075497314
55	0x3ebd42e2	0.3696509
56	0x3e3a9cd5	0.18223889
57	0x3ea84789	0.32867077
58	0x3e923461	0.28555587
59	0xbe3478a0	-0.1762414
60	0xbed1c8fa	-0.40973645
61	0x3e1bd1b0	0.15216708
62	0x3d3649aa	0.044503845
63	0xbeab6eb5	-0.334829
64	0xbeb73dc3	-0.35789308
65	0x3da7f5fb	0.08201214
66	0xbecdf19e	-0.40223402
67	0x3e148651	0.14504363
68	0x3ea504bb	0.32230172
69	0x3d551cf0	0.05202955
70	0xbda70b10	-0.08156407
71	0xbea3dac8	-0.32002854
72	0x3e9ee240	0.3103199
73	0xbe6c11f1	-0.23053719
74	0xbe8a531e	-0.27016538

decoder.gru.weight_hh_l0 f4 [15, 5]
0	0x3e43ee52	0.1913388
1	0x3ea953de	0.33071798
2	0xbe039cf7	-0.12852846
3	0x3ea1d186	0.31605166
4	0xbe81dade	-0.25362295
5	0x3e8584b4	0.26077807
6	0xbe1f3359	-0.15546931
7	0x3cf0ad50	0.029379517
8	0xbdebcd61	-0.11513782
9	0x3ea4f527	0.32218286
10	0xbe125041	-0.14288427
11	0x3eb19071	0.34680513
12	0xbce1e771	-0.02757618
13	0xbe80edec	-0.2518152
14	0xbe091894	-0.13388282
15	0xbe33cd7f	-0.1755886
16	0x3e8ec5a6	0.2788517
17	0x3eca74f2	0.39542347
18	0xbd94f8f9	-0.0727405
19	0x3ebb75c5	0.3661329
20	0xbed60255	-0.41798654
21	0x3eb76096	0.35815877
22	0x3ed92def	0.42417857
23	0xbec08d86	-0.37607974
24	0x3e1db2e3	0.15400271
25	0x3e489300	0.19587326
26	0x3da20772	0.07911576
27	0x3e662921	0.22476627
28	0x3d1c68da	0.03818593
29	0xbe890e3a	-0.26768667
30	0xbebfdd81	-0.37473682
31	0xbe756dbd	-0.23967643
32	0xbe902bc3	-0.28158388
33	0x3e9a2dcd	0.30113068
34	0x3ea28806	0.31744403
35	0xbdd58fc4	-0.10427812
36	0xbea46d09	-0.32114437
37	0x3ecb6433	0.39724883
38	0x3ebd688e	0.3699383
39	0x3ea0468c	0.31303823
40	0xbe283c08	-0.1642915
41	0xbedc43b7	-0.43020412
42	0x3e563010	0.20916772
43	0xbee3516b	-0.44398054
44	0xbeac6239	-0.33668688
45	0x3edabcc7	0.4272215
46	0xbebbcc8c	-0.36679494
47	0x3d4551df	0.04817378
48	0xbe804989	-0.25056103
49	0xbede3858	-0.43402362
50	0x3e83c633	0.25737152
51	0x3dc7b332	0.09750976
52	0xbdbe709b	-0.092988215
53	0xbec85dc4	-0.39134037
54	0x3e79192a	0.24326006
55	0xbb8b2a95	-0.0042470195
56	0x3e998778	0.29986167
57	0xbeae8ce4	-0.34091866
58	0xbead827e	-0.3388862
59	0xbea8f6bc	-0.33000743
60	0xbe10c284	-0.14136702
61	0x3ebedab3	0.3727623
62	0x3e047988	0.12936985
63	0xbe60f5be	-0.21968743
64	0x3e359174	0.17731267
65	0xbd4bfc46	-0.049801134
66	0x3eb5ecfe	0.35532373
67	0xbdb7624b	-0.08954295
68	0x3eb0e15b	0.34546933
69	0x3dd49edb	0.10381862
70	0x3d3d52cb	0.046221536
71	0x3e932350	0.2873788
72	0x3ed56e75	0.41685835
73	0x3e9ceac6	0.30647868
74	0xbd13d077	-0.03608748

decoder.gru.bias_ih_l0 f4 [15]
0	0x3dbaed65	0.09127311
1	0xbe7a3da6	-0.2443758
2	0x3e545d22	0.20738652
3	0x3d6043a7	0.05475202
4	0xbe8b2037	-0.27173015
5	0x3e0db896	0.13839945
6	0x3ea15922	0.31513315
7	0x3d900e03	0.070339225
8	0x3de5b1ec	0.112155765
9	0x3dfe9f58	0.12432736
10	0x3ea41441	0.32046703
11	0xbec6f612	-0.38859612
12	0xbead851d	-0.3389062
13	0xbd6ea90e	-0.058266692
14	0x3ecebd9a	0.4037903

decoder.gru.bias_hh_l0 f4 [15]
0	0xbe23c572	-0.15993288
1	0xbc8f249d	-0.017473513
2	0xbd9e4abf	-0.077291004
3	0x3ccd48cd	0.025059128
4	0x3ca6bf20	0.020354807
5	0x3eda3370	0.4261737
6	0xbe100d66	-0.14067611
7	0xbe171b30	-0.14756465
8	0xbd9c4fd0	-0.076324105
9	0x3ec2782b	0.37982306
10	0xbb2dbad9	-0.0026509075
11	0xbe158436	-0.14601216
12	0xbeb2ba7d	-0.34907904
13	0xbeb907c2	-0.3613873
14	0xbe0c4807	-0.13699351

decoder.out.weight f4 [171, 5]
0	0xbed5d7bb	-0.41766152
1	0x3e302b7f	0.17204092
2	0x3ea4b3b7	0.32168362
3	0xbddcb8a1	-0.10777403
4	0xbe5dda0e	-0.21665213
5	0x3e1fc3ed	0.15602084
6	0xbee15865	-0.44012752
7	0x3e7d1398	0.24714506
8	0xbe0d482a	-0.1379706
9	0x3d98bbe7	0.074577145
10	0xbe12b522	-0.14326909
11	0xbcfbe017	-0.030746503
12	0x3dc66bb3	0.09688511
13	0xbe715fd8	-0.23571718
14	0xbe375f0f	-0.17907356
15	0x3ec28e6c	0.37999284
16	0x3eac9389	0.3370631
17	0xbdbf2e7b	-0.09335037
18	0x3ed4474b	0.41460642
19	0x3d8d32cb	0.068944536
20	0x3eddd83b	0.43329033
21	0x3dda3257	0.10654133
22	0xbdf548d1	-0.11976779
23	0xbe99b2ef	-0.30019328
24	0xbe17bba9	-0.1481768
25	0x3edd5244	0.43226826
26	0xbdd4a861	-0.10383678
27	0x3e9d6f15	0.3074881
28	0xbec9c341	-0.3940678
29	0x3eb02552	0.34403473
30	0x3ea0ca4f	0.3140435
31	0x3e35a486	0.17738542
32	0xbdbf4a23	-0.09340312
33	0xbbc5bcac	-0.0060344543
34	0x3e2f0c6a	0.1709458
35	0x3b1da6d5	0.0024055738
36	0xbdc94095	-0.09826771
37	0x3ea7095d	0.3262433
38	0xbe6062fb	-0.21912758
39	0x3eb78b0c	0.35848272
40	0xbeb1af2f	-0.34703967
41	0x3e2c1c1b	0.16807596
42	0x3ee209db	0.44148144
43	0xbc7b764e	-0.01534803
44	0xbd80f944	-0.06297544
45	0x3ea66152	0.32496125
46	0x3df97e20	0.121822596
47	0xbe1e354e	-0.15450022
48	0x3e32091b	0.17386286
49	0x3d1c7685	0.038198967
50	0xbe94ab27	-0.2903683
51	0xbe1d49c9	-0.15360178
52	0x3edf78be	0.43646806
53	0x3ddee049	0.10882623
54	0xbe240907	-0.16019069
55	0x3ea434fb	0.3207167
56	0xbecd8d2a	-0.40146762
57	0xbe6ba2ff	-0.23011397
58	0x3e7eee24	0.24895531
59	0xbee05327	-0.4381344
60	0xbe2ed4cb	-0.17073362
61	0xbcefc34c	-0.02926793
62	0xbe810354	-0.25197852
63	0xbe38b5de	-0.18038127
64	0x3e94dbc9	0.29073933
65	0xbebbad5c	-0.366557
66	0x3ee1b28b	0.4408153
67	0xbede363c	-0.43400753
68	0xbd6c9829	-0.0577623
69	0x3ec36482	0.3816262
70	0xbc862a09	-0.016377466
71	0x3e987d91	0.297833
72	0x3eb6735d	0.3563489
73	0xbea162bc	-0.3152064
74	0xbd95d206	-0.073154494
75	0xbd474c16	-0.048656546
76	0x3e457712	0.19283703
77	0xbe78e3b1	-0.24305607
78	0x3ebcc69e	0.36870283
79	0x3cbacff2	0.022804234
80	0x3ec0fc91	0.37692693
81	0x3cba1b7a	0.02271818
82	0xbecbb65f	-0.39787576
83	0xbe0d11bb	-0.13776295
84	0xbe080da6	-0.13286456
85	0x3ee46fc5	0.44616523
86	0xbe0c4160	-0.13696814
87	0xbe526e2f	-0.20549844
88	0xbe886bbd	-0.26644698
89	0x3e5700b4	0.20996362
90	0x3ecc85ce	0.39945835
91	0x3d776838	0.060402125
92	0x3e1e9aa7	0.15488683
93	0x3ee2a73f	0.44268224
94	0x3ede63bf	0.43435475
95	0xbe1a052d	-0.15041037
96	0xbbe65ab3	-0.007029855
97	0xbeb28fe6	-0.3487541
98	0x3e2c5157	0.16827904
99	0xbe66e9f9	-0.22550191
100	0x3b9e252e	0.0048262095
101	0x3d315026	0.043289326
102	0x3e6783d2	0.22608879
103	0xbe123c48	-0.14280808
104	0x3dd6cdc4	0.104884654
105	0xbd87171a	-0.06596203
106	0x3e6d7ebb	0.23192875
107	0x3eb928a2	0.36163813
108	0xbeb3ccb9	-0.35117128
109	0xbdd06a2d	-0.101765014
110	0x3e30e901	0.17276384
111	0xbe3000a5	-0.17187746
112	0x3edcf697	0.43156883
113	0x3eb4e395	0.3532988
114	0xbe81aa08	-0.25325036
115	0xbda8d059	-0.08242864
116	0x3e2c82da	0.16846791
117	0x3ec6eb9f	0.3885164
118	0x3ddcdf73	0.10784807
119	0xbe675103	-0.22589497
120	0xbccaf033	-0.024772739
121	0xbcd13d5f	-0.02554196
122	0x3dc27294	0.0949451
123	0xbecd0258	-0.4004085
124	0xbe4ab6ee	-0.19796345
125	0xbea5a4fd	-0.3235244
126	0x3dc56c99	0.09639854
127	0xbeb5dce1	-0.3552008
128	0xbea68aae	-0.3252768
129	0x3ecd8934	0.4014374
130	0x3e070e28	0.13188994
131	0xbea9008c	-0.3300823
132	0x3d906bdf	0.07051825
133	0xbedfef14	-0.4373709
134	0xbebfa3dc	-0.37429702
135	0xbe4400b8	-0.19140899
136	0x3e33360a	0.17501083
137	0x3e97b61a	0.2963112
138	0x3edf6769	0.43633583
139	0x3e54a15d	0.2076468
140	0xbe5c03b0	-0.21485782
141	0xbed172cf	-0.40907905
142	0xbde84df2	-0.11342992
143	0xbe25bcbc	-0.16185278
144	0x3ea8462b	0.32866034
145	0x3e24f1b6	0.1610783
146	0x3e1ea77e	0.1549358
147	0x3e906d72	0.282085
148	0x3e3cca4f	0.1843655
149	0xbbec4b95	-0.0072111585
150	0xbe1fff71	-0.15624787
151	0xbe91af07	-0.28453848
152	0xbecccb06	-0.39998645
153	0xbe35d941	-0.17758657
154	0xbd120cf1	-0.035656873
155	0x3e339284	0.1753636
156	0xbd9d8849	-0.0769201
157	0xbe267bd1	-0.1625817
158	0xbd48f116	-0.049058042
159	0xbe6d8d98	-0.23198545
160	0x3ea923c9	0.33035114
161	0xbe6cf9a2	-0.23142102
162	0x3c9f6278	0.019456133
163	0x3e20bd9b	0.15697329
164	0x3dc19b84	0.094534904
165	0xbeb63844	-0.35589802
166	0xbe1a91df	-0.15094708
167	0x3e8ace1b	0.2711037
168	0xbd0aa139	-0.03384516
169	0x3e362fe6	0.1779171
170	0x3ebf6aec	0.37386262
171	0x3e2b4a00	0.16727448
172	0xbe816549	-0.25272587
173	0x3ecabda1	0.395978
174	0xbe8921a4	-0.26783478
175	0x3c761e6d	0.0150219025
176	0x3ec11681	0.37712482
177	0xbecdcd61	-0.40195754
178	0x3ecf08ca	0.40436393
179	0xbe5a4211	-0.21314265
180	0x3e90553b	0.28190026
181	0xbe5a1a3a	-0.21299067
182	0xbdbebd78	-0.09313482
183	0x3e279c68	0.16368258
184	0xbe0f25f1	-0.13979317
185	0x3e533063	0.20623927
186	0x3de519ec	0.11186585
187	0x3e74af1e	0.23894927
188	0xbe65ba3b	-0.22434323
189	0x3e81c6ad	0.2534689
190	0xbeddbfbf	-0.43310353
191	0x3d4b2730	0.04959792
192	0xbd438f76	-0.047744237
193	0x3e36f029	0.17865051
194	0xbe943aed	-0.28951207
195	0x3dc05624	0.0939143
196	0x3e95abd6	0.29232663
197	0x3e298f24	0.1655851
198	0xbe676f4a	-0.22601047
199	0x3d32fb42	0.04369665
200	0x3e949d6a	0.29026347
201	0xbeb320b8	-0.349859
202	0x3dd6e182	0.10492231
203	0x3eb64499	0.3559921
204	0xbdf2e16f	-0.11859404
205	0x3cbd8507	0.023134721
206	0x3ea5d3d0	0.32388163
207	0xbeabe3f2	-0.33572346
208	0x3e6fde96	0.23424754
209	0x3edaf471	0.4276462
210	0xbed97c86	-0.42477816
211	0xbea78c4c	-0.32724226
212	0x3e21a83a	0.1578683
213	0xbde10258	-0.10986775
214	0xbec6f2de	-0.38857168
215	0xbdd16896	-0.10225026
216	0x3e01ec36	0.12687764
217	0x3e96c921	0.29450324
218	0xbe50cff6	-0.20391831
219	0x3e913d90	0.2836728
220	0xbec217e2	-0.37908846
221	0xbccf90ae	-0.025337543
222	0xbea69826	-0.32537955
223	0x3e348e80	0.17632484
224	0x3ed917a4	0.4240085
225	0xbe44d094	-0.19220191
226	0x3e4aea1e	0.19815871
227	0x3ec8ad81	0.39194873
228	0xbeb4d0c1	-0.35315517
229	0xbea7287b	-0.32648072
230	0xbcc904a8	-0.024538353
231	0x3b31c5a0	0.002712585
232	0x3d93ca21	0.072162874
233	0x3d6d32d9	0.05790982
234	0xbe8041b4	-0.25050128
235	0xbe8b3bbc	-0.2719401
236	0xbeccc782	-0.39995962
237	0xbe1fa1ca	-0.15589061
238	0x3e90d5bf	0.28288075
239	0xbeafbcb6	-0.34323663
240	0xbe630dbb	-0.22173207
241	0xbe7f4344	-0.24928004
242	0xbe79c300	-0.24390793
243	0x3e323fe9	0.17407192
244	0xbc83fb73	-0.016111111
245	0xbe38d17b	-0.1804866
246	0xbe52dc74	-0.20591909
247	0x3d41ea3b	0.04734252
248	0xbe1b9f96	-0.15197596
249	0xbe023856	-0.12716803
250	0xbe964aa1	-0.29353812
251	0x3e871022	0.26379496
252	0xbead146e	-0.3380465
253	0xbe3d5f14	-0.184933
254	0xbea086a6	-0.3135273
255	0xbe669db8	-0.22521102

decoder.out.bias f4 [171]
0	0xbead41d1	-0.33839276
1	0xbd3f1e4d	-0.046659756
2	0xbd3495ca	-0.044088162
3	0xbe92788e	-0.286076
4	0x3e6ced44	0.23137385
5	0x3ecd5c40	0.40109444
6	0x3df8e567	0.1215313
7	0xbe718248	-0.23584855
8	0x3eb361c2	0.3503552
9	0xbdb316e7	-0.08744603
10	0x3e85c557	0.2612712
11	0xbcb6a416	-0.02229504
12	0x3e972686	0.2952158
13	0x3e98d3a2	0.29848963
14	0x3e091789	0.13387884
15	0x3ecb94dc	0.39762008
16	0x3daecde3	0.085353635
17	0xbbe9a83e	-0.0071306517
18	0x3ec3e533	0.38260803
19	0x3e94171d	0.28923884
20	0xbe9c593b	-0.30536827
21	0xbe7b0a89	-0.24515738
22	0xbce3304f	-0.027732996
23	0x3d93a79b	0.072097026
24	0xbea40d92	-0.32041603
25	0xbea4f7b7	-0.3222024
26	0x3e70a4ea	0.2350041
27	0x3ea4d2fd	0.3219222
28	0x3e86de3b	0.26341423
29	0xbe252b1e	-0.16129729
30	0x3de12cb7	0.10994857
31	0x3ed52635	0.41630712
32	0x3e3cfebe	0.18456551
33	0x3e8bbd83	0.27293023
34	0x3e96340e	0.2933659
35	0xbe08a348	-0.13343537
36	0xbeccadbe	-0.39976305
37	0x3e6bd77e	0.23031422
38	0xbe84d03e	-0.25940126
39	0xbed67ccc	-0.41892087
40	0xbdd15c26	-0.10222654
41	0xbebbb570	-0.36661863
42	0x3db5b6e8	0.08872777
43	0x3dfe360a	0.12412651
44	0x3de15f15	0.110044636
45	0x3dc32f1f	0.09530472
46	0xbed3da00	-0.41377258
47	0x3e6e00a2	0.23242429
48	0x3e236763	0.15957408
49	0xbedc4084	-0.43017972
50	0xbd0ee672	-0.03488774
51	0xbe3ea866	-0.18618926
52	0x3e5b37ce	0.21408007
53	0x3e6012a4	0.21882111
54	0xbe641c8a	-0.22276512
55	0x3d504c40	0.050853968
56	0x3eb75730	0.35808706
57	0x3eb968b0	0.36212683
58	0xbecb8853	-0.39752445
59	0x3e7b6029	0.24548401
60	0xbc84c145	-0.01620544
61	0x3e21b5d6	0.15792021
62	0xbe616aac	-0.22013348
63	0x3dd0ec35	0.10201303
64	0xbe94f64b	-0.29094157
65	0x3d61f4a1	0.055164937
66	0xbd6dda4d	-0.058069516
67	0xbe159901	-0.14609148
68	0xbe41bb04	-0.18918997
69	0x3ed59df4	0.4172207
70	0x3c82ea60	0.0159809
71	0x3c64335f	0.013928263
72	0xbe87079a	-0.26372987
73	0x3edefd2b	0.43552527
74	0xbe82314f	-0.25428244
75	0xbeb15f8b	-0.34643206
76	0xbe5a1210	-0.21295953
77	0x3eb3eda5	0.35142246
78	0xbe044888	-0.12918293
79	0xbe2e68d9	-0.17032184
80	0xbea84de3	-0.32871923
81	0xbd897f7a	-0.06713767
82	0xbebf6eae	-0.3738913
83	0x3ecb4b90	0.39706087
84	0x3e3f596f	0.1868646
85	0x3e41e04c	0.18933219
86	0xbeab105c	-0.3341092
87	0x3d098740	0.03357625
88	0xbebf75b1	-0.3739448
89	0xbe43747c	-0.19087404
90	0x3b576084	0.0032863924
91	0x3cad29f2	0.021138165
92	0xbe487826	-0.19577083
93	0x3e452cee	0.1925542
94	0xbe1d76ed	-0.15377398
95	0x3e9b2493	0.3030134
96	0x3e91117e	0.28333658
97	0xbe4f23af	-0.20228456
98	0x3da8ac60	0.08236003
99	0xbd20fd0c	-0.039303824
100	0x3d8c5fc8	0.06854206
101	0xbe77367b	-0.24141876
102	0x3df1a57f	0.11799144
103	0xbebed3cf	-0.37270972
104	0x3e9fe404	0.3122865
105	0xbed85d7b	-0.4225882
106	0x3edf5dd8	0.43626285
107	0xbeb29d88	-0.34885812
108	0xbe5706b8	-0.20998657
109	0x3ed04640	0.40678596
110	0xbe0066a9	-0.12539162
111	0xbebf6fe7	-0.37390062
112	0x3e141ffd	0.14465328
113	0x3d6e44a6	0.058170937
114	0xbe850f84	-0.259884
115	0x3e0f8bb8	0.14018142
116	0x3cb56cca	0.022146601
117	0x3e7ad536	0.24495396
118	0x3ec1f308	0.3788073
119	0xbea20c4b	-0.31650004
120	0x3d0cbc4b	0.034359258
121	0xbe8f8ebb	-0.28038582
122	0xbd785209	-0.06062511
123	0xbd5a15c2	-0.053243406
124	0xbe80f0b5	-0.25183645
125	0xbecd6011	-0.40112355
126	0x3d0bad80	0.03410101
127	0x3ee0b304	0.43886578
128	0xbd6a1f49	-0.057158742
129	0xbe9d6fcc	-0.30749357
130	0x3de989f2	0.11403264
131	0xbed6d1f1	-0.41957048
132	0xbc9f6072	-0.019455168
133	0xbec85c8b	-0.39133105
134	0x3ccb119a	0.024788667
135	0x3e9f86d6	0.3115756
136	0x3e5e1217	0.21686588
137	0x3eb2b0c1	0.34900478
138	0xbe838d2a	-0.25693637
139	0x3e790ce1	0.24321319
140	0x3e89ab65	0.26888576
141	0xbebe3ce0	-0.3715582
142	0x3e8112ab	0.25209555
143	0xbed3d66b	-0.41374525
144	0xbeb38ef1	-0.35069993
145	0x3de79b7c	0.11308953
146	0xbe9d62d7	-0.3073947
147	0x3d83cf54	0.06436029
148	0xbe949696	-0.29021138
149	0xbe9b9e5d	-0.3039426
150	0x3e00103a	0.1250619
151	0xbe99aeef	-0.30016276
152	0x3e314e2b	0.17314975
153	0xbeb5d5ea	-0.35514766
154	0x3ed46879	0.41485956
155	0x3e3942eb	0.18091933
156	0x3e64f034	0.22357255
157	0xbcb78e89	-0.022406833
158	0x3ed03181	0.40662768
159	0x3e9c5a66	0.3053772
160	0x3e63b939	0.22238626
161	0x3e13e2e3	0.14442019
162	0xbe40f9a1	-0.18845226
163	0xbc76b616	-0.015058061
164	0xbe915f6e	-0.2839312
165	0x3da6a565	0.08137015
166	0xbeb09ae1	-0.34493163
167	0xbe466a79	-0.19376554
168	0xbe51a833	-0.20474319
169	0x3d95a7c1	0.07307387
170	0xbd8314c7	-0.06400447
