best_models/seq2seq-2021-03-22-11-29-02.pt (torch, 493917 bytes, 11 tensors)

decoder.embedding.weight f4 [193, 100]
0	0x3ef332a4	0.47499573
1	0x3f95fdd2	1.1718085
2	0xbfb8095a	-1.4377854
3	0x3e860aad	0.2618002
4	0x3e78224d	0.24231835
5	0x3c58ef12	0.013240593
6	0xbfc370bb	-1.5268778
7	0x3fa79175	1.3091265
8	0xbf18cf13	-0.5969097
9	0x400f7416	2.2414603
10	0x3f4ef6ac	0.8084514
11	0x3f00b7e3	0.5028059
12	0xbef66c97	-0.48129722
13	0x3fa85a2f	1.3152522
14	0xbf28f1c2	-0.65993893
15	0xbf5ddd1b	-0.86665505
16	0x3e67ce85	0.22637375
17	0xbf8f683a	-1.1203682
18	0xbf388a91	-0.72086436
19	0xbf17c2cc	-0.5928161
20	0x3f2d1dbd	0.676235
21	0xbfccb3c8	-1.5992365
22	0xbf6c8100	-0.9238434
23	0x3e99bd74	0.30027354
24	0xbfb58964	-1.4182553
25	0x3d1b62f4	0.037936166
26	0xbf3f5a60	-0.74747276
27	0x3fbe85ac	1.4884543
28	0xbe874c0d	-0.2642521
29	0x404db107	3.21393
30	0xbf7edb3b	-0.9955327
31	0x3f774498	0.9658904
32	0x3f6aa322	0.9165517
33	0x3d00c706	0.031439804
34	0xc028822d	-2.6329453
35	0xbfcae2a8	-1.585042
36	0xbeb7ce35	-0.3589951
37	0xbec29240	-0.38002205
38	0xbf568399	-0.8379455
39	0x3e15d195	0.1463073
40	0x3bb02940	0.005376011
41	0xbebb5564	-0.36588585
42	0x3f76aefb	0.9636075
43	0x3f7dd221	0.99148756
44	0x3de55d29	0.111994095
45	0x3fa56e7e	1.2924345
46	0x3fdcb189	1.724168
47	0xbe8e0188	-0.27735543
48	0xbfa9dd86	-1.3270729
49	0x3fd14917	1.635043
50	0x3f7e3c9a	0.9931122
51	0x3f83c568	1.0294619
52	0xbe117938	-0.14206398
53	0xbf192429	-0.598208
54	0xbf351a4b	-0.70743245
55	0xbfd528f7	-1.6653126
56	0xbfa41118	-1.2817717
57	0x3ef10922	0.4707728
58	0x3d8056aa	0.0626653
59	0xbf5d65de	-0.8648356
60	0xbfb25e8e	-1.3935106
61	0xc002dc12	-2.044682
62	0xbf0900f5	-0.53517085
63	0xbf2c1f7d	-0.6723555
64	0xbf256613	-0.6460888
65	0xbf80d968	-1.0066347
66	0xbc9b8e5c	-0.01898878
67	0xc04be1cb	-3.1856563
68	0xbd7a990f	-0.061181124
69	0xbfe5f011	-1.7963887
70	0xbfa96bd4	-1.3236032
71	0xbfe456ee	-1.7839029
72	0xc010e440	-2.2639313
73	0xbf4f447f	-0.8096389
74	0x3e96c635	0.29448095
75	0xbea493f7	-0.32144138
76	0x3f1b8a1e	0.60757625
77	0xbfcb6ae3	-1.5891994
78	0x3f059155	0.52174884
79	0xbf3cde40	-0.73776627
80	0xbdbc04e4	-0.0918062
81	0x3e881426	0.26577872
82	0x3d96a818	0.0735628
83	0xbf117e70	-0.56833553
84	0x3dc7c945	0.09755186
85	0x3ff757e5	1.9323698
86	0xbd5e9c2e	-0.054348163
87	0x3fad9253	1.356028
88	0xbf2c5d94	-0.6733029
89	0xbe340c4d	-0.17582817
90	0x3ed7b99f	0.42133805
91	0x3e31df4d	0.17370339
92	0xbf1ac7a1	-0.6046086
93	0x3f1c1f51	0.60985285
94	0xbe90241b	-0.28152546
95	0xbe9c58ad	-0.30536404
96	0x3f71c526	0.9444145
97	0x3eb528ea	0.35382777
98	0xbfaf1427	-1.3678025
99	0x3ec93357	0.39296982
100	0x3f88e401	1.0694581
101	0x3eaa3c99	0.33249357
102	0xbf8f1ef7	-1.1181325
103	0x3f582072	0.8442451
104	0xbf49d5ab	-0.78841656
105	0xbfef3b33	-1.8689941
106	0x3e1ffa45	0.15622814
107	0xbe140560	-0.14455175
108	0xbeba0de3	-0.3633872
109	0xbfb48e0d	-1.410585
110	0x3e3a2859	0.18179454
111	0xbf50c476	-0.81549776
112	0x3df503bf	0.11963605
113	0x3f828352	1.0196326
114	0xbfb7c7c8	-1.4357843
115	0x3e965d60	0.29368114
116	0xbf784a11	-0.96988016
117	0xbd8cd31b	-0.06876203
118	0x3f73635b	0.9507348
119	0x3eac71fe	0.3368072
120	0xbf1a96f1	-0.6038657
121	0x3ee51d0a	0.44748718
122	0x3f256f85	0.6462329
123	0x3fa1e580	1.2648163
124	0xbfde7a3b	-1.7381052
125	0x3ebd6623	0.36991987
126	0x3f111663	0.56674784
127	0x3ece0256	0.40236157
128	0x401db322	2.4640584
129	0x3f9cfa13	1.2263817
130	0x3f075fed	0.52880746
131	0xbfb5ff5d	-1.4218556
132	0xbed23153	-0.41053256
133	0xbfd94956	-1.6975505
134	0xbf3d2692	-0.7388698
135	0x3f28a4ab	0.65876263
136	0x3fb0bed9	1.3808242
137	0x3e05bf46	0.13061246
138	0x3f5be9ab	0.85903424
139	0xbfba9205	-1.4575812
140	0x3f2a23dc	0.6646097
141	0xc029f843	-2.6557777
142	0xbfd68be0	-1.6761436
143	0x3e98449d	0.29739848
144	0x3e1ee8da	0.15518513
145	0x3cb95b05	0.02262641
146	0xbe27f813	-0.16403227
147	0xbed5a4a3	-0.4172717
148	0xbf9e38da	-1.23611
149	0xbfa65b77	-1.2996663
150	0xbd8861bf	-0.066592686
151	0xbf24488e	-0.6417321
152	0x3eb809c2	0.35944945
153	0x4023c15b	2.5586765
154	0x3df625a0	0.12018895
155	0xbe01a26a	-0.12659612
156	0x3f98314d	1.1890045
157	0x3f8a6ed6	1.0815074
158	0xbe77781d	-0.24166913
159	0xbe0abca2	-0.1354852
160	0xbe436932	-0.19083098
161	0x3f6ee739	0.9332157
162	0xbf5b173e	-0.8558234
163	0x3f03aa48	0.51431704
164	0x3e50b35d	0.20380922
165	0xbf2d8d5f	-0.6779384
166	0x3f11126d	0.5666874
167	0x401dda23	2.466439
168	0xbfe54b12	-1.7913535
169	0x3f361c05	0.71136504
170	0x3fd60cb1	1.6722623
171	0xbfa1f0e8	-1.2651644
172	0xc0471d68	-3.1111698
173	0xbf8250da	-1.0180924
174	0xbfcdf0a7	-1.6089066
175	0x3fb81477	1.4381245
176	0x3f2c16fe	0.67222583
177	0xbf443d47	-0.76656
178	0x4000c61e	2.012092
179	0xbfa0719f	-1.2534674
180	0x3f162cd1	0.58662134
181	0xbfe18be2	-1.7620814
182	0x3fb828e5	1.438748
183	0x3fcac20f	1.5840472
184	0x402a08f0	2.6567955
185	0x3fc5c8ee	1.5451944
186	0xbedfc3c3	-0.43704042
187	0x3ef13ef6	0.47118348
188	0x3e9fa624	0.31181443
189	0x3e2a0268	0.1660248
190	0x3fc5e70e	1.5461137
191	0xbf54520d	-0.829377
192	0xbf0f86d7	-0.56065124
193	0x3eb15a4b	0.346392
194	0x3f0572b2	0.52128136
195	0x3ec8d29a	0.39223176
196	0xbe33d9a2	-0.17563489
197	0xbe3253a9	-0.17414726
198	0xbe33a459	-0.17543162
199	0xbebfc922	-0.3745814
200	0x3b82e662	0.003994749
201	0xbecd0e96	-0.4005019
202	0xbf570757	-0.83995575
203	0xbf83eda1	-1.0306894
204	0x3fd9019f	1.695362
205	0x3f1ddf39	0.61668736
206	0xbf5c7077	-0.8610911
207	0xbed5dbe8	-0.41769338
208	0xbf8669c5	-1.0501028
209	0xbf84813e	-1.0351942
210	0xbfe45e20	-1.7841225
211	0x3f98fefe	1.1952817
212	0xbfebacae	-1.8412073
213	0x3e9f245e	0.31082433
214	0x3fab9a5e	1.3406484
215	0xbec49800	-0.38397217
216	0xbf18ed9e	-0.59737575
217	0x3daf411c	0.085573405
218	0xbfc3be0a	-1.529237
219	0x3f817a6b	1.0115484
220	0x3f02b5ac	0.5105846
221	0xbd906462	-0.070503965
222	0xbeb19c4d	-0.3468956
223	0xbf5dc6b2	-0.8663131
224	0x3ebd1e8b	0.36937365
225	0xbd6f8e12	-0.0584851
226	0x3dcc4cf3	0.099756144
227	0x3db4b9a9	0.08824474
228	0x3f88cec8	1.0688105
229	0x3d65608a	0.05600027
230	0xc0074e26	-2.1141448
231	0xbeda9f69	-0.42699745
232	0xbf163991	-0.5868159
233	0xbfd8f06e	-1.6948373
234	0xbfea1a5a	-1.8289292
235	0x3f477dff	0.7792663
236	0xbffc2265	-1.9697996
237	0xbdea1284	-0.11429313
238	0xbf0a64d6	-0.54060113
239	0x3f66a40d	0.9009407
240	0x3ebd8733	0.3701721
241	0xbf4663ac	-0.7749584
242	0xbeac81cb	-0.33692774
243	0xbf3d87e8	-0.740355
244	0x3e345940	0.17612171
245	0x3fbcb802	1.4743655
246	0x3f85c072	1.0449355
247	0xbefbc63a	-0.49174672
248	0x3f7a0767	0.97667545
249	0x3f21e6a8	0.6324258
250	0x3fa1cbb9	1.2640296
251	0x3f42c84d	0.76086885
252	0x3f8aced7	1.0844373
253	0x3d8c2fd6	0.068450615
254	0xbeacd7a1	-0.33758262
255	0xbef6dc39	-0.48214892

decoder.attn.weight f4 [15, 200]
0	0xbd478a79	-0.048716042
1	0xbc989db2	-0.018629882
2	0xbc1ffb25	-0.009764467
3	0xbc9d9cb4	-0.019239761
4	0xbd0ae8eb	-0.033913534
5	0xbd2ee3d7	-0.042697754
6	0xbcd455e2	-0.025919858
7	0xbd0a4193	-0.033753943
8	0xbd109b12	-0.035304137
9	0x3d0e45f4	0.03473468
10	0xbb0a4be9	-0.0021102375
11	0x3d3a73c8	0.045520574
12	0x3d2a4abb	0.041575175
13	0x3ce77f7a	0.028259028
14	0x3d8df88c	0.06932172
15	0x3cb69b26	0.022290777
16	0x3d12e0a1	0.035858754
17	0x3d3f3fc8	0.046691686
18	0x3c28c755	0.010301431
19	0x3d23be38	0.03997633
20	0xbc6436fc	-0.013929125
21	0xbc892d3f	-0.016745208
22	0xbd234536	-0.039860927
23	0xbd73c10a	-0.05951027
24	0xbd43568c	-0.04768996
25	0xbd824f35	-0.06362764
26	0x3d88b602	0.0667534
27	0x3d17117d	0.036881912
28	0xbd238c62	-0.0399288
29	0xbca7a1a3	-0.020462817
30	0x3abe21ed	0.001450596
31	0xbd7fc21b	-0.062440973
32	0xbd432bb4	-0.0476491
33	0xbb2d248d	-0.002641949
34	0x3d0d109a	0.03443966
35	0xbc0afe6e	-0.008483512
36	0x3d4db34d	0.050219823
37	0x3d40410f	0.046937045
38	0x3d53da58	0.0517219
39	0xbd2b0e7e	-0.041761868
40	0xbb85d9d2	-0.004084804
41	0x3cd1c7e4	0.02560801
42	0xbd518056	-0.05114778
43	0xbd4f077c	-0.050544247
44	0x3cf0b05f	0.029380975
45	0x3d9a464a	0.07532938
46	0xbd3a7aff	-0.045527454
47	0xbca6a0be	-0.02034032
48	0xbcd93cb8	-0.02651821
49	0xbb86a459	-0.0041089472
50	0xbd075b39	-0.03304598
51	0xbd58e4d4	-0.052952603
52	0x3d900c1a	0.07033558
53	0x3d217053	0.03941376
54	0xbd57af10	-0.052657187
55	0x3d88ba2e	0.06676136
56	0x3d531647	0.051534917
57	0x3af5e850	0.0018761251
58	0xbd448aa1	-0.04798377
59	0xbc53f46e	-0.012936695
60	0xbcabba7a	-0.020962942
61	0xbd515c0a	-0.051113166
62	0xbc46d57d	-0.0121358605
63	0x3d17cdea	0.03706161
64	0xbcfc6b35	-0.030812839
65	0xbd84ef4b	-0.06490954
66	0x3c28b600	0.010297298
67	0x3d835a0a	0.06413658
68	0x3d3543a6	0.044253968
69	0x3d34b927	0.044121888
70	0x3d5e33ac	0.054248497
71	0xbcb723d2	-0.022355948
72	0x3d4e68f1	0.05039305
73	0x3d88a241	0.066715725
74	0xbbec042f	-0.007202647
75	0xbc6fcc9e	-0.014636187
76	0x3d2010ba	0.03907845
77	0x3cca1b10	0.024671108
78	0xbd8a0f81	-0.067412384
79	0x3d87fbbe	0.06639813
80	0xbd03c9c4	-0.03217484
81	0x3d274bf0	0.040843904
82	0x3d23f675	0.04002996
83	0x3c24a2bf	0.010048567
84	0x3d0f038a	0.034915484
85	0x3cd858a5	0.026409457
86	0xbcd23291	-0.025658878
87	0x3d217a79	0.03942344
88	0x3d3ec10c	0.046570823
89	0x3d45358b	0.048146766
90	0xbcc03a49	-0.023465293
91	0xbd303ede	-0.043028705
92	0xb6fe4f09	-7.578991e-06
93	0xbd324ba2	-0.04352916
94	0x3d5dacd4	0.0541199
95	0x3cdd13f5	0.026987055
96	0xbd8cd063	-0.06875684
97	0xbbb8ce71	-0.005639844
98	0xbd6b4ba3	-0.05744518
99	0xbd702ba4	-0.05863537
100	0xbc8a69b3	-0.016896104
101	0x3d0a436b	0.0337557
102	0x3c94c910	0.01816228
103	0xbb5c9c51	-0.0033662508
104	0x3d6e26dc	0.058142528
105	0xbd86d465	-0.0658348
106	0xbd344c4c	-0.044018075
107	0xbcff1e6d	-0.031142438
108	0xbc9ce794	-0.019153394
109	0x3d759dd7	0.05996498
110	0x3bade03e	0.005306273
111	0x3ceff362	0.029290859
112	0xbd5e342c	-0.054248974
113	0xbc792610	-0.015206829
114	0xbc5e2d8f	-0.013560667
115	0x3d242307	0.040072467
116	0xbad0cdf4	-0.001593052
117	0xbd0b3be4	-0.033992663
118	0xbc407ba5	-0.011748229
119	0xbd4181d6	-0.04724296
120	0xbd038726	-0.03211131
121	0xbc31c56a	-0.01085029
122	0x3d8d8523	0.069101594
123	0xbd8ad713	-0.067793034
124	0xbc8dac7f	-0.017294167
125	0xbd8dacbd	-0.06917713
126	0x3d82120b	0.06351098
127	0xbbbeeee9	-0.00582682
128	0x3cde0308	0.027101055
129	0x3d6590e2	0.056046374
130	0x3cfb7f6c	0.030700408
131	0x39d8367c	0.00041239324
132	0x3cbe1c78	0.023206934
133	0x3d0e2d92	0.034711428
134	0xbbd245af	-0.0064169983
135	0xbd496809	-0.04917148
136	0x3d145c51	0.036220852
137	0xbc8470c4	-0.016167052
138	0xbd2876ff	-0.04112911
139	0xbc501a32	-0.012701558
140	0x3cf061d1	0.029343517
141	0xbcb5fd36	-0.022215467
142	0x3c8a8b12	0.016912017
143	0xbce36e16	-0.027762454
144	0xbd141c66	-0.036159895
145	0xbc4c19ed	-0.012457353
146	0x3d76166c	0.060079977
147	0x3d5960b1	0.053070728
148	0x3d8cb572	0.068705454
149	0xbd70e12d	-0.058808494
150	0xbcb0abe3	-0.021566337
151	0xbc8defd2	-0.01732627
152	0xbd69dec2	-0.057097204
153	0x3cefea1b	0.029286435
154	0x3d7b1324	0.06129755
155	0xbc3bd455	-0.011464198
156	0xbd5c06a8	-0.053717285
157	0xbd4c3489	-0.04985479
158	0x3c7655eb	0.015035133
159	0x3b57e225	0.003294119
160	0xbc645b73	-0.013937819
161	0xbd80d756	-0.06291072
162	0xbd120893	-0.03565271
163	0x3d5af78f	0.053458747
164	0x3ca20492	0.01977757
165	0x3d7bc84b	0.06147031
166	0x3c7fc295	0.015610357
167	0x3a67f757	0.0008848807
168	0xbaf36262	-0.0018568749
169	0xbc9a9011	-0.018867524
170	0xbd6a2a8c	-0.057169482
171	0x3c6aac21	0.014323265
172	0xbd8e4063	-0.069458745
173	0x3d2f907f	0.04286241
174	0xbcf3956f	-0.029734341
175	0x3d5e27cf	0.054237183
176	0xbcfbaab2	-0.030721042
177	0x3c796d43	0.015223804
178	0xbd386ab6	-0.045023642
179	0xbc46e7ff	-0.012140273
180	0xbbf51f6c	-0.0074805524
181	0x3d4aeba6	0.049541138
182	0xbd8438a6	-0.06456117
183	0x3d5fb540	0.054616213
184	0xbd14209c	-0.03616391
185	0xbc225851	-0.009908752
186	0xbd8ca799	-0.06867904
187	0x3b3afc86	0.0028531863
188	0xbc62c98d	-0.013841999
189	0x39e20309	0.0004310834
190	0x3caec270	0.02133295
191	0xbc8d64cd	-0.01725998
192	0xbd219319	-0.039446924
193	0xbc2461a5	-0.010033046
194	0x3bc94df5	0.0061433264
195	0xbbc58b74	-0.006028587
196	0xbccdd2dd	-0.025124962
197	0xbd4c7359	-0.04991469
198	0x3d530af9	0.051524136
199	0xbd1b9b37	-0.03798982
200	0x3c8f59d1	0.017498882
201	0x3d0e8790	0.03479725
202	0xbd32d95b	-0.043664318
203	0xbd56ba51	-0.05242378
204	0xbd16dc7e	-0.03683137
205	0x3d071292	0.032976694
206	0xbbe41b64	-0.006961273
207	0xbd0b0596	-0.033940874
208	0x3bfd7940	0.0077354014
209	0x3ce068ed	0.027393783
210	0x3d95d5e0	0.07316184
211	0x3d784b4a	0.060618676
212	0xbc210878	-0.009828679
213	0x3cbdbe8b	0.023162147
214	0x3bf1fc37	0.0073848027
215	0x3d3b573d	0.045737494
216	0x3d2695b7	0.040670123
217	0x3c826712	0.015918288
218	0x3d243688	0.040091068
219	0xbd1b0724	-0.037848607
220	0xb93fe125	-0.00018299052
221	0x3ce78a45	0.028264174
222	0xbc3deff0	-0.01159285
223	0xbd2c2f50	-0.04203731
224	0xbd7cb90a	-0.061699905
225	0xbd0e592b	-0.034753006
226	0xbd418800	-0.04724884
227	0x3b2ab5ca	0.0026048296
228	0x3cf77e1d	0.030211503
229	0x3d54744c	0.05186872
230	0x3cde942d	0.027170265
231	0x3c3ce9a2	0.011530312
232	0xbd025550	-0.03181964
233	0xbbcbf090	-0.0062237456
234	0xbd8bf9bc	-0.068347424
235	0x3d2874b0	0.041126907
236	0x3d30bdaf	0.043149646
237	0x3c9f6fd6	0.019462507
238	0xbd93a4a6	-0.072091386
239	0xbd39b4e5	-0.04533853
240	0xbce9f3df	-0.02855867
241	0x3ced8f90	0.02899912
242	0xbd7b30cb	-0.06132583
243	0xbc3d0d29	-0.011538782
244	0x3d317707	0.043326404
245	0x3c834c27	0.016027523
246	0xbd507ee9	-0.05090228
247	0xbb33ebd5	-0.00274538
248	0xbc18fda5	-0.009337817
249	0xbd252622	-0.04031957
250	0xbc400ac4	-0.011721317
251	0x3d78f173	0.06077714
252	0xbd01af9d	-0.03166162
253	0x3d280eae	0.041029625
254	0xbc09635d	-0.008385506
255	0xbd34c742	-0.04413534

decoder.attn.bias f4 [15]
0	0x3cf7d165	0.030251214
1	0xbc224ca0	-0.009905964
2	0x3b302e0b	0.0026882912
3	0x3d640d9b	0.055677038
4	0x3d6074b4	0.054798797
5	0xbca62801	-0.020282747
6	0xbd22f209	-0.039781604
7	0xbd04eb5c	-0.03245102
8	0xbb09f4d8	-0.002105048
9	0x3d885c9e	0.0665829
10	0xbc96afec	-0.018394433
11	0xbd3c60f7	-0.04599091
12	0x3c836c59	0.016042875
13	0xbd2bda83	-0.041956436
14	0x3b5f039d	0.0034029253

decoder.attn_combine.weight f4 [100, 200]
0	0x3b64108b	0.00347999
1	0xbda2ee3c	-0.07955596
2	0x3d0ca9f6	0.034341775
3	0x3bc3db4d	0.0059770704
4	0xbcf6ca94	-0.030125894
5	0xbc319218	-0.010838054
6	0x3cfa2e15	0.030539552
7	0x3c85df7f	0.016341923
8	0x3ccf9065	0.025337407
9	0x3db8a0f8	0.09015077
10	0xbd4bc12d	-0.049744774
11	0xbca9a773	-0.020709729
12	0xbd3d6f61	-0.046248797
13	0xbc81848d	-0.015810275
14	0x3c00a3bb	0.007851536
15	0xbd0ad87e	-0.03389787
16	0x3d68dc03	0.056850445
17	0x3da3cf0f	0.07998478
18	0x3b31bbdc	0.002712003
19	0x3d292c45	0.041301984
20	0xbd4f4bfe	-0.05060958
21	0x3d862b54	0.06551233
22	0x3d9f015d	0.07763932
23	0x3ab53211	0.0013824125
24	0xbd851283	-0.064976715
25	0xbcbf923a	-0.023385156
26	0x3cd89e1c	0.02644258
27	0xbd56d0d0	-0.052445233
28	0xbd0304ee	-0.031987123
29	0x3d355904	0.044274345
30	0x3c06b688	0.00822223
31	0xbd277541	-0.040883306
32	0x3d238444	0.03992106
33	0x3dd03646	0.10166602
34	0xbcca04a3	-0.024660414
35	0x3d047bf0	0.03234476
36	0xbcd69139	-0.026192294
37	0xbd04d887	-0.03243306
38	0x3d28e573	0.041234445
39	0xbcd0faa6	-0.025510143
40	0x3d070e3f	0.03297257
41	0x3c81f4fe	0.015863892
42	0xbcbda1e6	-0.023148488
43	0x3cc2f436	0.02379809
44	0x3b51846f	0.0031969806
45	0x3d5e0a94	0.054209307
46	0x3cc3d34f	0.02390447
47	0x3d6ba64a	0.057531632
48	0xbce0989c	-0.02741652
49	0xbcbe7ba5	-0.023252318
50	0x3d918d1d	0.07106993
51	0xbd29efa0	-0.04148829
52	0x3d80f35d	0.06296418
53	0xbd6d2833	-0.057899665
54	0x3d5f556e	0.05452483
55	0xbceaddd7	-0.028670235
56	0xbcc88629	-0.024478035
57	0xbcfbe3d6	-0.03074829
58	0x3d0ae10a	0.03390602
59	0xbd2f5b3a	-0.04281161
60	0xbc84fa6f	-0.016232697
61	0xbd355fe0	-0.044280887
62	0x3d12fc35	0.035885055
63	0x3da2c0fe	0.079469666
64	0xbd8bc716	-0.06825082
65	0x3d30c3fe	0.043155663
66	0x3c5d0c68	0.013491727
67	0x3cfd96bb	0.030955663
68	0x3bfecd49	0.0077759367
69	0x3d892a4c	0.066975206
70	0x3d3b0f34	0.045668796
71	0xbcb63a06	-0.022244465
72	0x3d0ec2f4	0.03485389
73	0xbd331bcd	-0.043727685
74	0xbcab0dc4	-0.020880587
75	0xbd93b2fe	-0.072118744
76	0x3cea5a0f	0.028607396
77	0x3c90fed2	0.017699633
78	0xbd802677	-0.062573366
79	0xbda169a5	-0.07881478
80	0xbcd9f8ba	-0.02660786
81	0x3d90baf1	0.07066906
82	0xbd7f6c53	-0.062359165
83	0xbd62e3e3	-0.05539311
84	0xbd86512a	-0.065584496
85	0x3a1b568a	0.0005925676
86	0x3d1b6b88	0.037944347
87	0xbdafabbc	-0.085776776
88	0xbd2fe960	-0.042947173
89	0xbc911ebd	-0.017714852
90	0x3bcf659b	0.006329251
91	0x3c579e32	0.013160275
92	0x3b0c59e6	0.0021415888
93	0xbb3240ed	-0.0027199343
94	0x3d3b296e	0.045693807
95	0x3c4a1893	0.0123349605
96	0x3d85932e	0.06522213
97	0xbcdab874	-0.026699282
98	0xbd06dea2	-0.032927163
99	0xbbfdc6b0	-0.0077446327
100	0xbc1121ab	-0.008858125
101	0xbd00d0c8	-0.03144911
102	0x3d8899a1	0.066699274
103	0xbc5e4296	-0.01356568
104	0xbd6066f1	-0.054785673
105	0x3d3549b5	0.044259746
106	0xbd03a1cb	-0.03213672
107	0x3c74accb	0.014933775
108	0x3d79daff	0.060999867
109	0x3d6fdc54	0.05855973
110	0x3c639a4e	0.01389177
111	0x3bb3d6b3	0.0054882406
112	0xbd9442ce	-0.072393045
113	0x3b31883d	0.002708926
114	0x3d67eedc	0.05662428
115	0x3c0f35d5	0.008740862
116	0xbc101806	-0.00879479
117	0x3d12dfae	0.03585785
118	0xbd15a57b	-0.036534768
119	0x3d32827b	0.043581467
120	0xbd648adc	-0.05579649
121	0xbc072a4d	-0.008249831
122	0x3cbef401	0.02330971
123	0xbced9d0c	-0.02900555
124	0xbd541ddd	-0.051786292
125	0x3d17994f	0.03701144
126	0xbd340687	-0.043951537
127	0xbd2468bb	-0.04013894
128	0x3d369dc3	0.044584047
129	0x3cc41813	0.02393726
130	0xbd0efa42	-0.034906633
131	0x3ce4829f	0.027894316
132	0xbd164b76	-0.03669306
133	0x3d33ccbd	0.043896426
134	0xbd6f7814	-0.058464125
135	0xbd664cb6	-0.0562255
136	0x3cc10aff	0.023564814
137	0x3ccc6831	0.024952026
138	0xbc80d9f5	-0.01572893
139	0xbb21cac5	-0.002468751
140	0xbd66a896	-0.05631312
141	0x3c9d1701	0.019176008
142	0x3d8b1db4	0.06792775
143	0xba7e473d	-0.00096999464
144	0x3c38a4e1	0.011269779
145	0xbc59c565	-0.013291691
146	0xbd2c897c	-0.042123303
147	0x3cfafa4b	0.030636927
148	0x3d219860	0.039451957
149	0x3d90b89b	0.07066461
150	0x3cdf0227	0.027222706
151	0x3d72129f	0.05909979
152	0xbcd7f7ef	-0.026363341
153	0xbc423c0a	-0.011855135
154	0xbd0ae966	-0.033913992
155	0xbd90c3be	-0.07068585
156	0x3d791d3a	0.06081889
157	0x3d513918	0.05107984
158	0xbc96723d	-0.01836502
159	0x3d0d34a5	0.034474034
160	0xbbdd9273	-0.006761843
161	0xb90f3e10	-0.00013660663
162	0xbd4d6bce	-0.05015164
163	0x3c18154f	0.009282424
164	0x3d632f88	0.05546525
165	0xbd753aee	-0.059870653
166	0xbb82a98a	-0.003987496
167	0xbd158f15	-0.036513407
168	0xbd036d78	-0.03208682
169	0x3c8b2b30	0.016988367
170	0xbb931239	-0.0044882563
171	0x3c34ca3e	0.011034546
172	0xbd4ae953	-0.04953892
173	0x3c2f512d	0.010700506
174	0x3a633393	0.0008667048
175	0x3d1f1bd5	0.038844902
176	0xbc88308c	-0.016624711
177	0x3d4ac84d	0.049507428
178	0xbce4ec5a	-0.027944732
179	0x3d27e693	0.040991377
180	0xbd68420f	-0.056703623
181	0x3d2c5658	0.04207453
182	0x3d9378f7	0.072008066
183	0xbd83c1c6	-0.06433444
184	0x3d82c189	0.0638457
185	0xbc6de8a6	-0.0145208
186	0x3d582a89	0.05277494
187	0x3d829537	0.06376117
188	0xbd41ae51	-0.04728538
189	0x3d763adb	0.060114723
190	0x3cbfcfe7	0.023414565
191	0xbca4214c	-0.020035408
192	0xbd7bdef1	-0.06149191
193	0x3d54d0fa	0.051957108
194	0xbba55886	-0.005045953
195	0xbd87d51d	-0.06632445
196	0x3d66a138	0.056306094
197	0xbd0257e1	-0.03182209
198	0xbc567776	-0.013090005
199	0x3d011c0a	0.03152088
200	0x3cee6b3a	0.029103864
201	0xbd20b1f5	-0.039232213
202	0x3d4e89eb	0.050424498
203	0x3c23f053	0.010006028
204	0x3da8e078	0.08245939
205	0xbd317d46	-0.04333236
206	0x3d5c53c5	0.053790826
207	0xbdb10c0f	-0.08644878
208	0xbd17dc07	-0.03707507
209	0xba88c171	-0.0010433627
210	0x3d480c1b	0.04883967
211	0xbcb1d719	-0.021709012
212	0x3c98d736	0.018657308
213	0x3d0e0eae	0.03468197
214	0xbaf90373	-0.001899822
215	0xbd93dabf	-0.07219457
216	0x3c91dc32	0.017805193
217	0x3c21beca	0.009872148
218	0xbc7fe8d7	-0.015619478
219	0x3c983ff0	0.018585175
220	0xbd75d50a	-0.060017623
221	0xbd9cca06	-0.076557204
222	0x3d83c23e	0.06433533
223	0xbadf6d08	-0.0017046044
224	0x3d6fb4ba	0.058521964
225	0x3ba72b2b	0.0051015816
226	0x3d36146d	0.044453073
227	0xbca270e0	-0.019829214
228	0xbd2c57f3	-0.042076062
229	0xbc20d61a	-0.009816671
230	0xbd7d0b3f	-0.061778303
231	0xbd975372	-0.07388963
232	0xbcff1a62	-0.03114051
233	0xbca5da56	-0.020245712
234	0xbdb4a9c3	-0.08821442
235	0xbd1eb3ed	-0.03874581
236	0x3d177dcc	0.036985204
237	0x3c29e71b	0.010370041
238	0xbbff5d4c	-0.0077931043
239	0x3db69912	0.089159146
240	0xbd893b42	-0.06700756
241	0x3d3e0b7b	0.046397667
242	0xbdb48c98	-0.08815879
243	0xbd6f7764	-0.05846347
244	0xbdb61272	-0.08890237
245	0xbcca9550	-0.0247294
246	0x3cf9e766	0.030505847
247	0x3c674a2d	0.014116806
248	0x3d672b4c	0.056437775
249	0x3d50a304	0.050936714
250	0x3db8822d	0.09009204
251	0xbd8d01f7	-0.068851404
252	0xbdd66b10	-0.10469639
253	0x3ccb1df1	0.02479455
254	0xbd213377	-0.03935572
255	0x3d533745	0.05156638

decoder.attn_combine.bias f4 [100]
0	0xbd351b8e	-0.04421573
1	0x3d11c6c6	0.035589956
2	0x3c26fad7	0.010191641
3	0xbbd1ae43	-0.0063989474
4	0xba6e47e1	-0.000908969
5	0xbcc37faf	-0.023864595
6	0xbc880ee3	-0.016608661
7	0x3e0002c1	0.1250105
8	0x3bd68dd4	0.006547669
9	0xbcd4e1b7	-0.025986535
10	0x3cbe4f62	0.023231212
11	0x3b5616d7	0.0032667422
12	0x3d896f55	0.06710688
13	0x3c1bb74b	0.00950415
14	0x3bbcb810	0.0057592466
15	0x3b86440a	0.0040974664
16	0xbd2f24d4	-0.04275973
17	0x3d27a962	0.04093302
18	0x3bd8ed88	0.006620113
19	0x3c4ffc35	0.012694408
20	0x3d949574	0.072550684
21	0xbd0fb4e7	-0.03508463
22	0x3dafe583	0.08588698
23	0x3d28eca7	0.041241314
24	0x3cde3b81	0.027127983
25	0x3dbf0ff2	0.09329213
26	0xbd2bfcbd	-0.041989077
27	0xbd1d946a	-0.038471617
28	0x3d03378c	0.032035396
29	0x3d88abe5	0.06673411
30	0x3d1554a9	0.03645769
31	0x3c0e49a2	0.008684548
32	0xbd851541	-0.064981945
33	0xbd0162d1	-0.03158838
34	0x3dc7da4d	0.097584344
35	0xbbe6df26	-0.0070456443
36	0xbbd6c3ee	-0.0065541184
37	0x3d100287	0.03515866
38	0xbd135640	-0.035970926
39	0xbc197134	-0.009365369
40	0xbb92c8a6	-0.0044794856
41	0x3d15413c	0.036439165
42	0x3c2bcded	0.010486108
43	0xbb844479	-0.004036483
44	0xbd15b933	-0.036553573
45	0x3d9cb821	0.07652307
46	0x3d1955aa	0.03743521
47	0x3a0d71f9	0.00053957064
48	0x3c8f897b	0.01752161
49	0x3d1539f7	0.036432233
50	0x3db8520e	0.09000026
51	0xbcd5128b	-0.026009819
52	0x3cfe0e44	0.031012662
53	0x3d2c2172	0.042024083
54	0x3d101060	0.035171866
55	0x3d91dcc0	0.07122183
56	0xbd267e77	-0.04064795
57	0x3c8f0ef6	0.017463189
58	0xbcb1a230	-0.021683782
59	0x3da9b266	0.0828598
60	0x3d645347	0.055743482
61	0x3c70ed18	0.014704965
62	0x3dc42599	0.09577484
63	0xbcb338e3	-0.021877712
64	0xbcb4a82a	-0.022052843
65	0x3b9625b5	0.0045821317
66	0x3c0a9931	0.008459375
67	0xbd324e2e	-0.04353159
68	0x3d6e5653	0.058187794
69	0x3b22ff0e	0.0024871263
70	0x3d82c39e	0.06384967
71	0xbd6ce4ba	-0.05783532
72	0x3dc0d853	0.094162606
73	0x3ccd3491	0.02504948
74	0x3c2a527d	0.010395643
75	0xbc5141c9	-0.012772032
76	0x3dafb10c	0.08578691
77	0xbbbb2959	-0.005711716
78	0x3dc501d3	0.096194886
79	0xbd1d527f	-0.038408753
80	0x3d8553bc	0.06510112
81	0x3da618aa	0.08110173
82	0x3d2eba45	0.04265811
83	0xbd066297	-0.032808866
84	0x3d83b3b8	0.06430763
85	0xbd246c38	-0.040142268
86	0xbbff8051	-0.007797279
87	0x3dc43b70	0.09581649
88	0xba8b6bc0	-0.001063697
89	0x3961c793	0.0002153202
90	0xbd64d9b8	-0.055871695
91	0x3d82d644	0.06388524
92	0x3ce59b46	0.028028142
93	0xbd083d0e	-0.03326135
94	0x3ac1a009	0.0014772426
95	0xbbb5d63f	-0.0055492218
96	0x3d4283e0	0.047489047
97	0x3bc40152	0.0059816027
98	0x3d0fd517	0.035115328
99	0x3d43aaa7	0.04777017

decoder.gru.weight_ih_l0 f4 [300, 100]
0	0xbd88ef3a	-0.06686254
1	0xbdb3ce0b	-0.08779534
2	0x3d9f601a	0.07782002
3	0xbd46a2ad	-0.048494983
4	0xbdbec342	-0.09314586
5	0xbdc4330a	-0.095800474
6	0x3cd7a177	0.02632211
7	0x3d595c47	0.05306652
8	0xbd4dc7d1	-0.050239388
9	0xbd10ecde	-0.035382144
10	0x3cbc8857	0.02301423
11	0xbd2a92c4	-0.041643873
12	0xbd8bf50a	-0.06833847
13	0x3d18c31b	0.037295442
14	0x3d5dcb05	0.054148693
15	0x3d98d2b1	0.07462061
16	0xbcbd9051	-0.023140104
17	0xbda6f1ed	-0.081516124
18	0x3d3a30ed	0.045456816
19	0x3da498c2	0.08036949
20	0xbd079c28	-0.033107907
21	0x3c939d28	0.018019274
22	0xbd7b8edd	-0.061415542
23	0xbd58767f	-0.05284738
24	0xbdc0e1de	-0.09418081
25	0xbdac3039	-0.08407635
26	0xbd4774fd	-0.048695553
27	0x3c974229	0.018464165
28	0xbd799351	-0.060931507
29	0xbd714b07	-0.058909442
30	0x3da0b019	0.07846088
31	0x3c9ff9e8	0.019528344
32	0x3da9b1d9	0.08285875
33	0xbd391bcb	-0.04519252
34	0xbd83ae9c	-0.064297885
35	0xbd331fe6	-0.043731593
36	0x3dbe0e08	0.0928002
37	0xbdafa3d0	-0.08576167
38	0x3d690b3b	0.056895476
39	0xbd8162ef	-0.06317698
40	0xbce05ca0	-0.027387917
41	0xbdc259d7	-0.09489792
42	0x3d64d0b0	0.055863082
43	0x3d06f1b1	0.03294534
44	0xbc8d947c	-0.017282717
45	0xbd96c85f	-0.073624365
46	0xbd651fbd	-0.05593847
47	0xbd38adc9	-0.04508761
48	0x3d80b301	0.06284142
49	0x3d77476d	0.06037085
50	0xbdbfa34a	-0.09357317
51	0xbce1d992	-0.027569566
52	0x3d585c79	0.052822564
53	0xbc5b11ec	-0.013370972
54	0x3d9e9e0b	0.07744988
55	0xbd5db95f	-0.05413186
56	0x3bc9bf57	0.0061568427
57	0x3b3c517f	0.00287351
58	0x3ce11879	0.02747749
59	0x3d6c845b	0.05774341
60	0xbb752274	-0.003740457
61	0x3dcab6ef	0.09898173
62	0x3d99dc87	0.075127654
63	0xbd276c17	-0.040874567
64	0xbccf8a2e	-0.025334444
65	0xbb96e404	-0.0046048183
66	0x3d887841	0.066635616
67	0xbd38bd17	-0.045102205
68	0xbdbdeaf6	-0.09273331
69	0xbd4a957c	-0.049458966
70	0xbd841577	-0.064494066
71	0x3d3bc937	0.04584619
72	0xbd6b6c12	-0.05747611
73	0x3dcb64b4	0.09931317
74	0x3dcc9742	0.09989788
75	0xbc26fd8c	-0.010192286
76	0x3d46aa8f	0.0485025
77	0x3d68cd5f	0.056836482
78	0xbd5dcbd4	-0.054149464
79	0x3d89fb20	0.067373514
80	0x3cc3a145	0.02388061
81	0x3d9a93ec	0.07547745
82	0x3d77a8a3	0.06046356
83	0xbb7fc191	-0.0039025287
84	0x3d9b289b	0.07576104
85	0xbd2a2ee6	-0.041548632
86	0x3d580f53	0.05274899
87	0x3ccf5a55	0.025311628
88	0x3d2d17c1	0.04225898
89	0x3ce8799d	0.028378302
90	0xbdaa5c2d	-0.083183624
91	0x3d78843b	0.06067298
92	0xbb8b7cc8	-0.0042568184
93	0x3d2e2ea3	0.042524945
94	0xbd30ace5	-0.043133635
95	0xbda90949	-0.08253724
96	0x3c83848c	0.016054414
97	0x3da8c64b	0.082409464
98	0x3d6e608a	0.058197536
99	0xbbaaa422	-0.0052075544
100	0xbdad7e1a	-0.084713176
101	0xbdb9c4f7	-0.09070771
102	0xbc5a8a58	-0.013338648
103	0x3cfe3c13	0.031034505
104	0xbd43e0dd	-0.04782187
105	0x3c63ad73	0.013896334
106	0xbd97e36d	-0.07416425
107	0xbd0a6147	-0.033784177
108	0x3d8a225d	0.067448355
109	0xbc11c085	-0.008895998
110	0xbd1dc3bf	-0.038516756
111	0xbd6bf69a	-0.057608224
112	0xbd24d13b	-0.0402386
113	0xbdb4c4ac	-0.08826575
114	0x3dbbb512	0.09165396
115	0xbdb95573	-0.09049501
116	0x3db3f6ee	0.087873325
117	0x3d5f0a58	0.054453224
118	0xbd347924	-0.04406084
119	0x3cbb4dba	0.022864211
120	0x3dcc9d69	0.09990961
121	0xbcd091c0	-0.025460124
122	0x3cae1988	0.021252409
123	0x3d1314ac	0.035908386
124	0x3c71b805	0.014753346
125	0x3ca37d4d	0.019957209
126	0x3d9fd810	0.078048825
127	0x3dcac7e2	0.09901406
128	0xbdab112a	-0.08352883
129	0xbd149d51	-0.03628284
130	0xbdc1ca97	-0.09462469
131	0xbd47e3fe	-0.048801415
132	0xbb64a586	-0.0034888699
133	0x3b80af17	0.0039271223
134	0xbdc2efe0	-0.09518409
135	0xbd583579	-0.05278537
136	0xbb8ab128	-0.0042325445
137	0xbd57c75f	-0.05268037
138	0x3d7483a4	0.059695855
139	0xbd8f8ef1	-0.07009686
140	0xbdb6cb80	-0.08925533
141	0xbd0edf93	-0.034881186
142	0xbc206d88	-0.009791739
143	0x3d48148c	0.04884772
144	0x3cbd2b49	0.023091929
145	0xbd47f027	-0.04881301
146	0x3c41951a	0.011815334
147	0xbdcc7d55	-0.09984843
148	0xbcc79bcb	-0.02436628
149	0x3da99428	0.08280212
150	0x3d9130b1	0.07089365
151	0xbd9a3a79	-0.07530684
152	0xbb842981	-0.004033268
153	0xbdb75d0c	-0.08953294
154	0xbd952559	-0.07282514
155	0x3d92bc72	0.07164849
156	0xbd9e6c07	-0.07735448
157	0xbd914829	-0.070938416
158	0x3a97e2f5	0.0011588024
159	0xbce999b6	-0.028515678
160	0x3b0907eb	0.002090926
161	0x3dabe39f	0.08393025
162	0xbda16272	-0.07880105
163	0xbdb48bef	-0.08815753
164	0xbdbafa52	-0.09129776
165	0xbd550f1a	-0.052016355
166	0x3d414cbe	0.047192328
167	0xbd83f0f8	-0.064424455
168	0x3cc287a7	0.023746325
169	0x3ce205c8	0.027590647
170	0xbdc601d1	-0.09668315
171	0x3d9b96eb	0.07597145
172	0x3dc0841f	0.094002
173	0x3cc206bd	0.023684854
174	0xbd140e24	-0.036146298
175	0xbd330cb3	-0.043713283
176	0x3d9a12d2	0.07523121
177	0xbd759e29	-0.059965286
178	0x3d87b4c0	0.06626272
179	0xbdafa671	-0.08576668
180	0xbd929307	-0.071569495
181	0xbd662044	-0.056183115
182	0x3d8d2df0	0.068935275
183	0x3da8e765	0.0824726
184	0x3dc495e4	0.09598902
185	0x3d92476a	0.071425274
186	0xbdc3048f	-0.09522354
187	0xbdc92810	-0.098220944
188	0xbc7fd764	-0.015615318
189	0xbbd73619	-0.0065677282
190	0x3d803bfa	0.062614396
191	0xbcd45c61	-0.025922956
192	0x3db7f757	0.08982723
193	0xbccff484	-0.025385149
194	0xbd2837c9	-0.041068826
195	0xbd7a44ef	-0.061100896
196	0xbd2efe76	-0.04272314
197	0x3cb8c88d	0.022556568
198	0xbc9f0793	-0.019412791
199	0xbd901678	-0.070355356
200	0xbbc4a385	-0.0060009384
201	0xbd63222f	-0.055452522
202	0xbdb958e5	-0.090501584
203	0x3d2ab932	0.041680522
204	0xbd7fdc7e	-0.062466137
205	0xbd6c4c1c	-0.05768977
206	0xbd978599	-0.073985286
207	0x3d37c41a	0.04486475
208	0x3daa7c44	0.08324483
209	0x3d5b46dd	0.053534377
210	0x3d3d40dd	0.046204437
211	0x3c80db39	0.015729534
212	0xbdbaaf44	-0.091154605
213	0x3cb09671	0.021556111
214	0x3cd774da	0.026300836
215	0x3dc8f41e	0.09812187
216	0x3d8b7060	0.06808543
217	0xbb4c4e59	-0.0031174629
218	0xbd1b23fc	-0.037876114
219	0x3d07fb58	0.033198684
220	0x3cb55ce3	0.022139018
221	0x3cb10afd	0.021611685
222	0x3c156051	0.009117202
223	0x3d3faa6c	0.046793386
224	0xbd2a04da	-0.041508533
225	0x3d3cd63c	0.046102747
226	0x3d83a484	0.06427863
227	0xbdcaaf36	-0.098967
228	0xbd3d3005	-0.046188373
229	0x3b99e531	0.004696511
230	0xbda53e07	-0.080684714
231	0x3db3676c	0.087599605
232	0x3d4562c7	0.048189905
233	0x3daeec74	0.085411936
234	0x3d6a7355	0.057238895
235	0x3b3fc267	0.002926016
236	0x37162776	8.949884e-06
237	0xbd5c9494	-0.053852633
238	0xbcd00c19	-0.025396394
239	0x3cdcbdc5	0.026945958
240	0x3d1f927f	0.03895807
241	0xbdc52b91	-0.0962745
242	0x3da1c808	0.07899481
243	0xbcdeff0b	-0.027221223
244	0x3d53714d	0.051621724
245	0xbcfa8ec3	-0.030585652
246	0x3d8565d1	0.065135606
247	0xbd1fba7d	-0.03899621
248	0x3d6c439f	0.057681676
249	0xb8c0c9e4	-9.1928785e-05
250	0xbdb88c0d	-0.090110876
251	0x3cc0acb4	0.023519851
252	0xbd63b5ed	-0.05559342
253	0xbc66cdc3	-0.014087143
254	0x3c268cb2	0.01016538
255	0xba94e1ff	-0.0011358856

decoder.gru.weight_hh_l0 f4 [300, 100]
0	0xbd35f87f	-0.044426437
1	0xbc136676	-0.008996597
2	0x3d2528a8	0.040321976
3	0x3d50417b	0.050843697
4	0x3cc4b7d4	0.024013437
5	0x3dc94dc3	0.09829285
6	0x3d8eccd1	0.069726594
7	0xbd8f60b8	-0.070008695
8	0x3d69c154	0.057069138
9	0x3d638bc5	0.055553216
10	0x3ba228d5	0.004948715
11	0x3d90b330	0.07065427
12	0x3da2b815	0.07945267
13	0x3d2131e9	0.03935424
14	0xbd466a3f	-0.048441168
15	0xbd9af0bc	-0.07565448
16	0xbdc43d4b	-0.09582003
17	0x3bd16ba8	0.0063910075
18	0xbda99c45	-0.08281759
19	0xbdb37970	-0.08763397
20	0xbd53e52d	-0.05173223
21	0xbcd86e3c	-0.026419751
22	0xbc4e6623	-0.0125975935
23	0x3d295afd	0.04134654
24	0x3d338149	0.043824468
25	0x3c5fd126	0.013660705
26	0xbd9cf5e9	-0.07664091
27	0xbd5041ac	-0.05084388
28	0x3cef4b85	0.029210815
29	0xbd2fee5c	-0.042951927
30	0x3d9a4936	0.07533495
31	0xbd82d060	-0.063874006
32	0x3c28b011	0.010295884
33	0xbda778ac	-0.08177313
34	0x3d1052a0	0.035235047
35	0x3daea2fc	0.085271806
36	0x3dabc200	0.08386612
37	0x3d934c54	0.07192293
38	0x3d5fa52a	0.054600872
39	0x3ca0094e	0.019535687
40	0x3d86e43f	0.06586503
41	0xbd26aa61	-0.04068983
42	0x3daad8f0	0.08342159
43	0x3c5b2077	0.013374439
44	0xbc649957	-0.013952575
45	0xbdc91709	-0.09818847
46	0xbda653a0	-0.08121419
47	0x3d133cab	0.03594653
48	0xbc530f10	-0.012882009
49	0xbc104448	-0.008805342
50	0xbdc68ea0	-0.09695172
51	0xbcb9410e	-0.022614028
52	0xbdb40e86	-0.087918326
53	0xbd07f43e	-0.033191912
54	0x3d3e8bb6	0.046519957
55	0x3bd175dc	0.0063922238
56	0xbc257404	-0.010098461
57	0x3d7517c1	0.059837107
58	0x3d06303f	0.032760855
59	0x3dbaa4c2	0.09113456
60	0xbda8b55e	-0.08237718
61	0xbdb10a5a	-0.086445525
62	0xbc9554c0	-0.018228889
63	0x3d303af4	0.043024972
64	0x3db31ea5	0.08746079
65	0xbad3a383	-0.0016146753
66	0xbc50f145	-0.012752836
67	0x3d9e87c9	0.07740743
68	0x3c914734	0.017734148
69	0x3dacba00	0.08433914
70	0x3bd581c0	0.0065157115
71	0xbd1c25cb	-0.03812198
72	0x3d8bfb72	0.06835069
73	0xbce8293b	-0.028339973
74	0xbd8629ce	-0.06550942
75	0x3d418117	0.04724225
76	0xbd2e8d56	-0.042615257
77	0xbd4d262d	-0.050085235
78	0x3d1f2da3	0.038861882
79	0x3db63bf1	0.08898152
80	0xbd9f9405	-0.07791904
81	0xbd4cb0fe	-0.04997348
82	0x3d892069	0.06695635
83	0x3d57fcc1	0.05273128
84	0x3cc29384	0.023751982
85	0x3d88fdb4	0.06689015
86	0xbd0f727e	-0.035021298
87	0xbd974b67	-0.07387429
88	0x3dbba77c	0.091628045
89	0x3bb8cd16	0.0056396825
90	0xbd5af208	-0.053453475
91	0xbd860258	-0.06543416
92	0xbd2b8cd7	-0.041882362
93	0x3d88b139	0.066744275
94	0xbc968f5e	-0.01837891
95	0xbd837e05	-0.06420521
96	0x3ba6a75a	0.005085868
97	0xbc4bad79	-0.012431496
98	0x3d8ae74f	0.067824
99	0xbca12bee	-0.019674268
100	0x3d749479	0.059711907
101	0xbc2061de	-0.009788958
102	0xbd1eb97c	-0.03875111
103	0x3b1fe993	0.0024400696
104	0x3d460a1e	0.048349492
105	0xbd65e09c	-0.056122407
106	0x3c2ad55b	0.0104268445
107	0xbd2d23f5	-0.04227062
108	0x3db72a3b	0.08943602
109	0xbdb1f6e1	-0.086896665
110	0x3d798923	0.0609218
111	0x3d3d89ff	0.04627418
112	0x3dcca945	0.09993223
113	0xbce6948f	-0.02814701
114	0x3bc7804a	0.0060882913
115	0xbd9c7774	-0.076399714
116	0x3c9ee041	0.019394042
117	0xbd66eb52	-0.056376763
118	0x3da3bf74	0.07995501
119	0xbda575e6	-0.08079128
120	0x3db10d63	0.086451314
121	0xbdbe297b	-0.092852555
122	0x3b00d022	0.0019655307
123	0x3d2df809	0.042472873
124	0xbdb57c63	-0.088616155
125	0xbd49c0bd	-0.049256075
126	0x3cf679f5	0.03008745
127	0xbd5d2d85	-0.05399849
128	0xbdc6ba14	-0.0970346
129	0xbc9e1f8e	-0.019302156
130	0xbc3acbb3	-0.011401105
131	0x3d227330	0.039660633
132	0x3db6558e	0.08903037
133	0xbd1fa435	-0.03897496
134	0x3dc18501	0.094491966
135	0xbdc6bb9d	-0.09703753
136	0x3d7e80be	0.062134497
137	0x3c3ed359	0.011647069
138	0x3d6ecd7d	0.058301438
139	0xbd30703c	-0.043075785
140	0x3da8283b	0.08210798
141	0x3d58900f	0.05287176
142	0x3d9c8e82	0.07644369
143	0x3d86617a	0.06561561
144	0x3ba41adb	0.0050080842
145	0x3da6c71f	0.08143448
146	0xbd7e39d2	-0.06206686
147	0x3dbae2bc	0.091252774
148	0xbcd5e482	-0.026109938
149	0xbca89fef	-0.020584075
150	0xbc0bef1b	-0.008540894
151	0x3ca1232f	0.019670097
152	0x3d07103a	0.03297446
153	0x3ae3ed38	0.0017389422
154	0xbc8dfb17	-0.017331643
155	0xbca9f767	-0.020747853
156	0xbd9ca402	-0.076484695
157	0x3d9e5a37	0.07732051
158	0xbca33f96	-0.019927781
159	0xbdba993b	-0.09111258
160	0x398c5269	0.0002676428
161	0xbdafd8b7	-0.08586257
162	0x3d6e579d	0.058189023
163	0x3cb9069d	0.022586161
164	0xbda77566	-0.08176689
165	0xbd63dd99	-0.055631254
166	0x3c129d59	0.008948647
167	0x3d9652d9	0.07340021
168	0xbd0ab643	-0.033865225
169	0xbd9b036b	-0.07569011
170	0x3c6ef76a	0.014585355
171	0xbcedc899	-0.029026316
172	0xbd0aa583	-0.03384925
173	0xbdc02dd3	-0.0938374
174	0x3c724627	0.014787233
175	0x3d6d86a4	0.05798973
176	0x3ca6fec8	0.020385161
177	0xbcf47ec5	-0.029845605
178	0x39c8e855	0.00038320074
179	0xbdc0a7e4	-0.094070226
180	0x3d3ade62	0.045622237
181	0x3d0940bf	0.033509012
182	0xbd637d13	-0.055539202
183	0xbd8bdb8c	-0.068289846
184	0xbd0f1505	-0.034932155
185	0x3cc56022	0.024093691
186	0xbd53bda6	-0.051694535
187	0xbd060ef5	-0.032729108
188	0xbcd7f926	-0.02636392
189	0x3da57813	0.08079543
190	0x3c8ad24c	0.01694598
191	0xbd99738c	-0.07492742
192	0xbdb6cea4	-0.08926132
193	0x3d2bd3c1	0.04194999
194	0xbbebf7a8	-0.007201154
195	0xbd98584c	-0.07438716
196	0x3d00a913	0.03141124
197	0xbdbf97e0	-0.0935514
198	0xbd80203b	-0.062561475
199	0x3d5655f5	0.05232807
200	0x3ce3cbac	0.02780708
201	0x3d3830c4	0.04496838
202	0xbcbf42fe	-0.023347374
203	0xbdab47b1	-0.083632834
204	0x3d43d6cb	0.047812264
205	0x3d9c6b0a	0.076376036
206	0x3d97f850	0.07420409
207	0x3c5aa04a	0.01334388
208	0xbdc27aaf	-0.09496056
209	0x3d82c027	0.063843064
210	0xbc4ceb67	-0.012507296
211	0x3dc15f39	0.094419904
212	0xbd77d0b0	-0.060501754
213	0xbd37bcd5	-0.04485782
214	0xbcd2fd77	-0.025755627
215	0x3d0f31cb	0.034959596
216	0xbb1b8c3c	-0.002373471
217	0xbce6b284	-0.028161295
218	0xbdb91e67	-0.09039002
219	0x3d438f88	0.047744304
220	0xbd18585d	-0.037193645
221	0xbdb362c1	-0.0875907
222	0xbdac83e6	-0.08423595
223	0xbdb1a162	-0.086733595
224	0xbce3bbee	-0.027799573
225	0x3cd6b77e	0.026210543
226	0x3d341f75	0.043975312
227	0xbbb7c5c7	-0.0056082937
228	0xbdb5b133	-0.08871689
229	0x3d97a7d9	0.07405061
230	0x3d90a8f0	0.07063472
231	0x3ca59e33	0.020217037
232	0x3da4bf85	0.08044342
233	0xb8cd63ef	-9.793776e-05
234	0x3daede8a	0.0853854
235	0x3c91f33f	0.017816184
236	0xbdadc12f	-0.084841125
237	0x3d2db9ea	0.04241363
238	0xbd878a10	-0.0661813
239	0x3a2590ee	0.00063158467
240	0xbc99f02f	-0.018791286
241	0x3ba3f0ea	0.0050030844
242	0x3dc2b803	0.09507754
243	0xbd1c4a48	-0.038156778
244	0xbd84cd0a	-0.064844206
245	0xbd925d5b	-0.071467124
246	0xbdbdb83c	-0.092636555
247	0x3c0dd81b	0.008657481
248	0xbd91e484	-0.07123664
249	0x3cec6505	0.028856764
250	0xbd87bc99	-0.06627769
251	0xbd1d359b	-0.0383812
252	0xbd3c3bbf	-0.045955416
253	0xbdcc7219	-0.099827
254	0xbd9dff79	-0.07714743
255	0x3c948eb7	0.018134458

decoder.gru.bias_ih_l0 f4 [300]
0	0xbb002869	-0.0019555336
1	0x3db1d23c	0.08682677
2	0xbdc1c861	-0.09462047
3	0x3d22e361	0.039767627
4	0xbc4eae92	-0.012614863
5	0x3c28a193	0.010292429
6	0xbd83b6a1	-0.06431318
7	0x3d44dead	0.048063923
8	0xbd3d01f3	-0.046144437
9	0x3d9e10c3	0.07718041
10	0x3c87bb1c	0.016568713
11	0xbda5d2dc	-0.08096859
12	0x3bdf8e2f	0.0068223695
13	0xbd068d54	-0.032849625
14	0xbd85596d	-0.06511197
15	0x3d327f36	0.04357835
16	0x3d4d6ca0	0.05015242
17	0x3db47939	0.08812184
18	0x3d2f1095	0.042740423
19	0x3d31f992	0.0434509
20	0x3d60bb50	0.054866135
21	0xbdc53f8a	-0.0963126
22	0xbdae530c	-0.08511934
23	0x3d77122b	0.06032006
24	0xbc07155c	-0.008244839
25	0x3d1bca8e	0.038034968
26	0x3c967981	0.018368484
27	0x3ba914c9	0.0051599485
28	0x3d4b604a	0.049652375
29	0xbd6f8398	-0.058475107
30	0xbcccaa95	-0.024983684
31	0xbce3c170	-0.0278022
32	0xbd842ee9	-0.0645426
33	0x3dbc6792	0.09199442
34	0x3dc40a54	0.095722824
35	0x3dc724f4	0.09723845
36	0xbd0ff888	-0.035149127
37	0x3dbeae0d	0.09310541
38	0xbc31968c	-0.010839116
39	0xbd77ddf2	-0.060514398
40	0x3d1dd874	0.038536504
41	0x3d7b1381	0.061297897
42	0xbd9adf9a	-0.0756218
43	0xbda31907	-0.07963758
44	0x3db3b040	0.087738514
45	0x3da99464	0.082802564
46	0x3d99d754	0.07511774
47	0xbc2667e1	-0.010156603
48	0x3d9082cc	0.070561975
49	0x3c605aca	0.013693521
50	0x3d667714	0.056265905
51	0xbd9996b4	-0.074994475
52	0x3cb556af	0.02213606
53	0xbdc3f0e7	-0.09567433
54	0xbd880d41	-0.06643153
55	0xbda2afa7	-0.07943659
56	0x3d8dfeae	0.06933342
57	0xbcdacbd6	-0.026708525
58	0xbda17ff9	-0.07885737
59	0xbc8c9dc7	-0.017165078
60	0x3c4879e4	0.012236092
61	0xbd3bd969	-0.045861635
62	0xbb40ae87	-0.0029400901
63	0xbda39a7b	-0.07988449
64	0xbd83913a	-0.06424184
65	0xb7f013f3	-2.8619519e-05
66	0xbd471f0f	-0.048613604
67	0x3d449324	0.047991887
68	0xbd5d4ba4	-0.054027215
69	0xbb810625	-0.0039375
70	0xbc97ad5d	-0.018515283
71	0x3b20929d	0.002450145
72	0xbda54ba4	-0.08071068
73	0xbd9eb9d5	-0.077502884
74	0x3d9f40c4	0.07776025
75	0x3c5c54a9	0.013447919
76	0xbd97484f	-0.07386839
77	0x3cecf22b	0.028924068
78	0x3d644a8b	0.055735152
79	0x3d1137b3	0.03545351
80	0xbd4d5250	-0.050127327
81	0xbd9911e7	-0.07474118
82	0xbd825c78	-0.06365293
83	0x3d9510cb	0.07278594
84	0xbd4039eb	-0.046930235
85	0x3c46d37a	0.012135381
86	0x3d2beb65	0.041972537
87	0xbd50ffda	-0.05102525
88	0xbdacec2d	-0.084434845
89	0xbd1a7d06	-0.037716888
90	0x3dc6aeb5	0.097012915
91	0xbdb2c365	-0.08728675
92	0xbca19566	-0.019724559
93	0x3d5d07ee	0.05396264
94	0x3d995015	0.074859776
95	0x3d8b5b26	0.068044946
96	0xbda28159	-0.07934827
97	0x3dd3d6d4	0.103437096
98	0x3cf3d22d	0.029763306
99	0x3da28b7f	0.07936763
100	0xbc145edd	-0.00905582
101	0xbd38c6f9	-0.04511163
102	0x3bb2d965	0.0054580444
103	0xbd02ac68	-0.0319027
104	0xbca8eff1	-0.020622225
105	0xbdebc6c4	-0.11512521
106	0x3c6031c5	0.013683741
107	0xbdfbeb66	-0.12300758
108	0x3da1d1b7	0.07901328
109	0x3d3b799c	0.045770273
110	0xbd83b347	-0.06430679
111	0xbd44ed56	-0.048077904
112	0x3cbdc448	0.023164883
113	0xbd970233	-0.07373466
114	0xbda24f38	-0.07925266
115	0x3d373caf	0.044735607
116	0xbd289a29	-0.041162644
117	0xbdac90e4	-0.08426073
118	0xbdb2b465	-0.08725814
119	0x3cf4c1ac	0.029877506
120	0xbd7d2e3c	-0.06181167
121	0x3b3f2e67	0.0029171945
122	0xbd4d6519	-0.050145242
123	0x3d6dd249	0.05806187
124	0xbd859cfd	-0.06524084
125	0xbdac0dab	-0.084010445
126	0x3c79975b	0.01523384
127	0xbce826fa	-0.028338898
128	0xbd328fcd	-0.04359417
129	0xbc1bdbf0	-0.009512886
130	0xbcfd35bd	-0.030909413
131	0xbcdcfaa6	-0.026974987
132	0x3da198c6	0.07890467
133	0x3d59b131	0.0531475
134	0x3d4ba2d5	0.049715836
135	0xbde78925	-0.11305455
136	0xbd0df9e9	-0.03466216
137	0xbd0eb188	-0.034837276
138	0x3d8d4582	0.06898023
139	0xbd8fefff	-0.070281975
140	0x3d108428	0.035282284
141	0xbd1cc72e	-0.03827589
142	0xbd02a341	-0.031893972
143	0xbccb6060	-0.024826229
144	0x3d84e771	0.064894564
145	0xbd1fc3dd	-0.03900515
146	0xbdd021e8	-0.10162717
147	0xbc0248c8	-0.007951923
148	0xbdba29fe	-0.090900406
149	0xbd7b6f17	-0.06138524
150	0x3d6351eb	0.055498045
151	0xbc855936	-0.01627789
152	0xbdaa9486	-0.0832911
153	0xbd91d5d7	-0.07120865
154	0xbd8c5505	-0.06852154
155	0xbc96bc36	-0.018400293
156	0x3d0df588	0.034657985
157	0xbcbd838e	-0.02313402
158	0xbd038997	-0.032113638
159	0xbdd29450	-0.102821946
160	0x3c0a1404	0.008427624
161	0x3d5864fa	0.052830674
162	0xbd230125	-0.039796013
163	0x3d6165c2	0.055028684
164	0x3d85a636	0.06525843
165	0xbcb17f36	-0.021667104
166	0xbd8aba6e	-0.0677384
167	0xbdcd4f66	-0.1002491
168	0xbd11a01d	-0.035553087
169	0xbd7aa253	-0.06118996
170	0x3d256df8	0.040388077
171	0xbdf15568	-0.11783868
172	0xbd2c733d	-0.042102087
173	0x3c5d3e38	0.013503604
174	0x3d65a989	0.056069884
175	0x3db24a6d	0.08705602
176	0x3d881f6c	0.06646618
177	0xbc680907	-0.014162309
178	0x3be562a8	0.007000286
179	0x3d119618	0.03554353
180	0xbcfaabf8	-0.03059958
181	0xba53302b	-0.0008056189
182	0x3da88e34	0.08230248
183	0x3c52c3cb	0.0128640635
184	0xbd4f8cb6	-0.0506713
185	0x3b185de8	0.0023249332
186	0xbd8e4303	-0.06946375
187	0x3cf29a86	0.029614698
188	0x3d958985	0.073016204
189	0xbb3dbc39	-0.00289513
190	0x3d61d61b	0.055135828
191	0xbd927964	-0.0715206
192	0xbdc3c323	-0.09558704
193	0x3cd57fdb	0.026061943
194	0xbc258b77	-0.010104052
195	0xbc9eb606	-0.019373905
196	0x3d80d6d1	0.06290973
197	0x3d9047bc	0.07044932
198	0x3cf2b0ea	0.029625375
199	0x3d75ffc6	0.060058378
200	0x3e0b2c0b	0.1359102
201	0x3c18fac7	0.009337134
202	0xbd96ddc3	-0.073665164
203	0x3d058719	0.032599542
204	0x3dbe543e	0.09293412
205	0x3e062c06	0.13102731
206	0x3e14ca76	0.14530358
207	0x3d34629d	0.044039357
208	0xbd26b61d	-0.04070102
209	0xbd202c47	-0.039104726
210	0x3d52af1c	0.05143653
211	0xbd990faf	-0.074736945
212	0xbd36430c	-0.044497535
213	0xba7bbf14	-0.0009603363
214	0xbdb70c44	-0.08937886
215	0x3caade16	0.020857852
216	0xbcc92052	-0.024551544
217	0xbd3f776b	-0.046744745
218	0xbdac373e	-0.08408974
219	0x3d396352	0.045260735
220	0x3d59b79b	0.053153615
221	0xbbe318fb	-0.006930468
222	0x3d1e11d5	0.038591225
223	0x3db6ffe8	0.08935529
224	0x3dd1cf96	0.10244672
225	0x3de5301b	0.11190816
226	0xbd87bd44	-0.066278964
227	0x3ce9647d	0.0284903
228	0xbd8f8972	-0.070086375
229	0x3d9173f7	0.07102197
230	0xbe1492c3	-0.1450911
231	0x3d71be47	0.059019353
232	0xbd85427e	-0.06506823
233	0xbda42e07	-0.080165915
234	0x3dd80bd9	0.10549135
235	0x39a5b712	0.0003160765
236	0xbdc636e9	-0.09678442
237	0xbc80fefc	-0.015746586
238	0x3d38a9ed	0.04508393
239	0xbd816afc	-0.06319234
240	0x3da0e2ed	0.07855783
241	0xbd5385aa	-0.051641144
242	0xbad217bd	-0.0016028803
243	0xbe0eebc3	-0.13957123
244	0x3dd5d67f	0.104413025
245	0x3cff610d	0.031174207
246	0x3ce6d50b	0.028177759
247	0xbd8dd44c	-0.06925258
248	0x3c9ef875	0.019405583
249	0x3caef9b4	0.021359302
250	0xbe15f0f0	-0.14642692
251	0x3d99200a	0.07476814
252	0xbcc58906	-0.02411319
253	0x3cb7ab5f	0.022420583
254	0x3c3811bf	0.0112347
255	0xbd977272	-0.073948756
