best_models/seq2seq-2021-03-22-10-34-27.pt (torch, 799311 bytes, 16 tensors)

encoder.embedding.weight f4 [162, 100]
0	0x3f47506a	0.7785708
1	0xbe80b471	-0.25137666
2	0xbf5a4eb5	-0.8527635
3	0xbfb6748e	-1.425432
4	0x3e389ebe	0.18029305
5	0x3f6476aa	0.89243567
6	0x3de48524	0.11158207
7	0x3ec54310	0.38527727
8	0xbfba6d1e	-1.456455
9	0x3f6f768f	0.9354028
10	0xbf5aa6b0	-0.85410595
11	0xbe106714	-0.14101821
12	0xc021e956	-2.5298667
13	0x3fb72fd4	1.4311471
14	0x3e5e7646	0.21724805
15	0x3ee46964	0.44611657
16	0xbfd49fea	-1.6611302
17	0x3f3a3164	0.72731614
18	0xbf96ddb1	-1.1786405
19	0xbd4b52ef	-0.04963964
20	0xbf44b43a	-0.76837504
21	0x40099645	2.1497967
22	0x3f345bce	0.7045258
23	0x3fda8d4c	1.707437
24	0xc008c8bf	-2.1372526
25	0xbf8a353a	-1.0797493
26	0x3f8cfaf9	1.1014091
27	0x3fc2c44d	1.5216156
28	0xbedb0948	-0.4278052
29	0xbdfb6971	-0.12275971
30	0x3eade9f7	0.33967564
31	0xbe1289c6	-0.14310369
32	0x3e9304fc	0.2871474
33	0x3e8781ad	0.26466122
34	0x3fcfcf1e	1.6235082
35	0x3e152108	0.14563382
36	0x3d082fea	0.03324882
37	0x3dcf4cb5	0.101220526
38	0x3f3e9abb	0.7445485
39	0xbfd6437d	-1.6739346
40	0x3e29267f	0.16518591
41	0xbf0a3e6c	-0.540015
42	0xbdb5d319	-0.08878154
43	0xbf1dfb62	-0.61711705
44	0xbf272d42	-0.6530343
45	0xbf09c39a	-0.5381409
46	0x3fa7bec1	1.3105088
47	0x3f96d305	1.1783148
48	0x3fa95a83	1.3230747
49	0xbf3d44d0	-0.73933125
50	0xbffda2ec	-1.9815345
51	0xbeb9e007	-0.36303732
52	0x3f3e8b33	0.7443115
53	0x3cdc4b58	0.026891395
54	0x3cc8d35b	0.024514845
55	0x3f133eee	0.575179
56	0x3f9d0e01	1.2269899
57	0xbf0295d5	-0.51009876
58	0x3ecf11a3	0.40443143
59	0x3fa9ccb8	1.32656
60	0x3d6ac7ff	0.057319637
61	0xbf851d95	-1.0399653
62	0x3ec89c38	0.39181685
63	0xbfe1c688	-1.7638712
64	0x3f5025d7	0.8130774
65	0xbe82c13d	-0.25538054
66	0x3fa72d47	1.3060693
67	0xbf2f9866	-0.68591917
68	0x3f026e6e	0.5094975
69	0x3fb1deff	1.3896178
70	0x3f25a681	0.6470719
71	0x3e472bcb	0.194503
72	0x3fca200c	1.579103
73	0x3f11810b	0.5683753
74	0x3f3ca23e	0.7368506
75	0x3fb2f8d0	1.3982182
76	0xbf89c224	-1.0762372
77	0x3f8d529e	1.1040838
78	0xbf4125cf	-0.75448316
79	0x40215b87	2.5212114
80	0xbe051b9b	-0.12998812
81	0x3fcd6f76	1.604964
82	0xbf13423f	-0.5752296
83	0xbe0cb8ad	-0.13742323
84	0xbfb80e9b	-1.4379457
85	0x3ff4f658	1.9137678
86	0xbf687eb8	-0.9081836
87	0x3fa3f626	1.2809494
88	0xbf2a0dfd	-0.66427594
89	0x3eea5a6b	0.45772108
90	0xbf5b0512	-0.8555461
91	0xbdd0c920	-0.101946115
92	0x3f4e484e	0.8057908
93	0xbfd125d1	-1.6339666
94	0x3f9a31ff	1.2046508
95	0x3eaeb472	0.34122044
96	0x3b589f36	0.0033053881
97	0x3f1a229b	0.60209054
98	0x3f401e1c	0.75045943
99	0xbf0c946d	-0.5491398
100	0xbe6447f2	-0.2229307
101	0x3f0710f5	0.5276025
102	0xbf9e54d2	-1.2369635
103	0xbf0c2a9a	-0.54752505
104	0x3f8f233f	1.1182631
105	0x3d9dd3c6	0.07706408
106	0x3e17c2c4	0.14820391
107	0xbe563a8b	-0.2092077
108	0x3fc61d83	1.5477756
109	0x3f13fb7d	0.57805616
110	0xbe25a9fe	-0.16178128
111	0x3f6e6076	0.9311594
112	0x3fae8afa	1.3636162
113	0xbf546e74	-0.8298104
114	0x3fc22848	1.5168543
115	0xbec8d601	-0.39225772
116	0x3f81b095	1.0132014
117	0x3fd47166	1.6597106
118	0x40144eb4	2.3173037
119	0x3eb7861d	0.35844508
120	0xbf59dc5f	-0.85101885
121	0xbe2b7000	-0.16741943
122	0xbe0830b4	-0.13299829
123	0xbdaf4513	-0.08558097
124	0x3f1f5251	0.6223498
125	0xbee5877a	-0.44829923
126	0xbf3171af	-0.6931409
127	0xbc9aa3bd	-0.018876905
128	0x3f3f3d15	0.7470258
129	0xbf9718af	-1.1804408
130	0x3f433762	0.7625638
131	0xbe8bfb68	-0.27340245
132	0xc016145f	-2.3449934
133	0xbe60b115	-0.21942551
134	0x3d2ecdbf	0.042676684
135	0x3fde7646	1.7379844
136	0x3fb857f3	1.440184
137	0xc011edf6	-2.280149
138	0xbf86beb1	-1.0526944
139	0xbe21e9dc	-0.15811867
140	0xbef98d0d	-0.48740426
141	0xbfbc0290	-1.4688282
142	0xbdec3b55	-0.11534754
143	0x3f8db9bb	1.1072305
144	0x3f13cfbf	0.5773887
145	0xbf8ae577	-1.0851277
146	0xbf326b85	-0.6969531
147	0x3f96f6c9	1.1794063
148	0x3fb6bf8a	1.4277203
149	0xbf15e670	-0.58554745
150	0xbfc54254	-1.5410867
151	0x3f4d2a10	0.8014231
152	0xbdae78c9	-0.08519132
153	0x3f10353d	0.56331235
154	0xbe8eff17	-0.27928993
155	0xbf0d6217	-0.552278
156	0xbd2e3122	-0.042527325
157	0xbffca27c	-1.9737086
158	0x3f09dc44	0.53851724
159	0x3fdfbeab	1.7480062
160	0xbf80f89c	-1.007587
161	0xbf2fa276	-0.6860727
162	0x3ee01813	0.43768367
163	0xbef8e8bc	-0.48615062
164	0xbf012d94	-0.5046017
165	0x3ef3dca8	0.47629285
166	0x3f5bc95b	0.8585412
167	0xbf725f73	-0.94676894
168	0x3c7f4e52	0.015582638
169	0x3f9aff18	1.2109098
170	0x3f945520	1.1588478
171	0xbf2042d6	-0.62601984
172	0xbeb8e0c3	-0.3610898
173	0xbf55003d	-0.8320349
174	0x3f6fc8bc	0.9366567
175	0x3c413117	0.011791489
176	0x40082423	2.1272056
177	0x3f1a4b14	0.6027081
178	0x3f126317	0.5718245
179	0xc00fd4e4	-2.2473688
180	0x3f1e1e23	0.61764735
181	0xbf69e0ca	-0.91358626
182	0x3ecae833	0.3963028
183	0xbf2594f6	-0.6468042
184	0xbf9f0559	-1.2423507
185	0xbf978742	-1.1838152
186	0xbfbb7fda	-1.4648392
187	0x3f852de4	1.040463
188	0x3eca4ba8	0.39510846
189	0xbe15c221	-0.14624836
190	0x3faf8a42	1.3714068
191	0x3e8bb653	0.2728754
192	0x3f92a1b2	1.1455595
193	0xbf87ced6	-1.0609996
194	0x3efa89ff	0.48933408
195	0xbfd28c1a	-1.6449006
196	0xbfafb39f	-1.3726691
197	0xc03f06e6	-2.984796
198	0x3f895271	1.0728284
199	0x3f53f9de	0.8280314
200	0xbef137e5	-0.47112957
201	0x3fee9674	1.8639665
202	0x3fc0bbfd	1.505737
203	0x3f56164d	0.8362778
204	0xbf331d3c	-0.69966483
205	0x400e3b49	2.2223685
206	0x3dadc35b	0.08484527
207	0xc01e5bc9	-2.4743521
208	0xbe5007e4	-0.2031551
209	0xbf450bde	-0.7697123
210	0x3f778a1d	0.9669512
211	0xbf468efe	-0.7756194
212	0xbf4bea67	-0.79654545
213	0x3fce41d4	1.6113839
214	0x3e4b5e58	0.19860208
215	0xbf74f975	-0.9569314
216	0xbfb8e007	-1.4443368
217	0xc009bf5a	-2.1523042
218	0x3fcb1327	1.586522
219	0x3f920e89	1.1410686
220	0x3e412749	0.18862642
221	0xbf19134d	-0.59795076
222	0xbfd2948f	-1.6451586
223	0x3f43617d	0.7632063
224	0x3de82b1b	0.11336347
225	0xbf8df323	-1.1089824
226	0x3da78cc1	0.081811436
227	0x3fa2f04e	1.2729585
228	0x3d281230	0.04103297
229	0xbf4b5123	-0.7942068
230	0xbeee4156	-0.46534222
231	0x3f399bbf	0.72503275
232	0xbf0965bf	-0.5367088
233	0x3fbfff5f	1.4999808
234	0x3f94d358	1.1626997
235	0x3f5add18	0.8549361
236	0x3e516378	0.204481
237	0x3fecd663	1.8502926
238	0xbe30bc8b	-0.17259423
239	0x3f028ee8	0.5099931
240	0xbf0ca826	-0.54944074
241	0xbf93b122	-1.1538432
242	0x3f50bc45	0.81537277
243	0x3c062e35	0.008189728
244	0xbf047311	-0.5173808
245	0xbee6e7c8	-0.4509871
246	0xbf26d473	-0.6516792
247	0x3f258699	0.64658505
248	0xbf0ee492	-0.5581752
249	0x3f2155e8	0.6302171
250	0x3f479f2e	0.77977264
251	0xbe778e8b	-0.2417547
252	0xbd999bdd	-0.07500432
253	0x3fadd11d	1.3579441
254	0xbf950904	-1.1643376
255	0x3ee2b346	0.442774

encoder.gru.weight_ih_l0 f4 [300, 100]
0	0xbd9fd0d4	-0.07803503
1	0x3d233d01	0.0398531
2	0xbdb41927	-0.0879386
3	0x3d434216	0.047670446
4	0x3d6ca854	0.057777718
5	0x3d9558bc	0.07292315
6	0xbc3d45ac	-0.011552256
7	0x3c4156bf	0.011800467
8	0x3c72d7e5	0.014821981
9	0x3d4efb8d	0.050532866
10	0xbceb132b	-0.028695663
11	0xbcc83fc2	-0.024444465
12	0x3d85a411	0.06525434
13	0xbdc7bd88	-0.09752947
14	0x3cff5276	0.03116725
15	0x3db887b0	0.09010255
16	0x3cb28413	0.021791494
17	0xbd90ccf9	-0.070703454
18	0xbd3d2e1b	-0.046186548
19	0xbda156c1	-0.07877875
20	0xbd462bfe	-0.048381798
21	0xbd906ccf	-0.070520036
22	0x3dbab911	0.0911733
23	0x3cf5dd26	0.030012678
24	0xbd5e1f1b	-0.054228883
25	0x3dc8dd9d	0.098078944
26	0xbd26beea	-0.040709414
27	0xbc371806	-0.011175161
28	0xbd842f35	-0.064543165
29	0xbd8bf99e	-0.0683472
30	0xbd63e213	-0.055635523
31	0x3d177919	0.036980722
32	0x3cd19b28	0.02558668
33	0x3d6e1afb	0.0581312
34	0x3d5a3cb6	0.053280555
35	0x3d4e5909	0.05037788
36	0x3daef9fb	0.08543774
37	0x3b84d5eb	0.0040538213
38	0x3c9f1be1	0.019422473
39	0xbd176e9e	-0.036970727
40	0xbc92046e	-0.017824378
41	0x3d439e84	0.047758594
42	0x3cb823a3	0.02247793
43	0x3da2087b	0.07911774
44	0x3d55c633	0.05219097
45	0xbd26a263	-0.040682208
46	0xbda621a0	-0.08111882
47	0x3d525880	0.05135393
48	0xbd99c4db	-0.0750825
49	0x3d08e3e5	0.033420462
50	0x3d10c545	0.03534438
51	0x3d74c398	0.059756845
52	0xbc0e251c	-0.00867584
53	0x3dc20535	0.094736494
54	0x3d99c1a5	0.07507638
55	0x3d8cee19	0.06881351
56	0x3d40b858	0.047050804
57	0xbd758d32	-0.059949107
58	0x3c14bd54	0.0090783425
59	0x3c8ccc8f	0.017187385
60	0x3aa129f3	0.0012295827
61	0xbc8d6cee	-0.017263856
62	0xbcdf8f65	-0.027290056
63	0x3db691cb	0.089145266
64	0xbdabd81c	-0.08390829
65	0xbdc6a755	-0.09699885
66	0xbd3bde26	-0.045866154
67	0x3d30112c	0.042985126
68	0x3b7ad49d	0.00382737
69	0xbcecffbb	-0.028930536
70	0xbdab805c	-0.08374092
71	0xbda10dbf	-0.0786395
72	0xbd91990c	-0.071092695
73	0x3db55465	0.088539876
74	0xbd627350	-0.05528575
75	0xbdc04a40	-0.09389162
76	0xbc2e75fd	-0.010648248
77	0xb9dc6393	-0.00042035858
78	0x3bbb7846	0.005721125
79	0x3d2fb4f4	0.04289718
80	0x3d8cae33	0.06869163
81	0xbcf1a61e	-0.029498156
82	0x3d7d8cee	0.06190198
83	0xbc988e10	-0.018622428
84	0x3d4be2c0	0.049776793
85	0xbdb07a95	-0.08617131
86	0xbd0f2c60	-0.03495443
87	0x3db0814d	0.08618412
88	0xbd1302c4	-0.03589131
89	0xbd4bef5e	-0.049788825
90	0x3b2936eb	0.0025820087
91	0xbd5f12d2	-0.054461308
92	0x3d76d776	0.060264073
93	0xbc8c7db2	-0.01714978
94	0x3c97b488	0.018518701
95	0xbd01b2e8	-0.03166476
96	0x3d97422c	0.07385668
97	0x3d9c9bb3	0.07646885
98	0xbdb305d4	-0.08741346
99	0xbda4386e	-0.080185756
100	0xbd77d7bc	-0.060508475
101	0xbd7d470e	-0.06183534
102	0x3c1724eb	0.0092251105
103	0xbd8cb0c3	-0.06869652
104	0x3cf9d0be	0.030495044
105	0x3d79a34f	0.06094676
106	0x3d360234	0.044435695
107	0x3d6ba153	0.057526898
108	0x3c63b7bd	0.013898787
109	0xbd4b383c	-0.049614176
110	0xbdc0f452	-0.094216004
111	0xbc295408	-0.010334976
112	0xbd83c8f3	-0.064348124
113	0xbd9e6922	-0.07734896
114	0x3d8bcae1	0.068258055
115	0xbd877b07	-0.066152625
116	0x3cf645a2	0.0300625
117	0x3c767812	0.015043275
118	0x3dcd1eca	0.10015638
119	0x3d61c40d	0.05511861
120	0xbd12fc0b	-0.0358849
121	0xbda82849	-0.08210809
122	0xbcd26675	-0.025683621
123	0xbd307412	-0.043079443
124	0x3d31a50e	0.0433703
125	0x3dacc462	0.084358945
126	0xbd8abf43	-0.067747615
127	0x3d6b8cd2	0.057507344
128	0xbd322130	-0.04348868
129	0x3d98c7ae	0.07459961
130	0xbc1cf6ab	-0.009580295
131	0xbdaa59ef	-0.08317935
132	0xbd321779	-0.043479417
133	0x3d6b0c01	0.057384495
134	0xbc8b52d3	-0.017007267
135	0x3c891aaf	0.016736357
136	0x3cf7bf3f	0.03024256
137	0xbd0ac3a3	-0.03387798
138	0x3c14785f	0.009061902
139	0xbcd5dad9	-0.026105331
140	0x3d9315f5	0.07181922
141	0x3d006d9f	0.031354543
142	0x3d4da4a2	0.050205834
143	0xbdafb44a	-0.08579309
144	0xbd4b129c	-0.049578294
145	0x3db92e52	0.09042038
146	0xbb07658e	-0.0020659897
147	0x3bdedd70	0.0068012998
148	0x3c12b4cf	0.008954241
149	0xbcbf8e03	-0.023383146
150	0x3d9f2802	0.07771303
151	0xbdb028b2	-0.08601512
152	0x3d9d4f03	0.07681086
153	0xbdc3df2d	-0.09564052
154	0x3d7ba6ac	0.061438248
155	0xbd2bb05d	-0.04191624
156	0x3d871a0a	0.065967634
157	0x3d0d57e6	0.034507655
158	0x3dc0ef63	0.094206594
159	0x3db367a3	0.087600015
160	0x3c3e45ce	0.011613322
161	0x3d81f087	0.06344705
162	0xbce0d28b	-0.027444145
163	0xbda33064	-0.07968214
164	0xbdc11901	-0.09428597
165	0xbd8a12dc	-0.067418784
166	0xbd89071d	-0.0669081
167	0xbd10797b	-0.035272103
168	0x39d2df31	0.00040220612
169	0x3d334d80	0.04377508
170	0xbd8deea0	-0.0693028
171	0x3ceaec9a	0.028677274
172	0xbd6b212c	-0.057404682
173	0xbdca5375	-0.098791994
174	0xbdc759f5	-0.09733955
175	0x3d1a7ace	0.037714772
176	0x3dc13358	0.09433621
177	0xbb8925b3	-0.0041854023
178	0xbd833cdc	-0.064080924
179	0x3d13f977	0.03612658
180	0x3d6ec3c6	0.058292173
181	0xbd2a6c7e	-0.041607372
182	0xbc5caa6b	-0.013468365
183	0x3c5a374e	0.01331885
184	0x3d944c03	0.072410606
185	0xbd6d35d6	-0.05791267
186	0x3da42394	0.080145985
187	0xbdc61a9c	-0.09673044
188	0x3d920a30	0.07130849
189	0xbce4aaf3	-0.027913546
190	0xbd770e39	-0.0603163
191	0x3ccb255a	0.024798084
192	0xbcf4cbbf	-0.02988231
193	0x3c833ce0	0.016020238
194	0x3d85972f	0.065229766
195	0x3d222b2f	0.039591964
196	0xbdad1372	-0.084509745
197	0x3cfc5513	0.030802285
198	0xbd833176	-0.06405918
199	0xbdb149ea	-0.08656676
200	0x3d88c0af	0.066773765
201	0xbd1b05b5	-0.03784724
202	0xbcab5407	-0.02091409
203	0x3d9d555c	0.07682297
204	0x3d208965	0.03919353
205	0xbd2ef63e	-0.042715304
206	0x3db6c106	0.08923535
207	0xbd60ee66	-0.054914854
208	0x3d191c89	0.03738073
209	0xbd8080cd	-0.06274567
210	0x3c7f6ab6	0.015589407
211	0xbc8a1adb	-0.016858509
212	0xbd595040	-0.053055048
213	0xbd2d512b	-0.042313736
214	0xbdb9788e	-0.09056197
215	0xbdc5cb9c	-0.09657976
216	0xbcf93020	-0.030418456
217	0x3cf7a627	0.030230595
218	0xbc2468c5	-0.010034745
219	0x3da8e897	0.08247488
220	0xbbcb162c	-0.0061977115
221	0xbd009569	-0.03139249
222	0xbcc413c3	-0.023935204
223	0x392969fc	0.00016156578
224	0xbd804e16	-0.06264894
225	0x3d08d027	0.033401635
226	0xbd05c1ab	-0.0326554
227	0x3d45adc3	0.048261415
228	0x3d011ed0	0.031523526
229	0x3b812748	0.0039414503
230	0x3d5ef285	0.054430503
231	0x3adceb49	0.0016854788
232	0xbbd5724c	-0.0065138694
233	0xbd50013f	-0.05078244
234	0xbc54d44d	-0.01299007
235	0x38344389	4.297824e-05
236	0x3d55e2f7	0.052218404
237	0xbd4bf7ee	-0.04979699
238	0x3d939f3b	0.07208105
239	0xbdc9c75f	-0.0985248
240	0x3dc1eb90	0.09468758
241	0x3d341d8c	0.04397349
242	0x3d8c995b	0.06865188
243	0xbd84656a	-0.06464656
244	0xbd9a6afc	-0.07539937
245	0x3d3f9a7c	0.046778187
246	0xbda2f5a3	-0.07957008
247	0x3d1aa94a	0.037759103
248	0x3da45147	0.08023315
249	0xba1e6f90	-0.0006043846
250	0x3d8eea1f	0.06978249
251	0x3d022d13	0.031781267
252	0x3dccbbb5	0.0999674
253	0xbafc7b26	-0.0019262775
254	0x3dad34d1	0.084573396
255	0xbd89b9c5	-0.06724886

encoder.gru.weight_hh_l0 f4 [300, 100]
0	0xbd2ef01b	-0.04270945
1	0x3d039fe7	0.032134917
2	0x3dc6d02c	0.097076744
3	0x3d590e88	0.052992374
4	0xbdad57c3	-0.08464005
5	0x3d9e6c9c	0.07735559
6	0xbd595d41	-0.05306745
7	0xbc9b5662	-0.018962089
8	0x3cb4cd9c	0.022070698
9	0xbcdf4f38	-0.027259454
10	0xbdccb80b	-0.09996041
11	0x3d1b2ca7	0.03788438
12	0x3d32cd53	0.043652844
13	0x3aa5fdd1	0.0012664144
14	0xbd8cfa33	-0.06883659
15	0x3cb689b2	0.022282455
16	0x3c182923	0.0092871515
17	0x3c898a70	0.016789645
18	0xb791b389	-1.736895e-05
19	0xbd4ce12e	-0.050019436
20	0x3d8edcd0	0.069757104
21	0x3d07ee71	0.03318638
22	0x3bc8261b	0.006108058
23	0x3d9d3fa3	0.07678153
24	0xbd1e96f8	-0.038718194
25	0x3dc546a4	0.09632614
26	0xbda50d00	-0.0805912
27	0x3ceecc05	0.029150018
28	0xbcb0781a	-0.021541644
29	0xbc1b0ba1	-0.009463222
30	0x3d268f8b	0.040664237
31	0x3da9335d	0.0826175
32	0x3d62f9ce	0.055414014
33	0xbd93bb2d	-0.07213435
34	0xbd2d17d0	-0.042259037
35	0x3d9157d4	0.0709683
36	0xbcdee4c4	-0.027208693
37	0x3d247623	0.040151726
38	0xbd579001	-0.052627567
39	0x3d2d7f76	0.042357884
40	0xbd776da6	-0.060407303
41	0x3ce86d64	0.028372474
42	0xbd161d2e	-0.03664892
43	0xbd6b0ff3	-0.057388257
44	0x3d5ad80c	0.053428695
45	0x3dabdb1b	0.083914004
46	0xbd51b7c7	-0.051200654
47	0xbd8091db	-0.0627782
48	0x3d83115c	0.063997954
49	0x3d5ea112	0.054352827
50	0x3d7d57e3	0.061851393
51	0xbd923a07	-0.07139974
52	0xbd0b2e96	-0.033979975
53	0xbcb829d5	-0.022480885
54	0x3cfb9c6d	0.030714238
55	0xbc3ad597	-0.011403463
56	0xbd056106	-0.032563232
57	0x3cb3a0c5	0.021927247
58	0xbda96acc	-0.08272323
59	0x3ca751af	0.020424692
60	0xbd677afe	-0.05651378
61	0xbcc8973b	-0.024486175
62	0xbcb21403	-0.021738058
63	0xbdbb1a5c	-0.09135887
64	0xbdc1aa00	-0.09456253
65	0x3c448025	0.011993443
66	0x3dc9bbc5	0.09850267
67	0xbd992496	-0.07477681
68	0xbda678e2	-0.08128525
69	0x3bb7af7e	0.005605637
70	0x3d896e2c	0.06710467
71	0x3d535a86	0.0516
72	0xbd305911	-0.04305369
73	0x3dacae50	0.08431685
74	0x3d27dcd3	0.04098208
75	0x3c0d5c79	0.008628004
76	0x3bf072fa	0.007337925
77	0x3cb10790	0.021610051
78	0xbdae0095	-0.08496205
79	0x3c35f350	0.0111053735
80	0x3d029a0e	0.0318852
81	0x3aa32bc4	0.0012448956
82	0xbd9df37d	-0.07712457
83	0x3d9a61c3	0.07538178
84	0xbd669dca	-0.056302823
85	0xbd3659ff	-0.04451942
86	0x3d948f2d	0.07253871
87	0x3dae355c	0.08506271
88	0x3cc31f8e	0.023818757
89	0x3d8c0748	0.06837326
90	0x3d5b7d7b	0.053586464
91	0xbaad0089	-0.0013199012
92	0xbba26f41	-0.00495711
93	0x3da6c50e	0.08143054
94	0x3b1697e2	0.0022978713
95	0xbbd101be	-0.0063783815
96	0xbd812ce2	-0.06307389
97	0xbcfca2a9	-0.030839281
98	0x3d9ca35a	0.07648344
99	0xbb03a09c	-0.0020084744
100	0xbdc46d35	-0.09591142
101	0x3dacf793	0.084456585
102	0x3c7537b3	0.014966893
103	0x3d8f8bce	0.070090875
104	0x3d26d903	0.040734302
105	0xbcbe902f	-0.023262111
106	0x3db79805	0.08964542
107	0x3dcadb21	0.09905077
108	0x3d11a042	0.035553224
109	0x3d67bdc4	0.05657746
110	0x3dc17d39	0.094477125
111	0xbbcc7640	-0.0062396824
112	0x3dbdfd5d	0.09276841
113	0x3d9124cb	0.07087096
114	0x3d3f0ef6	0.046645127
115	0xbcc6810b	-0.024231454
116	0x3d9b90c1	0.07595969
117	0xbd056fca	-0.032577313
118	0xbceb6892	-0.028736386
119	0x3d3e67ad	0.04648559
120	0xbd8b54fe	-0.0680332
121	0xbc8fa79e	-0.01753598
122	0xbd6cd4a3	-0.057819974
123	0xbc8373fe	-0.01604652
124	0x3d88dd4c	0.06682834
125	0xbdc1a84f	-0.094559304
126	0x3d598a4f	0.053110417
127	0xbd3ede88	-0.04659894
128	0xbcd10269	-0.025513845
129	0xbd568428	-0.052372128
130	0xbd94a8d0	-0.07258761
131	0xbcbec2a3	-0.02328617
132	0x3d8d4c80	0.06899357
133	0x3d575f1d	0.05258094
134	0x3d659778	0.056052655
135	0x3c136152	0.008995371
136	0x3d025dd5	0.031827766
137	0xbd497ad0	-0.04918939
138	0x3d6b1bfd	0.05739974
139	0x3db6ec9e	0.0893185
140	0x3d2791c2	0.04091049
141	0x3d273366	0.0408205
142	0xbd934ec5	-0.071927585
143	0x3d73c086	0.059509777
144	0xbd8a4a31	-0.06752432
145	0xbca375cf	-0.019953636
146	0x3d13d658	0.036093086
147	0x3d8fd1f4	0.07022467
148	0x3d9651c3	0.073398136
149	0x3dc5bc60	0.0965507
150	0xbd911102	-0.07083322
151	0x3d8ee28f	0.06976806
152	0xbd1a1a82	-0.037622936
153	0x3cd5662d	0.026049698
154	0xbd92da89	-0.071705885
155	0x3d7a2260	0.06106794
156	0xbd467c90	-0.048458636
157	0xbb34de40	-0.0027598292
158	0xbd8e77e3	-0.0695646
159	0xbb854c62	-0.0040679434
160	0x3cf9a1b7	0.03047262
161	0xbd027d23	-0.03185762
162	0x3d26729a	0.040636636
163	0xbcbb9b0d	-0.022901082
164	0xbdc15b14	-0.094412
165	0xbd868a90	-0.065693974
166	0x3d6cdb9f	0.057826634
167	0x3d369a27	0.044580605
168	0x3d1d0964	0.038339034
169	0x3c7de8b6	0.015497377
170	0xbdb99cfb	-0.09063145
171	0xbd92c3f7	-0.071662836
172	0x3d335d1e	0.043789975
173	0xbcdd251f	-0.02699524
174	0xbdbeb3f4	-0.09311667
175	0xbd993b76	-0.074820444
176	0xbc3445a9	-0.011002936
177	0x3bc80918	0.0061045997
178	0x3d1063bd	0.035251368
179	0xbd4ebbc7	-0.050472047
180	0xbd68cd20	-0.056836247
181	0x3db08f00	0.08621025
182	0x3ce945da	0.02847569
183	0x3d70a4c7	0.058750894
184	0x3da46106	0.08026318
185	0xbd80a007	-0.06280523
186	0x3d7a44df	0.061100837
187	0xbd1edeb1	-0.038786594
188	0x3d73b5de	0.059499614
189	0x3d5c17fd	0.053733815
190	0x3d77a031	0.060455505
191	0x3d79ba1c	0.060968503
192	0xbc568a64	-0.013094518
193	0x3c06ee21	0.008235485
194	0xbdbf5af5	-0.093435206
195	0x3c9b82aa	0.018983204
196	0x3d5036d6	0.050833546
197	0x3dac9c2a	0.084282234
198	0xbd7efb29	-0.062251244
199	0xbcc916a2	-0.024546925
200	0xbd5a2786	-0.05326035
201	0xbb40ce0d	-0.002941969
202	0xbdb50f19	-0.0884077
203	0x3d2287e3	0.039680373
204	0x3dcc138b	0.09964665
205	0x3d86351e	0.065531
206	0x3dc82556	0.09772746
207	0x3dadbb2b	0.08482965
208	0x3cb5eeb5	0.022208551
209	0x3d218663	0.0394348
210	0x3dbc7c23	0.09203365
211	0x3d9a5ad8	0.07536858
212	0x3cc34a49	0.023839133
213	0x3dad5fcf	0.0846554
214	0x3cf7475f	0.0301854
215	0x3c65745b	0.014004792
216	0xbd425075	-0.04744001
217	0x3c2399c5	0.009985392
218	0x3d53d4d3	0.051716637
219	0xbce447a4	-0.027866192
220	0xbdaee3ec	-0.085395664
221	0xbd40aed6	-0.047041737
222	0xbb37847d	-0.0028002553
223	0x3dc67e5d	0.09692071
224	0x3a1fa7ce	0.00060903735
225	0x3d3c2e0c	0.04594235
226	0x3d79f16a	0.061021246
227	0x3abe2f56	0.0014509957
228	0xbd1a4c12	-0.037670203
229	0xbdc3865c	-0.095471114
230	0x3bda602f	0.006664298
231	0xbdb4dd49	-0.08831269
232	0xbd553615	-0.05205353
233	0xbd9fd705	-0.078046836
234	0x3ae280c5	0.0017280808
235	0x3bc575ba	0.006025997
236	0x3dc53be9	0.096305676
237	0xbc960f92	-0.018317971
238	0xbd0474e4	-0.032338038
239	0x3d82529a	0.06363411
240	0x3d99bbe4	0.075065404
241	0x3d1b2a1b	0.03788195
242	0xbd93cefa	-0.07217212
243	0xbcffdd34	-0.031233408
244	0x3d688447	0.056766775
245	0x3cb9ed5c	0.02269619
246	0xbdaa63d8	-0.08319825
247	0xbc36f2a1	-0.011166246
248	0xbcedb1ab	-0.029015383
249	0x3d0c3dec	0.03423874
250	0xbdb117d2	-0.086471215
251	0x3d95f905	0.07322887
252	0x3d55a7fc	0.052162156
253	0xbbbb8b57	-0.0057233977
254	0xbdc1e7cc	-0.0946804
255	0x3d6e1e0e	0.05813413

encoder.gru.bias_ih_l0 f4 [300]
0	0x3d189ef7	0.037260976
1	0x3d940bd9	0.07228822
2	0xbc0879bc	-0.008329805
3	0xbd0ba91a	-0.034096815
4	0x3c4ca271	0.012489901
5	0x3c1f7331	0.009732054
6	0xbdaafa8a	-0.08348568
7	0x3d9fd8a3	0.07804992
8	0x3dacf37e	0.0844488
9	0xbdb1db55	-0.086844124
10	0x3d023a0b	0.031793635
11	0x3d399347	0.04530647
12	0xbcf740b3	-0.030182218
13	0xbda0b74c	-0.07847461
14	0x3d88638c	0.06659612
15	0xbd8c264d	-0.06843243
16	0xbc38f687	-0.011289245
17	0x3dcbf282	0.09958364
18	0x3d288996	0.041146837
19	0xbc1c2f28	-0.009532727
20	0x3dd0d892	0.101975575
21	0xbc7e07e5	-0.015504812
22	0xbd7168f4	-0.05893798
23	0xbd3b4583	-0.04572059
24	0xbd91fb9d	-0.071280695
25	0xbd24d306	-0.04024031
26	0xbdbaa127	-0.091127686
27	0xbd7f426c	-0.062319204
28	0xbb664088	-0.0035133678
29	0x3cbda2e8	0.023148969
30	0xbd187d95	-0.03722914
31	0x3cb14478	0.021639094
32	0x3d707073	0.05870099
33	0x3ca2c628	0.019869879
34	0xbdba5b1d	-0.0909941
35	0x3d73087a	0.059334256
36	0xbd6cd375	-0.05781885
37	0xbc6c82ab	-0.014435451
38	0x3c8a3dbf	0.016875146
39	0x3cbc4f1e	0.022986945
40	0xbc3fe74e	-0.011712862
41	0x3d82bf9f	0.06384205
42	0xbc45c9b5	-0.0120720165
43	0xbd875095	-0.06607167
44	0xbda7ec08	-0.08199316
45	0xbd36d85f	-0.04463994
46	0x3d911f5e	0.07086061
47	0xbd9034a5	-0.07041291
48	0xbd042e53	-0.03227074
49	0xbd01c126	-0.03167834
50	0x3c46421f	0.012100725
51	0xbd88884a	-0.0666662
52	0x3d9d27a4	0.076735765
53	0xbce66e5a	-0.028128792
54	0x3d07d915	0.03316601
55	0xbd9f06ac	-0.077649444
56	0xbcec2546	-0.028826367
57	0xbd39b4b8	-0.045338362
58	0x39ce7919	0.00039381607
59	0xbd508362	-0.050906546
60	0xbd7a9bc8	-0.06118372
61	0xbd0c43ac	-0.034244224
62	0xbd8610e5	-0.06546191
63	0xbc121138	-0.008915238
64	0xbca3b262	-0.01998252
65	0xbd2f7a76	-0.042841397
66	0x3d93b29c	0.072118014
67	0x3cd1dd07	0.02561809
68	0x3dcb3eb5	0.0992407
69	0x3da7305f	0.08163523
70	0xbdb7e248	-0.089787066
71	0xbd99f1e3	-0.07516839
72	0x3cfc737d	0.030816788
73	0x3d8ab236	0.06772272
74	0xbb96013d	-0.0045777843
75	0xbb739528	-0.0037167761
76	0xbd6f8a6a	-0.05848161
77	0x3d0dd096	0.03462275
78	0x3daa60a1	0.08319212
79	0xbdb8a721	-0.09016252
80	0x3db63288	0.08896357
81	0xbd24f059	-0.040268276
82	0xbd30cd34	-0.043164447
83	0xbd977ce6	-0.07396869
84	0x3d8d82d8	0.06909722
85	0xbd1f1067	-0.038834002
86	0xbd1af2c7	-0.037829187
87	0x3dc14a8b	0.09438046
88	0xbc659916	-0.014013549
89	0xbd0bd0ef	-0.0341348
90	0x3d08296b	0.033242624
91	0x3c93cae4	0.018041082
92	0xbd9b862b	-0.0759395
93	0x3da56cb8	0.08077377
94	0x3d4a8134	0.049439624
95	0x3dab25b9	0.083568044
96	0xbc31cebd	-0.010852513
97	0x3c95dac7	0.018292798
98	0x3d79731b	0.06090079
99	0xbdc19c09	-0.094535895
100	0xbda064b6	-0.07831709
101	0x3ca8b675	0.020594815
102	0x3bbb460d	0.005715138
103	0x3d13420c	0.03595166
104	0x3dc8a586	0.09797196
105	0xbd29a295	-0.041414816
106	0xbb7ba30d	-0.0038396746
107	0x3be1dbe3	0.0068926676
108	0xbd5e3482	-0.054249294
109	0x3d770b7d	0.06031369
110	0x3c6db72b	0.014509003
111	0xbdc013e6	-0.09378795
112	0xbc939c11	-0.018018754
113	0xbccb54bb	-0.024820676
114	0xbd6c594e	-0.057702355
115	0xbd9435c4	-0.072368175
116	0x3d159556	0.03651937
117	0x3c795148	0.015217133
118	0x3dbff076	0.09372036
119	0x3cedebac	0.029043041
120	0xbdc2e37e	-0.09516047
121	0xbd2f219d	-0.042756665
122	0x3cfc6a97	0.030812545
123	0xbd7ed7c4	-0.06221749
124	0xbdb0e864	-0.08638075
125	0xbdc50722	-0.09620501
126	0xbdbe08cf	-0.09279024
127	0xbd42ee6f	-0.04759067
128	0x3c3310d0	0.010929301
129	0xbda391b0	-0.07986772
130	0x3d32856f	0.043584283
131	0xbd2fea0a	-0.042947806
132	0x3d85e1ca	0.065372065
133	0x3bc2f0e9	0.005949129
134	0xbd000b0a	-0.031260528
135	0x3bee4f8c	0.0072726663
136	0xbd58bf4a	-0.052916802
137	0xbcbb39a4	-0.022854634
138	0xbcf2817b	-0.029602757
139	0xbdb699fb	-0.08916088
140	0x3c0a85dd	0.008454767
141	0x3d785f74	0.060637906
142	0xbdae7d8b	-0.08520039
143	0xbda8423f	-0.082157604
144	0x3d6fb5c7	0.058522966
145	0xbcb9d128	-0.022682741
146	0x3d42c26e	0.047548704
147	0x3d7e0dfd	0.06202506
148	0xbd1109a3	-0.03540958
149	0x3da73d7c	0.08166024
150	0x3db2d845	0.087326564
151	0xbd9b12c1	-0.075719364
152	0x3b26bf88	0.0025443751
153	0xba502e78	-0.00079414947
154	0xbd42769d	-0.0474764
155	0x3dc51576	0.09623234
156	0xbd452d78	-0.048139066
157	0xbdac405a	-0.084107116
158	0x3da06a62	0.07832791
159	0x3dc28585	0.09498123
160	0x3c92e047	0.01792921
161	0xbd3c474c	-0.04596643
162	0xbdbfe8b2	-0.09370555
163	0x3d94be0d	0.07262812
164	0xbd3ff5ee	-0.046865396
165	0x3d4719b5	0.0486085
166	0xbd8ae9cd	-0.06782875
167	0xbd9ca615	-0.07648865
168	0x3d8f0636	0.069836065
169	0xbd95bf34	-0.0731186
170	0x3d7fc914	0.062447622
171	0xbc85c1f2	-0.016327832
172	0xbdc159fb	-0.094409905
173	0x3db6a82e	0.089187965
174	0xbdbc8a79	-0.09206099
175	0x3cb93ab0	0.022610992
176	0xbad7d3cc	-0.0016466319
177	0xbd40d2e7	-0.047076132
178	0x3c199501	0.009373904
179	0x3be218ee	0.0068999445
180	0xbc56c23a	-0.013107831
181	0xbd6ed56c	-0.058309004
182	0x3dad74bd	0.08469532
183	0x3c76cb5a	0.015063131
184	0x3d6bb3a7	0.057544377
185	0x3daf0038	0.085449636
186	0x3aa7edcc	0.0012811958
187	0xbd9fc140	-0.078005314
188	0xbda96bf7	-0.08272546
189	0xbd8f96e6	-0.070112035
190	0xbd967428	-0.07346374
191	0xbd901e42	-0.07037021
192	0x3dc9ef72	0.09860124
193	0x3dc5880e	0.09645091
194	0x3cd05371	0.025430413
195	0x3d4b9cfc	0.04971026
196	0x3dc9f908	0.09861952
197	0xbd2b4222	-0.041811116
198	0x3c986b7e	0.018605944
199	0xbd1b83ba	-0.03796742
200	0x3de3322e	0.110935554
201	0x3d04a409	0.032383
202	0x3d0a8116	0.033814512
203	0x3d3938da	0.045220234
204	0xbd56c9da	-0.052438594
205	0x3dbecfee	0.09317003
206	0x3d9150dd	0.070955016
207	0x3dadd200	0.0848732
208	0xbbd21bd7	-0.00641201
209	0x3dbf4139	0.09338612
210	0xbda7ab0b	-0.08186921
211	0x3c26ed5e	0.010188429
212	0x3ddae415	0.106880344
213	0x3b4027f4	0.002932069
214	0x3e02dc8c	0.12779444
215	0x3d1a3337	0.0376465
216	0xbd22d33d	-0.039752234
217	0x3d04765c	0.03233944
218	0x3d97dbaf	0.07414948
219	0xbaa78995	-0.0012782092
220	0x3dec0856	0.115250275
221	0xbcbdb29e	-0.02315646
222	0xbcc6569d	-0.024211222
223	0xbd1bee9e	-0.03806936
224	0x3d5302cc	0.05151634
225	0x3ceb529c	0.028725915
226	0x3dbcd008	0.09219366
227	0x3dd80910	0.105486035
228	0xbdbfa8ac	-0.093583435
229	0x3d150404	0.036380783
230	0x3d902d05	0.07039837
231	0x3df25a53	0.11833634
232	0x3c8a9937	0.016918762
233	0xbd23ef72	-0.040023275
234	0xbdb2a2a4	-0.087224275
235	0xbcbbce58	-0.02292554
236	0x3c518045	0.0127869295
237	0x3d9c02a8	0.07617694
238	0xbd222d1b	-0.039593797
239	0x3d248b8a	0.040172137
240	0x3c6bd70d	0.014394534
241	0xbd8086a7	-0.06275683
242	0x3d880f1f	0.06643509
243	0x3b95a2b9	0.004566517
244	0x3dfb17e9	0.1226042
245	0x3d7c456b	0.06158964
246	0xbda54e61	-0.0807159
247	0xbd294f3b	-0.041335326
248	0x3c2410ad	0.010013741
249	0xbda672a3	-0.08127334
250	0x3d473b85	0.048640747
251	0x3cab4133	0.020905113
252	0x3bb348ce	0.0054713255
253	0x3b8a9fd9	0.004230481
254	0x3d1d20c6	0.038361333
255	0x3dd3a877	0.103348665

encoder.gru.bias_hh_l0 f4 [300]
0	0xbd8aee04	-0.06783679
1	0x3c9c3d9f	0.019072352
2	0xbcec233f	-0.0288254
3	0xbc94c24a	-0.01815905
4	0xbc9d549b	-0.019205382
5	0xbd139bc5	-0.036037225
6	0x39750f8b	0.00023370811
7	0x3d6619c0	0.0561769
8	0xbd1b2fd3	-0.037887406
9	0x3d4451e1	0.04792965
10	0xbcd028b0	-0.025410026
11	0xbd929e52	-0.071591035
12	0xbd59cd5b	-0.053174358
13	0xbd127ffc	-0.035766587
14	0xbd1e0a07	-0.03858378
15	0xbd91690f	-0.071001165
16	0xbdb58008	-0.08862311
17	0xbdcc558b	-0.099772535
18	0xbc6a24e4	-0.014291022
19	0xbdc214ba	-0.094766095
20	0xbce25682	-0.02762914
21	0x3dcb6363	0.09931066
22	0xbd8d86f6	-0.069105074
23	0xbd8c8b61	-0.06862522
24	0xbda41873	-0.08012476
25	0xbda7109e	-0.08157466
26	0x3d970a39	0.07374997
27	0xbbcf8ec5	-0.006334158
28	0x3bf14b3d	0.0073637054
29	0x3d4f8090	0.050659716
30	0xbdb5de4f	-0.088802926
31	0x3da897d5	0.08232085
32	0xbcda540f	-0.02665141
33	0xbcd93f88	-0.026519552
34	0xbd4df9bd	-0.050286997
35	0x3db5491a	0.08851834
36	0xbd9d35f9	-0.0767631
37	0x3c28ae46	0.010295456
38	0x3d9b2807	0.07575994
39	0x3c925772	0.017863963
40	0xbd11d150	-0.035600007
41	0x3d8c2be7	0.06844311
42	0x3cfc7e00	0.0308218
43	0xbd8880c2	-0.066651836
44	0x3dbf3d29	0.09337837
45	0xbd8f6f23	-0.070036195
46	0xbcc4c015	-0.024017373
47	0xbd31eeca	-0.043440618
48	0xbd691966	-0.056908987
49	0xbd51cf47	-0.051223066
50	0x3d211cc2	0.039334066
51	0x3d6eee6b	0.05833284
52	0xbdc042ad	-0.093877174
53	0x3da0ec2b	0.078575455
54	0xbd2f2267	-0.042757418
55	0x3d84255a	0.06452437
56	0x3d35ffac	0.04443328
57	0x3d55bd5c	0.05218254
58	0x3db8488f	0.089982145
59	0x3cc4fa49	0.024045127
60	0xbd5878de	-0.052849643
61	0xbdb16950	-0.08662665
62	0xbd5d9470	-0.05409664
63	0x3cbb907e	0.022896048
64	0xbbc9b8fb	-0.0061560846
65	0x3bde0b77	0.006776269
66	0xbcd5e471	-0.026109906
67	0xbcbd9799	-0.023143576
68	0xbd6d3628	-0.057912976
69	0x3db58e8b	0.088650785
70	0x3d0778f0	0.03307432
71	0xbcc92958	-0.024555847
72	0xbdb5cad8	-0.0887658
73	0x3d17f922	0.037102826
74	0xbd568e5d	-0.052381862
75	0x3c8397d9	0.016063618
76	0xbd2e38fa	-0.042534806
77	0x3d3f48be	0.04670023
78	0xbd30e03c	-0.043182597
79	0xbaa09156	-0.0012250345
80	0x3d381a51	0.044946972
81	0xbd99cf70	-0.07510269
82	0x3bfcefc5	0.0077190124
83	0x3d1f65e0	0.038915515
84	0xbbb775fa	-0.0055987807
85	0xbdb7a9ee	-0.089679584
86	0x3d72d07b	0.059280854
87	0x3c62fa91	0.013853685
88	0x3db277fb	0.08714291
89	0x3d20f71f	0.039298173
90	0xbd9f10ab	-0.07766851
91	0x3c27f317	0.010250828
92	0xbd856bf2	-0.065147296
93	0x3d028151	0.031861607
94	0xbda3fd46	-0.080072924
95	0xbdc7be09	-0.09753043
96	0x3d607452	0.05479843
97	0x3d884921	0.06654573
98	0xbcb5f02f	-0.022209255
99	0xbd793d2a	-0.060849346
100	0x3d83412b	0.06408914
101	0x3d2ca630	0.042150676
102	0xbc25a33f	-0.010109722
103	0xbd79f258	-0.061022133
104	0xbd1bb9c0	-0.038018942
105	0x3c8103db	0.015748909
106	0x3daf538f	0.085608594
107	0xbd414599	-0.047185514
108	0xbd9a5676	-0.07536022
109	0xbccf1855	-0.025280157
110	0x3db626cb	0.08894118
111	0xbd2fb1f3	-0.042894315
112	0x3d196af7	0.037455525
113	0x3d22079b	0.039558034
114	0x3d8d9f0f	0.06915104
115	0xbdaa50a9	-0.08316166
116	0x3d91824e	0.07104932
117	0xbb5d5a4e	-0.003377575
118	0xbdbfc7f4	-0.0936431
119	0xbd42b2ca	-0.047533788
120	0x3d83532a	0.06412347
121	0x3d355f19	0.044280145
122	0xbdac534b	-0.084143244
123	0xbd86eb28	-0.06587821
124	0xbb614f18	-0.003437942
125	0xbc4d007f	-0.012512325
126	0xbd2dfcd4	-0.042477444
127	0xbb6613ea	-0.0035107085
128	0xbb581396	-0.0032970659
129	0xbdae5cb5	-0.08513776
130	0xbdbc55a1	-0.0919602
131	0xbdcaf7f2	-0.09910573
132	0xbcbd9431	-0.023141952
133	0xbd8264de	-0.06366895
134	0xbbcda5c8	-0.006275866
135	0x3d386e00	0.04502678
136	0xbd9ec07b	-0.077515565
137	0xbd9be941	-0.07612849
138	0xbb3874d0	-0.0028145798
139	0xbdaff964	-0.08592489
140	0x3b3d1af9	0.0028855188
141	0xbdbaef4b	-0.09127673
142	0x3d926fd8	0.07150239
143	0xbd057f80	-0.032592297
144	0xbd02e5e8	-0.031957537
145	0x3d938e2d	0.07204852
146	0xbd833425	-0.0640643
147	0x3da7f712	0.08201422
148	0x3d7bf7a7	0.061515477
149	0x3da3c094	0.07995716
150	0xbc662251	-0.014046268
151	0xbc288681	-0.0102859745
152	0x3d3209c9	0.043466363
153	0xbca3fe6a	-0.020018775
154	0x3d0deefb	0.034651738
155	0x3d93741c	0.071998805
156	0xbd8afc40	-0.06786394
157	0xbd546cb7	-0.05186149
158	0x3b89cc66	0.0042052744
159	0x3cce8e08	0.02521421
160	0xbd2b26c4	-0.041785017
161	0x3db86f9e	0.09005664
162	0xbdc00171	-0.09375275
163	0xbd7fc06f	-0.06243938
164	0xbd87b4e6	-0.066263005
165	0x3bd82dff	0.00659728
166	0x3c7d4c1c	0.01546004
167	0x3c2bd2b1	0.010487244
168	0xbd03c41e	-0.032169454
169	0xbd9355f2	-0.07194127
170	0xbd871333	-0.06595459
171	0x3d230068	0.03979531
172	0xbd170fb6	-0.036880217
173	0xbd6af052	-0.057358094
174	0x3d3696ad	0.04457729
175	0xbcdab634	-0.02669821
176	0x3c5ce563	0.013482424
177	0x3c94ffbd	0.018188352
178	0x3d94e4f8	0.07270235
179	0x3c8cb8cf	0.017177967
180	0xbbbe4f82	-0.005807818
181	0xbdc54244	-0.0963178
182	0xbcb14fcb	-0.021644494
183	0xbda4f60e	-0.08054744
184	0x3dc6e8fa	0.097124055
185	0x3d9becc6	0.0761352
186	0xbaf88139	-0.001895941
187	0xbd111bbd	-0.035426844
188	0x3a347fba	0.0006885488
189	0x3d092465	0.033481974
190	0xbd2dd229	-0.042436752
191	0x3d029d3b	0.031888228
192	0x3cb52ae2	0.022115175
193	0xbc138f43	-0.009006324
194	0xbd1a274c	-0.037635133
195	0x3db56cf3	0.08858671
196	0xbd0d266c	-0.03446047
197	0x3bff099e	0.007783129
198	0xbc8b67aa	-0.017017204
199	0x3db099c5	0.08623079
200	0xbda4c794	-0.08045879
201	0xbaa65f2f	-0.0012693162
202	0x3acb6012	0.0015516302
203	0xbd8fa065	-0.07013015
204	0x3d277420	0.04088223
205	0xbdac9897	-0.08427542
206	0x3db51cb3	0.088433646
207	0xbd6f782e	-0.05846422
208	0xbd30eb21	-0.043192986
209	0x3d8224fe	0.06354712
210	0x3c2af242	0.010433735
211	0xbc080795	-0.008302589
212	0x3d43a5f8	0.047765702
213	0x3d71c653	0.059027027
214	0x3dab2afd	0.08357809
215	0x3dabed8c	0.08394918
216	0x3dc3c8b3	0.09559765
217	0xbcc469f7	-0.02397631
218	0x3d191d3e	0.037381403
219	0x3dc12ffd	0.09432981
220	0x3df0d0ba	0.117585614
221	0xbc93dad9	-0.01804869
222	0x3d541511	0.051777903
223	0xbd0b3f5c	-0.03399597
224	0x3d3bf69d	0.045889486
225	0xbdc46d99	-0.095912166
226	0x3dbd5ca2	0.09246184
227	0x3ce11f66	0.027480792
228	0xbd9b5c9e	-0.07586025
229	0x3d5a4b4d	0.05329447
230	0x3d05a7b3	0.032630634
231	0x3dd6da9b	0.104909144
232	0x3d85f699	0.065411754
233	0xbdcc0c61	-0.099632986
234	0x3d393264	0.045214072
235	0x3d56246b	0.052280825
236	0xbd9e1256	-0.07718341
237	0x3d9bfa31	0.076160796
238	0xbbb39f31	-0.0054816236
239	0x3d72ba81	0.059259895
240	0xbcef9047	-0.029243601
241	0xbd9c7aa7	-0.076405816
242	0xbda82fdc	-0.082122535
243	0xbcfa18c9	-0.030529397
244	0x3bed0db0	0.0072342977
245	0x3db1da03	0.086841606
246	0xbd3d914f	-0.046281155
247	0xbc6057eb	-0.013692836
248	0xbda6a3a0	-0.08136678
249	0x3d7f47e2	0.062324412
250	0x3d70db97	0.058803167
251	0x3dd3607d	0.10321138
252	0xbd73ea71	-0.059549753
253	0xbcc46067	-0.02397175
254	0xbd5fe44b	-0.054661077
255	0x3d26101c	0.040542707

decoder.embedding.weight f4 [189, 100]
0	0xbfae8175	-1.3633257
1	0xbf9cc3ea	-1.2247288
2	0xbd2a1252	-0.041521378
3	0xbf53cbce	-0.82732856
4	0xbf9bfec3	-1.2187122
5	0x3ffad344	1.9595723
6	0x3f29833f	0.6621589
7	0x3eb69ad2	0.35664994
8	0xbf3c3bdd	-0.73528844
9	0x3d4623c2	0.048373945
10	0xbeb11b8d	-0.34591332
11	0xbfdbb86f	-1.716566
12	0x3f80033c	1.0000987
13	0x3f7cfeb8	0.9882617
14	0x3f07a5f2	0.5298759
15	0xc00d28ab	-2.2056072
16	0xbeaa1bb2	-0.33224255
17	0x3fd3de64	1.6552243
18	0xbe2fbca3	-0.17161803
19	0xbef5fa61	-0.48042586
20	0xbe898a09	-0.26863125
21	0x3fd8983c	1.6921458
22	0xc00befb8	-2.1865063
23	0xbf6cec1e	-0.92547786
24	0xbf570802	-0.83996594
25	0xbf384f84	-0.7199633
26	0x3e8fabc4	0.28060734
27	0xc018aa7f	-2.3854063
28	0xbf17a6d6	-0.59238946
29	0xbf33a9e8	-0.7018113
30	0x3f97c44f	1.1856784
31	0x3f14f938	0.5819278
32	0x3f874db3	1.0570587
33	0xbd6c9607	-0.057760265
34	0xbf1c7f70	-0.61131954
35	0xbf44d410	-0.7688608
36	0xbdf9dec4	-0.12200692
37	0xbf01ef99	-0.5075622
38	0xbf06688a	-0.52503264
39	0xbf9fa4c3	-1.2472156
40	0xbf06e69d	-0.5269564
41	0xbfc2439e	-1.5176885
42	0xbeedc017	-0.46435615
43	0xbf0b2b20	-0.5436268
44	0xbfc8522a	-1.5650074
45	0xbe806a98	-0.25081325
46	0xbe86fe4e	-0.26365894
47	0xbf864284	-1.0489049
48	0x3d84ec92	0.06490435
49	0x3d651379	0.055926774
50	0xbf2d79fe	-0.6776427
51	0xbff5d075	-1.9204241
52	0xbeabd0f6	-0.33557862
53	0xbf90d5ba	-1.1315224
54	0xbf37d71a	-0.71812594
55	0x3f0398f6	0.51405275
56	0x3f095ec1	0.5366021
57	0x3ff3d8ec	1.9050574
58	0xbe9fc88c	-0.31207693
59	0xbe9087eb	-0.28228697
60	0x3dd19aab	0.10234579
61	0x3ea0835d	0.31350222
62	0xbf68a1ad	-0.908717
63	0xbf0e90f5	-0.55689937
64	0x3f62d9a1	0.88613325
65	0x3f4cee14	0.8005078
66	0x3f478ef9	0.77952534
67	0xbf297b5e	-0.6620387
68	0x3e89dc6a	0.26925975
69	0xbebecb9f	-0.37264726
70	0xbe6b0b87	-0.22953616
71	0xbf116b2d	-0.5680416
72	0xbe2f1cc5	-0.17100818
73	0xbf34e0f0	-0.7065573
74	0x3f258fff	0.64672846
75	0x3f11a3f6	0.5689081
76	0x3face7e9	1.3508273
77	0xbf19496f	-0.59877676
78	0x3f561086	0.8361896
79	0x3cac8e63	0.021063989
80	0xbe9edf8b	-0.31029925
81	0x3ff707ed	1.9299294
82	0xbf91a124	-1.1377301
83	0xbea034e2	-0.31290346
84	0xbfcc8238	-1.597724
85	0xbeca02ee	-0.3945536
86	0x3c6dc765	0.014512871
87	0x3f0193ad	0.5061596
88	0xbe390032	-0.18066481
89	0xbd346da0	-0.04404986
90	0xbfbc5ba2	-1.4715464
91	0x3efdecfc	0.49594867
92	0x3f94e0d8	1.1631117
93	0xbf0f4dfa	-0.5597836
94	0x3f6de97a	0.9293438
95	0xbf8a1967	-1.0789002
96	0x3fd2e656	1.6476543
97	0xbf1a1b8f	-0.601983
98	0x3f2d7da2	0.67769825
99	0xbef0577f	-0.46941754
100	0xbfb1a08e	-1.3877122
101	0x3f8b8060	1.0898552
102	0x3feac02f	1.83399
103	0x3ff54bf8	1.9163809
104	0xbed7a64a	-0.42119056
105	0x3f0e0d76	0.5548929
106	0xbe21fe63	-0.15819697
107	0xbf64e0f5	-0.8940576
108	0x3e831103	0.25598916
109	0xbd027249	-0.031847272
110	0x3f96cd47	1.1781396
111	0x4010f220	2.2647781
112	0xc01731d3	-2.362416
113	0x3fc610f0	1.5473919
114	0xbeba2118	-0.36353374
115	0x3f55586b	0.8333804
116	0x3fa65a35	1.2996279
117	0xbf0834c7	-0.5320553
118	0x3ffcb4e3	1.9742702
119	0x3f25c115	0.64747745
120	0x3f2bbb31	0.67082506
121	0xbfd21bbc	-1.6414714
122	0xbf68c6c2	-0.9092828
123	0x3ebf7d18	0.37400126
124	0x3f03804e	0.5136765
125	0x3cb28884	0.021793611
126	0x3f8efe17	1.1171292
127	0x3dc8fde6	0.09814052
128	0xbea751d5	-0.3267962
129	0x3e46270b	0.19350831
130	0xbe1a7552	-0.15083817
131	0x3d9596bf	0.07304143
132	0xbf7f6a32	-0.99771416
133	0x3ef29934	0.4738251
134	0x3f2d361f	0.6766071
135	0x3f6e4d52	0.9308673
136	0x3f47fb34	0.7811768
137	0xbf51d88a	-0.8197104
138	0x3f028712	0.5098735
139	0xbfc523fd	-1.5401608
140	0x3fc82ffc	1.5639644
141	0xbfee32bd	-1.8609234
142	0x3e6ba7fb	0.23013298
143	0xbf6f909f	-0.9358005
144	0x3e382d3b	0.17986004
145	0x3e8fcf64	0.28087914
146	0xbf251c7e	-0.644966
147	0xbeb45cad	-0.35226956
148	0xbfda02f4	-1.7032151
149	0xbe293190	-0.16522813
150	0xbfaff060	-1.3745232
151	0xbe66c6bf	-0.22536753
152	0x3f56ffcd	0.8398407
153	0xc008b8cd	-2.1362793
154	0x3e7e7778	0.24850261
155	0xbed68ac8	-0.41902757
156	0x3fe3d75e	1.78001
157	0x3f245771	0.64195925
158	0x3f26c617	0.6514601
159	0x3f04c189	0.5185781
160	0x3fba2846	1.454354
161	0xbf5ccdd5	-0.86251575
162	0xbca362b7	-0.019944532
163	0x3f91eb43	1.1399921
164	0x3e75238c	0.23939341
165	0x3d6d9640	0.058004618
166	0xbf773adb	-0.9657418
167	0xbfcbf769	-1.5934879
168	0x3e87dd5a	0.26536065
169	0x3ec0a0d7	0.3762271
170	0xbce7d01e	-0.02829748
171	0x3f8754da	1.057277
172	0x3f6c623e	0.92337406
173	0x3f2ae438	0.66754484
174	0x3f211c19	0.629335
175	0x3ee11e26	0.43968314
176	0x3fa66aa6	1.3001297
177	0x3f3b83e1	0.73248106
178	0x3f4fe784	0.8121264
179	0x3f50ae5d	0.8151606
180	0xbf87727c	-1.0581813
181	0xbfaaaec0	-1.333458
182	0xbf2f5679	-0.6849132
183	0xbf1d8661	-0.6153317
184	0xbfc84fef	-1.5649394
185	0x3e96b340	0.29433632
186	0x3fedb390	1.8570423
187	0xbfb82bd8	-1.438838
188	0xbe2c9dd8	-0.16857088
189	0x3f564c72	0.83710396
190	0xbf1a3d51	-0.6024981
191	0x3fc72748	1.5558863
192	0xbec97a73	-0.39351234
193	0xbfd9ee5b	-1.7025865
194	0xbfcb6fe2	-1.5893519
195	0x3e5e35e2	0.21700242
196	0xbf068d27	-0.5255913
197	0xbf04fff5	-0.5195306
198	0x3f80c13b	1.0058969
199	0xbf3ac29b	-0.72953194
200	0xbe500037	-0.20312582
201	0x3f81556a	1.0104191
202	0xbf8da2cb	-1.1065305
203	0xbfe6c35c	-1.8028369
204	0xbf534778	-0.8253093
205	0x3f120d3b	0.5705144
206	0x3fac896a	1.3479435
207	0x3eb18661	0.34672835
208	0x3f5d6933	0.86488646
209	0x3e56c01f	0.20971726
210	0xbf9e2bb3	-1.2357086
211	0x3fc4061a	1.5314362
212	0xbfcd7f63	-1.60545
213	0x3fea0c0d	1.8284928
214	0x3ec176d0	0.3778596
215	0xbe2ca6f5	-0.16860564
216	0xbe9fa1f3	-0.31178245
217	0xbeda2ecf	-0.42613837
218	0x3f7dad68	0.9909272
219	0xbe67a3ba	-0.2262105
220	0x3fb368b8	1.4016333
221	0xbfd99e97	-1.7001523
222	0x3fae00a8	1.359395
223	0xbf8957a3	-1.072987
224	0xbf3420b2	-0.7036239
225	0x3ee15bbb	0.44015297
226	0xc00bf18a	-2.1866174
227	0xbf239115	-0.6389325
228	0xbdbf9bb6	-0.093558714
229	0x3fd16c35	1.6361147
230	0x3e58da2e	0.21176979
231	0x3f87b90c	1.0603347
232	0xbfe56a51	-1.792307
233	0xbf8a1d2a	-1.079015
234	0xc027aa03	-2.6197517
235	0x3ef00dde	0.4688558
236	0x3ee9fb10	0.45699358
237	0xbd99ebd8	-0.07515687
238	0xbe34f514	-0.17671615
239	0x3eb3f28f	0.35145995
240	0x402b5472	2.6770291
241	0xbed2e738	-0.4119203
242	0x3f00fca1	0.5038548
243	0x3e94bb81	0.29049304
244	0xbdf090e6	-0.11746387
245	0x3fc7d445	1.5611655
246	0x3f60ad21	0.87764174
247	0x400f9431	2.24342
248	0x3fa5775f	1.2927054
249	0xbfb81358	-1.4380903
250	0x3e5f8a3c	0.21830076
251	0xbf4d114c	-0.8010452
252	0xbf8952fe	-1.0728452
253	0x3efad811	0.4899297
254	0x3f229d63	0.63521403
255	0x3f429a01	0.7601624

decoder.attn.weight f4 [15, 200]
0	0xbababdc0	-0.0014247224
1	0xb90eabfe	-0.00013606247
2	0xbd4ada33	-0.049524497
3	0x3d8d2180	0.06891155
4	0xbd89d2dd	-0.06729672
5	0xbd20e58f	-0.039281424
6	0xbd798bf1	-0.060924474
7	0xbd82dc43	-0.06389668
8	0x3d5f2ec9	0.054487977
9	0x3d6fd896	0.05855616
10	0x3d4e96cd	0.050436784
11	0xbd893f3c	-0.06701514
12	0xbc1b658b	-0.009484659
13	0xbd1600fa	-0.036622025
14	0xbd6edb02	-0.05831433
15	0x3d6da9b8	0.058023185
16	0x3d33f00b	0.043930095
17	0x3d24eadd	0.040263046
18	0x3d57827c	0.052614674
19	0xbc850038	-0.016235456
20	0x3d5ff8ac	0.05468051
21	0x3d86f3e2	0.06589486
22	0x3d461fc2	0.04837013
23	0x3c975bc4	0.018476374
24	0x3c1dd4ef	0.009633287
25	0x3d7a981d	0.061180223
26	0xbd5f9632	-0.054586597
27	0x3c877afb	0.016538134
28	0x3d4760ff	0.048676487
29	0xbb83f248	-0.004026685
30	0x3d571b87	0.052516486
31	0x3d6c8033	0.057739448
32	0xbd7c3232	-0.061571307
33	0x3d4ad615	0.04952057
34	0x3d903189	0.07040698
35	0x3d63aaa4	0.055582657
36	0x3d395892	0.045250483
37	0x3d539dfb	0.051664334
38	0xbd8d864a	-0.06910379
39	0x3d4ec3cb	0.05047969
40	0x3d42c318	0.047549337
41	0x3d2d5567	0.042317774
42	0x3d8d8de4	0.06911829
43	0xbcbd7549	-0.023127215
44	0x3d1f0e9d	0.038832296
45	0x3d159cd4	0.036526516
46	0xbb2b2029	-0.0026111698
47	0xbd1911af	-0.03737038
48	0xbd29c4d9	-0.041447494
49	0xbd38e0c9	-0.045136247
50	0x3cf92560	0.03041333
51	0xbd1bad90	-0.03800732
52	0x3c986b66	0.018605899
53	0xbd6a1b24	-0.05715479
54	0x3d3b8edb	0.045790534
55	0x3cb3db6d	0.021955216
56	0xbd8d1da7	-0.06890421
57	0xbc49378a	-0.012281308
58	0x3c93d823	0.018047398
59	0x3d1932b8	0.037401885
60	0xbd736ea8	-0.059431702
61	0xbd3d06db	-0.046149116
62	0xbd5c5947	-0.05379608
63	0xbd141b63	-0.03615893
64	0xbc1e65ae	-0.009667797
65	0xbc3e2e2e	-0.01160769
66	0x3a927eaf	0.0011176671
67	0x3c849df3	0.016188597
68	0xbcac1383	-0.021005398
69	0x3d54d6c9	0.051962648
70	0x3bb09188	0.0053884424
71	0x3d8dd9a2	0.06926276
72	0x3d184df8	0.03718373
73	0xbc53ef0c	-0.012935411
74	0x3d53792c	0.05162923
75	0x3cc500e3	0.024048274
76	0x3d306fe9	0.043075476
77	0xbcfe40af	-0.031036703
78	0x3d23ea0f	0.040018138
79	0x3c2f703b	0.01070791
80	0xbd2154dd	-0.039387573
81	0xbc49b44c	-0.0123110525
82	0x3d196d23	0.037457597
83	0xbd5fbfc6	-0.05462625
84	0x3d8448f6	0.06459229
85	0x3d271bea	0.040798105
86	0xbd2a593c	-0.041589007
87	0xbd0b4700	-0.034003258
88	0xbd1176fd	-0.035513867
89	0xbd858e79	-0.06521315
90	0xbc12a86b	-0.008951287
91	0x3d535bac	0.051601097
92	0xbd400082	-0.046875484
93	0x3b5d668d	0.003378305
94	0xbd8bbb18	-0.06822795
95	0xbccde209	-0.025132196
96	0x3d262369	0.040561114
97	0x3d2031a0	0.039109826
98	0x3d8b5c2e	0.06804691
99	0xbd89ae5b	-0.06722709
100	0x3d3d2448	0.04617718
101	0x3b98643e	0.0046506217
102	0x3c3beb58	0.011469685
103	0x3c9a0af5	0.018804053
104	0x3b8744f0	0.004128091
105	0x3cbb430f	0.022859124
106	0x3d73d605	0.059530277
107	0xbcf3248b	-0.029680511
108	0x3c140a30	0.009035632
109	0x3d304118	0.04303083
110	0x3d29f9d5	0.041498024
111	0x3d75ae14	0.059980467
112	0x3d86a4d9	0.06574411
113	0xbbb5e093	-0.005550453
114	0xbd892854	-0.06697145
115	0x3d8a52c9	0.06754071
116	0xbd8773ed	-0.06613908
117	0xbd88ab6e	-0.066733226
118	0x3d397c86	0.04528477
119	0xbc6136b3	-0.0137459515
120	0xbcd7a447	-0.02632345
121	0xbcc833d2	-0.024438772
122	0xbcdc169b	-0.026866248
123	0xbd26b3eb	-0.040698927
124	0xbcba052e	-0.022707548
125	0x3c94f6c2	0.01818407
126	0xbc405588	-0.011739142
127	0x3d4e9658	0.050436348
128	0xbd31c1e5	-0.043397803
129	0xbd6c4947	-0.05768707
130	0xbbce6c59	-0.006299537
131	0xbc0d3fd6	-0.008621177
132	0x3caa79d6	0.020810049
133	0x3d1425b2	0.03616876
134	0x3c3c700d	0.011501324
135	0x3ce5d103	0.028053766
136	0xbcd0d669	-0.025492864
137	0x3cee7c67	0.029112054
138	0x3d68e174	0.056855634
139	0x3d8c90f3	0.06863584
140	0x3d909c03	0.07061007
141	0xbd3517da	-0.0442122
142	0x3d34e098	0.0441595
143	0xbd29d34c	-0.041461274
144	0xbd728f0d	-0.059218455
145	0xbd8052e3	-0.062658094
146	0xbd8bb5a4	-0.068217546
147	0x3c903d1f	0.01760727
148	0x3d290290	0.04126221
149	0x3c779fc8	0.015113778
150	0xbd6a418d	-0.05719142
151	0x3d7e614a	0.0621045
152	0x3c667c3c	0.014067706
153	0x3d8953bd	0.06705425
154	0x3d2f679e	0.042823426
155	0x3cc5c2d9	0.024140762
156	0xbcec1f30	-0.028823465
157	0x3bd2cec0	0.006433338
158	0xbd35d64e	-0.04439383
159	0x3d5366c5	0.05161168
160	0x3d1441d6	0.0361956
161	0xbced29a5	-0.028950522
162	0xbc818dd6	-0.015814703
163	0xbd5af02c	-0.053451702
164	0xbcc44738	-0.023959741
165	0xbd2eafd3	-0.042648148
166	0xbd106262	-0.035250075
167	0x3d50848b	0.050907653
168	0xbc9f275d	-0.01942795
169	0xbd877dab	-0.06615766
170	0x3d1fd633	0.039022636
171	0x3d80fdd1	0.06298412
172	0x3d80d501	0.06290627
173	0xbd623264	-0.055223837
174	0x3d3b4fd3	0.045730423
175	0x3d89b3b3	0.06723728
176	0x3b80be54	0.003928939
177	0xbd896193	-0.06708064
178	0x3d2acfb3	0.041701984
179	0xbd4f3504	-0.05058767
180	0x3d57a808	0.05265048
181	0xbcbe041f	-0.023195324
182	0x3d89c657	0.067272834
183	0xbd1d68b9	-0.03842995
184	0x3d595569	0.05305997
185	0xbcabd48e	-0.020975377
186	0x3d5c0568	0.053716093
187	0x3d6c6247	0.057710912
188	0xbb29a832	-0.0025887606
189	0x3d059f96	0.032622896
190	0xbd088b3e	-0.033335917
191	0x3c79035c	0.015198555
192	0xbd0701cb	-0.032960694
193	0xbd402f66	-0.046920203
194	0x3d4845a1	0.04889453
195	0x3c99c68c	0.018771432
196	0xbd7bc525	-0.06146731
197	0x3d8fa200	0.07013321
198	0xbd552268	-0.052034765
199	0xbc408332	-0.011750029
200	0xbc3c4cf1	-0.011492954
201	0x3d8403ef	0.06446063
202	0x3c10c9ef	0.008837207
203	0x3d14fc47	0.036373403
204	0xbd2eef28	-0.042708546
205	0x3c112f6f	0.008861407
206	0xbb58d968	-0.0033088569
207	0x3d1844e9	0.037175093
208	0x3d330852	0.043709107
209	0xbd85f5d3	-0.06541028
210	0x3d8971c9	0.06711156
211	0x3cfc9918	0.03083472
212	0xbbb7ad98	-0.005605411
213	0xbce1cd64	-0.027563758
214	0xbd8c7449	-0.06858117
215	0xbd36a351	-0.044589344
216	0xbd28cead	-0.041212726
217	0x3d8873de	0.06662725
218	0x3ccd5733	0.025065994
219	0x3cc0104c	0.023445271
220	0xbd155234	-0.036455348
221	0x3ce64ad4	0.028111853
222	0x3cffb3c9	0.031213658
223	0xbbfc8659	-0.007706445
224	0xbd192106	-0.03738501
225	0xbcb16a7e	-0.021657225
226	0xbc23f294	-0.010006566
227	0xbd6fa778	-0.05850932
228	0xbd8e30e8	-0.06942922
229	0x3d873e91	0.066037305
230	0x3c802735	0.015643695
231	0xbcdcc235	-0.026948074
232	0xbd15a8c0	-0.036537886
233	0xbca933fe	-0.020654675
234	0x3cb649cd	0.022251988
235	0xbc7eb4c3	-0.015546027
236	0x3d10310d	0.03520303
237	0xbcd0537c	-0.025430433
238	0x3c8a6d01	0.01689768
239	0xb9f2eee5	-0.00046335827
240	0xbd58c952	-0.05292637
241	0xbd1e380e	-0.038627677
242	0x3d014097	0.03155574
243	0x3c9a8d44	0.018866189
244	0x3c0fc911	0.008775965
245	0x3cf89ec9	0.030349152
246	0xbd0492aa	-0.032366432
247	0x3d64b580	0.055837154
248	0x3cbc2d76	0.022970896
249	0xbce02ec0	-0.027366042
250	0x3b9c3499	0.0047670123
251	0x3cf6addc	0.0301122
252	0xbcf75709	-0.030192869
253	0x3d852a7b	0.06502243
254	0xbd5ae40f	-0.05344015
255	0xbc54bb5d	-0.012984124

decoder.attn.bias f4 [15]
0	0x3d0b2f6f	0.033980783
1	0xbd5f33b1	-0.054492656
2	0xbc63a383	-0.013893965
3	0x3d13e299	0.036104772
4	0xbd6f97fb	-0.05849455
5	0x3d78b7f3	0.060722303
6	0xbd7b9e3e	-0.06143021
7	0x3d648c0b	0.055797618
8	0x3d367ed5	0.04455455
9	0x3d76f2a8	0.06029001
10	0x3d236faa	0.039901413
11	0xbd189d20	-0.03725922
12	0xbcbaa3ae	-0.022783127
13	0x3d675a05	0.056482334
14	0x3bfa5bfb	0.0076403595
