best_models/seq2seq-1-5.205138.pt (torch, 17999 bytes, 16 tensors)

encoder.embedding.weight f4 [146, 5]
00000000: c09d 2cbf 5923 9f3f 9ea0 c4be 1013 373f
00000010: c1ed c9bf 33fb 23bf eb1c 31bd 132c a7bf
00000020: 34a2 923e a842 94be a6ec 86be dbaf e43f
00000030: 3a15 debd 1ef2 54bf 812d f53e 4af9 08bf
00000040: a5fe e13e e9f9 a73e a34f a63e b0eb 46bf
00000050: ab54 c6bf 6fb1 a7bf 48e8 913f 5b5d a7bf
00000060: f409 323f da0d 853e f4e8 8e3f bb3a f13e
00000070: 66ea dcbe e8a9 263f 598f c1be 06dd 6b3d
00000080: 5da7 463f 0a25 30bf 0b8a 5a3f 764e 853c
00000090: af86 43bd 29d4 1c3f 7bfd adbe e46b 58bf
000000a0: b1dc 103f 99d3 9abe 8fae b03f ab7a 9cbf
000000b0: 1100 5abe ee6c 86bf 03ac ee3f a966 b93f
000000c0: 0344 1d3f f4db 7ebf f4b9 b83d 6c7f cdbf
000000d0: b6cf 92be 1569 6cbe 9523 4b3f e5e7 ccbe
000000e0: 6537 a03f eaef 053f e15f d23d caa5 59bf
000000f0: 204f 6ebf 1cfe d6be 3102 1abf 7236 6cbf
00000100: 216b a83f 2aa6 bebe 857c 943f 56a9 ebbf
00000110: 8101 ce3f ed6a 303f 1a3d 24bf d3b9 02bf
00000120: 5633 f23d 7a08 d93f cc8d c73e 8d44 0cbf
00000130: 0fd4 d73f 4b9c 2640 2448 233f a8a0 d73f
00000140: 6967 8d3f c44f 283f 01d5 27bf c58c aabf
00000150: af94 5e3f 3f1a b43e a940 2e3f 4be2 6f3f
00000160: f017 0f40 70b4 113e 0d1e be3f 2fe3 a43e
00000170: 035d 663e 3d2a 523f 99d4 e8be 47c0 21bf
00000180: b32c 14bf f995 4c3e 04b0 3bbe ab52 623f
00000190: c0b6 e8bf 9ee1 42bf 1383 17bf 076e 00be
000001a0: a707 6fbe 0573 5b3f 2b80 88bf e5d3 85be
000001b0: cbf2 0c3e 2bfc 913e 1181 4cbe 831f 6b3f
000001c0: c92f 2ebf 7ca6 aabf 8dac c73f 2aa4 5d3f
000001d0: 9f36 15bf 5264 89bf 7260 373f 1380 6b3f
000001e0: edb8 a03f 2edf 133f 7e55 de3d df76 8a3f
000001f0: 9d7e 1f3f 00c0 7e3f 940b 0340 dab0 133f
00000200: d689 0b3e f2dc e4bf 25c6 76bf 5653 06bf
00000210: 59d0 2940 1b5b a03d 11aa d4bf 26f6 77bf
00000220: 30f2 243f f8f4 c23d d125 a1be a3f2 103f
00000230: ec99 743a 72b3 48c0 1080 733f d060 b63e
00000240: 8d12 e6bd b6cc fa3e 4ded c33f 7713 66bf
00000250: b815 c0bf 09db 3b3f 35ba bc3d 00c9 d0bf
00000260: 2a92 4ebf 7c48 92bf 7f7f 0040 b53a a5bf
00000270: e551 26bf 18ae 823f 62c1 ac3e 3d62 db3e
00000280: 89f7 5b3e 06ce 03be 2d34 183f b664 f2bf
00000290: 7251 24be 75d0 a73f de1d 31c0 d01b e73e
000002a0: 6de1 5ebf 16fd 3e3d ea1e 0c3f eee9 d8be
000002b0: ace7 e1bd 0c12 d4bc 3d26 ee3f 5149 28bf
000002c0: c0d5 b7bf e812 183f e81f a93f 4654 7a3f
000002d0: a06e 83bf 97a5 e1bf 6548 943f 3dee c83e
000002e0: dd6f 973f 012a dd39 bdaa 0abe edef d13f
000002f0: 12cb 4fbf 7d21 1a3f 8091 cbbf b0eb 16bf
00000300: 0c8b 463e cf1b 87bf 5abd b4be 0740 f53d
00000310: 9be7 0dbf 5312 a0be b34e 00bf 5f3a 25bf
00000320: 847f 1abe 62ea 973f cea1 ed3f 6a40 2040
00000330: 22ef 423f b1c5 78be 5cfe bf3f fb3c 023f
00000340: a2d4 663f 9b8f aabe 0fed 13bf 57c7 87bf
00000350: ebed 373f 2474 fcbe 09d5 353f 7e43 62be
00000360: 92ca b9be 76f3 15be 2632 943f 03de 9cbd
00000370: 8604 343f d069 de3e 3eba 27bf a0d2 cf3f
00000380: a9db c2be fb93 d03e d7cc 0d3f 2563 9bbe
00000390: a7cb bd3f 6943 2140 e23a 8a3f 5d0f 06bf
000003a0: 98fe 2a3e c587 193c aed5 f13e 1140 6b3d
000003b0: b99d 8c3f c2c9 083f 1aac b03e 72d9 90bf
000003c0: 96f3 a03e f547 adbf bff5 a73d c635 2b3b
000003d0: 9706 31bf 0fdb 02c0 f198 db3f 56ca 05bf
000003e0: 313e 7f3e 7c15 f93d 822f d13f 41d1 b53c
000003f0: 41ff c9be 85aa a03f 7698 cd3f 35ae cd3e
-0.6742821 1.2432662 -0.3840379 0.7151346 -1.5775682 -0.64055175 -0.04324047 -1.3060325
0.28639376 -0.28957105 -0.26352423 1.7866167 -0.108438924 -0.8318194 0.4788628 -0.53505385
0.4413959 0.32807854 0.32482633 -0.7770338 -1.5494589 -1.3101023 1.1399012 -1.3075365
0.6954644 0.2598713 1.1164842 0.4711512 -0.43147582 0.65103006 -0.37804678 0.05758383
0.77599126 -0.6880652 0.85366887 0.016272765 -0.047735866 0.6126123 -0.33982453 -0.8453963
0.5658675 -0.3023956 1.3803271 -1.2224935 -0.21289088 -1.0501993 1.8646244 1.4484454
0.614319 -0.9955437 0.09019843 -1.6054511 -0.28674096 -0.2308696 0.7935117 -0.4002067
1.2516905 0.52319205 0.10272194 -0.850186 -0.93089485 -0.41990745 -0.60159594 -0.92270577
1.3157693 -0.37236148 1.16005 -1.8411052 1.6094209 0.68913156 -0.64155734 -0.51064795
0.11826198 1.6955712 0.3897537 -0.547921 1.686159 2.6032894 0.6378195 1.6845903
1.1047183 0.6574671 -0.65559393 -1.332421 0.86945623 0.35176274 0.68067414 0.9370467
2.235836 0.14228988 1.4852921 0.32204577 0.22496419 0.820957 -0.454747 -0.63184017
-0.57880706 0.19979085 -0.18328863 0.8840739 -1.8180771 -0.76125515 -0.5918438 -0.12541972
-0.23342763 0.8572238 -1.0664114 -0.26138225 0.13764493 0.285127 -0.1997111 0.9184496
-0.68041664 -1.3332057 1.5599533 0.8657862 -0.5828647 -1.073374 0.7163154 0.919923
1.2556435 0.5776242 0.1085615 1.0817527 0.6230257 0.9951172 2.0475817 0.5769173
0.13626799 -1.7879927 -0.96396095 -0.5247091 2.6533415 0.07829877 -1.66144 -0.9685997
0.6443205 0.0951938 -0.31474164 0.56620234 0.00093307975 -3.1359525 0.9511728 0.35620737
-0.11234007 0.48984307 1.5306793 -0.8987345 -1.5006628 0.73381096 0.09215204 -1.631134
-0.8069178 -1.142837 2.0077817 -1.2908541 -0.6496871 1.0209379 0.3374129 0.42848387
0.21481146 -0.1287156 0.59454614 -1.8936985 -0.16046694 1.3110491 -2.767448 0.45138407
-0.8706272 0.04662808 0.5473467 -0.42365974 -0.11030516 -0.025887512 1.8605419 -0.6573687
-1.4362106 0.5940385 1.3212862 0.9778484 -1.0268135 -1.7628659 1.1584593 0.3924426
1.1831013 0.000421837 -0.13541694 1.6401345 -0.81169236 0.6020735 -1.5903778 -0.5895338
0.1938898 -1.0555362 -0.35300714 0.11975103 -0.55431527 -0.3126398 -0.50120085 -0.6454219
-0.15087706 1.1868403 1.8565004 2.5039315 0.7614614 -0.24294163 1.4999499 0.508743
0.901682 -0.33312687 -0.577836 -1.0607709 0.7184741 -0.49307358 0.7102819 -0.22096059
-0.3628736 -0.14643654 1.1577804 -0.07659533 0.703194 0.43440104 -0.6551856 1.6236153
-0.38058212 0.407379 0.55390686 -0.3034908 1.4827775 2.5197394 1.079922 -0.5236719
0.16698682 0.009370749 0.47233337 0.057434145 1.0985633 0.5343286 0.34506303 -1.1316359
0.3143584 -1.3537585 0.08201169 0.002612458 -0.6915068 -2.0446203 1.7156049 -0.52261865
0.24926068 0.12162301 1.6342623 0.022194507 -0.39452556 1.2552038 1.6062152 0.40171972

encoder.gru.weight_ih_l0 f4 [15, 5]
00000000: 58b3 b4be 88f3 013e f362 90be 356e db3e
00000010: 1a9a a1be 775f 5f3e 9eaf d73e 2a83 a43e
00000020: 599a 2c3c 22c0 0b3d eac5 69be f669 98be
00000030: da5d 85bd 1842 a53e 98ad 82be cb16 363e
00000040: 35c1 b53e 5433 4d3c ca06 6d3e 3fca 963e
00000050: e121 d33e 2b5f cdbe db41 9dbe 3893 a43d
00000060: 14de 9b3e aefc 3fbd b84c 4b3e e4a3 943e
00000070: cdfd c3be 428b bbbe ac8b fc3d 7c42 c93e
00000080: cc04 ffbd 0037 f93d e29f 413d 11cc 74be
00000090: dd88 b6be 9fbf 4cbe 011d 253e a7f4 ccbe
000000a0: e23a df3c 54be 953e 6d79 99be 1482 cd3e
000000b0: 4190 653e e5bf 2c3e 73be d63e c151 47be
000000c0: f92e 083d cd5d 973e c7b6 72be 0e06 31bd
000000d0: e940 af3e 59a7 e0bd 57fb 163e 8b00 8b3e
000000e0: b275 893e 4ee7 cbbe 71cb d83d 9190 9fbe
000000f0: ef63 8a3e 72ff c33e 44ab 2e3e 3f9d 42bb
00000100: 3bd9 d13e 608c 963e d2cc bdbe 82c3 20be
00000110: 79f7 903d 7bfa 7b3e a9fb 9bbe 96d1 883d
00000120: 5874 03bd d13d 1d3e b636 f0ba
-0.35293078 0.12690556 -0.28200492 0.4285752 -0.31562883 0.2181376 0.42126173 0.3213132
0.010534846 0.03411878 -0.22829404 -0.29768342 -0.065120414 0.32276988 -0.25523067 0.17782132
0.35498968 0.012524445 0.23147121 0.29451177 0.41236785 -0.4011167 -0.30714306 0.08035892
0.3044287 -0.046871834 0.19853485 0.2903129 -0.38279572 -0.36629683 0.12331328 0.39308536
-0.12452087 0.121686935 0.047271617 -0.2390597 -0.35651293 -0.19994973 0.16124345 -0.40030405
0.027249757 0.2924677 -0.29975453 0.40138304 0.2241831 0.16870077 0.41942176 -0.1946478
0.03324792 0.29563752 -0.23702537 -0.043218665 0.3422921 -0.10969419 0.14744316 0.27148852
0.26847607 -0.3982491 0.10585678 -0.31164983 0.27029368 0.38280827 0.1705752 -0.0029695777
0.40986046 0.29403973 -0.37070328 -0.1569958 0.07078452 0.2460727 -0.3046544 0.066806
-0.032093376 0.15355612 -0.0018326852

encoder.gru.weight_hh_l0 f4 [15, 5]
00000000: ade5 03bd 5250 aa3e 0c70 8bbc 957a 003e
00000010: b2fa 1fbe 4037 7c3e 30e2 22bc 3db6 813e
00000020: 7c6e a23e b976 8abe cc46 e73d 29fe 9e3e
00000030: 5e0e 793e 5c07 94be 75f6 28be 94ef de3e
00000040: b3ae ac3e 1c2c 94be 2cb8 9cbe 3576 a93e
00000050: 65a9 6f3e 569a 42bc 8feb c7be f632 73be
00000060: 5487 873e bb37 8ebe 809e a1bd 0c91 dd3e
00000070: 262a 81be 23c0 98be c448 e53c f178 203e
00000080: 13f0 7a3e 75ee 813e c236 d8be fbcf a3be
00000090: c594 7ebd 6469 48be a9fd e23e e1ed 143e
000000a0: 4afd 25be 34d7 e1be c5e4 40be 5af4 3cbe
000000b0: 978a 3f3d bd6e 953e 33d9 d23e af20 a3bd
000000c0: 8a13 9abe 83cf b0be 11b7 e23d d4b9 46bb
000000d0: eb63 87be dee4 ad3e 653e 98be 2490 d63d
000000e0: 138c 3b3e a905 fa3d 0189 953e 345e 93be
000000f0: 7868 9bbe fb3c aa3e ebc9 3dbd 546c a33d
00000100: cbd8 a1be 6b31 0abd 839c a03d 114b 6b3e
00000110: 2c43 72be 7245 363d 30a7 6e3e 3217 92be
00000120: 7a3a 823d 550a afbe 56b9 5e3e
-0.032201458 0.33264405 -0.017021202 0.12546761 -0.15622976 0.24630451 -0.009941623 0.2533435
0.31724918 -0.27043703 0.112928 0.31053284 0.24321887 -0.28911865 -0.16500266 0.4354216
0.33727035 -0.28939903 -0.30609262 0.33097997 0.23404463 -0.011877617 -0.39046904 -0.23749909
0.26470435 -0.27776894 -0.078915596 0.43274724 -0.2522747 -0.2983409 0.027988799 0.15671135
0.24505644 0.2537724 -0.42229277 -0.31994614 -0.062153596 -0.19571453 0.44334152 0.14543869
-0.16209903 -0.441095 -0.18837269 -0.18452588 0.04676303 0.2918605 0.41181335 -0.07965218
-0.30093032 -0.3453332 0.110700734 -0.0030323165 -0.2644342 0.33963674 -0.29735103 0.104767114
0.18315153 0.12208111 0.29206088 -0.2878281 -0.3035314 0.3324965 -0.046335142 0.07979646
-0.31610712 -0.033738535 0.07842352 0.22977854 -0.23658437 0.044499822 0.23305964 -0.28533322
0.0635881 -0.3418757 0.21750388

encoder.gru.bias_ih_l0 f4 [15]
00000000: 13d7 d7bc 6fcf bebe df4d 4f3e 43f3 a4be
00000010: 53a7 d3be 8e45 d4bc 865c 783e e176 0cbe
00000020: 3d78 b7be 5149 2c3e 89cb d73b ca2b 853e
00000030: 9b89 143e 75f5 c6be cb3f 24be
-0.026347673 -0.37267634 0.20244549 -0.32216844 -0.41338596 -0.025912073 0.24254045 -0.13717224
-0.35833922 0.16824843 0.0065855426 0.2600997 0.14505617 -0.38859144 -0.1603996

encoder.gru.bias_hh_l0 f4 [15]
00000000: 45b5 23be 1117 c13e ea72 943e 2841 35bd
00000010: 0be0 a9be 98db eebd 7357 c7be 31fd 7ebd
00000020: c84f a13e 87a4 2cbe f982 39be 2018 acbe
00000030: 3198 b93e 2105 603e f469 d1bd
-0.15987118 0.3771291 0.28993922 -0.04425159 -0.33178744 -0.11662978 -0.38933906 -0.06225318
0.3150618 -0.16859637 -0.18116368 -0.33612156 0.36248925 0.21876957 -0.10225287

decoder.embedding.weight f4 [170, 5]
00000000: 829b 493e deef 0e3f c770 98bf 3564 48c0
00000010: 4136 a53e 7555 c73e c87d d7bd bae7 5b3f
00000020: dbc0 16bf 052e ab3f 8655 b2be a3e3 38bf
00000030: fdaf 383f d6a6 af3b b131 75be 993e 29be
00000040: b157 5abf ec9b e4bf 44a2 bbbf e06c 0e3f
00000050: 6a4e f4be 6904 ebbd f608 98be 2db4 803f
00000060: 0a30 09c0 3893 b43f 310f fdbd 636d 8b3f
00000070: 88a2 c7be 97de 983f f0a4 90bf acc4 f4be
00000080: 41f3 d43f 56b2 05c0 126a b53e 8c05 253e
00000090: 47c1 05bf 2a47 d2bf 79e5 f83e 5d33 403f
000000a0: fada 103d fb72 f3be c988 afbd ea3d d2be
000000b0: 6287 8fbe dabe 973f 4972 35be 1977 51bf
000000c0: 8ad2 373e 711b 873e ced8 52bf 1630 97bf
000000d0: b752 fabe 5c22 72bf 31e0 16bf f61a dd3f
000000e0: e255 133f 32ad 123e 2d29 843e 240e f83f
000000f0: 2ed2 d93f 53c1 1e3f 2885 89bc a2d7 5d3f
00000100: 0de5 a43f fbfb 62be 7486 293f 5575 1dbf
00000110: c4a7 923f 1156 00bf b82b 353f dda5 4d3f
00000120: 6dbc 52bf 8c90 773f a79f 0b3f 525a c5bf
00000130: f83b 14c0 e097 82bf 1d29 36bf 967f edbf
00000140: 429a 5abf 50c9 a3bf 9ee5 ccbf c029 05bd
00000150: f28e cf3f bb94 e3bd 510d e5bf 1b47 2abf
00000160: f8ae b83e d597 c03e 22c1 debd 123d 9b3f
00000170: d3a5 ed3e 66b9 e53f 59f5 6c3f f61e c03c
00000180: 077b ba3f be3b 6b3d 5642 d93f ed1c 333f
00000190: 6f14 1cbe d6c0 c6bf ed0d c0be 5341 a1bf
000001a0: 19b3 a1bd 5c9a de3e af96 363f 1e90 d2bf
000001b0: 7b61 88bf 0b31 ea3f a788 723e 1221 90be
000001c0: 8d35 02be 134a 93bf bf79 a6bd 76a5 573f
000001d0: 123c 8c3f abc6 8fbe 43c6 5abf 34c6 69be
000001e0: 88d8 d0bf 5d65 c3be f83b debe c34f 05c0
000001f0: ce0c 97bf c92e 04c0 d214 883e 6346 64bf
00000200: fbb7 ef3e 506c c2bf 6960 103f 5c61 683d
00000210: 568d dbbf 733a bcbe 29a3 8c3f 469c 68be
00000220: 300d c53e 63f7 f03e d481 c8bd 8bc9 263f
00000230: 75f4 203f 5a00 8d3e f393 ecbe db95 9dbf
00000240: a291 143e c33e bd3d b42b bfbf a54f 113f
00000250: f57b 483f 496b e03c 3952 6a3d 3426 8b3e
00000260: fc20 16c0 9335 983e 0428 2fbf 3cd4 8abf
00000270: 0fb6 27bf 4c28 773e 48bc a2bf 5515 ad3f
00000280: 842e 50be c2eb e6bd 44b1 12bf 6bbd 95be
00000290: 0780 253f 864d 49bf 6911 603f b086 fc3f
000002a0: 0887 5b3f cfc7 a63f 3f52 94be f97b 2fbf
000002b0: 5a29 75bf 9b97 08bf 7111 1e3f a118 b6bf
000002c0: 7335 2c3f f6e1 4bbe 5567 e9bd 9d18 63bf
000002d0: 9dd5 0f40 726e 543d d65a 19be 580e f23e
000002e0: 682f 933e 1df7 283f 4b2c 603f 9688 f83e
000002f0: c312 eabf 2e34 3c40 3059 46bf 899e 31bf
00000300: 9732 32bf 6013 afbe 3764 0ac0 72c7 5b3e
00000310: eb3f ccbe db83 b33f 3b89 883f 56a0 ecbd
00000320: b0f1 a53f 8490 9d3e 3240 b13e b905 613f
00000330: ff6d 1fbd 9bd0 4cbf b992 cbbe d12e 78bf
00000340: b362 3440 7e7e 913f 2d25 cfbf 7d75 b03f
00000350: d76d 24be ba36 c23f 4050 d6bf d7e3 bcbe
00000360: b772 2abf 9b4e ae3c 685c e13e f5c0 8fbe
00000370: e6a8 92bf c24a b0bd f19a 95be 92f4 9cbe
00000380: 3885 ae3f fe4b d83e eb0d 8abd f09c 7f3f
00000390: f591 8fbe e2e5 9a3f abf5 c33d c763 08bf
000003a0: 1f79 95bf a64c bdbd 9b31 45be 2de1 1640
000003b0: 3578 65bf 4926 813f 43a9 5fbe f8fb 9fbf
000003c0: 38fd 253f f35e 88bf 54d4 643d 0327 ee3f
000003d0: 5a12 10c0 c57a 8abf fee6 713f 9bec 54bf
000003e0: 0be8 4bbf e378 42bf 25de 9f3e 4697 7c3f
000003f0: ba64 5d3c 5a89 dfbf 308a abbe 69e2 6fbf
0.19688228 0.5583476 -1.1909417 -3.1311162 0.32267955 0.38932386 -0.10522038 0.8590046
-0.58888024 1.3373419 -0.34830874 -0.72222346 0.72143537 0.0053604646 -0.23944737 -0.16527785
-0.85290056 -1.7860084 -1.4658895 0.5563488 -0.47716075 -0.114754505 -0.29694337 1.0054985
-2.143557 1.4107428 -0.12356413 1.0892757 -0.3899119 1.1942929 -1.1300335 -0.478063
1.6636735 -2.0890098 0.35432488 0.16115397 -0.5224804 -1.6427968 0.48612574 0.75078374
0.035365082 -0.4754866 -0.085710116 -0.41062862 -0.28032976 1.1855118 -0.17719378 -0.81822354
0.17951408 0.26388124 -0.8236207 -1.181155 -0.4889123 -0.9458368 -0.5893584 1.7273853
0.5755292 0.14323881 0.25812665 1.9379315 1.7017267 0.6201374 -0.016787127 0.86657155
1.2882401 -0.22166435 0.66220784 -0.6150716 1.1457448 -0.50131327 0.70769835 0.8033121
-0.82318765 0.96704936 0.54540485 -1.5418189 -2.3161602 -1.0202599 -0.71156484 -1.8554561
-0.8539163 -1.2795811 -1.6007574 -0.03251052 1.6215498 -0.111123525 -1.7894689 -0.6651475
0.3607099 0.3761584 -0.10876681 1.2128012 0.46415576 1.7947204 0.9256187 0.023452263
1.4568795 0.05743002 1.6973369 0.6996601 -0.1524217 -1.5527599 -0.37510625 -1.259806
-0.07895488 0.43477142 0.71323675 -1.6450231 -1.0654749 1.8296217 0.23684941 -0.2815023
-0.1271574 -1.1506981 -0.0812869 0.8423685 1.0955832 -0.2808126 -0.85458773 -0.22829515
-1.631608 -0.38163272 -0.43405128 -2.0829933 -1.1800783 -2.0653555 0.26578385 -0.891699
0.46820053 -1.5189304 0.5639711 0.056733474 -1.7152507 -0.36763343 1.0987293 -0.22715864
0.38486624 0.4706374 -0.09790388 0.6515128 0.6287301 0.2753933 -0.46206626 -1.2311357
0.1450868 0.092404865 -1.4935212 0.5676215 0.78314143 0.027394908 0.05720732 0.27177584
-2.3457632 0.29728374 -0.68420434 -1.0846019 -0.65512174 0.24136466 -1.2713709 1.3522135
-0.20330244 -0.11275436 -0.57301736 -0.29246077 0.6464848 -0.78633916 0.87526566 1.9728603
0.85752916 1.3029727 -0.28969 -0.6854854 -0.9576622 -0.5335633 0.61745363 -1.4226266
0.6726906 -0.19910416 -0.11396662 -0.8870943 2.247413 0.05186314 -0.14976057 0.47276568
0.28747106 0.66002065 0.87567586 0.48541707 -1.8286976 2.9406848 -0.7747984 -0.6938253
-0.69608444 -0.3419447 -2.1623666 0.21462801 -0.39892516 1.4024614 1.066688 -0.11554019
1.2964382 0.3077432 0.3461929 0.8789936 -0.03892326 -0.80005807 -0.39760378 -0.96946436
2.8185241 1.1366727 -1.618322 1.3785855 -0.16057526 1.5172951 -1.674324 -0.36892578
-0.6658129 0.021277716 0.44015813 -0.28076902 -1.1457794 -0.08608009 -0.29219773 -0.30655342
1.3634405 0.42245477 -0.06740936 0.9984884 -0.28041044 1.2101405 0.09568342 -0.5327725
-1.1677588 -0.09243135 -0.19257204 2.3574936 -0.89636546 1.0089809 -0.21841912 -1.249877
0.64839506 -1.0653976 0.055866554 1.8605655 -2.25112 -1.0818716 0.9449309 -0.8317353
-0.79650944 -0.7596571 0.3122417 0.98668325 0.013512785 -1.7463791 -0.33503866 -0.9370485

decoder.attn.weight f4 [15, 10]
00000000: f2e8 9b3e 6903 9b3e 5337 5e3e ce91 abbd
00000010: 0582 2bbe e34a 92be 3f15 09be 9960 7fbe
00000020: 4b6e 8dbe 1213 fd3d 2939 8fbe 13e1 1bbd
00000030: 7ac2 f93d 6f9d c03d 3529 86bd d837 263e
00000040: 25c6 53be c6e1 93be fa89 863d 866b a13d
00000050: fac2 a3bd 9dff 84bd bef1 17be 0ebe 8d3e
00000060: 2657 57bd f1b1 7ebd dea5 a93d 2426 57be
00000070: f3ce 3bbe 357d 453d a125 bc3d 3c54 81be
00000080: 9592 d7bd 3efb dbbd b026 1fbd 4070 9a3e
00000090: 5feb 823d 6492 7b3e d18d 6abe fce5 86bd
000000a0: 6676 c53d 2d64 bd39 8837 ab3c 0487 bb3d
000000b0: 9470 8ebe b458 253d 529c 7fbd e286 99be
000000c0: 5afe abbd 7d6c e23d a76a 3d3e 5216 7abe
000000d0: a731 9f3e 78f0 24be 2a3a 7abe f425 eb3d
000000e0: 4c3e 743e ea94 c0bd c3e0 39be 94bf 3b3e
000000f0: f5ff 843e 5222 983e f013 da3d fc13 51be
00000100: d8d0 9b3e 9ee6 393e 6786 77be 283a 83bd
00000110: cd2a 333e d428 a0be 68ec 4a3e fbcd 663e
00000120: f887 e8bc 9de3 083d df04 e73b da56 903e
00000130: 16a1 cd3d 6045 4a3e 61cf d5bd 14a2 453e
00000140: 9540 9f3d 2633 3c3e cb96 903e 2532 4abe
00000150: b66c 56be e1be 24be 31ad f6bd 793d 21be
00000160: 0f1b 733e 7536 dcbd 91de 733d ba09 1ebd
00000170: fb3e 403c e8b4 49be 6cdd 3c3e cbd1 013e
00000180: f9bf 10be 673a 6c3e 89c6 32be 8b1b 853d
00000190: c747 293e dfbd adbd 57f8 22be af10 83be
000001a0: 978e 023e 5c82 563e dc72 353e 07e3 8cbc
000001b0: 1d39 9bbb 932d 6abe 4e97 573e e818 9b3e
000001c0: eefa 793d 12dd 5dbe a431 9c3e d27c 6bbe
000001d0: 1728 d03c 6e2a babd 0dd6 5b3e 78d2 183e
000001e0: 2aa5 163e 30f2 5c3e 8986 203e 9040 3b3d
000001f0: b410 90be 1f0f 9fbe edda 9b3c cacf 8f3e
00000200: a59b a9bd 9650 013e 5a5c 953e c71e 8ebe
00000210: d103 923e c8c4 90bd 5def cc3c c3cf 603b
00000220: ad8f 433e 4710 ca3d f1f4 2b3d ae59 523b
00000230: d953 e63d e04a 4cbc e86d 0ebe 1030 133e
00000240: a5a3 7b3d 825e 923d b2f4 ab3d 5b43 513d
00000250: e591 54be 9365 05be
0.3045116 0.3027604 0.21700792 -0.083774194 -0.16748817 -0.2857276 -0.13387011 -0.24939193
-0.2762321 0.12357153 -0.27973297 -0.038056444 0.121952966 0.09405028 -0.06550828 0.1623224
-0.20681055 -0.2888319 0.06569286 0.078818366 -0.07996173 -0.06494067 -0.14838311 0.27684063
-0.052573346 -0.062181417 0.0828359 -0.21010643 -0.18340664 0.04821511 0.09186865 -0.25259578
-0.10526005 -0.1074128 -0.038855255 0.30163765 0.0639255 0.24567562 -0.22905661 -0.06586835
0.09641723 0.00036123526 0.020900503 0.091566116 -0.27820265 0.040367797 -0.062404938 -0.2998572
-0.08398123 0.11055849 0.18497716 -0.24422577 0.3109257 -0.16107357 -0.2443625 0.11481848
0.2385189 -0.09403403 -0.18152146 0.183348 0.2597653 0.29713684 0.10648334 -0.2041778
0.30432773 0.1815438 -0.24172364 -0.06407577 0.17496796 -0.3128115 0.19816744 0.22539513
-0.028385147 0.033420194 0.007050141 0.28191262 0.1004049 0.19753027 -0.10439945 0.19300109
0.0777599 0.18378887 0.28240046 -0.19745691 -0.20939907 -0.1608844 -0.120447524 -0.15746106
0.23740791 -0.10752574 0.059538428 -0.038583495 0.011733766 -0.19697917 0.1844384 0.12677686
-0.14135732 0.23069154 -0.17458548 0.06499394 0.16531287 -0.08483481 -0.15915047 -0.25598666
0.12749706 0.20948166 0.17719597 -0.017198099 -0.004737033 -0.22868948 0.21053812 0.3029244
0.06103032 -0.21666363 0.30506623 -0.22996834 0.025409741 -0.09090124 0.21468373 0.14924037
0.14711443 0.21576762 0.15676321 0.04571587 -0.28137743 -0.31066224 0.01902529 0.28088218
-0.0828164 0.12628397 0.2917202 -0.27757856 0.28518537 -0.07068783 0.025016481 0.0034303523
0.19097777 0.09866386 0.04198164 0.003209691 0.112464614 -0.0124690235 -0.13909113 0.14373803
0.06143536 0.07146932 0.08396281 0.051089626 -0.2075878 -0.13027029

decoder.attn.bias f4 [15]
00000000: 5bee 38bd 00d7 e1bd 4833 00be 0ae6 debb
00000010: c0e7 40be 0b8b 8b3d 7c80 67be a5b9 e8bc
00000020: d0d3 e53d b2b4 f5bd 3ced 8b3e 315d b03d
00000030: a5f7 57be 68ed 64be f2b0 c6bc
-0.04514919 -0.11027336 -0.12519562 -0.006802325 -0.18838406 0.0681363 -0.22607607 -0.028408835
0.11222041 -0.119973555 0.27329433 0.08611525 -0.21090563 -0.22356188 -0.024254296

decoder.attn_combine.weight f4 [5, 10]
00000000: 1d33 58be c18b b23d 4342 9f3e ff2e fbbd
00000010: faaf 4b3e d95b e8bb a43d 6cbe 288b 94be
00000020: c6b1 12be 57bb 8cbd a5f5 753c c448 47bb
00000030: 57a4 0cbe af2f 443e bbfa 853e 24d8 e0bd
00000040: 0898 7cbd 9eb1 5cbe e0a7 193d df96 2b3e
00000050: 3e56 a3be 334d 743e 453f 84be 215e 89be
00000060: 61e5 2d3e 4780 3b3e a9b4 443e 2dee 4c3e
00000070: 2201 20bc e960 4abe fcef 563c 60b7 27be
00000080: ec65 97be 04de 74be ac04 e3bd 36a8 803e
00000090: c88f 483e e6d6 babd 07e1 503e 2410 27be
000000a0: 7d49 ab3d c61a 7abd 2cd7 ba3d 1747 80be
000000b0: fd22 0e3e 22bc 7c3e d952 90be a411 e5bd
000000c0: 6414 b0bb e519 6e3e
-0.21113248 0.08718062 0.3110524 -0.12264823 0.19891348 -0.007091027 -0.23070389 -0.29012418
-0.14325628 -0.0687167 0.0150121795 -0.0030408362 -0.13734566 0.19158815 0.26167855 -0.109787256
-0.061668426 -0.2155213 0.037513614 0.16756772 -0.31901735 0.23857574 -0.2582952 -0.26829627
0.16982032 0.18310653 0.19209541 0.20012732 -0.009765895 -0.19763531 0.01311874 -0.16378546
-0.29569948 -0.23912817 -0.110848755 0.25128335 0.19586098 -0.0912302 0.20398341 -0.16314751
0.08363626 -0.06106069 0.09123072 -0.25054237 0.13880534 0.24681142 -0.28188208 -0.11185005
-0.0053735245 0.23252065

decoder.attn_combine.bias f4 [5]
00000000: 43e5 093d 2994 1bbe 1004 97bd 57f5 103e
00000010: 0be7 65be
0.033665907 -0.15193237 -0.07373822 0.1415609 -0.22451417

decoder.gru.weight_ih_l0 f4 [15, 5]
00000000: 6bd3 573e 9f05 babe 2c83 96be 7ad9 5abe
00000010: 9619 94be c1cb 8bbe d7bd 783e 0559 dabe
00000020: 482e ee3c 46fc ad3e cbd2 dabe 4c2b 4b3e
00000030: 2d29 60bd bb4c 91bd 944e 9bbe ffe3 e03e
00000040: d240 c13d 1739 5b3e 8226 9abe f886 b0be
00000050: f591 67be cd5f b63e 4c66 78bd cbff 8fbe
00000060: 6d30 d93e 1d2c 4c3d 7891 093e 8693 8abe
00000070: 10c4 c43e 218e 983e 068a c63e 4845 a63e
00000080: 471d a43e 750c 31be e0b8 a3bc 7356 bb3c
00000090: 9e40 a23e 6b42 57bd 538b 9a3c ffe3 943b
000000a0: 3c80 f7bd dc11 523d 7ce9 bbbe 734f 9abe
000000b0: f09b a13e bc89 dcbe c041 893e f686 2fbe
000000c0: a728 6cbe 0927 7c3e 75d4 633e 485f 68be
000000d0: 6c9d 3b3e 7936 ffbd 23f1 b43e 72cc 73be
000000e0: ab2b cbbe dccc c8bd 7250 1c3e 3414 023e
000000f0: e865 94be 995a bb3c 5f01 afbe f5e4 b8be
00000100: 6928 b1be 56c5 febd b57a 8d3e d81f 993e
00000110: 885d 56be 1bb0 7ebd 9a00 933e da46 ca3d
00000120: ed45 09be f9f4 94bd 4029 513e
0.21076743 -0.36332414 -0.2939695 -0.21372023 -0.2892577 -0.2730389 0.24291168 -0.42646042
0.029074803 0.33981532 -0.42738947 0.19840735 -0.05472677 -0.07094713 -0.30333388 0.43923947
0.094361916 0.21408497 -0.30107504 -0.34477973 -0.22614272 0.35619965 -0.060644433 -0.28124842
0.42419758 0.049846757 0.13434398 -0.27065676 0.38430834 0.29795936 0.3877718 0.32474732
0.32053587 -0.17289908 -0.019985616 0.02286837 0.31689924 -0.052553575 0.018865263 0.004543781
-0.12085006 0.051286563 -0.36701572 -0.3013874 0.31564283 -0.43073833 0.26807976 -0.17141327
-0.23062383 0.24624266 0.22249015 -0.22692597 0.1832177 -0.12461562 0.35340223 -0.23808458
-0.39681754 -0.09804699 0.15265062 0.1270302 -0.28983998 0.022870349 -0.34180734 -0.3611218
-0.34601143 -0.124399826 0.2763268 0.29907107 -0.20934117 -0.062179666 0.28711396 0.09876795
-0.13405581 -0.07273287 0.20425892

decoder.gru.weight_hh_l0 f4 [15, 5]
00000000: 611a a43e ad65 bbbe 697c 47be d19c 883e
00000010: f56b c8bd e43f debd 5779 d7be 7212 b3be
00000020: 111d b23e b421 893e 04d6 c43d 5764 e6bc
00000030: 84c2 3dbe fe85 a5be 0305 343e 92f0 a9be
00000040: 13a7 5abe 3fa1 823d f0c0 35be a693 72bc
00000050: 9417 e13e 6f82 62be dda0 df3d 1be2 89bd
00000060: 4a1e 923e b0d6 58be f7ee 3dbc 2506 69be
00000070: a93f a5bd 77c5 3abe e5cb 8f3e 6fdb 8cbe
00000080: c4e5 2fbe 82cf 413e f846 ac3e d41f 273c
00000090: 4204 2d3e 9869 40be 62be 97bd 6552 81be
000000a0: 72a0 763e 3132 d53e 6801 e5be 2ad0 97be
000000b0: 7bdd 003e da1f dc3c f119 283e f25d dcbd
000000c0: bb56 b73e 81c9 c3be 7523 b73e b38d 7d3e
000000d0: ecd6 94bd 455d bb3e a920 56be 060f e0be
000000e0: 1685 c6bb 4a74 8d3e a28b 743e 580f 0d3e
000000f0: 0288 a03c eb8f d4be 8cb7 663d 98d9 df3e
00000100: b922 2e3e e0cb 343e 99ff 443e 926b df3e
00000110: 4835 433d ece2 2abe a223 b73e acd1 523d
00000120: 611c b2be 8bb9 013e 70a7 893e
0.32051376 -0.3660101 -0.19481052 0.2668214 -0.09786216 -0.1085203 -0.42084762 -0.3497501
0.347878 0.26783526 0.09611133 -0.028124018 -0.18531233 -0.3232879 0.17580037 -0.33191353
-0.21352796 0.063784115 -0.17749381 -0.01480571 0.439633 -0.22120069 0.10919354 -0.06732579
0.28538734 -0.21175647 -0.011592618 -0.2275625 -0.08068783 -0.1823939 0.28085247 -0.27511165
-0.17177492 0.18926814 0.33647895 0.0102004595 0.16896155 -0.18790281 -0.074093595 -0.25258175
0.24084643 0.41639856 -0.44727635 -0.29651004 0.12584488 0.026870657 0.16416146 -0.10760106
0.35808358 -0.38239673 0.3576924 0.24761085 -0.072675556 0.36594597 -0.20910896 -0.43761462
-0.0060583455 0.27627784 0.2388139 0.13775384 0.019596104 -0.4151605 0.056327388 0.43720698
0.17005433 0.17655897 0.19238128 0.43636757 0.047658235 -0.16688126 0.35769373 0.05146949
-0.34787276 0.12668435 0.26885557

decoder.gru.bias_ih_l0 f4 [15]
00000000: 91bb dbbe 2183 253b f9e0 123e 9dcb e33e
00000010: d4bc 203e b401 5b3d 32ad ae3e 1c25 163e
00000020: 22e1 ba3d f167 c73d b686 db3e 7704 38be
00000030: 3e65 d33e 6cc7 dc3e 4e83 71be
-0.4291654 0.002525516 0.14343633 0.44491282 0.15697032 0.05346842 0.34116513 0.14662594
0.09124972 0.09736622 0.42876214 -0.17970453 0.4128818 0.43120897 -0.23585245

decoder.gru.bias_hh_l0 f4 [15]
00000000: 9c00 e7bd 988b cf3e 1a4a 8f3e 430f 613e
00000010: 61a6 93be 35bc 31be 732a 58be 541c 7c3e
00000020: 0cb4 20bd 0c9b bfbe a65c da3d ded4 983e
00000030: 2136 253e f21d a4be 8418 a3bd
-0.11279413 0.4053619 0.27986223 0.21978478 -0.28837875 -0.17356952 -0.21109943 0.24620181
-0.039234206 -0.3742298 0.106622025 0.29849905 0.1613393 -0.32054096 -0.0796366

decoder.out.weight f4 [170, 5]
00000000: b41b 863e ff65 98be 6f68 5d3e 819f e93d
00000010: 2886 c43e 69e4 9c3e b5ba af3e 95dd 51bd
00000020: b1b4 e53e 95c5 27be 217b 17be 1056 933c
00000030: fa23 81be 9395 e03e c841 80be 07ac c53e
00000040: 5bab 8a3e 7d05 d1be 9261 aa3e 6ce2 89be
00000050: ae10 29be f275 3b3e f040 743e 8539 bebe
00000060: 5315 843e 36c4 babe 203f cfbd 3352 a53d
00000070: 1164 403e 1121 acbd 56e5 9cbe ed4c dfbe
00000080: 5421 863e 33de cdbe 7329 11bd 0006 e23c
00000090: 9ea9 72be 0a53 293d d18a e23e 6c02 4fbe
000000a0: f442 bd3a f6ba fa3d 9019 723d 3ab8 ffbd
000000b0: d9bf 613e b154 a23e 5b2f a7be 3fe9 e33c
000000c0: 73fc 083e a1f9 01be b61a 7c3a 1a0f dc3d
000000d0: 7934 343d c0c0 8abe 30c1 c03d 9408 c03e
000000e0: b169 983e 335a 93be 888f e0be 667c 983e
000000f0: 2df0 61be 863e 3a3e 2a11 a33e 3aaa d1be
00000100: 4977 843e 9f0a aa3e 2ea8 50bd ee54 c93e
00000110: 4c21 3abe 55c4 643e 0fa8 153e 3d48 99be
00000120: 3a04 2bbd 1899 bfbe 3bbb 8e3e 2919 eabd
00000130: 5136 8e3c 4c2e 3ebd 6689 1bbe 1e0a 9bbe
00000140: d10c 3a3e c782 9ebe 3bb9 07be b5fd 3cbd
00000150: 4760 90be 6000 2a3d 00a0 19be 63b5 4cbe
00000160: 191a b53e f4f6 293d 3537 bdbe 1453 593e
00000170: ab92 96bd a06b b23e 9413 83be a174 c2be
00000180: b116 c33e 71d7 54be 75a3 cd3e f369 cfbe
00000190: 40c2 c9be 02c4 abbe 183e fb3d d965 cabe
000001a0: 18bd 323e f206 4c3e 9021 96be a566 793d
000001b0: a0e9 cd3e 6477 733c 90b8 15bd 22b1 183d
000001c0: 3266 5fbe 1937 3ebe 0e4a fdbd f80e 493e
000001d0: cd70 ee3d bc4f 5a3e 6bb2 81be 600a ca3e
000001e0: 5054 423e f389 183e bd02 093e bb8e 6dbd
000001f0: 1c53 b9be c972 473e e254 83be 8a8c e4bd
00000200: 1d0c debe 8914 afbb 5564 48be 7aa7 823e
00000210: e8fe 6dbe 158b b83e 635c 9a3e 75aa f33d
00000220: eb50 3abd 66fa 91be 1656 c63e 4c30 84be
00000230: 8c6c 9fbe 5412 a83e cf89 a6bd 7c97 16be
00000240: 6f11 e83b 5c21 703e 3e41 9dbe fdf9 d93e
00000250: c92a 81bd fb6c a13e 9243 d83e 9003 8c3e
00000260: 5aa9 023e 28d8 cb3d 58a8 dcbe a58c e5be
00000270: eed9 92bb 29c9 c83e 9159 113e 9ce1 a3be
00000280: 5397 93be 87a3 203d 4880 d83e bfd0 54be
00000290: 80a1 2c3d e9f3 853e c694 b43e 6591 bebe
000002a0: d5cf 8bbe ea0c 97be 12dc 8b3e 0f81 023e
000002b0: 0f01 a8be 4685 8c3c 2453 cdbe c309 85be
000002c0: f69d d43e b562 62be ff25 c6be 636e 853e
000002d0: 6499 813d 93de e2be ddd4 a83e 0468 76be
000002e0: a9e6 b0be d7fd 87be bd93 e3be e73d 5cbe
000002f0: 38ac 85be a5a6 bfbe eed5 a6be af53 b73e
00000300: 43dc 25bc 8d9f 3e3d ce2d de3d 64fc a5be
00000310: 00ec 673e 856d 57b9 16eb 6e3d 0b75 a83e
00000320: 0b7c d63e 7a39 d3bd e9a2 93be 7b18 f53d
00000330: d3d1 11be 0591 713e f90e b7bd 0fd0 52be
00000340: df9b 91be c361 ad3e 3d05 b0be 8a5a dd3e
00000350: 382f cabd d0ae b1bd a4ac a43e 78a0 d0be
00000360: 7e85 673e 24ea 82be b156 9a3d d0a6 a83d
00000370: a909 b2be 0838 d93e 3901 9abe cc60 973e
00000380: 9a26 e4be 2abd 68be c566 c63e 6ab0 a3be
00000390: f941 21be 9ecf 443e bd58 ec3c c38b c53e
000003a0: 9d0d b33c 4f93 313e a2b2 13bc 3f92 d2bd
000003b0: 3ceb 003d 8b99 e23e 206b 563e cfff b53c
000003c0: cf75 64be 9e29 783e 9238 66be 4af8 19bc
000003d0: c75c aa3d 9b53 a23e 900b 50be bf8f 9dbd
000003e0: db68 fdbd f95a 98bd cad8 b13e c4e1 90be
000003f0: f285 c6bd 608c 123e b930 b9be 039f edbd
0.2619301 -0.29765317 0.2162187 0.11407376 0.38383603 0.30643013 0.34322134 -0.051236708
0.4486442 -0.16383965 -0.14793064 0.017985374 -0.2522276 0.43864116 -0.25050187 0.3860781
0.2708386 -0.408245 0.33277565 -0.2693056 -0.16510269 0.18306711 0.23852897 -0.3715326
0.2579752 -0.36477822 -0.10119462 0.08072319 0.18788172 -0.084047444 -0.3064372 -0.43613377
0.26197302 -0.40208587 -0.03543992 0.027590752 -0.23697516 0.041338958 0.44246534 -0.20215768
0.0014439509 0.12242691 0.05910641 -0.1248631 0.2204584 0.3170524 -0.32653317 0.027821181
0.13377552 -0.12692882 0.00096170173 0.10745068 0.043995354 -0.27100182 0.094118476 0.37506545
0.29768136 -0.28779754 -0.43859506 0.29782408 -0.22064276 0.18187913 0.31849033 -0.40950185
0.25872257 0.33211228 -0.05094164 0.3932261 -0.18176764 0.2234052 0.1461489 -0.29937926
-0.041752078 -0.3742149 0.2787722 -0.1143058 0.017359884 -0.04643087 -0.15189132 -0.30281156
0.18168952 -0.3095915 -0.13254254 -0.04614039 -0.28198454 0.041504264 -0.15002441 -0.19991069
0.35371473 0.04149528 -0.36956182 0.21223098 -0.073521934 0.34847736 -0.25600874 -0.37979606
0.3810325 -0.2078531 0.4016377 -0.4051052 -0.39406013 -0.3354798 0.12267703 -0.3953083
0.17454946 0.19924524 -0.2932248 0.060888905 0.40217304 0.014860008 -0.036552966 0.037278302
-0.21816328 -0.18575706 -0.123676404 0.19634616 0.11642609 0.21319479 -0.25331435 0.3946104
0.18977475 0.14896373 0.13379951 -0.057997447 -0.3619622 0.19477381 -0.25650698 -0.11159618
-0.43368617 -0.005343024 -0.19569524 0.255184 -0.2324177 0.3604361 0.3014861 0.118977465
-0.045487326 -0.2851135 0.38737553 -0.25818098 -0.31137502 0.32826483 -0.08131754 -0.14706224
0.0070821564 0.23450226 -0.30713838 0.42573538 -0.06306989 0.31528458 0.42239052 0.27346468
0.12759915 0.09953338 -0.43097186 -0.44833866 -0.0044815456 0.39215973 0.14194323 -0.32008064
-0.2882639 0.03921845 0.4228537 -0.20782755 0.042146206 0.2616265 0.35269755 -0.37220302
-0.27307 -0.2950204 0.27316338 0.12744544 -0.32813308 0.017153393 -0.40102494 -0.2598401
0.41526765 -0.22107966 -0.38700864 0.2606078 0.06328085 -0.44310436 0.32974902 -0.24063116
-0.3455098 -0.26560852 -0.44448653 -0.21507989 -0.26107955 -0.37431827 -0.3258509 0.35806033
-0.010123315 0.04653888 0.1084858 -0.3241912 0.2264862 -0.00020544797 0.058329664 0.32901797
0.41891512 -0.10313697 -0.28835228 0.1196756 -0.14240198 0.23590477 -0.08938403 -0.2058718
-0.28439233 0.3386365 -0.34378996 0.43233138 -0.098722875 -0.08675921 0.32162964 -0.40747428
0.22609517 -0.2556926 0.07536066 0.08234942 -0.34772995 0.4242556 -0.30079058 0.29566038
-0.445607 -0.2272841 0.38750282 -0.3197053 -0.15747823 0.19219825 0.028850907 0.38583192
0.021857077 0.1734135 -0.009014757 -0.102818005 0.031474337 0.4425777 0.20939302 0.022216706
-0.22310565 0.24234626 -0.22482517 -0.009397576 0.08318477 0.3170441 -0.2031691 -0.07693433
-0.12373515 -0.07439227 0.3473571 -0.28297246 -0.09693517 0.14311361 -0.36169985 -0.11602595

decoder.out.bias f4 [170]
00000000: 3173 a8be de47 aabd 608a dcbe c8f1 7e3e
00000010: c537 d43e 58e0 af3e 807e 8d3e d85f 1a3e
00000020: d8b1 a33d 97ae 93be bc55 5cbd f616 853e
00000030: 6e83 29be 9c16 433e e09b 20be a94d cdbc
00000040: 9b68 ae3e 0571 843e 0f38 b4bd 22d9 abbe
00000050: 89a5 30bd 386e 973e 8c66 89bd d053 47be
00000060: 3415 c93e 9de8 e3be 4063 543e b81a d33c
00000070: bbbd e9bc 42fa 92be ec89 3cbe f095 9d3e
00000080: 7f1a e9bd f4f1 383d 9629 8bbe 6067 67be
00000090: 0712 cb3e 3a61 d93a cd48 123e 6776 ab3e
000000a0: d2d1 d3be 5f7f d13e f6a8 88be f2ba c73e
000000b0: 67aa 313e 35a2 9fbd 508d 2abe 2271 1a3e
000000c0: 278a afbd cfdc 52bb 8fbd cc3e 7bad 863e
000000d0: 80c6 85be c6b8 8c3e 05c8 1ebb a9d2 76bc
000000e0: fad3 9e3e 5217 b13d 7c03 8b3e b488 993e
000000f0: 7abe d73e 5b0c 193c dd1c 3c3e e8c9 0bbe
00000100: a9d4 50be 5841 cbbe 4e18 94be 7952 99be
00000110: 9c13 493e 58c8 87be c23f a43e 98ae a9be
00000120: 027d bebe 84cd cb3e 120d 28be aba2 afbe
00000130: 98f4 06be 620a ddbe ca56 d93e 55c3 113e
00000140: a575 523e d384 6bbe d600 aa3e ce57 a33e
00000150: 7be6 113d 0b7c 983e 2ac6 1c3e 7feb 303e
00000160: 1204 cebe d1c3 ad3e 515d 0bbe 927a 13be
00000170: a762 d0bd 8920 76be a83a 103e e198 8d3e
00000180: 0bad a63e c50c 89be 2219 e5be df3b b7bd
00000190: 4d78 803d b8b6 98be 8fab 7b3d 0867 8f3d
000001a0: 6190 ea3d 7fee 82be 9aed 0bbe e183 a33e
000001b0: 7426 dd3e da4d a33e e5e8 b6bd 3db2 7f3c
000001c0: 1c13 3dbc 4203 513e 8a28 5a3e 651b 113e
000001d0: d16e 5b3e 8678 c6be b7f6 c83e cd84 863d
000001e0: a814 9b3e b90a 82be cd72 a93e 8615 b3be
000001f0: 4e3d 843e f3a8 6b3e f91a 8a3d f63e 563e
00000200: ea7c 343e 30ac c9be 8a07 acbe ef0c bd3e
00000210: 6fd1 4ebe 5c3f 7cbe b4db 0bbe b91d 873e
00000220: 3ae1 debc 970d a43d f8b7 d83e d892 a33e
00000230: 2a7f 34be 8113 dc3d 6e04 80be 0be3 c53e
00000240: 43c4 5e3d 3c6c 093e f1be 68be e169 d83e
00000250: 1219 2c3e df31 f1bd 2691 87be 22d3 f73d
00000260: 04bd 17be 6329 e23e ac0a abbe 2388 dcbe
00000270: a372 243e ff9f 913e d82a 563e 1e2d 4f3c
00000280: 4d6a 9f3e 41a5 d5be ec0d cbbe 8b41 c63e
00000290: 4dd7 f7bd 6ae1 dc3d a15c aebe 890e b73d
000002a0: 72cc 563e ac5e fc3d
-0.32900384 -0.08314489 -0.43074322 0.2489692 0.414488 0.34350848 0.27635574 0.15075624
0.079929054 -0.2884414 -0.0537927 0.2599408 -0.16554043 0.19051594 -0.15684462 -0.025061445
0.34064183 0.25867477 -0.08799755 -0.33564097 -0.043126617 0.29576278 -0.067090124 -0.19465566
0.3927399 -0.44513407 0.20740986 0.025769576 -0.028532853 -0.28706557 -0.18411988 0.30778456
-0.11382007 0.04515262 -0.27180165 -0.22598028 0.3966219 0.0016584762 0.14285584 0.3348877
-0.41371018 0.4091749 -0.26691407 0.39009815 0.1735016 -0.077946104 -0.16655469 0.15082219
-0.08571272 -0.003217507 0.39988372 0.2630423 -0.26128006 0.2748472 -0.0024228108 -0.015064874
0.310211 0.08647026 0.27151096 0.2998711 0.4213751 0.009341325 0.18370385 -0.1365124
-0.20393623 -0.3969829 -0.28924793 -0.29945734 0.19636387 -0.26520038 0.32079893 -0.33141017
-0.37204748 0.39805233 -0.16411236 -0.34303793 -0.13179243 -0.43171984 0.42449027 0.1423467
0.2055269 -0.22999887 0.33203763 0.31902927 0.035620194 0.29782137 0.15309969 0.17277335
-0.4023748 0.3393846 -0.13609816 -0.14402226 -0.101750664 -0.24035849 0.14084876 0.276557
0.32553896 -0.26767555 -0.44745737 -0.089469664 0.062729456 -0.29826903 0.061442908 0.070020735
0.11453319 -0.25572583 -0.13664857 0.31936553 0.431934 0.31895334 -0.0893114 0.01560646
-0.011540201 0.20411399 0.21304527 0.14170606 0.21428992 -0.38763827 0.39250728 0.065682985
0.30289197 -0.25398806 0.330954 -0.3497736 0.25828022 0.23013668 0.06743426 0.20922455
0.17625776 -0.3938918 -0.33599502 0.3692393 -0.2019708 -0.24633545 -0.13658029 0.26389864
-0.027207006 0.080104046 0.42327857 0.3194797 -0.17626634 0.107459076 -0.2500338 0.38649783
0.05438639 0.13420194 -0.22729088 0.4226828 0.16806439 -0.1177709 -0.26477927 0.12100817
-0.14818197 0.441722 -0.3340658 -0.43072614 0.16059355 0.2844238 0.20914781 0.012645034
0.3113579 -0.4172764 -0.3965906 0.3872188 -0.12101612 0.10785182 -0.34055045 0.08938319
0.20976427 0.12322745
