best_models/seq2seq-1-5.228159.pt (torch, 18639 bytes, 16 tensors)

encoder.embedding.weight f4 [147, 5]
00000000: 9099 493f eb6a 2cbf 1fd4 293f b391 863f
00000010: 7c67 923f 1989 f93f 3390 383f 86a0 743f
00000020: ec26 693f 984c 473e 7e1e 0cbf 71da 0fbe
00000030: 4808 bd3e b380 6b3f 9b23 fb3e 15c7 f73b
00000040: 731f 2240 a1ca 823f de9a 60bf 4e7b 4fbd
00000050: 1ad4 953d 20b7 463f 2382 edbd 66a0 b83d
00000060: 09ac d0bd 4cea f33f 87a3 78bf 9973 f1be
00000070: 7895 fc3e 8c7d 0bc0 8cdb 9f3d 9211 01be
00000080: 046a 7cbf 045b 72bd 45a8 0bc0 5077 603f
00000090: 34b7 c13d e3b4 a8bf 146c a43d 8563 5f3e
000000a0: 6d8e 093e 46d4 fbbe d5d1 2340 8389 8b3f
000000b0: 4b7c 883f 05cb 2fbf 73ed 43bf c10a 2f3e
000000c0: 82ad 273e be47 7bbf 90ae 91bf c4e3 b3bf
000000d0: c608 0abe e791 b13f c15b 73bb aaa0 8d3f
000000e0: a1fe 50bf cc5f d63f 9e20 adbd 3f2a a83f
000000f0: 38e7 67bf dc20 15c0 bb3e 173f 59d5 123f
00000100: 6ad7 ef3f 2710 1bbf bdff 323e 7ced 473f
00000110: 9bb1 28bf 375a bbbf 383d 003f 9b86 5c3f
00000120: 1bdd 433f deb6 8abe f34d ba3e a056 d6bf
00000130: 0cdf cd3f 6b1e 79bf 5466 973e 8d76 fd3f
00000140: 4334 96bf cd68 8f3f 2498 50bf 73bc a1bf
00000150: 97e9 193f 46ab cbbf 16ef 5cbf 4747 f0ba
00000160: 293b 69bc 0e00 e93e 43fe 573f ba6e 4ebf
00000170: 02b9 8c3f 15ec 383f b30e 4cbf 0e94 123f
00000180: 6344 2cbf f76d 7d3f 2e61 bdbe e8c0 513f
00000190: 3132 603e cef4 9fbf efca 823f eff0 a13f
000001a0: 57ba f93e 803a 2ebe 025d 9a3f 53bb 2d3f
000001b0: 7bad a33f aef9 563f 550d fd3e 9081 6dbf
000001c0: 0fda 99be 2afe 13bf f441 12c0 a820 aabf
000001d0: 513f 35bb 965c 06bf 4bbb 10bf 7fe4 863f
000001e0: c061 0e3f 1f5b dabe 3d82 0c3f 7232 66bf
000001f0: 299f 133e 47af 6ebf 0975 993e 6302 a1bf
00000200: 9f5a 373f 6afc e23e f3d0 023f 888b 7abf
00000210: 3708 5abf d1ef 55bf 2fa3 5dbf 61ef 95bf
00000220: ba55 c33e e434 ddbf 4d7b 0e3e 4f44 b1be
00000230: 2d88 c43d 95c2 5cbf fc03 02c0 39a2 a3bf
00000240: 9a02 91bf d853 74be be85 c53d c359 963d
00000250: 250e 8b3e 95ce 93be d14e 353f c860 c6be
00000260: a9a3 26be 122f 5bbe 565d 94be c4ca 2740
00000270: 940c 263f ee2f be3e 56bb 3ebf b6dc f4bf
00000280: ab84 eabe 4821 b2bc 0e71 c23f 940a ef3e
00000290: cc10 d53e f138 ed3f 9ad9 933e 29a1 c13c
000002a0: 6513 933f 8ee4 44bd 8780 b13e 7456 b2bf
000002b0: 6621 de3e 99b3 3cbe 7312 f23e bee9 26bd
000002c0: 37de 1c3e 8ea6 ae3e 63a8 aebf 579a 403f
000002d0: a441 2ec0 d26d 2dc0 daa6 b73d 6c69 f03e
000002e0: ab05 c1bf 11cb 8ebf f290 28bf 4ccc 4c3d
000002f0: 0412 babe db8a 5a3f 8cb7 1d3f c28f 233c
00000300: f5e9 2fbe c7fb d93d 91e9 263f 07ba 2b3f
00000310: 114c d5bf f2b3 80bf 334c 5ebf 9b02 0ebe
00000320: bd53 963e 7293 65bf 506a 56bf b40c 6dbe
00000330: f4ea 86be b05d 0640 eebe 9e3f 4f47 f03c
00000340: c2ac 40be ebda d33f ae11 673f 9e48 763f
00000350: 4aa2 f6bf 97a4 e2bf dd88 10be 001b 5f3f
00000360: 1b1f 013f 980a 5f3e 22b1 a0bf 7309 d43d
00000370: 8d93 ae3d 6134 c2bf fc89 1a40 bb7f 1d40
00000380: 2b82 f53f 7b21 6b3f 772e 0dbf 2e19 1dbf
00000390: 1081 9e3f 4b68 b03f 5e34 edbe 4f9c 163f
000003a0: 5fb9 64bf e953 3a3e 2ffb c2bf 21d2 9a3f
000003b0: 6563 073f cf27 833e 9326 a23e 0e8e aabe
000003c0: 2c6f 5bbf 4118 a13f 4b97 9d3f cc2e 273f
000003d0: 6228 033d 2eb1 b83f 51c5 bebf 89c9 05bd
000003e0: 78bb 0a3f adfc a1bd 9cb6 ae3f 88fa a6bf
000003f0: 13a3 513f 54e0 51be f093 98bf 71bb 90bf
0.7874994 -0.67350644 0.66339296 1.0513214 1.1437831 1.9494964 0.7209503 0.9555744
0.91075015 0.19462812 -0.5473403 -0.14048173 0.3692038 0.91993254 0.49050602 0.007561574
2.5331695 1.0218087 -0.8773631 -0.050654702 0.07315846 0.77623177 -0.11597087 0.090149686
-0.10189063 1.9055877 -0.9712452 -0.47158507 0.49332786 -2.1795378 0.07805547 -0.12604359
-0.98599267 -0.05916883 -2.1821454 0.87682056 0.09458771 -1.3180202 0.08028427 0.21815307
0.13433237 -0.4918539 2.5596821 1.090134 1.0662931 -0.6866916 -0.76534194 0.17093946
0.16374782 -0.98156345 -1.1381397 -1.4053884 -0.1347991 1.3872651 -0.0037133547 1.1064656
-0.8163853 1.6747985 -0.08453487 1.3137892 -0.90587187 -2.3301306 0.59080094 0.5735679
1.8737614 -0.6057152 0.17480369 0.7809675 -0.65896004 -1.4636906 0.5009341 0.8614289
0.76509255 -0.27092642 0.36387596 -1.6745186 1.6083694 -0.9731204 0.29570258 1.9801804
-1.1734699 1.1203858 -0.8148215 -1.2635635 0.60122055 -1.5911644 -0.86302316 -0.0018331789
-0.014235296 0.45507854 0.8437235 -0.80637705 1.099396 0.7223523 -0.7970993 0.57257164
-0.6729185 0.9899592 -0.36988205 0.81934977 0.21894147 -1.2496583 1.021818 1.2651652
0.4877498 -0.17014503 1.2059634 0.6786396 1.2787317 0.8397473 0.49424234 -0.9277582
-0.30049178 -0.578097 -2.2852755 -1.3291216 -0.0027656148 -0.52485025 -0.56535786 1.0538481
0.55617905 -0.42647645 0.5488623 -0.89920723 0.14416184 -0.932362 0.29972103 -1.2578853
0.7162265 0.44333202 0.5110008 -0.9786916 -0.85168785 -0.83569056 -0.86577123 -1.1713678
0.38151342 -1.7281766 0.13914223 -0.34622428 0.09596286 -0.8623441 -2.0314932 -1.2783881
-1.1328919 -0.23860109 0.0964465 0.073413394 0.2715923 -0.28868547 0.7082339 -0.38745713
-0.16273369 -0.21404675 -0.2897746 2.6217508 0.6486294 0.37145942 -0.745046 -1.9129856
-0.45804343 -0.021744385 1.5190752 0.46687758 0.41614377 1.8533002 0.28876954 0.023636417
1.1490294 -0.04806953 0.3466837 -1.3932633 0.43384856 -0.18427886 0.472797 -0.040750258
0.15319143 0.34111446 -1.3645138 0.75235504 -2.7227564 -2.709828 0.08967371 0.4695543
-1.5079855 -1.1155721 -0.6584617 0.04999952 -0.3634187 0.85368127 0.61608195 0.009983005
-0.17179091 0.10643726 0.65200144 0.6708073 -1.6663839 -1.0054915 -0.8683502 -0.13868181
0.29360762 -0.8967811 -0.8375597 -0.23149377 -0.2635113 2.0994682 1.2402017 0.029330878
-0.18815902 1.6551183 0.9026135 0.96204555 -1.9268277 -1.7706479 -0.14114709 0.87150574
0.5043809 0.21781385 -1.2554057 0.10353365 0.08524237 -1.5172235 2.414672 2.460921
1.9180349 0.9184796 -0.55149025 -0.61366546 1.2383137 1.3781828 -0.46329015 0.5883226
-0.89345354 0.18196072 -1.5232905 1.2095376 0.5288604 0.2561631 0.31670055 -0.33311504
-0.8571651 1.2585527 1.2311796 0.6530578 0.032020934 1.4429071 -1.4903966 -0.032662902
0.54192305 -0.07909522 1.3649478 -1.3045206 0.81889457 -0.2049573 -1.1920147 -1.1307203

encoder.gru.weight_ih_l0 f4 [15, 5]
00000000: 1c52 d33e 9937 9e3d 6dcd 0fbd e914 df3e
00000010: 99cd 1ebe 80fa e4bd 8295 c13c dd3b 90be
00000020: ef2c 373d 8497 4bbe d0f2 ddbe b582 d7be
00000030: 093a eebd 767b 8dbe fd6e 1c3c 1626 9cbe
00000040: 9ca9 b43e 0971 ad3e 57c5 8ebe d027 383e
00000050: 5323 893e ad4a 85be 42dc b23c a115 b83e
00000060: 6cbd 5bbe d0cb 6abe ad71 13be dd2d 92bd
00000070: db44 b8be 820c 9a3d 96da 8a3c 6ce2 98bd
00000080: 7588 863c 43ed 893e 022e da3e f31f 2f3e
00000090: db85 483e b9ba aa3e 8d26 03bd 7030 ed3d
000000a0: 1c44 ff3d 6ff6 c0be e71a dabe 2a0a 8fbe
000000b0: 8d7c b1be b625 9fbc 52f6 413e 24a7 713e
000000c0: 6204 debe 7d3c cbbe 13d3 f23d 5d27 93be
000000d0: bb5e d9be aa20 753d b28b 353c ee2f 9dbc
000000e0: 262c 893d 2c28 d43e a502 903e e926 e03d
000000f0: 349b b83e 10dc 653e 6045 29be 3bd4 9d3e
00000100: 32dd 93be 8395 1dbe 09cd 71be f1f0 a7be
00000110: c0b8 663e 9fc9 81bd 2ff7 ef3d 9633 b33e
00000120: 5e5a 79be 73e8 263e 7fe7 803d
0.41273582 0.07725448 -0.03510802 0.4357064 -0.15508117 -0.111805916 0.023630861 -0.28170672
0.044720586 -0.19882017 -0.43349314 -0.4209191 -0.11632163 -0.27633256 0.009547946 -0.30497807
0.35285652 0.338753 -0.27884933 0.17983937 0.26784763 -0.26033536 0.021833543 0.35954002
-0.21458977 -0.22929311 -0.14398833 -0.07137654 -0.35990033 0.07521917 0.016949933 -0.074650615
0.01642249 0.2693883 0.42613226 0.17102031 0.19582312 0.33345583 -0.032019187 0.11581504
0.12464163 -0.37688014 -0.4259865 -0.27937442 -0.34665337 -0.019427162 0.1894162 0.23598915
-0.4336272 -0.39694586 0.118566655 -0.2874097 -0.42455086 0.059845604 0.011080669 -0.019187894
0.06697874 0.414369 0.28127018 0.109449215 0.3605591 0.22447228 -0.1653037 0.30825981
-0.28879696 -0.15389065 -0.23613371 -0.3280101 0.22531414 -0.06337284 0.117170684 0.35000294
-0.24350879 0.1629961 0.062941544

encoder.gru.weight_hh_l0 f4 [15, 5]
00000000: 9670 70be 68af c93d 72f4 69be 2b91 b33c
00000010: 4ef3 44bd d98a a7be 5dbd b93e 61d2 9e3e
00000020: d382 d9be c26c 703e 370f 03be 2fdb b5be
00000030: cd6b 913e 7ecd d73e 801e a13e 578a d53e
00000040: e1c2 3fbe d56b d0be 0d30 aabe 4314 033d
00000050: 8ac1 a3bd a77e 473e 94d4 bc3e 41d3 8fbe
00000060: f39c 00be 63e8 adbe 96a3 d3bd 3e28 b4be
00000070: a68c 5a3e 19a3 6f3e 3877 d0be 03f4 863e
00000080: 0c39 a23d 0e61 dbbe 7d56 a73e ddc4 1ebe
00000090: cb01 593d a501 183e 1563 4b3e 399c 6bbe
000000a0: d869 b1be 3dfe 9e3e 72d4 b13e 5de1 c73e
000000b0: 6b3e 5cbd 54ee bdbe f6e5 a1be 9feb ec3d
000000c0: 8f7d aebe c2ac 8a3e 89ba 5d3e d732 adbe
000000d0: 8e60 2fbe bd43 42be 2b75 d7be 0b5c de3e
000000e0: f98c 4d3d 4239 b9bd 6c87 e33e ec23 833e
000000f0: 058d 47be fc62 e2bc 976f e4be bd1b b3be
00000100: cfb9 6a3e b11c a33e 3f2f 61be a4a9 d33e
00000110: c407 afbd bbb8 6bbe b373 8cbe 41ba 13be
00000120: c443 a03e 7693 40be 336e 01be
-0.23480448 0.09847909 -0.22847155 0.021919807 -0.048083596 -0.3272312 0.36277285 0.3101988
-0.42482623 0.23478988 -0.12798773 -0.35518786 0.28402558 0.42148966 0.31468582 0.41707107
-0.18726684 -0.4070727 -0.33239785 0.032001745 -0.07995899 0.19481908 0.36880934 -0.2809086
-0.12559871 -0.3396636 -0.10333936 -0.35186952 0.21342716 0.2340206 -0.40715957 0.2635804
0.07921037 -0.42847484 0.32683173 -0.15504785 0.052980226 0.14844377 0.19862016 -0.23008813
-0.34651065 0.31053343 0.34732395 0.39039126 -0.053770464 -0.37095892 -0.3162076 0.11568379
-0.3408017 0.2708493 0.21653189 -0.3382785 -0.17126676 -0.18971153 -0.4208158 0.43429598
0.05018327 -0.09044124 0.44439256 0.25613344 -0.19487388 -0.02763509 -0.44616386 -0.349821
0.22922443 0.31857827 -0.21990679 0.41340363 -0.08546403 -0.23019688 -0.27432021 -0.14426519
0.313017 -0.18806252 -0.12639694

encoder.gru.bias_ih_l0 f4 [15]
00000000: 96a7 ae3e 84eb fabd 778a 553e 5ecc 7ebe
00000010: fb92 b7be a561 14be 05c2 94be f34f 783e
00000020: c672 693e f090 1ebe 82eb ebbd d12d 4cbe
00000030: 653f c1be 45a6 dcbe 92ad 81be
0.34112233 -0.12251952 0.20853601 -0.24882647 -0.35854325 -0.14490373 -0.29054275 0.24249248
0.22797689 -0.15484977 -0.11519529 -0.19939353 -0.3774368 -0.43095604 -0.25327736

encoder.gru.bias_hh_l0 f4 [15]
00000000: 7dda 403e 01a6 9fbe 773d dfbd c079 dabe
00000010: c130 4e3e eaf5 a9be e6b7 033e 4be1 be3e
00000020: 567d c5be eb4c d33e 4f3f 85bd ae1b 93be
00000030: 5be4 3d3e 27ce 803e b841 c1be
0.18833347 -0.31181338 -0.10900395 -0.42671013 0.20135786 -0.3319543 0.1286312 0.3728126
-0.38572186 0.4126962 -0.06506216 -0.28732055 0.18544142 0.25157282 -0.37745452

decoder.embedding.weight f4 [183, 5]
00000000: 7a51 0d3e 73e1 953f b36c 14bf 3e39 a9be
00000010: 28cc dcbf 1800 293f e759 2140 6803 293f
00000020: 5c38 583f 775c afbe 421b b93f 0f8a a93f
00000030: 353d 29bf 5925 24be ec6e a63f cf1d d23f
00000040: 304f 9ebf b83b 5cbe 3533 0b3f ae53 44bf
00000050: ba44 89bf 89ff 9a3f 5bb2 63bd 4bb4 6fbf
00000060: 04c7 0b3e 3df3 453f 7569 763f 9632 43bf
00000070: 6d86 193e d121 5d3e 3650 b4bf c102 cfbf
00000080: 041e 93be d732 12c0 d83c 17bf 5ea8 143f
00000090: 1a27 bcbd 302d 543f 4cfe 4cbf 65a7 493f
000000a0: db1d 833f 2401 8bbe a99a ae3e 3cb9 f2bf
000000b0: d241 d2bf d59d d33f b05c c03f 2615 8cbe
000000c0: ea53 b33e 3af5 afbf 9360 883c 8b57 3a3d
000000d0: d133 b5be bef0 7ebf cf3b ca3f e8e7 693f
000000e0: 5403 af3f 771d 853f ff81 81bf 31b8 ec3e
000000f0: 39dd 473e e42e 22be 68b2 63be cdcd ed3e
00000100: e979 2a40 7860 40bf 57b1 b6bd 810e db3d
00000110: e021 c23f a849 bf3f 7468 453e c3ae ea3e
00000120: b30d 053f ead9 b5bf 8af5 2d3f 5f00 e9be
00000130: 564a 8c3f 24c4 6a3f 9ba5 8ebe d3d2 12c0
00000140: 6664 d0be ba94 18be c845 d1bd 2263 03be
00000150: 839a 01bd efd9 1140 8423 dd3e 1cb7 a1bf
00000160: 7aa3 863f 148b 20bf 8fa1 0dbe bed3 08bf
00000170: 0f4f abbf 40d3 18bf 4c1c 8dbf d660 313f
00000180: fbeb 63be bde6 afbe fae2 34bf e5a1 963e
00000190: a64a 953e 1640 d9be b9a8 c63f 68e6 183f
000001a0: 57f0 d03f c014 3fbf 3eda c6be 069f 84bf
000001b0: 549f c6bf b8a1 aa3d 1daf f5bd 7b10 253e
000001c0: 75b2 88bf 4cf3 48bf d8a5 c83e 0f18 9abf
000001d0: 1d2d 953e 718e 313f f637 00bf 6d0e 65bf
000001e0: 2dbf 3c3d 3117 8d3f f88d d5bd 50e1 323e
000001f0: f33a 3dbf 4cde d53e cde5 77be ebcc 9e3f
00000200: 8ced fabc 3394 42bf 9345 a03f 703f a13e
00000210: 2696 be3f 7baf 693f 7c5a 63bf 815c 283f
00000220: 763e 3a3e 5abb 973f 863b a33f ff01 0bbf
00000230: 078e f2bd b1ed aabf b888 30be f90f 383f
00000240: 5d0c 9abf afd4 ab3f 14a5 41bd 1871 773f
00000250: 5c91 dbbe 0947 24bf bb4a 87bf 4817 1fbd
00000260: f394 53bf 7b8a 01be e706 143e cae6 8bbf
00000270: 9aab 50bf a805 cfbf 94e4 e3bf 545e 723b
00000280: fd53 183e 08d9 18bf 2e33 1abf e6ce d43e
00000290: aad9 ba3e 520b 0c3f d63d febe d2af 5d3f
000002a0: b1c4 1140 2d61 0fbe 3b45 88bf d525 d0bf
000002b0: e01d 1a3f b391 0bbf 0c2c 06bf 9270 093e
000002c0: 74df c7bf a188 9cbe bf41 273f 1dc8 613e
000002d0: 314c 85bf 0cfa 96bf a36a 5b3f 1a8b afbe
000002e0: 095d 0dbf 1012 e0be 2d4f 0e40 c08a fa3f
000002f0: 462f 3ebc dcfa 193f ff89 7fbf 4a3d 943f
00000300: 482c 0240 e1ac ad3f f2b1 793f 78b4 953f
00000310: 02bf 7d3f 00a7 4c3d 9f90 d63d efbe 11bf
00000320: bf50 ac3f c7e6 883f 2f95 b8bd 09f2 a83f
00000330: c9eb 9abe 0e22 20bf 2e5f 0b40 c249 d7bc
00000340: f290 a0bf a71c 0dbe 8157 dc3e 1069 00bf
00000350: bc47 1d3f ac55 abbe d0e6 5bbf cf58 82bd
00000360: 6180 bbbe cd0d bbbe 8926 ac3e 9402 3940
00000370: f104 373f 0568 d73f b006 f7bf 16e3 0b3f
00000380: c3f0 bdbf 98b2 283f f29f fe3d 729f a83e
00000390: aa82 083f 7641 a4bf 0c78 d5be 59e0 313f
000003a0: 280c 103f 58f3 883f a046 193e cb13 353f
000003b0: 8378 ef3f 6179 17bf e3c4 3cbf 33a2 233f
000003c0: 6666 83bf cf60 ecbf 8c2e d23d 1cc1 18bf
000003d0: 46c4 85bd 4bcb 8cbe b170 8e3f ec57 20bd
000003e0: 9aec 1b3e 8cb1 943d a610 2f3d abe3 923e
000003f0: cdd4 d33f f3d0 3b3f a6ac 34bf feb3 18bf
0.13800612 1.1709427 -0.5797836 -0.33051485 -1.7249804 0.6601577 2.5211122 0.6602082
0.84461 -0.34250233 1.4461443 1.3245257 -0.6610902 -0.16029872 1.3002601 1.6415347
-1.2367916 -0.21507156 0.5437501 -0.76690185 -1.0724099 1.2109233 -0.055590015 -0.9363448
0.13650137 0.7732428 0.96254665 -0.76249063 0.14992686 0.21594931 -1.4086978 -1.6172715
-0.28733838 -2.284353 -0.59077215 0.5806941 -0.091871455 0.8288145 -0.80075526 0.7877105
1.0243486 -0.27149308 0.3410237 -1.8962779 -1.6426337 1.6532542 1.5028286 -0.27359885
0.3502496 -1.3746712 0.016647613 0.045493644 -0.35391095 -0.99586093 1.5799502 0.91369486
1.3672891 1.0399617 -1.0117797 0.46234277 0.19517983 -0.158382 -0.22236025 0.46446076
2.6636908 -0.751472 -0.08920544 0.10696126 1.5166588 1.4944353 0.19278127 0.45836458
0.5197403 -1.4207127 0.6795279 -0.45508096 1.0960186 0.91705537 -0.27860722 -2.2941177
-0.40701598 -0.14900485 -0.10218388 -0.12830785 -0.031641494 2.2789266 0.4319116 -1.2634006
1.0518639 -0.62712216 -0.13831161 -0.5344809 -1.3383502 -0.5969734 -1.102426 0.69288385
-0.22257988 -0.34355727 -0.7065884 0.2942039 0.29158515 -0.42431706 1.552024 0.5972657
1.6323346 -0.74641037 -0.3883838 -1.036103 -1.5517373 0.08331627 -0.11996291 0.16119568
-1.0679461 -0.7849624 0.3918903 -1.2038592 0.2913598 0.69357973 -0.5008539 -0.89475137
0.046080757 1.1022702 -0.10427469 0.17468762 -0.73918074 0.41771162 -0.24208756 1.2406286
-0.03063085 -0.76007384 1.2521232 0.3149371 1.4889572 0.91283387 -0.88809943 0.6576615
0.1818789 1.185405 1.275254 -0.5429992 -0.11843496 -1.3353788 -0.17239654 0.7189937
-1.2035023 1.3424281 -0.04727657 0.9665694 -0.42884338 -0.6417089 -1.0569681 -0.038840562
-0.82649153 -0.12650482 0.14455758 -1.0929806 -0.81511843 -1.6173601 -1.7804132 0.0036982493
0.14875789 -0.59706163 -0.60234344 0.415641 0.3649419 0.54704773 -0.49656552 0.86596406
2.27763 -0.14001913 -1.0646127 -1.6261545 0.60201836 -0.54519194 -0.5241096 0.13421848
-1.5615067 -0.3057299 0.65334696 0.22048993 -1.0413877 -1.1795058 0.8570959 -0.34285814
-0.55220085 -0.4376378 2.2235825 1.9573593 -0.011607951 0.60148406 -0.9981994 1.1581204
2.0339527 1.3568383 0.9753715 1.16957 0.9911958 0.04996395 0.10476803 -0.56931967
1.3462142 1.0695428 -0.090128295 1.3198863 -0.30258015 -0.62551963 2.1776843 -0.026280288
-1.2544234 -0.13780461 0.4303551 -0.5016031 0.6143758 -0.334638 -0.85899067 -0.06364595
-0.36621383 -0.36533967 0.3362315 2.8907824 0.71491915 1.6828619 -1.9298916 0.5464338
-1.48391 0.6589751 0.12432851 0.32934147 0.5332438 -1.2832477 -0.4169315 0.6948295
0.5626855 1.0699263 0.14968348 0.70733327 1.8708652 -0.59169585 -0.73737925 0.6391937
-1.0265625 -1.8467044 0.10262784 -0.5966966 -0.06531577 -0.2749885 1.1128141 -0.03914635
0.15226975 0.07260427 0.042740487 0.28689322 1.6549317 0.73365706 -0.7057594 -0.59649646

decoder.attn.weight f4 [15, 10]
00000000: a315 c9bd a994 a33d a6db 69be 1f7e 4d3e
00000010: 0705 23be 07e0 833d bca6 993e 9164 aabd
00000020: 520e 4bbe 6bfe a03e 7a95 35be 4cbd 58be
00000030: 129d dabd d06e ebbd 19fe 4fbe 9ff0 39be
00000040: c476 6c3a 15c2 4cbe 0cfe a7bd 63fd 79be
00000050: 3c58 67be 3af3 933c 66ce 203d fdf3 edbd
00000060: 51fd 653e 057b f0bd 4cda 443e 26d0 c93d
00000070: 49c0 ce3c f4a6 7c3e 8d2b 173e 6845 953e
00000080: 37f3 35bd 71b1 723e 3636 9fbe 6b4b 8a3e
00000090: c909 973e 246d 5cbe f9bc 84be aa98 993e
000000a0: 7f8c 083e 1629 773e 27e5 223e 8381 9b3e
000000b0: f1e0 6bbe 8ce6 1dbe bcef 7c3e 0dcf 07bc
000000c0: 57fd 47be b167 6f3e f469 ea3d 8ee1 953d
000000d0: 9b9e aebd 87f9 9b3d ff91 4e3e 0dfb 99be
000000e0: 1a34 30be 3f98 b7bd 4e15 57be e02e 893e
000000f0: b3b9 69be 9be3 183e f08c 913e 2b1d edbc
00000100: e0d4 90be d526 5dbe 8d71 2a3d 8d5a 983e
00000110: 8d7b 07bc 4cc2 b33c 62ae 393e c2c2 3fbd
00000120: 2175 fabd 6e02 9b3d cb49 8dbe 4379 5e3d
00000130: 57b2 87bc 7a89 e73d 1554 83be 6221 0ebd
00000140: 8531 9dbd 38a4 473b 2f84 83bc 2265 523e
00000150: 45aa 28bc abed 813d e03e 8c3e 03fd 52be
00000160: 7e88 20bd bef9 7a3e b403 983e 22b9 9a3d
00000170: 9010 9d3c 8df9 453d 88af 9bbe ee62 babb
00000180: 2ae0 a1be c05c c53d d40e 443e 457e 583d
00000190: 7156 293e 832a 43bc bd47 6b3c cff1 8f3e
000001a0: 9a3e eebc 6ffd e33c 99ba 383e 8f7f 78be
000001b0: 4638 1c3e c79b b9bd 7032 40be 5603 d53d
000001c0: fa3a 683a 2dd0 5bbe e9c9 8bbd 849d 023d
000001d0: ecc2 8b3e 024a fdbd 40b2 373e e87f ef3d
000001e0: a577 51bd b3e7 2bbe 4fcc a0bd 7b2b 6cbe
000001f0: ba70 8abd e160 21be b0a4 27be dc14 a03e
00000200: 538a 83bd 3306 b93d 885d 8b3d 4ad0 16be
00000210: 0c76 ccbd 19ec 263e 6c43 23be 415d 8ebe
00000220: 1783 23be 0a9d 9b3d d093 6cbe af30 26be
00000230: 6d38 29be c873 55be 53fa cbbc 2e50 74be
00000240: c655 933e 5c2b 8ebe a2a0 5e3e 09f6 123e
00000250: b138 903e f896 0a3c
-0.0981858 0.07987339 -0.22837695 0.20067643 -0.15919887 0.06439214 0.3001002 -0.08319963
-0.19829682 0.31444106 -0.17732802 -0.21165961 -0.1067449 -0.11495745 -0.20311774 -0.18158196
0.0009020383 -0.19995911 -0.082027525 -0.24413066 -0.22592252 0.018060315 0.039259337 -0.11618803
0.22459914 -0.11742214 0.19223899 0.09854154 0.025238173 0.24673063 0.14762707 0.29154515
-0.0444214 0.23700501 -0.31096047 0.27010664 0.29499653 -0.21526009 -0.25925425 0.29999286
0.13334845 0.24136767 0.15907727 0.30372247 -0.23035027 -0.15419978 0.24700826 -0.008289111
-0.19530235 0.23379399 0.1144599 0.07318412 -0.08526345 0.07615953 0.2017288 -0.3007435
-0.17207375 -0.089645855 -0.21004221 0.26793575 -0.22824745 0.14930575 0.2842784 -0.028944572
-0.2828741 -0.21596844 0.041612197 0.29756585 -0.008269203 0.021943234 0.18132928 -0.046816595
-0.12229372 0.07568823 -0.27595362 0.054314863 -0.016564531 0.113055184 -0.25650087 -0.034699805
-0.07675461 0.0030462872 -0.016054241 0.20546392 -0.010294502 0.0634416 0.2739172 -0.20604329
-0.03919267 0.24509332 0.29690325 0.075548425 0.019172937 0.048333693 -0.30407357 -0.005688063
-0.31616336 0.09636831 0.19146281 0.052854795 0.16536881 -0.011911991 0.014360365 0.28114173
-0.029082585 0.027830807 0.18039931 -0.2426741 0.15255842 -0.09062915 -0.1876924 0.10401027
0.0008858886 -0.21466132 -0.06825621 0.0318885 0.2729715 -0.123676315 0.1793909 0.11694318
-0.051139493 -0.16787605 -0.07851469 -0.23063461 -0.06759782 -0.15759613 -0.16371417 0.31265914
-0.064228676 0.090343855 0.06804949 -0.14727893 -0.09983453 0.16301002 -0.15943688 -0.27805522
-0.15967976 0.07598312 -0.23103261 -0.16229509 -0.16525431 -0.20844948 -0.024899637 -0.23858711
0.28776377 -0.27767456 0.21740964 0.14351667 0.28168252 0.008458845

decoder.attn.bias f4 [15]
00000000: b0ae 173d 52b7 5fbe 4c03 98be f071 853e
00000010: 6b33 6fbe 4e7c a9bd 130f 42be a064 54be
00000020: 3621 63be bc66 593e 933f 14be 526c 5ebe
00000030: e486 c73d 019d 033e 44a8 96be
0.03703183 -0.21847275 -0.29690015 0.2606349 -0.23359458 -0.08275662 -0.18951063 -0.2074151
-0.22180638 0.21230596 -0.14477377 -0.21721008 0.09742525 0.12852861 -0.2942525

decoder.attn_combine.weight f4 [5, 10]
00000000: 4422 713e 1baa 423e 47d9 95be 5f10 9b3e
00000010: fa4d a4be 9467 47be 779d c63d 2e31 39be
00000020: 2edd 843e 1e84 903d 1272 0e3d aafa dc3d
00000030: ffed 6e3e 0372 1d3e 266b 093e 3946 903d
00000040: 815a 80be 7aee 5ebe 02e8 d1bd a56d 8f3d
00000050: e411 4fbe 0d7b 793e 5a0b febc e9f3 613e
00000060: 8bc8 05bd 83cb 5c3d 4eb1 5abd 6829 f2bd
00000070: 0b8e 8fbe 1028 71be 2dec 57bd de68 2a3e
00000080: 81d7 843e a13f 0dbd 81a1 31be 1f78 563e
00000090: cf40 343e 6ccc 3cbe 11dc 81bd f3df 3e3e
000000a0: 53f6 01be 2b68 013e 8679 843e b7f9 12bd
000000b0: c1f7 7a3e 5027 e43d a27f 40be 7bc6 69be
000000c0: e23d 863e d2e6 0dbe
0.23548228 0.19010203 -0.29267332 0.30285928 -0.3209074 -0.19473106 0.09698003 -0.18085167
0.25949997 0.07056449 0.034776755 0.10789998 0.23332976 0.15375523 0.1341978 0.07044644
-0.2506905 -0.21770659 -0.1024933 0.07003335 -0.20221668 0.24363346 -0.031011272 0.220657
-0.032661956 0.05390502 -0.053391747 -0.11824304 -0.28038058 -0.23550439 -0.05271547 0.16641566
0.25945666 -0.03448451 -0.17346765 0.2094426 0.17602848 -0.18437356 -0.063408025 0.18640117
-0.12691621 0.12637393 0.25873965 -0.035882678 0.24508573 0.11140311 -0.18798688 -0.2282962
0.26219088 -0.13857582

decoder.attn_combine.bias f4 [5]
00000000: 33d6 ab3d 1753 54bd 26df 803e a31d 2e3e
00000010: fc24 50ba
0.08390465 -0.051837053 0.2517025 0.17003493 -0.00079400814

decoder.gru.weight_ih_l0 f4 [15, 5]
00000000: 4854 20be 93d0 eabd 28fd d43e 7920 c1be
00000010: b51d 943e cd37 473e f1c2 dabe abb2 dcbe
00000020: dd26 93be b275 bd3e b9d2 81bd a9c3 17be
00000030: cbd3 d53e 794b a0be a216 dfbe c2e1 043e
00000040: e6d5 7bbe d2a1 153e e48c c2be 3a84 b23c
00000050: 5e63 00be ccee c9be 153a 323e 7e88 0d3e
00000060: 82d6 29be 91a6 8fbb 3753 eabd f340 523e
00000070: 7e3b 923e 933c ad3d ffb7 a2be dd6d fc3c
00000080: b18a 3ebd 5641 a8bd 1eb2 c93e e90f 993e
00000090: 8107 9f3e 89a8 75bd 72cf 833d 0022 db3d
000000a0: 8cbd cebe e516 053d a28a 553d 08e4 a5be
000000b0: ca71 ebbc fa23 afbd 5f33 17bc 0099 99be
000000c0: 0616 533d c432 b6be f95e d7be 75da 96be
000000d0: 594d abbe c0e8 923e 319e ac3e de90 8a3e
000000e0: d931 8ebe 83e5 45be 2f6d 1f3e fb99 b6be
000000f0: 9d07 06be 1a3d 90be fd88 753e f84b 523e
00000100: 78eb 733e 6439 bf3d 73a1 403c d200 02be
00000110: 3467 a33b 4684 8f3d 10ec a73e 427b ddbd
00000120: cddd bebe dc53 293e 3765 313d
-0.15657151 -0.114655636 0.41599393 -0.37720087 0.28928915 0.1945488 -0.42726853 -0.43105063
-0.28740588 0.37003857 -0.0633902 -0.14820732 0.41763148 -0.3130758 -0.43571955 0.12976745
-0.24593315 0.14612511 -0.37998116 0.021791566 -0.12537906 -0.3944 0.17404969 0.13821599
-0.16585734 -0.00438387 -0.11441653 0.20532589 0.28561014 0.08458819 -0.31781003 0.030814106
-0.046518985 -0.08215587 0.39393705 0.2989495 0.31060413 -0.05997518 0.064360514 0.10699844
-0.40378988 0.032492537 0.052134164 -0.32400537 -0.028740782 -0.08551784 -0.009228556 -0.29999542
0.051534675 -0.35585606 -0.42064646 -0.29463544 -0.3345745 0.286932 0.3371444 0.2706365
-0.27772406 -0.19325833 0.15568994 -0.35664353 -0.13088842 -0.28171617 0.23978038 0.20536792
0.23820293 0.09337118 0.0117572425 -0.12695625 0.004986668 0.07007651 0.3279729 -0.10814525
-0.37278596 0.16535896 0.043309417

decoder.gru.weight_hh_l0 f4 [15, 5]
00000000: d043 5e3e cb40 e5be 3ec1 e3be bdf0 87bd
00000010: daa4 b9be c35f 93bd 590a 09bd d650 d2be
00000020: a2c6 8cbe 937b 29bb 9810 00be 066a b53e
00000030: c481 c23e c726 bd3e 8660 8c3e 077e acbd
00000040: e515 9abe bbef 8c3e 82d7 4a3e 9f6c 82be
00000050: ca9c c4be 3ba0 2f3e 2ba4 b2bd df4a c1bd
00000060: a249 ccbe bfe1 cf3c 024d e0bc cfdf 803e
00000070: 04ea dbbe 5c8d 5c3e 2d20 05bd b9d0 813c
00000080: c5d5 b0be ad49 8fbe 95a6 a1be 625d cb3e
00000090: ddb7 9e3c 568d 543e a32f 11be 0a5f b6bd
000000a0: c221 d0be 3270 cc3e 0d53 d93e d91c 2b3e
000000b0: 3ced 99be 91de 6f3e a9eb 9c3e 6495 c13e
000000c0: fee4 7f3e ed68 453d 8c6d 2c3e 2333 88be
000000d0: 98f8 95be dc05 e13e 5972 f73d 8013 a63e
000000e0: ee00 7e3e 1b86 403e 21a4 2cbe b807 cf3e
000000f0: f76c 82be 628c 9f3d c33d b5be 8c54 08be
00000100: d5ab ba3d 804e 11be 0ec2 59bd cd13 88be
00000110: 2e86 0c3e 1435 3ebe e47d d53e a26b 213e
00000120: 7fea 32be 64f5 693c 9df4 76bd
0.21705556 -0.44775996 -0.4448337 -0.06637714 -0.36258584 -0.071959995 -0.033457134 -0.41077298
-0.27495295 -0.002586101 -0.1250633 0.35432452 0.37989628 0.36943647 0.27417392 -0.08422475
-0.3009483 0.2752665 0.19808772 -0.25473496 -0.3840087 0.17150967 -0.08722719 -0.09438109
-0.39899927 0.025376199 -0.02738047 0.25170752 -0.42951977 0.215383 -0.03250139 0.015846597
-0.34538093 -0.27985898 -0.31572405 0.39719683 0.019374782 0.2075704 -0.14178328 -0.08904846
-0.40650755 0.39929348 0.42446175 0.16710223 -0.30063808 0.23424746 0.30648544 0.37809289
0.24989697 0.04819577 0.16838664 -0.26601514 -0.29291224 0.43949783 0.12082357 0.32436752
0.24805042 0.18801157 -0.16859485 0.40435576 -0.2547376 0.07790448 -0.35398683 -0.13313502
0.091148056 -0.14190102 -0.05316358 -0.26577607 0.1372306 -0.18574935 0.4169761 0.15763715
-0.17472266 0.014279697 -0.060291875

decoder.gru.bias_ih_l0 f4 [15]
00000000: 9381 ac3e b4e1 6c3e 06e0 283e 6bfe 193e
00000010: 742d 3f3e edfd 28be 080c cb3e f8d4 da3e
00000020: de94 813d 52ed 443e 6eb7 bcbe afd1 c6be
00000030: ea18 a23d 7f39 403e 5ef8 a23e
0.33692607 0.23132974 0.16491708 0.15038459 0.18669683 -0.16503115 0.39657617 0.42740607
0.06327222 0.19231156 -0.36858696 -0.3883185 0.07914908 0.18771933 0.31830114

decoder.gru.bias_hh_l0 f4 [15]
00000000: 37c8 c83e eaad 4abe 62fa 0ebe 576e c13e
00000010: a2ab e73c 0908 ce3e 4e91 8d3e 328b 02be
00000020: 2d74 e1be 4b34 c43e f1dd 503e 714a 7d3d
00000030: ae20 733d b724 8d3e 944d d03d
0.39215252 -0.19792905 -0.13962701 0.37779495 0.028280083 0.40240505 0.2764992 -0.12748411
-0.44033948 0.38321146 0.20397164 0.06183857 0.059357338 0.27567074 0.10171047

decoder.out.weight f4 [183, 5]
00000000: 2a7d 00bd 12e2 19bd 217a 33be 897b 013d
00000010: aed5 01bd ab20 11be 0473 643e e23b 873e
00000020: b952 d93e 45bd 333e 4e87 4dbe d912 83be
00000030: d08e a7be 60bc 03be 4021 cc3d e19e 8fbe
00000040: b778 ca3d e7d4 2cbe d6d4 c03b cdba b53d
00000050: 0ae4 913e 4de2 ec3d 3609 a2bc cf42 3a3e
00000060: 2586 b8be 8ca5 3d3e ba3d d7be c793 14bd
00000070: 7382 06be 7b0f dabe 1902 043d 3f0c 49bd
00000080: 7fac 85be b593 aebd 4e1d 7abe 180e 43bd
00000090: ec63 92be d75b 9e3e 54f7 dd3e 753b 3ebe
000000a0: d333 c53e 4166 6bbd 7060 cf3e b7f1 b4bd
000000b0: 6312 073e f5a9 dcbe 9fe7 0c3d b617 e13e
000000c0: 4b45 c6bc aba9 b0bd 37bd aa3e 7951 a6be
000000d0: d80f 4b3e eb2a 81be daa2 44bd 310f 3a3e
000000e0: aa19 d3be 0094 913d 07c8 7c3d 6f90 d53e
000000f0: f97e 823e 9e3c d23e df58 dcbc acde 573d
00000100: 7aff 933d a871 a9be 66e3 c93d ded9 a13e
00000110: 64a2 3abd 2f15 0c3e 9a97 cd3e 0a44 8b3e
00000120: 6fa3 a73d 2c58 ccbd 252f 2ebe aa5a dfbd
00000130: 26e4 97bd 104f 3abe c8cc 553b fc49 cbbd
00000140: b507 5fbb 6e91 2cbc f6a0 483e 6fe9 c43e
00000150: 7170 a4be b2d2 bbbe 311d c7be c916 d0bc
00000160: 7eb0 d33e 5d35 ba3e f2f6 9d3b 7136 acbd
00000170: eb24 78bc 6d0f aebc 8ba0 bebe 7482 c23d
00000180: e53b 06be 7e3a fa3d 278f 163e 6675 5abd
00000190: 2561 adbc 3528 ed3c 2b03 c73e 10d8 15be
000001a0: ce51 c43e f533 66bc 018d c93e 0827 a1be
000001b0: ddbb b7be 2a4b b33e c1a0 b23e cd62 c03e
000001c0: aa22 aebd 89ba 933e 77b6 59bd 9f62 593e
000001d0: 5e39 22be 7807 543e 1c01 49be 4f7c 5cbe
000001e0: 5aa6 723d 0d25 8dbe 1297 24be 990d 02be
000001f0: 957b 9bbe ac71 e03b 91b9 663e b043 173e
00000200: 064b 7ebd effb 7b3e 7313 6d3c a846 a8be
00000210: f0c7 ddbe ae17 e7bb 7506 113e 20d9 e13e
00000220: d4dc 9b3e 4cf7 853e a09b c9be 2c37 ce3d
00000230: 03fe 8f3e 95f4 97be cef6 803d fbf4 a6be
00000240: 5903 b43e a71d 1f3e d829 22be def4 3fbc
00000250: b7b9 83be a26e 28be e010 97be 944c cc3e
00000260: e1d5 56be f664 b33e 9aa4 d2bd 2524 a13e
00000270: 3132 cdbe 2b81 b73e caf0 ee3d 4853 d63e
00000280: a0fe 883b a032 503d 4c08 aebe 0b57 293d
00000290: a7ab 03be e5ae 273e 6d42 d23d 1679 5cbe
000002a0: 6314 6abe e35a fbbc 613d d13e 19f9 bd3e
000002b0: b269 7b3e 66d0 8cbd 2a06 213e 644d 9ebe
000002c0: 8836 9e3e 4be0 b93e 270f a7be 3d18 1c3e
000002d0: 934b 83be ca77 b03e 5e5d 4a3e 9cad 04be
000002e0: b664 013e 77e5 9abe 5847 8a3e c52c c4be
000002f0: 59e9 c7bd 9b0e 97be dffc ae3e 3f14 c63d
00000300: e56d febd 4c93 7ebe eca8 f93c fc64 9b3e
00000310: 6c7a a03d 3baa 8e3e cb4f a9be 52bf d9be
00000320: 0a51 cd3e 4321 67be ff6c 1ebc 6ce8 76be
00000330: ae1b a33e d677 b1be fc46 4b3e b30b 7e3e
00000340: 1444 503c b9c2 12be 9df6 dabe c04a cdbe
00000350: 5ead 413e b569 513e 797a d33e a1f9 54be
00000360: f2dc cfbe a16d 75be 3bb2 1b3e 53b5 943e
00000370: 59d1 833d c4dd 0dbe 128d 14be 7065 86bd
00000380: 5637 db3d fd04 153d ff9e 87bd d394 ad3e
00000390: 8949 873c 20a8 9b3e 6233 c9be 12cb 3dbd
000003a0: 92ca 7fbe 5a24 5c3e 9846 8d3d 758f 8dbe
000003b0: ac4f cbbe 3f6d 353d 7916 953d cb76 e1be
000003c0: 7b45 bdbe 6c2b b1be a723 613e 15b3 9e3e
000003d0: c748 14bd 3af4 91be eee3 e4bd 8ac6 8d3e
000003e0: 4143 393e ab9c 723d 0c2f 90be d6d6 35bd
000003f0: ddf1 cebd 454b afbd 91d2 93be d52b e53e
-0.031369366 -0.037569113 -0.17527057 0.031611953 -0.03169792 -0.14172618 0.223095 0.26412874
0.42445925 0.1755267 -0.20071146 -0.25600317 -0.32726145 -0.12864828 0.099672794 -0.28050902
0.09886306 -0.16878091 0.005884747 0.0887352 0.28494292 0.11566601 -0.019779783 0.18189548
-0.36039844 0.18520182 -0.4203928 -0.036273744 -0.131357 -0.42589936 0.032228563 -0.049083944
-0.26108167 -0.08524267 -0.24425241 -0.047620863 -0.2859186 0.30929443 0.4335276 -0.18577369
0.385161 -0.057470564 0.40503263 -0.08835166 0.13190608 -0.43098417 0.03440058 0.43963403
-0.024202963 -0.086261116 0.33347484 -0.32484034 0.19830263 -0.25228056 -0.04800687 0.18169858
-0.41230518 0.07108307 0.0617142 0.41711757 0.25487497 0.41061872 -0.026897846 0.05270259
0.07226463 -0.33094525 0.09857826 0.31611532 -0.045565024 0.13679956 0.40154725 0.27200347
0.08185469 -0.09977755 -0.17010172 -0.10905965 -0.07416563 -0.18194222 0.003262328 -0.09926221
-0.0034031693 -0.01053272 0.19592652 0.38459346 -0.32117036 -0.36684185 -0.3888946 -0.02540149
0.4134559 0.36368838 0.004820698 -0.084088214 -0.015145521 -0.02124759 -0.3723186 0.09497538
-0.13108785 0.12218188 0.14703046 -0.053334616 -0.021164486 0.028949836 0.38869604 -0.14633203
0.38343662 -0.014050473 0.3936539 -0.3147509 -0.35885516 0.35018283 0.3488827 0.3757538
-0.085027054 0.28853253 -0.053152528 0.21229027 -0.15842196 0.20705974 -0.1962933 -0.21531795
0.059240676 -0.2756733 -0.16073254 -0.127005 -0.30367723 0.0068494882 0.22531725 0.14771914
-0.062083267 0.24607824 0.014469969 -0.32866406 -0.43316603 -0.0070523834 0.1416262 0.44110966
0.30441916 0.26165235 -0.39376545 0.10069117 0.28123483 -0.2967879 0.06297074 -0.3260878
0.35158804 0.15538655 -0.15836275 -0.011716096 -0.25727627 -0.16448453 -0.29505062 0.39902174
-0.20980026 0.35037965 -0.102853015 0.3147289 -0.40077356 0.35840735 0.116670206 0.41860414
0.0041807443 0.05082953 -0.33990705 0.041342776 -0.12858449 0.1637531 0.10266576 -0.21530566
-0.2285934 -0.030682987 0.4086714 0.3710411 0.24552038 -0.06875686 0.15725008 -0.3091842
0.3090098 0.36303934 -0.32628748 0.15243621 -0.25643596 0.34466392 0.1976218 -0.12956852
0.12636074 -0.30253193 0.27007556 -0.38315406 -0.097613044 -0.2950333 0.341773 0.096718304
-0.124233045 -0.24860877 0.030476056 0.30350482 0.0783585 0.2786425 -0.3306869 -0.42528778
0.4010089 -0.22571282 -0.009669541 -0.241121 0.31857055 -0.3466174 0.19851297 0.2480915
0.012711544 -0.14332093 -0.42766276 -0.40096092 0.1891379 0.2045048 0.41304377 -0.20798351
-0.40598255 -0.23967601 0.15204708 0.2904459 0.06436414 -0.13854128 -0.14506939 -0.065623164
0.10703914 0.03638171 -0.06622123 0.33902606 0.016514556 0.30401707 -0.39297014 -0.04633624
-0.24979618 0.21498242 0.0689823 -0.27648512 -0.39709222 0.04429364 0.07279677 -0.44035944
-0.36967072 -0.3460344 0.21986257 0.30996004 -0.03620222 -0.28506643 -0.11176287 0.27690536
0.18092062 0.05923144 -0.28160894 -0.044394337 -0.101047255 -0.085592784 -0.28871587 0.44760004

decoder.out.bias f4 [183]
00000000: 3aff d93d 636c 633e e9ff 773e 2c0a bd3e
00000010: 7c1d a23e 99a1 ac3e 2458 593e 63bb 8f3d
00000020: c9c3 863e f573 4a3d 6c99 903d 4f45 c53e
00000030: da98 423e a7fe 30bc 6465 e3be cfda ae3e
00000040: c65b 0f3e b034 8abe e2bc c83e 3ddc a53e
00000050: 1a1c c7be edb1 433e 8a35 ccbe 0028 b43e
00000060: ad1c 423e 1bb0 65be 55cf 45bd 5488 913e
00000070: b049 afbe 20f2 99be c734 883e 839d dc3e
00000080: 3cec c83e 4be4 ccbe be10 8dbe d956 8c3e
00000090: 60ad 75be e76d ba3e fbb9 793d a891 b13e
000000a0: 4faa ae3e 2f37 aa3d 7b75 453e 0bd3 b73e
000000b0: cc9a a1be 2209 e13e a1f8 503e b66e abbe
000000c0: 25a0 1dbe 9343 92be b827 5abd a3bd ccbe
000000d0: a919 0ebe 1b8f 2f3e 6321 3ebe cfbf b83e
000000e0: f232 4bbe 1978 1e3e 9f47 81be 1a76 943e
000000f0: 1209 d1be 6b59 d2bd e5b9 4e3e f159 c3be
00000100: 8d6f a43c 37f6 353e a576 b5be 4cb3 d4bc
00000110: 230b 9dbe 774b 5838 892d 213e 89f8 28bd
00000120: a72d ec3d 1043 80be d90e 95be 4fd4 e6bc
00000130: 311c dbbc 154f 10be 7110 b6be 5d99 ba3e
00000140: cfea cc3e 0bf1 4abe e63e dabe 18ef 8bbe
00000150: f275 96be fbb9 26be aaa2 33be 2fa5 8a3d
00000160: c17a b2bb b239 833d 9875 263e 0606 8f3e
00000170: ca74 9bbe 0ea4 b63e 1fd7 44bd 582f abbe
00000180: 0b8d dd3d 4ea5 bebe e660 a23d 67d2 bbbe
00000190: b110 a43e 549d 433d 6b12 a43e 852b f73d
000001a0: d225 90be b32d ae3d be57 cc3e 3c1e c0bc
000001b0: 5ba6 babe db20 d0bd 6682 ad3e 655f a0bd
000001c0: 9945 fd3d 1a58 54be 7043 0fbe e166 69be
000001d0: 726f 2b3c cd5a b53e 0ccf 28be 1c14 23bd
000001e0: cc67 10be e719 9b3e 7fec f6bd 2ef5 f73d
000001f0: cd25 9bbd 8ce8 c43e b44f 56bd e82e 63be
00000200: d352 023e 9750 de3e 8d3b e73d 6f8b cd3d
00000210: b7cc afbe c6d4 b73e cafe cf3d 4170 1cbe
00000220: 631c 1f3e ca89 debe 2402 9ebe 9802 b43c
00000230: ccef dfbd 463a 7a3e 7557 f93d c2f7 683e
00000240: 722b b2be 5f4c c8be 0575 6bbc d0d7 8fbe
00000250: b6bc 873e 196e 55be 8d26 aa3d da97 b8be
00000260: 260d 923e f427 c7be a433 97be dcb5 4ebd
00000270: 0f8d 12be 236d e0be a1a9 4fbe b57e 8dbe
00000280: 205c 903d a8d9 5fbe 0c2a 7abe d947 acbe
00000290: 27a7 1dbe 50a0 d73e 89ac ad3c 7cbb e0be
000002a0: 2813 bebe 9d3c 83be 8797 94be fd86 36be
000002b0: b523 88be b8eb 433c 84ae df3d d3a1 1e3e
000002c0: 83d5 a83e 4afe cfbe 7eb9 c33e 5bc8 8a3e
000002d0: 8a80 e93c d152 b1be d9ce ae3d
0.10644384 0.22209315 0.24218716 0.36921823 0.3166312 0.3371704 0.21225029 0.07018163
0.26321247 0.04942699 0.07060513 0.3852944 0.1900362 -0.010802901 -0.44413292 0.34151313
0.13999853 -0.26993322 0.39206606 0.3239459 -0.38888627 0.19110842 -0.39884597 0.35186768
0.18956251 -0.2243046 -0.04829343 0.28424323 -0.34235907 -0.3006754 0.26602766 0.43088922
0.39242733 -0.40017924 -0.27551836 0.2741001 -0.23991919 0.36411974 0.06096838 0.3468144
0.3411431 0.08311307 0.19283096 0.359032 -0.31563413 0.4395228 0.20407344 -0.33482903
-0.15393122 -0.2856718 -0.053260535 -0.3998843 -0.13876976 0.17144434 -0.18567424 0.36083838
-0.19843653 0.15475501 -0.25249955 0.28996354 -0.40827233 -0.102709614 0.201881 -0.38154557
0.020072723 0.17769705 -0.3544208 -0.025964402 -0.3067256 5.1568695e-05 0.15740027 -0.041252647
0.11532145 -0.25051165 -0.2911289 -0.028177409 -0.026746841 -0.14092667 -0.3555942 0.36445132
0.40022895 -0.19818513 -0.42626113 -0.27330852 -0.2938686 -0.16281883 -0.1754252 0.067697875
-0.0054467623 0.06407489 0.16255796 0.27934283 -0.3036254 0.3567204 -0.048056718 -0.33434558
0.108179174 -0.37235492 0.07928638 -0.36683962 0.32043985 0.04775746 0.32045302 0.120688476
-0.28153855 0.0850481 0.39910692 -0.023451917 -0.36455044 -0.10162517 0.3388855 -0.07830695
0.1236679 -0.20736733 -0.13990569 -0.22793151 0.010463582 0.35420838 -0.16485232 -0.0398141
-0.14102095 0.302932 -0.12056827 0.12107311 -0.07575569 0.3845867 -0.052322105 -0.22185862
0.12726907 0.4342086 0.11290655 0.100363605 -0.34335873 0.3590452 0.10156019 -0.15277196
0.15538172 -0.434645 -0.30861008 0.021973893 -0.109344095 0.24436292 0.12174884 0.22750762
-0.3479877 -0.39120767 -0.014371161 -0.2809434 0.26511163 -0.2084278 0.08308134 -0.36053354
0.28525656 -0.3889767 -0.29531586 -0.050466403 -0.14311622 -0.43833265 -0.20279552 -0.27635732
0.070488214 -0.21860373 -0.24430102 -0.33648565 -0.15395795 0.42114496 0.021200435 -0.4389304
-0.3712399 -0.25632182 -0.29021856 -0.17824931 -0.26589742 0.011958055 0.10921958 0.15491419
0.32975397 -0.40623695 0.38227457 0.27105984 0.028503675 -0.34633496 0.08535547
