best_models/seq2seq-2021-03-17-20-34-12.pt (torch, 34959 bytes, 16 tensors)

encoder.embedding.weight f4 [162, 10]
-0.8543304 2.0749066 1.641033 1.4139568 -1.0472372 -0.2813386 -0.42792758 1.60824
-0.09433536 1.06727 -0.0034970087 -0.33992213 0.004866627 -0.772477 -1.2311736 -0.18023148
1.3412102 1.1114326 -0.8361269 -0.35899597 -1.4792967 0.29253367 1.5480553 -0.14054997
0.44230628 -0.1244582 0.38008803 -0.37195265 0.22706857 0.25678205 0.6572842 0.88112855
-0.102716304 -1.0585854 -0.4422891 0.025200075 -0.88631743 -0.061079215 -0.40378246 0.6240022
-0.37860247 1.0712123 1.2336441 -1.276266 -0.87541896 1.1004307 1.0184169 -0.44786346
0.90862286 0.2575732 -1.0070598 -0.016523704 -2.7430081 -1.6082265 0.58607835 0.8321609
-0.13327448 -0.63506854 -0.4914909 1.8332977 2.026986 -0.5862597 -0.5447418 0.5226574
-0.17858446 -1.8172756 0.54210097 -1.71692 1.2970074 1.157101 0.5746771 -0.34458768
0.21136558 1.087732 1.5235472 0.026703209 -0.22490858 -1.857733 0.24970314 -0.16213903
0.42161638 -1.0470825 -0.018602543 -0.08051393 0.9110705 -0.6905289 -1.2326642 -0.12464279
-0.4201911 0.9087821 -0.4702709 1.0346831 -0.7540838 -0.077582955 1.0799291 -1.7567582
1.0390576 0.9285775 0.51653814 -1.0484928 -0.9841933 0.8244124 -0.053148143 -1.8998417
1.4860576 0.58851534 -0.951255 -1.0698097 0.032807805 -1.4503804 0.89942575 -1.5675209
-0.5301291 -0.1207013 1.1744336 0.0036742897 0.85032594 0.60841703 -0.6876195 0.10935973
1.4348742 -0.5067214 -0.71490127 -0.17373362 0.41239977 1.5178393 -0.30652663 0.58886045
-0.32246315 0.63125354 -0.33624324 -0.15546672 -1.2880241 -0.17358044 -0.17744006 -0.5086153
0.040397454 0.25802854 -0.12633716 0.7598698 -0.009771869 1.2526723 -0.7233601 0.38250813
0.84632826 1.0696646 0.94344664 0.07351991 -1.0742884 -0.22747019 1.5266501 -2.8208241
1.1065086 -0.6323652 -2.1627185 0.15679757 0.43076694 -1.5314124 -0.29203805 1.5856829
0.3100182 -0.28529114 1.1747925 -0.1950002 0.7439546 -0.035219148 -0.028639741 0.9218177
0.6577473 2.6387954 2.5301383 0.5205569 -1.4809288 -0.7130651 0.57463175 -1.3494817
-1.325258 1.8134295 -0.37743276 -1.513757 0.0021241219 0.13334832 0.10351121 0.38506246
1.5293417 -0.048176255 -1.1413397 -0.26981834 0.18006007 0.957008 -2.0155392 1.0064882
0.9466305 0.6812237 -1.0052763 0.95326483 -0.14054279 -0.56755453 0.7161859 0.99133825
2.3802936 -2.2239015 0.12646875 -0.66654366 -1.1424965 -1.5097456 0.09564596 0.28360406
0.58201957 -0.58887076 -0.008717299 0.5329763 0.96110433 -0.66785824 -1.1743366 -0.70933187
2.295798 -1.0438571 -0.62696236 1.7857502 -0.821653 -0.3973446 -0.19658402 1.1680298
0.55000997 1.211441 -0.6978314 -2.428432 -0.12151824 -0.8026508 -1.1630727 0.8371182
0.7507969 -0.96007645 -0.07830442 1.7054769 2.0664446 0.89598465 -0.6765233 0.36967257
-1.140426 0.35400862 0.79462755 -1.4440728 0.22709732 1.6212174 -0.040584825 0.6695542
0.09059199 1.1238235 -0.07052008 0.8121921 0.23025502 -2.3598087 -0.9735109 -0.956728
00000000: 66b5 5abf 45cb 0440 5f0d d23f 89fc b43f
00000010: de0b 86bf 9d0b 90be 5319 dbbe cfda cd3f
00000020: e632 c1bd 4e9c 883f 122e 65bb 460a aebe
00000030: 3a78 9f3b 0dc1 45bf 1997 9dbf 9a8e 38be
00000040: c7ac ab3f 6c43 8e3f 6a0c 56bf 52ce b7be
00000050: 9859 bdbf f9c6 953e ad26 c63f 55ec 0fbe
00000060: f875 e23e f1e3 febd e69a c23e 9470 bebe
00000070: aa84 683e f078 833e c743 283f a491 613f
00000080: ed5c d2bd ba7f 87bf b873 e2be 6370 ce3c
00000090: b3e5 62bf 332e 7abd 93bc cebe 9cbe 1f3f
000000a0: 2fd8 c1be 7c1d 893f 0de8 9d3f af5c a3bf
000000b0: 751b 60bf eada 8c3f 7c5b 823f 5c4e e5be
000000c0: 829b 683f a2e0 833e 56e7 80bf b85c 87bc
000000d0: 728d 2fc0 5eda cdbf 3b09 163f 7f08 553f
000000e0: 1b79 08be da93 22bf b2a4 fbbe 80a9 ea3f
000000f0: 23ba 0140 1e15 16bf 3374 0bbf e0cc 053f
00000100: d8de 36be 7d9c e8bf 21c7 0a3f 09c4 dbbf
00000110: 5704 a63f e31b 943f 0a1e 133f cc6d b0be
00000120: 3870 583e cd3a 8b3f 9803 c33f b0c0 da3c
00000130: 6f4e 66be 32ca edbf 2eb2 7f3e c607 26be
00000140: 1ade d73e cd06 86bf 5c64 98bc 7de4 a4bd
00000150: eb3b 693f 81c6 30bf f1c7 9dbf b844 ffbd
00000160: 4a23 d7be f2a5 683f 59c7 f0be 7f70 843f
00000170: a30b 41bf d0e3 9ebd 1e3b 8a3f 74dd e0bf
00000180: d7ff 843f 41b7 6d3f d83b 043f 0335 86bf
00000190: 18f4 7bbf b10c 533f deb1 59bd 032e f3bf
000001a0: 2337 be3f f1a8 163f 7385 73bf 86ef 88bf
000001b0: 7a61 063d 11a6 b9bf c440 663f 86a4 c8bf
000001c0: 8ab6 07bf 3e32 f7bd d753 963f 5acc 703b
000001d0: f6ae 593f 38c1 1b3f d507 30bf fef7 df3d
000001e0: f5a9 b73f 7eb8 01bf c503 37bf 3ae7 31be
000001f0: 1026 d33e 8f48 c23f 0ff1 9cbe 8fbf 163f
00000200: e419 a5be d599 213f 1328 acbe ab32 1fbe
00000210: f9dd a4bf 12bf 31be d9b2 35be 9d34 02bf
00000220: cd77 253d 511c 843e 875e 01be d486 423f
00000230: 301a 20bc 9157 a03f 212e 39bf 1bd8 c33e
00000240: f8a8 583f c5ea 883f b885 713f 9b91 963d
00000250: 4882 89bf f2ed 68be 4569 c33f 6288 34c0
00000260: 13a2 8d3f b0e2 21bf fb69 0ac0 8b8f 203e
00000270: 7c8d dc3e 5205 c4bf 0386 95be a8f7 ca3f
00000280: b5ba 9e3e ae11 92be 9a5f 963f 22ae 47be
00000290: cf73 3e3f f441 10bd e49d eabc 3ffc 6b3f
000002a0: 2162 283f 06e2 2840 c9ed 2140 3843 053f
000002b0: 138f bdbf 6f8b 36bf 111b 133f d1bb acbf
000002c0: 0ea2 a9bf 751e e83f de3e c1be cac2 c1bf
000002d0: da34 0b3b 768c 083e affd d33d e826 c53e
000002e0: 78c1 c33f 7754 45bd 6b17 92bf a125 8abe
000002f0: ab61 383e 7afe 743f 98fe 00c0 9bd4 803f
00000300: 6056 723f ad64 2e3f e5ac 80bf 2a09 743f
00000310: 73ea 0fbe 414b 11bf f657 373f 58c8 7d3f
00000320: bb56 1840 6754 0ec0 0681 013e 9ba2 2abf
00000330: 533d 92bf 583f c1bf 07e2 c33d 8d34 913e
00000340: 3cff 143f 3cc0 16bf 01d3 0ebc 2371 083f
00000350: ef0a 763f c2f8 2abf a950 96bf c696 35bf
00000360: 5bee 1240 1c9d 85bf 9b80 20bf 7693 e43f
00000370: da57 52bf c070 cbbe 524d 49be 0082 953f
00000380: 74cd 0c3f 8010 9b3f 14a5 32bf 6e6b 1bc0
00000390: 8ede f8bd 867a 4dbf 91df 94bf 614d 563f
000003a0: 3a34 403f 92c7 75bf 115e a0bd 114d da3f
000003b0: a140 0440 405f 653f a230 2dbf b945 bd3e
000003c0: 7bf9 91bf 9e40 b53e b66c 4b3f 61d7 b8bf
000003d0: 338c 683e 0d84 cf3f 463c 26bd e767 2b3f
000003e0: 4b88 b93d 73d9 8f3f d56c 90bd d2eb 4f3f
000003f0: f9c7 6b3e 1b07 17c0 0338 79bf 20ec 74bf

encoder.gru.weight_ih_l0 f4 [30, 10]
-0.29743308 0.010341243 -0.10897749 -0.12950274 -0.0115659265 -0.013499397 0.30387253 -0.08265002
0.084022716 0.026668338 -0.21527956 0.28802896 -0.0021688442 0.023186168 0.18671604 -0.15997474
-0.2733798 -0.048450585 0.12615168 0.24419847 -0.15704103 0.032636534 -0.14770141 -0.12610398
-0.045517825 0.2073318 -0.22393337 -0.120164335 -0.12784629 -0.08749603 0.28674522 -0.22898635
-0.30391887 0.104875684 0.019950707 -0.20176291 -0.115301415 0.26092112 -0.18018007 -0.20114987
0.01050945 0.12748542 0.20466618 0.2124319 0.09720499 -0.2100017 0.061236054 0.2745922
0.14285205 -0.3149377 -0.20729372 -0.21878132 -0.011784683 -0.13037199 0.19680962 -0.27918726
0.2738198 -0.12506394 0.1519461 -0.14909351 -0.085617326 -0.064648315 0.27595115 -0.22533786
0.2291886 0.29002818 -0.009462089 0.300375 0.16999373 -0.08313419 -0.20998126 -0.0019346075
-0.17277455 0.03917927 0.19989383 0.0073025753 -0.23521598 0.13615064 0.19190642 -0.12259764
0.1998798 -0.021663107 0.032934815 0.31052452 -0.12565973 -0.049259257 0.123811714 -0.17653677
-0.13890381 -0.23067719 0.24735415 0.28477514 -0.0005990114 -0.14871609 -0.25282198 -0.09113671
-0.10853484 -0.1920064 0.22141975 -0.2739886 0.15669672 0.31295654 0.17301746 0.0027658744
0.08588188 -0.02683183 -0.31033257 -0.05396058 -0.013566456 -0.25959563 -0.29252645 0.067671485
0.12997499 -0.2386543 0.13746522 0.14694545 -0.17799604 -0.23779047 0.29431963 0.065928094
-0.13718343 0.28222707 0.29327914 -0.014549313 -0.1309771 -0.25302732 0.23920095 -0.12508565
-0.16064215 0.102082714 0.09110353 -0.046179634 0.11402437 0.28156123 0.12066054 0.04956994
0.2241793 -0.16858117 0.08956187 0.08868177 0.07612247 -0.28407595 0.31507653 0.29095843
-0.29003978 0.07234577 0.30155072 0.0015468829 -0.23410915 0.30684757 -0.25771585 -0.2906371
-0.09695978 -0.12396437 -0.1337688 -0.07948275 -0.15868725 -0.19846895 0.09118187 -0.22305061
0.0697664 0.20212185 0.14567351 -0.16980231 0.19141063 -0.26069072 0.14351697 0.2157112
-0.171227 -0.09496561 0.19814399 -0.011594246 0.14798264 -0.001130929 -0.14093086 0.24849433
-0.047104977 -0.29394025 -0.06714454 -0.12747216 -0.29609793 0.20345746 -0.093814075 -0.27634016
-0.026769849 -0.12083597 0.08745118 0.24804555 -0.18957259 0.2643357 -0.10789348 -0.25183666
-0.18897925 -0.16198808 -0.04088629 0.07521532 -0.045664303 0.26498955 -0.10418752 0.18273698
-0.28732938 -0.19864537 0.13106337 -0.19599502 0.018413313 0.2961093 -0.19076407 -0.036576547
-0.12492418 0.105346225 0.08405953 0.104818285 0.28239572 -0.12340893 -0.102251366 -0.09037245
0.25934565 -0.2293292 -0.05288531 0.04605599 0.14372955 -0.2599451 -0.08857734 -0.1610431
-0.20379154 0.18514808 -0.048221644 -0.1848732 0.23954564 -0.17248565 -0.0032967587 -0.24023521
-0.19817252 0.21717985 0.0027683435 -0.2686344 0.06768621 -0.28846565 -0.24750456 0.29755023
0.102768496 0.20065148 -0.14379643 0.23315057 0.20432878 0.22844876 -0.20388971 0.18553165
0.08239367 0.05757535 -0.2896353 0.23830295 -0.2116295 -0.2896045 0.20987953 0.18101443
00000000: 2649 98be 516e 293c 972f dfbd 5e9c 04be
00000010: 037f 3dbc 932c 5dbc 2e95 9b3e 6a44 a9bd
00000020: 1a14 ac3d 8f77 da3c 3f72 5cbe 8878 933e
00000030: 2b23 0ebb ebf0 bd3c 7d32 3f3e 6bd0 23be
00000040: 70f8 8bbe 1f74 46bd e82d 013e 2a0f 7a3e
00000050: 5dcf 20be e3ad 053d 0a3f 17be 6721 01be
00000060: e670 3abd ca4e 543e ca4e 65be b818 f6bd
00000070: 23ea 02be 1e31 b3bd 45d0 923e 667b 6abe
00000080: 419b 9bbe 10c9 d63d aa6f a33c f09a 4ebe
00000090: 2623 ecbd 7497 853e 2081 38be 3bfa 4dbe
000000a0: d42f 2c3c 8a8b 023e 0394 513e bf87 593e
000000b0: 6913 c73d b00a 57be a8d2 7a3d 5997 8c3e
000000c0: cf47 123e 843f a1be ce44 54be 3608 60be
000000d0: 8b14 41bc 3c80 05be 7688 493e a2f1 8ebe
000000e0: 1c32 8c3e c310 00be c297 1b3e f8ab 18be
000000f0: 2358 afbd 5666 84bd 7849 8d3e f8be 66be
00000100: 6bb0 6a3e 937e 943e e106 1bbc c1ca 993e
00000110: d612 2e3e 4242 aabd 5405 57be a892 fdba
00000120: d0eb 30be 717a 203d f8b0 4c3e 714a ef3b
00000130: 75dc 70be 136b 0b3e 1e83 443e 7914 fbbd
00000140: 4aad 4c3e d476 b1bc a8e6 063d 12fd 9e3e
00000150: f2ac 00be 13c4 49bd ff90 fd3d 0ec6 34be
00000160: cd3c 0ebe a436 6cbe 684a 7d3e 0cce 913e
00000170: f906 1dba 0849 18be e271 81be e2a5 babd
00000180: 8447 debd 539d 44be dcbb 623e 3c48 8cbe
00000190: 1b75 203e d73b a03e 7d2b 313e ac43 353b
000001a0: d7e2 af3d 6dce dbbc e9e3 9ebe c505 5dbd
000001b0: d745 5ebc b8e9 84be 07c6 95be 5997 8a3d
000001c0: 2a18 053e cb61 74be afc3 0c3e de78 163e
000001d0: 9844 36be 587f 73be 10b1 963e 4f05 873d
000001e0: d079 0cbe 1180 903e af28 963e 3e60 6ebc
000001f0: dc1e 06be cc8c 81be 18f1 743e 7416 00be
00000200: 607f 24be be10 d13d 7d94 ba3d db26 3dbd
00000210: 9c85 e93d cb28 903e e01c f73d d909 4b3d
00000220: 428f 653e 8ba0 2cbe 376c b73d ca9e b53d
00000230: 19e6 9b3d 6772 91be b651 a13e 81f8 943e
00000240: 1880 94be 052a 943d db64 9a3e c7c0 ca3a
00000250: 4fba 6fbe 201b 9d3e 55f3 83be 63ce 94be
00000260: d992 c6bd 08e1 fdbd b0fa 08be dac7 a2bd
00000270: e97e 22be 723b 4bbe 8fbd ba3d 6167 64be
00000280: b0e1 8e3d 08f9 4e3e 702b 153e a8e0 2dbe
00000290: 2601 443e 4179 85be 1df6 123e 66e3 5c3e
000002a0: 2156 2fbe 547d c2bd 42e6 4a3e cbf5 3dbc
000002b0: c388 173e ae3b 94ba 2e50 10be 4c75 7e3e
000002c0: 26f1 40bd 567f 96be 1483 89bd 1088 02be
000002d0: 269a 97be 2757 503e 9821 c0bd 757c 8dbe
000002e0: 714c dbbc d978 f7bd 9b19 b33d a7ff 7d3e
000002f0: 511f 42be 0257 873e 42f7 dcbd bcf0 80be
00000300: c783 41be 34e0 25be 6278 27bd 7d0a 9a3d
00000310: 7e0a 3bbd b6ac 873e 4460 d5bd 671f 3b3e
00000320: d61c 93be b169 4bbe 7a35 063e ebb2 48be
00000330: 84d7 963c a39b 973e a857 43be 4ad1 15bd
00000340: 40d8 ffbd c3bf d73d 6727 ac3d f8aa d63d
00000350: 2c96 903e d2bd fcbd 2a69 d1bd 3115 b9bd
00000360: f4c8 843e 46d5 6abe 449e 58bd 35a5 3c3d
00000370: d72d 133e 8617 85be 0968 b5bd 7be8 24be
00000380: bbae 50be 7597 3d3e 0f84 45bd 664f 3dbe
00000390: 744b 753e 14a0 30be 6f0e 58bb 3800 76be
000003a0: bded 4abe 6564 5e3e 196d 353b 738a 89be
000003b0: 119f 8a3d c5b1 93be d671 7dbe 8158 983e
000003c0: 4a78 d23d 9577 4d3e 5f3f 13be 06bf 6e3e
000003d0: 903b 513e 79ee 693e 77c8 50be 02fc 3d3e
000003e0: 03be a83d 21d4 6b3d 144b 94be b005 743e
000003f0: 67b5 58be 0b47 94be a9ea 563e d95b 393e

encoder.gru.weight_hh_l0 f4 [30, 10]
0.12878776 -0.20333493 0.09305171 -0.1603048 -0.15529133 -0.057762716 -0.27391773 -0.2622931
0.27233693 0.0853775 0.30521885 0.021177785 0.05022918 0.28268674 0.28436723 0.12996025
-0.20477036 0.31149393 0.31199306 0.29195172 -0.29633382 -0.053815946 0.07529397 0.102146015
0.06987157 0.23952772 -0.026862005 -0.11099503 0.21454914 0.09179231 0.27636066 -0.008965197
-0.10075389 -0.18983714 -0.24531949 -0.0749642 0.12851374 -0.09123028 0.18972689 0.012874255
-0.28663576 -0.09333566 0.31133264 0.17316288 0.21791542 0.12797475 0.25921795 0.31223598
-0.021183057 -0.25144547 0.19725825 -0.25123486 -0.18190056 -0.05449705 -0.12019176 -0.07995652
-0.271543 -0.03803796 0.15473177 -0.22821939 0.06240548 -0.078021936 0.048222676 0.025064664
-0.073870584 0.22416724 0.22273588 -0.20477119 -0.177431 -0.1007111 0.21346462 -0.12670852
-0.17640004 0.0018538457 -0.17905524 0.30117917 0.30494788 -0.0027869348 -0.29654783 0.06888589
0.21694635 0.17942418 -0.27946904 0.2710862 0.0011191674 -0.085925244 0.050368953 0.10209987
0.21864824 -0.26942697 -0.2378524 -0.14899932 -0.14124848 0.28168228 -0.13631067 -0.2263186
0.2087745 -0.12594321 -0.17369175 -0.21178915 -0.17875096 -0.19958682 -0.0038951526 -0.04091298
0.12554704 -0.22732385 -0.012570282 0.05158726 -0.031731606 0.21914765 0.12724987 0.31574836
-0.17260677 -0.22395577 -0.018647194 0.015784891 0.0645232 -0.022382917 -0.03770672 0.04104585
0.20064472 -0.29011217 0.15740055 0.2025822 0.22431338 0.14540055 -0.075650476 -0.112444796
0.06286488 -0.24487755 0.23317456 0.19280756 0.24340615 0.26791722 -0.1899305 -0.22675824
0.23888879 -0.06400181 -0.124386355 0.2529665 -0.09308656 -0.29950294 -0.21784453 0.0062069437
-0.14322744 -0.2149453 0.09249643 -0.0024726323 -0.24636856 -0.2950046 -0.09062509 0.2663477
0.30352634 0.14222191 0.033765845 0.25922355 0.16461372 -0.09585347 0.17836933 -0.06368226
-0.13861176 0.0769317 0.089657284 -0.18183812 -0.05888886 -0.12412706 -0.15292028 0.20425302
0.31574696 0.21017665 -0.028308777 0.12501425 0.037276205 -0.218777 0.2491019 0.018417414
0.053895883 -0.07078402 0.28649276 0.119850375 -0.3053599 -0.06109501 -0.057431675 0.28493443
0.1784715 0.012915446 -0.1789155 -0.015285402 0.19898841 -0.025259614 0.21143046 0.2913073
-0.08887037 0.1637319 -0.2633485 0.2531323 -0.11284861 -0.24100211 0.17987739 0.21090521
0.29959282 -0.008508197 -0.29091623 -0.19743405 0.25018507 0.19110629 0.17325754 0.122777015
0.18050459 0.09074215 0.061159134 0.037413247 0.28941247 -0.29660738 -0.0098193865 0.28182793
-0.041192796 0.17032075 -0.2552236 -0.18336616 0.029795477 -0.09085871 0.09937184 0.11023812
-0.16276531 -0.09827552 0.16856271 0.03747497 -0.010140105 -0.29584977 -0.19721256 0.18309529
0.24079348 0.035387337 0.0962764 -0.2162602 0.039048154 0.1052333 0.2769922 -0.19343011
0.020537172 -0.23973873 -0.19485256 -0.16865845 0.24706675 -0.056164708 -0.0019392729 0.20053475
0.25763127 -0.07405135 -0.20003276 -0.19554467 0.18780659 -0.2908022 0.23673967 0.27190816
00000000: f0e0 033e 0837 50be e591 be3d f126 24be
00000010: b104 1fbe 9998 6cbd f23e 8cbe 484b 86be
00000020: bf6f 8b3e 66da ae3d a545 9c3e 097d ad3c
00000030: 1dbd 4d3d 51bc 903e 9598 913e 4d14 053e
00000040: 52af 51be 227c 9f3e 8ebd 9f3e b27a 953e
00000050: 11b9 97be 1c6e 5cbd ba33 9a3d ee31 d13d
00000060: d318 8f3d c146 753e b50d dcbc 5d51 e3bd
00000070: c5b2 5b3e 9bfd bb3d 257f 8d3e c3e2 12bc
00000080: 0e58 cebd ab64 42be 0835 7bbe d586 99bd
00000090: 1b99 033e f1d6 babd c447 423e 8aee 523c
000000a0: ecc1 92be c426 bfbd fe66 9f3e 9c51 313e
000000b0: 3825 5f3e d00b 033e 37b8 843e 65dd 9f3e
000000c0: 1788 adbc 76bd 80be 11fe 493e dba1 80be
000000d0: 2444 3abe 4c38 5fbd 1927 f6bd 3ec0 a3bd
000000e0: af07 8bbe b1cd 1bbd 0172 1e3e 58b2 69be
000000f0: e39c 7f3d f7c9 9fbd 2485 453d 6954 cd3c
00000100: 7649 97bd 198c 653e e014 643e 8aaf 51be
00000110: 79b0 35be 9f41 cebd 7896 5a3e e1bf 01be
00000120: 36a2 34be bdfc f23a 425a 37be 2834 9a3e
00000130: 2122 9c3e 02a5 36bb 1ed5 97be 0c14 8d3d
00000140: 2f27 5e3e f9ba 373e 9116 8fbe cfcb 8a3e
00000150: 07b1 923a 93f9 afbd ad4f 4e3d bd19 d13d
00000160: 53e5 5f3e 55f2 89be 948f 73be 4793 18be
00000170: 71a3 10be a938 903e 0695 0bbe 10c0 67be
00000180: fcc8 553e 42f7 00be 40dc 31be 41df 58be
00000190: 7e0a 37be 7d60 4cbe d145 7fbb 5e94 27bd
000001a0: 678f 003e 95c7 68be 96f3 4dbc 2a4d 533d
000001b0: 00f9 01bd 3e68 603e ca4d 023e c5a9 a13e
000001c0: d4bf 30be a954 65be 00c2 98bc 514f 813c
000001d0: bd24 843d 615c b7bc 5d72 1abd b11f 283d
000001e0: cf75 4d3e 9589 94be 9c2d 213e b571 4f3e
000001f0: 68b2 653e e2e3 143e a3ee 9abd 7549 e6bd
00000200: 4dbf 803d 2ec1 7abe 50c5 6e3e 586f 453e
00000210: 763f 793e 722c 893e 247d 42be 5033 68be
00000220: 439f 743e 6213 83bd 46be febd d384 813e
00000230: 2ba4 bebd 7358 99be a312 5fbe 9e63 cb3b
00000240: 37aa 12be 9f1a 5cbe c56e bd3d e30b 22bb
00000250: 0a48 7cbe d80a 97be a699 b9bd ba5e 883e
00000260: ce67 9b3e 9fa2 113e 0e4e 0a3d f3b8 843e
00000270: 8090 283e d34e c4bd 73a6 363e d86b 82bd
00000280: 3ef0 0dbe 5e8e 9d3d 3d9e b73d c633 3abe
00000290: 7235 71bd 5436 febd 2297 1cbe b427 513e
000002a0: 96a9 a13e 8c38 573e cfe7 e7bc bc03 003e
000002b0: efae 183d 1407 60be 9214 7f3e 1ee0 963c
000002c0: eec1 5c3d 36f7 90bd 2eaf 923e 1d74 f53d
000002d0: 2258 9cbe c33e 7abd 7a3d 6bbd ede2 913e
000002e0: 3cc1 363e 4f9b 533c a035 37be 9f6f 7abc
000002f0: 9ec3 4b3e 40ed cebc 3a81 583e 3b26 953e
00000300: ab01 b6bd 56a9 273e 9dd5 86be 8f9a 813e
00000310: 2c1d e7bd 42c9 76be c731 383e 89f7 573e
00000320: 3b64 993e f765 0bbc f9f2 94be 272c 4abe
00000330: 4218 803e 5eb1 433e 6d6a 313e 8472 fb3d
00000340: 32d6 383e 05d7 b93d 0082 7a3d a23e 193d
00000350: df2d 943e ecdc 97be 7ee1 20bc c04b 903e
00000360: c7b9 28bd 9068 2e3e abac 82be 57c4 3bbe
00000370: a515 f43c 2214 babd 7783 cb3d 86c4 e13d
00000380: f3ab 26be ad44 c9bd b49b 2c3e 5b7f 193d
00000390: af22 26bc 9f79 97be 17f2 49be 557d 3b3e
000003a0: 9192 763e 50f2 103d 902c c53d 5073 5dbe
000003b0: f5f0 1f3d 8e84 d73d ecd1 8d3e 8b12 46be
000003c0: 923d a83c 127e 75be 6e87 47be cdb4 2cbe
000003d0: 11ff 7c3e f70c 66bd 332f feba fb58 4d3e
000003e0: 3fe8 833e 3ca8 97bd 63d5 4cbe dd3c 48be
000003f0: 5f50 403e 07e4 94be e26b 723e 8c37 8b3e

encoder.gru.bias_ih_l0 f4 [30]
0.218443 -0.22457613 0.13714048 -0.17453519 0.045076102 0.27273142 -0.30651966 -0.114674
0.062766664 0.2643837 0.0029368307 -0.036689047 0.06860405 -0.3050192 0.23097664 -0.13185121
0.030851051 -0.29365057 -0.039676182 -0.16564852 0.27333608 -0.19634849 -0.0855338 -0.061911367
-0.29928482 -0.2803102 0.24531059 -0.24521376 0.19298138 -0.10521484
00000000: 86af 5f3e 49f7 65be 8e6e 0c3e 5ab9 32be
00000010: b8a1 383d 74a3 8b3e 25f0 9cbe 34da eabd
00000020: cf8b 803d 4d5d 873e d877 403b 4147 16bd
00000030: 4880 8c3d 7a2b 9cbe 2485 6c3e 0104 07be
00000040: 58bb fc3c 5e59 96be 7e83 22bd c49f 29be
00000050: b5f2 8b3e 940f 49be 582c afbd c696 7dbd
00000060: dc3b 99be d284 8fbe b332 7b3e 5119 7bbe
00000070: e99c 453e e17a d7bd

encoder.gru.bias_hh_l0 f4 [30]
0.015008286 -0.24855013 -0.21592662 -0.23124652 0.28626204 0.16754034 0.3112499 -0.1751374
0.21882041 -0.034779873 0.28846106 -0.20981707 -0.15770781 0.12326506 0.2086094 -0.030942043
-0.2859796 0.21502285 -0.14978513 0.06969335 -0.24303603 0.18360576 -0.18615024 0.29600516
-0.2985395 -0.07928672 0.073036835 -0.20491877 0.16945067 -0.090068
00000000: 50e5 753c ed83 7ebe de1b 5dbe e3cb 6cbe
00000010: f090 923e b28f 2b3e 265c 9f3e 3857 33be
00000020: 7512 603e 5775 0ebd 2bb1 933e 49da 56be
00000030: 287e 21be 6472 fc3d b49d 553e 2b7a fdbc
00000040: eb6b 92be f32e 5c3e 4661 19be 63bb 8e3d
00000050: 70de 78be 2603 3c3e 2b9e 3ebe fd8d 973e
00000060: 2bda 98be 1361 a2bd 5694 953d 3ad6 51be
00000070: 7a84 2d3e 9275 b8bd

decoder.embedding.weight f4 [189, 10]
-0.23542625 0.38763943 0.40466654 1.5198092 1.1960822 -1.0985186 -1.1438284 0.11229374
0.061618477 2.2057703 0.2995215 0.62767124 -0.4399311 -0.7051942 0.606 -0.22080982
0.5874628 0.34733507 0.8593484 0.888743 -0.2870129 -0.6938813 -0.37527305 -0.15100329
0.7279783 0.76824605 -2.3014965 1.1289586 0.22684413 0.6341526 -0.5190706 -0.20355916
-1.0208058 -1.2677397 -0.6079274 0.23494919 -0.9565962 0.56787044 -0.44440803 1.4395303
-1.3201714 0.18729971 1.9691582 -1.0443162 -0.17570204 0.097018234 -2.622989 1.8288616
-1.319366 -1.6674277 -1.5173988 0.34414837 -0.91839767 0.41978064 0.79819405 1.563781
0.415681 -1.3603718 -2.2217844 -1.9824215 -1.5717384 -0.78562474 -0.44204256 1.0096561
0.91021043 -1.3283105 -0.010475252 0.44048306 0.0028085096 -0.71177524 -0.4022359 -2.1889849
-1.0189703 1.3277775 0.7842976 -0.5639644 0.07203747 -0.5459423 -1.4113265 -0.09978505
0.17609675 -1.42398 1.2921231 0.9325938 -0.6653361 0.20356387 0.24486275 0.96756583
0.42682835 0.009889426 1.0035043 -0.9364889 -0.04141357 -0.12280008 -0.3133706 -1.8408511
-2.6747007 -1.5253246 0.43159488 -1.437572 -1.2602245 -0.42141312 -1.7142283 -1.2626387
-0.67781216 -1.0320519 -0.80527616 0.45006546 -0.56615555 -0.3615799 0.3398533 -0.09774767
-1.3669449 -0.90589935 -1.0814388 -0.7829102 -0.6642288 -0.4159771 -0.22914186 0.6577771
-0.4812805 -0.27435794 -0.83072144 -2.0552518 1.1544548 -0.259626 -1.3649232 0.16364114
-0.31182396 -1.5520923 0.40444142 -0.7482379 -1.0564536 0.53325415 -2.1377165 1.0111592
1.5616158 -0.6257694 0.45556927 -2.1560369 -1.4500918 0.6761413 -0.8734511 -0.17573522
-1.0088803 0.65506804 1.7938763 0.42014155 -0.784997 -2.33097 -1.2907844 -0.37682688
-0.33111697 -1.1600182 -1.2829856 0.17751083 0.39976224 -0.7675178 0.29056504 -2.2614727
-0.07695669 -1.4921489 0.63591695 0.6027052 -1.8147845 -1.1535293 -0.5388656 0.063000396
2.6192293 1.0874542 1.3735635 0.3479469 0.38571346 0.860298 0.07398389 -1.0035611
-0.2820817 -1.9122916 -1.2697659 -0.22687331 -0.3391781 -0.1830251 0.44132364 1.4509563
0.75702 -0.25148767 0.6059851 -0.78999317 -0.01913954 0.37809736 1.0744959 -0.2795304
-1.4722179 -0.5515222 1.2386247 0.22473527 -0.34221873 0.4752971 -1.0612371 -0.9305647
-0.5962042 1.1786427 0.6163197 0.6321519 0.29058212 -0.14878139 -1.91361 1.7368269
-2.2275743 -1.8142797 -0.9971695 0.7007268 -0.07089692 -0.101097316 0.52090865 -1.506488
0.5041359 2.6619563 0.7524644 1.6574246 -0.003749876 -0.09841814 -1.964767 0.42856652
0.64683354 0.23074853 -0.24371187 -0.8344397 0.018429065 -1.2774624 0.54967046 -0.26635426
-0.5927698 -1.419714 -0.31341168 -0.11577298 0.47562888 1.782024 -0.48739156 -2.2688298
1.813435 0.784916 -1.4536068 -0.2864753 -1.7996066 -0.0028711052 -0.9415052 -0.5616762
1.5909756 0.41372505 0.25536317 0.72100747 -0.83096725 -0.6627246 -1.1014084 -2.6538923
00000000: 9413 71be ad78 c63e 7430 cf3e 1c89 c23f
00000010: 3919 993f 429c 8cbf f868 92bf 43fa e53d
00000020: a863 7c3d 572b 0d40 e25a 993e 10af 203f
00000030: a63e e1be 9b87 34bf d122 1b3f f81b 62be
00000040: f663 163f e7d5 b13e 42fe 5b3f a984 633f
00000050: 5bf3 92be 34a2 31bf ca23 c0be 9ba0 1abe
00000060: c95c 3a3f c6ab 443f b84b 13c0 b781 903f
00000070: d449 683e d357 223f d0e1 04bf d071 50be
00000080: c4a9 82bf 4b45 a2bf 21a1 1bbf 8596 703e
00000090: 7de3 74bf f55f 113f 7389 e3be 8742 b83f
000000a0: 60fb a8bf 7fcb 3f3e 600d fc3f 27ac 85bf
000000b0: 3ceb 33be 7fb1 c63d 0ddf 27c0 2318 ea3f
000000c0: fce0 a8bf 456e d5bf 203a c2bf 3734 b03e
000000d0: 1c1c 6bbf 7ded d63e 7256 4c3f fa29 c83f
000000e0: 24d4 d43e aa20 aebf b731 0ec0 fdbf fdbf
000000f0: b92e c9bf b41e 49bf 6753 e2be 693c 813f
00000100: 8d03 693f 1406 aabf 64a0 2bbc ff86 e13e
00000110: f90e 383b e736 36bf ddf1 cdbe 5418 0cc0
00000120: 9e6d 82bf 9df4 a93f bac7 483f f95f 10bf
00000130: 6288 933d e0c2 0bbf 59a6 b4bf 1b5c ccbd
00000140: b552 343e fa44 b6bf 4a64 a53f 78be 6e3f
00000150: 7753 2abf 0c73 503e 4dbd 7a3e 65b2 773f
00000160: 3f89 da3e 4207 223c d472 803f bdbd 6fbf
00000170: 47a1 29bd 9c7e fbbd 1c72 a0be 02a1 ebbf
00000180: 4c2e 2bc0 d63d c3bf 01fa dc3e 5c02 b8bf
00000190: 094f a1bf 76c3 d7be d56b dbbf 259e a1bf
000001a0: 1985 2dbf 471a 84bf 9426 4ebf fb6e e63e
000001b0: 92ef 10bf 0021 b9be 4001 ae3e ee2f c8bd
000001c0: 0df8 aebf 05e9 67bf 966c 8abf ce6c 48bf
000001d0: e60a 2abf f3fa d4be 2aa4 6abe 1464 283f
000001e0: 666a f6be a578 8cbe 29aa 54bf 3f89 03c0
000001f0: 2dc5 933f b3ed 84be ceb5 aebf 8b91 273e
00000200: 64a7 9fbe f6aa c6bf f212 cf3e 858c 3fbf
00000210: df39 87bf 5883 083f 59d0 08c0 aa6d 813f
00000220: 07e3 c73f 6c32 20bf 6040 e93e 82fc 09c0
00000230: 9c9c b9bf 9917 2d3f 7e9a 5fbf eff3 33be
00000240: fd22 81bf 8ab2 273f bd9d e53f cb1c d73e
00000250: 90f5 48bf 9d2e 15c0 6c38 a5bf 74ef c0be
00000260: 2a88 a9be 7a7b 94bf df38 a4bf 66c5 353e
00000270: a3ad cc3e 0c7c 44bf f1c4 943e f8bb 10c0
00000280: 789b 9dbd bcfe bebf 74cb 223f e34a 1a3f
00000290: dc4a e8bf d9a6 93bf 19f3 09bf 5a06 813d
000002a0: 74a1 2740 b331 8b3f eed0 af3f 1926 b23e
000002b0: 3c7c c53e 7d3c 5c3f de84 973d b174 80bf
000002c0: 036d 90be f9c5 f4bf b087 a2bf 7a51 68be
000002d0: c0a8 adbe ef6a 3bbe 2cf5 e13e f0b8 b93f
000002e0: 10cc 413f fec2 80be d721 1b3f fe3c 4abf
000002f0: 86ca 9cbc fa95 c13e 1589 893f 9c1e 8fbe
00000300: a371 bcbf 8f30 0dbf 418b 9e3f 0121 663e
00000310: 4b37 afbe 245a f33e 9ed6 87bf 7d39 6ebf
00000320: d7a0 18bf c4dd 963f 21c7 1d3f b5d4 213f
00000330: 2ec7 943e 265a 18be 2cf1 f4bf 5850 de3f
00000340: 9490 0ec0 513a e8bf 8046 7fbf d562 333f
00000350: 6832 91bd 1c0c cfbd 455a 053f 99d4 c0bf
00000360: 0d0f 013f 7e5d 2a40 82a1 403f 7d26 d43f
00000370: 7bc0 75bb 738f c9bd 7c7d fbbf 126d db3e
00000380: e296 253f 5849 6c3e 9b8f 79be d79d 55bf
00000390: 8df8 963c e383 a3bf 34b7 0c3f 965f 88be
000003a0: c3bf 17bf 30b9 b5bf 7f77 a0be 621a edbd
000003b0: a185 f33e 5d19 e43f 638b f9be 8234 11c0
000003c0: a31e e83f 41f0 483f ca0f babf e4ac 92be
000003d0: 8259 e6bf 2729 3cbb 7c06 71bf 03ca 0fbf
000003e0: 17a5 cb3f c5d3 d33e f6be 823e f293 383f
000003f0: 45ba 54bf 52a8 29bf f3fa 8cbf 5fd9 29c0

decoder.attn.weight f4 [15, 20]
0.19826001 -0.144247 0.087943554 0.061516024 -0.026912663 -0.15775864 -0.11209341 -0.12193947
-0.18542114 0.20031217 -0.20683397 0.014199653 -0.06915403 -0.09035384 0.077174306 -0.18656567
-0.10658092 -0.21268229 -0.17994358 0.13958287 -0.103489794 -0.21188903 0.009731271 -0.015071311
-0.011846268 0.032679264 -0.06953393 -0.040136617 -0.10492871 0.11525122 0.0117424 0.17369594
0.1262548 0.20373905 -0.004287378 -0.110944115 -0.15826677 0.0903622 -0.22061305 0.21676067
0.11898904 0.15998903 0.017267244 0.21490079 0.008638481 0.0046056826 -0.19394724 -0.20419914
0.2203056 -0.12956205 -0.21082124 -0.06369857 0.12535256 -0.032278594 0.059945855 -0.10071653
-0.1274341 0.08927085 -0.060137063 -0.12075365 0.079477176 -0.13843916 0.19345437 -0.17694564
-0.10572402 -0.14670014 0.023399819 0.17742994 -0.03947328 -0.17014211 0.10864326 -0.10311186
0.106463574 0.016381243 -0.20708294 0.16349128 0.033826753 0.19151069 -0.030425757 -0.03253217
0.07416134 0.14961381 -0.013695592 -0.17006716 -0.15118986 0.13649566 -0.1326948 -0.004857674
0.20970988 -0.1628276 -0.13027517 0.10141549 0.13868968 0.048953857 0.14490618 -0.20413384
0.17353377 0.009042095 -0.21350071 -0.13870454 -0.076303184 -0.20333025 0.19451927 -0.024010088
0.1084713 -0.058734532 0.14901136 0.08910556 -0.0398428 0.19880344 -0.18519866 0.17863342
-0.17479715 0.17105815 0.21377754 -0.059231877 -0.14790519 -0.03430942 0.04469916 -0.12104131
0.11212824 -0.0022573671 -0.1928787 0.17115365 -0.10033262 0.056829743 -0.030804576 0.032175694
-0.10389396 -0.17206433 0.08222133 -0.10959193 0.06815679 0.12113832 -0.22239679 0.03488262
-0.11532031 0.010487711 0.19414207 -0.15220803 0.10193541 -0.15617098 0.080049425 0.00043304582
0.20722589 -0.107596755 -0.17978767 -0.041268315 0.21886702 0.07512747 -0.1757826 0.01831008
0.13121873 0.055575203 -0.0051453565 -0.09676681 -0.18103616 0.13721755 0.13888709 0.061817404
-0.11202666 -0.17379117 -0.056484133 0.019411262 0.06005091 -0.15416238 -0.05989675 -0.002880492
0.08737902 -0.06622426 -0.21144296 -0.19122452 0.017976953 0.22227253 0.046310917 0.09319761
-0.19891456 -0.21904358 -0.04189859 -0.17032348 -0.17866352 0.0033894063 0.060143694 0.19518611
0.18065833 -0.15043905 0.06781279 0.0043438957 -0.061706267 0.19559167 -0.09050485 0.02151509
-0.072330974 -0.1756207 -0.16583368 -0.113158695 -0.19445096 0.06770117 0.10692357 0.012960133
-0.07963539 0.15834194 -0.119344264 -0.056128282 0.19813372 0.022578122 -0.0073689697 0.20048666
-0.12522326 -0.07985179 -0.20884398 0.018134266 -0.05502439 0.12653114 0.051415842 0.21980329
-0.14741217 -0.064001724 -0.081603296 0.18018095 -0.09498654 0.13610604 -0.08946782 0.088051684
0.16966993 0.14831828 -0.10492711 0.0048611853 0.19774635 -0.14427666 0.00395909 -0.14896263
-0.018722504 0.18869698 -0.15595065 0.02306581 0.024056269 -0.09008494 0.06260549 -0.16139106
-0.00932447 0.029792873 0.19810551 0.0017968268 0.07866907 -0.026880978 0.21473525 0.17748573
0.08717213 -0.105824195 0.14573693 0.14121753 -0.045383826 0.21272339 0.13636059 -0.17019872
00000000: ac04 4b3e 7cb5 13be c01b b43d 3af8 7b3d
00000010: f277 dcbc 7b8b 21be 3b91 e5bd 67bb f9bd
00000020: 0adf 3dbe a21e 4d3e 49cc 53be a9a5 683c
00000030: a1a0 8dbd 6f0b b9bd 900d 9e3d 120b 3fbe
00000040: 1947 dabd 63c9 59be 2143 38be d0ee 0e3e
00000050: 75f2 d3bd 70f9 58be e96f 1f3c a9ed 76bc
00000060: d916 42bc b1da 053d ce67 8ebd 4b66 24bd
00000070: dde4 d6bd d508 ec3d 3263 403c 59dd 313e
00000080: f048 013e f8a0 503e 227d 8cbb ab36 e3bd
00000090: af10 22be d10f b93d 63e8 61be 82f6 5d3e
000000a0: 87b0 f33d 2ad4 233e 0974 8d3c f40e 5c3e
000000b0: 6a88 0d3c 44eb 963b 1b9a 46be 9419 51be
000000c0: cb97 613e eaab 04be 86e1 57be 6574 82bd
000000d0: 6c5c 003e 8f36 04bd c989 753d 7844 cebd
000000e0: 167e 02be a3d3 b63d 4852 76bd b14d f7bd
000000f0: eec4 a23d ffc2 0dbe e718 463e 3d31 35be
00000100: d685 d8bd 9038 16be fab0 bf3c 32b0 353e
00000110: bcae 21bd bc39 2ebe 5c80 de3d 502c d3bd
00000120: 9309 da3d f531 863c 8d0d 54be 426a 273e
00000130: ec8d 0a3d 611b 443e 703f f9bc 7440 05bd
00000140: e7e1 973d 5d34 193e 7a63 60bc 1626 2ebe
00000150: 84d1 1abe 85c5 0b3e 25e1 07be 1f2d 9fbb
00000160: 30be 563e 47bc 26be db66 05be edb2 cf3d
00000170: ab04 0e3e d783 483d 4962 143e 7608 51be
00000180: d6b2 313e 4c25 143c ee9f 5abe 9008 0ebe
00000190: d844 9cbd ce35 50be 0f30 473e ceb0 c4bc
000001a0: 3326 de3d 9f93 70bd 6f96 183e fa7c b63d
000001b0: 3432 23bd 2193 4b3e b8a4 3dbe aeeb 363e
000001c0: 06fe 32be de29 2f3e 80e8 5a3e 209d 72bd
000001d0: 7574 17be 0988 0cbd 7716 373d 82e4 f7bd
000001e0: 7ea3 e53d 56f0 13bb fe81 45be e742 2f3e
000001f0: 307b cdbd 4ec6 683d e159 fcbc a9ca 033d
00000200: 5bc6 d4bd a231 30be a863 a83d bc71 e0bd
00000210: ca95 8b3d 5e17 f83d fcbb 63be 14e1 0e3d
00000220: 0e2d ecbd a6d4 2b3c 2ecd 463e 6cdc 1bbe
00000230: 83c3 d03d 49eb 1fbe f4f0 a33d 6d0a e339
00000240: 0633 543e b05b dcbd 421a 38be f708 29bd
00000250: ad1e 603e 6edc 993d 5b00 34be 05ff 953c
00000260: 345e 063e d3a2 633d 619a a8bb ad2d c6bd
00000270: 8b61 39be c282 0c3e 6b38 0e3e 3f34 7d3d
00000280: 3c6e e5bd 50f6 31be e85b 67bd 5e04 9f3c
00000290: f1f7 753d bedc 1dbe 4b56 75bd a3c6 3cbb
000002a0: c6f3 b23d 96a0 87bd 8184 58be 5cd0 43be
000002b0: 6744 933c 699b 633e 84b0 3d3d 63de be3d
000002c0: 42b0 4bbe f64c 60be db9d 2bbd 4769 2ebe
000002d0: 92f3 36be cd20 5e3b 3c59 763d dede 473e
000002e0: 7ffe 383e b20c 1abe 6fe1 8a3d 3d57 8e3b
000002f0: b6bf 7cbd 2f49 483e 9b5a b9bd 6a40 b03c
00000300: 4322 94bd ead5 33be 4ed0 29be bfbf e7bd
00000310: 271e 47be e9a6 8a3d bffa da3d bd56 543c
00000320: e117 a3bd 6424 223e c46a f4bd c5e6 65bd
00000330: 91e3 4a3e c1f5 b83c 6677 f1bb 604c 4d3e
00000340: 873a 00be 5689 a3bd 32db 55be 508e 943c
00000350: 4161 61bd 6191 013e 6b99 523d 1d14 613e
00000360: 37f3 16be 5613 83bd a11f a7bd 5b81 383e
00000370: 4e88 c2bd 625f 0b3e e83a b7bd 7154 b43d
00000380: f4bd 2d3e bfe0 173e 06e4 d6bd 944a 9f3b
00000390: 057e 4a3e 43bd 13be 41bb 813b a989 18be
000003a0: f05f 99bc c839 413e 87b1 1fbe 82f4 bc3c
000003b0: a711 c53c 747e b8bd 4f37 803d b343 25be
000003c0: a9c5 18bc 2f10 f43c 2cdc 4a3e 8183 eb3a
000003d0: 401d a13d 7f35 dcbc 8fe3 5b3e d2be 353e
000003e0: 4d87 b23d 5bba d8bd 103c 153e 549b 103e
000003f0: 64e4 39bd 29d4 593e 1ca2 0b3e 9348 2ebe

decoder.attn.bias f4 [15]
0.05370328 0.19154812 -0.082291305 0.047158472 -0.16324978 -0.18753499 0.18689916 0.10431352
0.2046054 -0.0033419908 -0.19308574 0.12669453 -0.017426735 0.058270216 0.06417811
00000000: f8f7 5b3d 3125 443e 5888 a8bd 3e29 413d
00000010: f32a 27be 2c09 40be 7e62 3f3e 54a2 d53d
00000020: 1484 513e 4d05 5bbb 45b8 45be 36bc 013e
00000030: 83c2 8ebc c0ac 6e3d d06f 833d

decoder.attn_combine.weight f4 [10, 20]
0.09729895 -0.014978169 0.17640674 -0.2085688 -0.124580115 -0.18573105 -0.12832183 0.10445324
-0.029715108 -0.08211949 -0.19907893 0.052404013 0.15336281 -0.15440477 -0.106963925 -0.13729411
-0.0043744193 -0.15373047 -0.07552641 -0.100589596 0.19769593 -0.1810704 0.013092416 -0.14938639
-0.21950108 -0.007127068 0.09090963 -0.16408151 0.013178589 0.18073162 0.0756263 0.07754032
-0.05726815 0.15540668 -0.005157956 -0.21458386 -0.0227235 0.20125006 0.17865331 -0.08968024
0.032685813 -0.21971425 -0.045630798 0.029876666 0.1704289 0.16200666 0.07324417 0.20468105
-0.07429693 0.0389417 0.13849346 -0.09051752 0.17474487 -0.21980967 -0.17627132 0.20595227
-0.010506409 0.14183988 0.10354994 0.10959063 -0.20391385 0.077035815 -0.16711727 -0.12228808
0.19615199 -0.007405573 0.05126451 0.21974212 -0.0687552 0.15852864 -0.12769002 -0.01088208
-0.09926161 -0.05469512 0.06609532 -0.00020649249 0.17442048 0.19372667 -0.20069416 0.0671442
0.022350976 -0.13414066 -0.12266155 0.19120839 -0.05973802 -0.021875752 -0.1324349 0.13749826
0.08755886 0.1698178 0.063698836 0.21900818 0.17649198 0.20950066 -0.097563066 0.099635586
-0.09199384 0.0970379 0.14829358 -0.18316004 0.22007889 -0.13958807 -0.18693575 0.044257734
-0.19722655 0.1868635 0.11244845 0.022173464 0.08782476 -0.16512577 0.20431387 0.18434978
-0.16658922 -0.17602398 -0.19722515 0.0014830031 -0.1592619 0.018759178 0.18511595 -0.21838471
-0.017256409 -0.14709392 0.0027505208 0.20605111 -0.08409402 0.13754614 0.18047969 -0.15842138
0.11523154 0.17030858 0.0002604822 0.15277818 0.0049052914 0.16807479 0.013748415 0.012046756
0.043890364 0.106059656 0.042335153 0.15623581 -0.16139631 -0.013213233 0.017360585 -0.08373919
-0.0902636 0.1271466 -0.1992004 0.19981958 -0.062331054 0.018265063 0.21510315 -0.074103996
0.04640553 -0.15950108 0.12756975 0.21359721 0.15759404 0.019367607 0.081634745 0.18722709
0.04338946 0.16512328 0.13280588 0.07363711 0.20089589 -0.11996521 0.15373877 0.2142264
0.0801478 -0.015789842 -0.16692953 0.011431325 -0.08719099 -0.0072849686 -0.22166239 -0.10544966
0.0061735855 0.006474634 -0.13855207 -0.1468245 -0.1338767 -0.118197404 0.02452706 -0.10958803
-0.026982298 0.16134287 -0.03668552 0.007245869 0.037646756 0.109411664 0.0742668 0.05811863
0.18715398 0.058518022 -0.048845932 0.07471181 -0.21404082 -0.1064999 0.16364323 -0.02783972
00000000: ac44 c73d ff66 75bc f8a3 343e 0f93 55be
00000010: dc23 ffbd 4830 3ebe cc66 03be 95eb d53d
00000020: 196d f3bc 432e a8bd 59db 4bbe 97a5 563d
00000030: 240b 1d3e 491c 1ebe e70f dbbd d496 0cbe
00000040: 4a57 8fbb 856b 1dbe 97ad 9abd eb01 cebd
00000050: cd70 4a3e 856a 39be 9381 563c bff8 18be
00000060: e4c4 60be 2e8a e9bb d42e ba3d fc04 28be
00000070: 02eb 573c b611 393e f6e1 9a3d 76cd 9e3d
00000080: 0292 6abd ee22 1f3e 1204 a9bb dfbb 5bbe
00000090: a226 babc 7f14 4e3e e5f0 363e 46aa b7bd
000000a0: 8fe1 053d c6fc 60be 5ce7 3abd e9bf f43c
000000b0: ea84 2e3e 13e5 253e 0a01 963d e997 513e
000000c0: fd28 98bd 5581 1f3d 3bd1 0d3e 4061 b9bd
000000d0: 52f0 323e c915 61be 7880 34be 27e5 523e
000000e0: 1323 2cbc 793e 113e fe11 d43d 0d71 e03d
000000f0: cbce 50be f4c4 9d3d ca20 2bbe 2c72 fabd
00000100: 11dc 483e 73aa f2bb bcfa 513d 1404 613e
00000110: 87cf 8cbd 5555 223e 2cc1 02be c04a 32bc
00000120: ac49 cbbd fd07 60bd fc5c 873d e885 58b9
00000130: 489b 323e 4960 463e c582 4dbe e682 893d
00000140: 6519 b73c 2b5c 09be fb35 fbbd 22cc 433e
00000150: dbaf 74bd c734 b3bc 049d 07be 58cc 0c3e
00000160: 0f52 b33d b8e4 2d3e 8974 823d ae43 603e
00000170: 50ba 343e 5787 563e 25cf c7bd be0d cc3d
00000180: 4467 bcbd cebb c63d 46da 173e 4e8e 3bbe
00000190: 5c5c 613e 2df0 0ebe 166c 3fbe 9947 353d
000001a0: c2f5 49be 2559 3f3e 5f4b e63d 20a5 b53c
000001b0: 78dd b33d bb16 29be a837 513e 30c6 3c3e
000001c0: 5d96 2abe a13f 34be 64f5 49be 5461 c23a
000001d0: 8d15 23be d9ac 993c 098f 3d3e 3ea0 5fbe
000001e0: 505d 8dbc ca9f 16be 1542 343b 10ff 523e
000001f0: 7c39 acbd e5d8 0c3e abcf 383e 3739 22be
00000200: 83fe eb3d 5f65 2e3e 5491 8839 e271 1c3e
00000210: 91bc a03b cc1b 2c3e 0841 613c c25f 453c
00000220: 62c6 333d ce35 d93d a067 2d3d 48fc 1f3e
00000230: 1345 25be 517c 58bc c937 8e3c 747f abbd
00000240: 1fdc b8bd b832 023e 31fb 4bbe 819d 4c3e
00000250: d94e 7fbd 9da0 953c 0044 5c3e d6c3 97bd
00000260: ba13 3e3d 4054 23be a5a1 023e 3ab9 5a3e
00000270: 5560 213e d1a8 9e3c 1e30 a73d 75b8 3f3e
00000280: 25b9 313d 1416 293e 44fe 073e 0ecf 963d
00000290: a7b7 4d3e 52b0 f5bd b26d 1d3e 2a5e 5b3e
000002a0: 8824 a43d b359 81bc 93ef 2abe 744a 3b3c
000002b0: 3191 b2bd bfb6 eebb 77fb 62be fef5 d7bd
000002c0: ca4b ca3b 2b29 d43b 98e0 0dbe 2959 16be
000002d0: f916 09be 7b11 f2bd f9ec c83c b06f e0bd
000002e0: fb09 ddbc 1137 253e 8e43 16bd c16e ed3b
000002f0: 7c33 1a3d 3913 e03d 3119 983d cd0d 6e3d
00000300: 4ba5 3f3e 98b0 6f3d ac12 48bd 8102 993d
00000310: 842d 5bbe 9f1c dabd 1792 273e 2010 e4bc

decoder.attn_combine.bias f4 [10]
-0.08356882 -0.06157316 0.21954514 0.020318987 -0.15747242 0.12573867 -0.007787963 0.06709544
0.20531379 -0.14931509
00000000: 2126 abbd 2334 7cbd 71d0 603e 0174 a63c
00000010: 7340 21be a3c1 003e 2b32 ffbb 5669 893d
00000020: c73d 523e 0ee6 18be

decoder.gru.weight_ih_l0 f4 [30, 10]
0.012079385 0.1110881 0.2579555 0.0027094493 -0.095742926 0.24837418 -0.17078917 -0.00823381
0.112228125 0.24562852 0.16279562 0.104401425 -0.15319224 0.31472355 0.12082375 0.118728764
0.18981622 -0.30495507 -0.04443481 -0.13974592 0.039083242 0.3017422 -0.21825312 0.22155134
-0.100305624 0.031561814 0.25751334 -0.004144029 -0.18980834 0.0970175 -0.30398083 0.24574013
0.06438166 -0.11664404 0.29517287 -0.19780813 0.24089348 -0.26291263 0.15748712 -0.093965776
0.11681953 0.064443015 -0.21977122 0.14179501 -0.28657404 -0.011649405 0.23113915 0.06347045
0.31120056 0.22459182 0.1285859 0.041238498 0.02013359 -0.27378064 -0.17484535 0.2780787
0.15569954 -0.04186503 -0.2713891 -0.16628398 0.2521887 0.22450995 -0.11930721 0.084627636
-0.252991 0.29814443 -0.1340448 -0.08629637 -0.3134836 -0.24987222 -0.2789293 0.11692644
0.2797006 0.045127477 -0.2274519 0.25891906 0.013502786 -0.03981428 -0.22956678 0.23759307
0.20879465 -0.10324428 -0.02676493 -0.19347177 0.08870759 -0.13475187 -0.062557146 0.020480648
-0.22097339 0.018881774 -0.09027695 0.28075132 0.30675358 -0.1475542 -0.18110386 0.15482223
0.30464765 -0.15111871 0.27890098 -0.1660514 -0.05524316 -0.27097183 0.11440971 0.052701067
-0.25681987 0.09202759 -0.24982779 -0.16973498 -0.11216949 0.21637109 -0.08883953 -0.06748938
0.015775118 0.013969241 0.10636341 -0.1394334 0.26815936 -0.2473215 0.062735826 0.1319338
-0.14742221 -0.011587331 0.28901127 0.22644259 -0.06011846 0.03564094 -0.067693494 -0.07554811
-0.28469267 0.25263092 0.15078309 0.08283208 -0.17775318 0.25057194 -0.30400392 0.13926025
-0.0029856686 0.025742615 -0.027575962 -0.22132333 -0.06576393 -0.16188927 0.06503675 0.026301641
0.1889594 0.30142337 0.30789292 -0.06595959 -0.039288968 -0.22698788 0.018061697 0.24358313
-0.090299636 -0.22003399 0.16896808 0.05045025 0.14853191 -0.21591295 0.24764341 0.2939488
-0.20003435 0.22591822 0.19201662 -0.07320286 0.1347643 -0.17599937 -0.18196405 0.30021936
-0.24990843 0.09170716 -0.19607475 -0.062355712 -0.035492454 -0.21238832 -0.031763308 0.072331525
0.038935266 0.061990995 -0.118002266 -0.3014432 0.23255637 -0.17602156 0.061056122 0.050585885
0.30560458 0.054457527 0.066718206 -0.04455679 -0.2886883 0.05682686 -0.051136825 0.07251837
-0.17255303 0.11943909 0.2560261 0.30896723 -0.020654827 0.26780626 -0.15166116 0.0072760624
-0.17656179 -0.11157486 0.21839677 0.062394388 0.2920465 0.3122265 0.2788443 0.19372034
0.20999452 -0.18667574 -0.1511331 -0.19785243 -0.16908716 -0.26902768 0.21222451 -0.05491971
0.1853734 0.13766168 0.22629999 0.270688 -0.036175653 -0.24854201 0.20074895 0.27190185
0.117004156 -0.16508967 -0.24165574 -0.1499858 -0.09885938 0.07693495 -0.059807505 -0.18079524
0.16864367 -0.0148553075 -0.15443817 0.1783953 0.039000496 0.20427783 -0.056917697 -0.00576096
-0.12772733 -0.30117616 0.108368754 -0.25673994 -0.14117672 0.16505706 -0.11072365 -0.055982757
-0.24955137 0.115089625 0.054753166 -0.020700594 -0.17546287 0.10034594 -0.1414104 0.034644302
00000000: 9de8 453c 2882 e33d be12 843e 0491 313b
00000010: de14 c4bd cd55 7e3e 5be3 2ebe 1ae7 06bc
00000020: dcd7 e53d 0b86 7b3e e5b3 263e 6ad0 d53d
00000030: 6dde 1cbe 7223 a13e 7172 f73d 1128 f33d
00000040: 2f5f 423e 1223 9cbe 4601 36bd 8e19 0fbe
00000050: c015 203d f47d 9a3e bf7d 5fbe 5bde 623e
00000060: 096d cdbd f646 013d cad8 833e a3ca 87bb
00000070: 1e5d 42be 1cb1 c63d 60a3 9bbe 4da3 7b3e
00000080: 88da 833d 12e3 eebd e620 973e 378e 4abe
00000090: c8ac 763e 7c9c 86be 4e44 213e 2171 c0bd
000000a0: 143f ef3d b3fa 833d b50b 61be b632 113e
000000b0: d5b9 92be 25dd 3ebc beaf 6c3e ccfc 813d
000000c0: ae55 9f3e 66fb 653e 06ac 033e b3e9 283d
000000d0: 33ef a43c fa2c 8cbe a90a 33be 5560 8e3e
000000e0: b36f 1f3e aa7a 2bbd 83f3 8abe 5946 2abe
000000f0: e11e 813e f0e5 653e 5757 f4bd 4151 ad3d
00000100: 0988 81be 63a6 983e 0a43 09be 27bc b0bd
00000110: ec80 a0be 81de 7fbe d2cf 8ebe 2177 ef3d
00000120: eb34 8f3e 97d7 383d 27e9 68be 0a91 843e
00000130: ca3a 5d3c 4c14 23bd 8e13 6bbe 994b 733e
00000140: 44ce 553e bd71 d3bd 2042 dbbc 771d 46be
00000150: 53ac b53d 65fc 09be f61d 80bd 08c7 a73c
00000160: d946 62be f3ad 9a3c 1fe3 b8bd a3be 8f3e
00000170: ce0e 9d3e 7318 17be 4a73 39be b889 1e3e
00000180: c7fa 9b3e ddbe 1abe 1ccc 8e3e 6109 2abe
00000190: a746 62bd d2bc 8abe a34f ea3d 13dd 573d
000001a0: e57d 83be f678 bc3d dbd2 7fbe 02cf 2dbe
000001b0: 1eb9 e5bd 6290 5d3e 80f1 b5bd df37 8abd
000001c0: d23a 813c 3edf 643c 0fd5 d93d a1c7 0ebe
000001d0: 2f4c 893e d941 7dbe a47b 803d a719 073e
000001e0: d9f5 16be cad8 3dbc 49f9 933e 91e0 673e
000001f0: c63e 76bd 3cfc 113d e3a2 8abd f8b8 9abd
00000200: 3dc3 91be d758 813e e266 1a3e dea3 a93d
00000210: ee04 36be f74a 803e 67a6 9bbe 3d9a 0e3e
00000220: 35ab 43bb 2de2 d23c fce6 e1bc 95a2 62be
00000230: 3daf 86bd 4dc6 25be fd31 853d 8a76 d73c
00000240: 937e 413e 2a54 9a3e 24a4 9d3e d215 87bd
00000250: 78ed 20bd 836f 68be 20f6 933c db6d 793e
00000260: 04ef b8bd 9750 61be f805 2d3e eca4 4e3d
00000270: c018 183e 4918 5dbe 3c96 7d3e 7580 963e
00000280: ced5 4cbe 1b57 673e 01a0 443e 62eb 95bd
00000290: a7ff 093e 2e39 34be c954 3abe 5ab6 993e
000002a0: ffe7 7fbe f7d0 bb3d d2c7 48be b468 7fbd
000002b0: 8960 11bd 537c 59be 3e1a 02bd 8d22 943d
000002c0: 967a 1f3d 45ea 7d3d 2cab f1bd c356 9abe
000002d0: 4223 6e3e ff3e 34be fc15 7a3d 2533 4f3d
000002e0: 3478 9c3e db0e 5f3d 8ea3 883d 2e81 36bd
000002f0: f4ce 93be 48c3 683d d974 51bd 8384 943d
00000300: beb1 30be 7b9c f43d da15 833e f430 9e3e
00000310: 5034 a9bc e71d 893e 104d 1bbe 096c ee3b
00000320: 9dcc 34be 5c81 e4bd 67a3 5f3e 4291 7f3d
00000330: 1e87 953e 27dc 9f3e aec4 8e3e a05e 463e
00000340: ce08 573e ed27 3fbe a3c2 1abe d499 4abe
00000350: 2f25 2dbe ffbd 89be 6251 593e 7df3 60bd
00000360: 86d2 3d3e 2ff7 0c3e 2fbb 673e 9e97 8a3e
00000370: ec2c 14bd cc81 7ebe 2291 4d3e b836 8b3e
00000380: e09f ef3d 440d 29be 9a74 77be e195 19be
00000390: c976 cabd 1290 9d3d b7f8 74bd 6322 39be
000003a0: edb0 2c3e ad63 73bc 0a25 1ebe 42ad 363e
000003b0: fcbe 1f3d 352e 513e 8822 69bd 6fc6 bcbb
000003c0: f4ca 02be c333 9abe 70f0 dd3d 6b73 83be
000003d0: a190 10be b804 293e 15c3 e2bd 2d4e 65bd
000003e0: 658a 7fbe 1cb4 eb3d db44 603d 4b94 a9bc
000003f0: 8aac 33be 2c82 cd3d e3cd 10be 2fe7 0d3d

decoder.gru.weight_hh_l0 f4 [30, 10]
0.20979773 0.18698432 0.122086965 0.19418238 -0.031901713 0.24363934 0.30257943 0.2961284
0.025764387 0.07687982 0.0195057 -0.15480536 -0.13347676 -0.11606307 0.24677032 0.27392212
-0.091866285 0.0036893114 -0.1381364 0.19302593 0.19337656 -0.25986028 0.03664843 0.27098298
-0.0213514 -0.20826106 0.15701914 0.10401004 0.11663297 -0.026098046 -0.20701343 -0.10376621
0.31398374 0.30366737 0.015679874 0.21995 -0.14905779 -0.0010683174 -0.2569497 0.22490303
0.23645425 -0.31551704 0.09412695 0.19393927 -0.27727053 -0.18919158 -0.08322247 -0.02319959
0.061909575 0.14501464 0.1545207 0.2234486 0.21015775 -0.25081685 0.20305043 0.06909495
0.12921529 -0.2581107 -0.26497844 0.21965341 -0.24696037 -0.091976814 0.037183143 -0.09335093
0.21351884 -0.19839253 -0.10756051 0.29053158 -0.08554394 0.2251937 -0.19627784 0.29218233
-0.20166814 -0.116393305 -0.19551201 -0.25680017 0.007600125 0.2634527 0.28663582 -0.27126655
0.24303173 0.25163212 -0.26677823 -0.27551726 0.0483479 0.21232435 0.18930967 -0.21292654
0.2861401 0.06447555 -0.26958328 -0.16541448 0.018450657 0.2161099 0.26568133 -0.19734202
-0.1360389 -0.119792975 0.27688658 -0.036853828 0.052426428 -0.18444994 0.18882059 -0.14965077
0.0544538 -0.13468246 0.2997634 -0.14418054 -0.24187164 0.078239255 -0.02250044 -0.30890688
0.23283413 0.02730279 0.21279629 0.14120667 0.2334613 0.3129057 -0.099005654 -0.07667919
0.29388133 0.17992896 0.18252748 0.088595584 0.27064568 0.01568934 -0.14251405 0.0864498
0.0030046173 -0.25780421 -0.21295437 0.21489146 -0.12564647 0.011633182 0.17133728 -0.11783793
-0.2879542 -0.102238774 0.2067267 -0.12946202 -0.035842415 0.009938861 0.15444028 -0.006920653
-0.30017722 -0.19526787 0.0881075 0.11186237 0.16304354 0.29673624 0.030916488 -0.29445687
0.02299978 -0.10047097 0.050500866 0.047996484 0.30000016 -0.27069816 -0.27388734 -0.28293517
0.0902239 0.08049673 0.22116752 -0.087491125 0.24144189 -0.16789065 0.06039193 0.2569914
-0.21658239 0.07751436 -0.048482645 -0.0012660365 -0.119286336 0.26285008 0.15251456 0.1839204
-0.27044153 0.18045872 0.26446503 0.28235823 -0.07216627 -0.18008994 0.3002694 0.042755984
-0.14717925 0.052071717 0.2518135 0.03413434 -0.035529695 -0.19217406 -0.2684256 -0.11796804
0.28959528 -0.16993754 -0.05710851 -0.22275016 -0.2496194 0.042198062 -0.1532979 0.14259118
-0.07639755 -0.057314824 0.25217894 0.098154955 -0.20213364 0.013207673 0.1825766 -0.08652298
0.23235868 -0.14325327 0.13619791 0.25648588 0.28724962 0.025856653 0.07579303 0.29733106
0.2604344 -0.25117835 0.096786246 -0.047962386 0.2426642 0.08715018 0.064013585 0.2530345
-0.22880112 0.30116296 0.15574396 0.027194314 0.1191582 -0.2945573 -0.0739034 -0.10154279
0.18857856 -0.29338872 0.21571712 0.15672685 0.27320743 -0.20656404 -0.28672642 0.0029366228
-0.3089861 -0.16910471 -0.2931873 -0.20459685 -0.06123293 -0.24861749 -0.06441338 0.12279309
-0.27723452 0.14526774 0.1728362 -0.29956964 -0.078692146 -0.16014552 -0.20040281 0.19526769
00000000: 37d5 563e d178 3f3e bb08 fa3d bfd7 463e
00000010: 5fab 02bd 977c 793e b1eb 9a3e 249e 973e
00000020: d60f d33c 2b73 9d3d 6bca 9f3c 4c85 1ebe
00000030: 22ae 08be 7ab2 edbd 5cb1 7c3e 853f 8c3e
00000040: 6424 bcbd 60c8 713b a173 0dbe 97a8 453e
00000050: 8104 463e 680c 85be aa1c 163d 48be 8a3e
00000060: 22e9 aebc 6342 55be a0c9 203e 3703 d53d
00000070: 44dd ee3d 92cb d5bc 54fb 53be 6183 d4bd
00000080: 7ac2 a03e 4a7a 9b3e 1473 803c 933a 613e
00000090: 9ba2 18be c906 8cba e98e 83be fb4c 663e
000000a0: 1021 723e 738b a1be a1c5 c03d 0498 463e
000000b0: 67f6 8dbe 70bb 41be 8b70 aabd 110d bebc
000000c0: e594 7d3d b87e 143e ad3a 1e3e b6cf 643e
000000d0: 9833 573e 116b 80be 74ec 4f3e a781 8d3d
000000e0: 0351 043e 1627 84be 41ab 87be d3ec 603e
000000f0: 2ee3 7cbe 575e bcbd 5a4d 183d c62e bfbd
00000100: afa4 5a3e 6927 4bbe af48 dcbd 8ec0 943e
00000110: a931 afbd 2d99 663e 0ffd 48be ec98 953e
00000120: 1882 4ebe 9d5f eebd 4d34 48be 507b 83be
00000130: 780a f93b 46e3 863e eec1 923e 73e3 8abe
00000140: 4fdd 783e edd5 803e 2897 88be 9910 8dbe
00000150: 7308 463d 8e6b 593e 65da 413e 6a09 5abe
00000160: f580 923e c20b 843d d206 8abe 6a62 29be
00000170: d525 973c ea4b 5d3e 6207 883e 0714 4abe
00000180: c84d 0bbe 0556 f5bd 14c4 8d3e 0af4 16bd
00000190: 18bd 563d 72e0 3cbe 2f5a 413e 0d3e 19be
000001a0: f30a 5f3d 33ea 09be 977a 993e 10a4 13be
000001b0: 33ad 77be e73b a03d d852 b8bc 0b29 9ebe
000001c0: 126c 6e3e 1aaa df3c 45e7 593e 7b98 103e
000001d0: 7b10 6f3e 2d35 a03e 7ac3 cabd fb09 9dbd
000001e0: 9d77 963e 4c3f 383e 7ce8 3a3e 9a71 b53d
000001f0: 1292 8a3e ee86 803c 34ef 11be 980c b13d
00000200: 1de9 443b eafe 83be b610 5abe 820c 5c3e
00000210: 78a9 00be 1a99 3e3c 0a73 2f3e 0355 f1bd
00000220: bc6e 93be 9062 d1bd 2ab0 533e b191 04be
00000230: 7fcf 12bd 9bd6 223c 9825 1e3e a5c6 e2bb
00000240: d4b0 99be 4df4 47be b471 b43d 1918 e53d
00000250: e3f4 263e d0ed 973e 9344 fd3c 0dc3 96be
00000260: 096a bc3c b9c3 cdbd ffd9 4e3d f697 443d
00000270: 9f99 993e f398 8abe f63a 8cbe e1dc 90be
00000280: 4fc7 b83d 78db a43d bd79 623e 8c2e b3bd
00000290: 8b3c 773e 87eb 2bbe 875d 773d 6094 833e
000002a0: c6c7 5dbe d9bf 9e3d bd95 46bd 23f1 a5ba
000002b0: 654c f4bd 4994 863e c72c 1c3e a155 3c3e
000002c0: 5077 8abe 2cca 383e f667 873e 4291 903e
000002d0: e9cb 93bd 7f69 38be e9bc 993e e620 2f3d
000002e0: 28b6 16be 2749 553d b3ed 803e 73d0 0b3d
000002f0: 9687 11bd 47c9 44be 156f 89be 3a99 f1bd
00000300: d545 943e 1b04 2ebe 9dea 69bd 9e18 64be
00000310: 3a9c 7fbe e0d7 2c3d 20fa 1cbe 6c03 123e
00000320: 5276 9cbd f3c2 6abd 991d 813e 7705 c93d
00000330: 1ffc 4ebe ff64 583c 5cf5 3a3e f632 b1bd
00000340: 6fef 6d3e fcb0 12be 7777 0b3e 1e52 833e
00000350: 6212 933e 55d1 d33c 6039 9b3d c73b 983e
00000360: a857 853e 739a 80be de37 c63d 3574 44bd
00000370: f77c 783e cb7b b23d 8e19 833d bd8d 813e
00000380: d74a 6abe 0832 9a3e 587b 1f3e 9cc6 de3c
00000390: 3709 f43d 37d0 96be aa5a 97bd abf5 cfbd
000003a0: bd1a 413e 0c37 96be f3e4 5c3e 017d 203e
000003b0: d8e1 8b3e 8685 53be cecd 92be 5b74 403b
000003c0: 6d33 9ebe c929 2dbe a51c 96be d681 51be
000003d0: 61cf 7abd 9595 7ebe 2aeb 83bd f27a fb3d
000003e0: aff1 8dbe 11c1 143e f9fb 303e 3161 99be
000003f0: 5929 a1bd 30fd 23be 6536 4dbe 41f4 473e
