best_models/seq2seq-2021-03-22-01-24-40.pt (torch, 799311 bytes, 16 tensors)

encoder.embedding.weight f4 [162, 100]
000000 01 77 8a bf 79 da d1 bd 96 c2 06 3f 4c 69 f3 3e
       -1.0817567 -0.102467485 0.52640665 0.47541273
000010 e4 63 13 40 59 df 17 bf 2b 0d eb bc 57 2a 96 3f
       2.3029718 -0.59325176 -0.028692802 1.1731671
000020 06 d3 a3 be 36 fe d7 be 4c 3b b5 3f 1d d5 81 bf
       -0.31996936 -0.42186135 1.4158721 -1.0143162
000030 7c 1d aa bf 42 d9 6f bf 91 0d cf 3e 7b 3f 30 bd
       -1.3290248 -0.93690884 0.40440038 -0.04302929
000040 1a 6f ad be b3 ab 9c 3f 39 64 51 bf 13 12 db be
       -0.33873826 1.2239898 -0.8179355 -0.42787227
000050 16 ad 52 c0 96 31 3d 3d 52 32 c3 bf 87 ce 96 bf
       -3.2918143 0.046189867 -1.5249732 -1.1781777
000060 45 54 c2 be d9 8e 76 bf 0c 11 c1 3f d8 f3 95 3c
       -0.37954918 -0.9631172 1.5083327 0.01830475
000070 37 e4 f1 bf cc 27 0a bf c1 6a 1c 3f 1b e4 2b bf
       -1.8897771 -0.53966975 0.61100394 -0.67144936
000080 4a a3 33 3f e9 4a 89 bf 3f a6 2f bf 85 5c 82 bf
       0.70171034 -1.0725986 -0.68613046 -1.0184485
000090 b2 8c 26 3f bd 77 bf bf 63 60 f0 bf 34 a4 50 3f
       0.65058434 -1.4958416 -1.8779415 0.81500554
0000a0 9c 63 ef 3e 9a a5 c9 be fc 5c 30 3e 40 88 76 3f
       0.46755683 -0.39384156 0.1722297 0.9630165
0000b0 28 47 a3 be 93 4c e8 3f 32 19 5f bf 72 c1 c9 bd
       -0.31890225 1.8148369 -0.8714782 -0.0985135
0000c0 68 1a b2 be 7b 28 3c 3f c9 10 2c bf 29 b5 a1 be
       -0.3478577 0.7349927 -0.6721311 -0.31583527
0000d0 3a 7e 80 3f 59 e2 93 bf bb c7 89 3e a0 19 76 bf
       1.0038521 -1.1553451 0.26910195 -0.9613285
0000e0 e5 0c a5 bf 0f 67 03 bf 2f c6 2b be 7c b9 a1 bf
       -1.289456 -0.5132913 -0.1677482 -1.263473
0000f0 92 be aa bf 0d 0c 82 3f b4 fa 7f be e6 c7 06 c0
       -1.3339407 1.0159928 -0.2499798 -2.1059508
000100 a6 e9 33 3d 90 6d 0d 3f fd 0c ab 3d ca 28 e8 be
       0.043923996 0.55245304 0.08352087 -0.4534362
000110 51 30 25 bf e8 70 c3 3f b0 4a 37 be 9f 41 4a bf
       -0.6452685 1.5268831 -0.17899585 -0.7900638
000120 ae 8c 7d 3f 11 c2 55 bf 0f 9a 95 be 63 8b a8 bd
       0.99042785 -0.83499247 -0.292191 -0.08229711
000130 89 65 9d bf 52 88 f6 bf c8 31 49 bf 9f c4 af be
       -1.2296611 -1.9260352 -0.78591585 -0.34329697
000140 a2 00 97 bf 65 59 dc 3e 25 9a 78 3f 6b f7 07 3f
       -1.1797068 0.43036953 0.97110206 0.53111905
000150 c1 f4 5d 3f 79 19 f2 3f 8c f2 6f bf 3c 7f 03 40
       0.8670159 1.8914024 -0.9372947 2.0546408
000160 99 be 1f 3f 62 d3 df 3f a5 ce 13 bf 78 2e d9 3f
       0.62400204 1.7486384 -0.5773719 1.6967306
000170 9a ff d7 be 6a 51 af be 9b 40 d6 bf 49 14 92 bf
       -0.42187196 -0.34241802 -1.6738466 -1.141244
000180 f0 d2 6b bf 8d ef e8 bf ba a1 64 3f b4 f4 61 bf
       -0.9211874 -1.8198105 0.89309275 -0.8826401
000190 96 23 c1 3f 8b 0a c3 be f3 6c de be 9e 25 c2 be
       1.5088985 -0.3809398 -0.43442497 -0.37919325
0001a0 93 b2 9e 3e 24 92 8c bf 16 51 02 bf b0 9c cb bc
       0.30995616 -1.0982099 -0.5090498 -0.024854988
0001b0 af f1 33 3f 26 7e b4 3e ab a5 53 bf 04 d3 5b 3d
       0.70290655 0.35252494 -0.82674664 0.053668037
0001c0 14 63 b0 3e 81 5f ee 3e ba 3e 2f bf 7e be ec be
       0.3445059 0.4655724 -0.6845509 -0.46239084
0001d0 7f 31 d3 be b9 f5 ab 3e a8 b6 f7 be 7d 7b 47 3f
       -0.412487 0.3358591 -0.48381543 0.77922803
0001e0 01 04 c3 3e 81 2a 03 3f 13 1a af be 7a 93 17 be
       0.38088992 0.5123673 -0.3419958 -0.14802352
0001f0 da 51 87 be 32 78 af 3f a9 42 a1 be 18 b9 d5 bf
       -0.26429635 1.3708556 -0.3149617 -1.6697111
000200 58 1b d8 3e b1 02 a1 be 5d 60 88 be 86 f9 95 bf
       0.42208362 -0.31447366 -0.2663602 -1.1716774
000210 61 c7 2a 40 73 e9 72 bf 6e 47 87 be 0c bc 62 bf
       2.6684191 -0.94887465 -0.26421684 -0.88568187
000220 01 44 58 3e 40 ff de bf 20 f9 0a bf 84 0f c8 be
       0.21119691 -1.7421646 -0.54286385 -0.39074337
000230 32 db 2f 3f ae ed de bc 08 da 74 be e9 3d b1 3d
       0.6869384 -0.027212944 -0.23911297 0.086543866
000240 b2 2b 42 be 99 b2 6c 3f f9 16 4e bf 54 ae b1 3f
       -0.18961981 0.9246002 -0.80503803 1.3881326
000250 1f 31 53 3f 2a f4 e8 be d1 f1 4b 3f 1c 87 18 3f
       0.8249683 -0.45498782 0.7966586 0.5958116
000260 d5 5a de 3e c7 05 9a bf 3e 05 80 be f8 bc 92 3f
       0.43428674 -1.2033013 -0.25004 1.1463919
000270 28 8e 27 40 44 d3 5c bf e5 fc 6c bf f3 02 1a 3e
       2.6180515 -0.86259866 -0.92573386 0.15040188
000280 a4 79 02 bf dc 7a 32 3f e8 f6 58 3f c9 e1 dd 3e
       -0.5096686 0.6971872 0.8475175 0.43336323
000290 40 50 a4 bf 83 7e 3c bd 15 bd 0f 40 60 3b c4 3e
       -1.283699 -0.04601909 2.2459157 0.3832655
0002a0 08 97 c1 3e 10 00 82 bf b9 42 1a 3f f5 99 9b 3f
       0.3781054 -1.0156269 0.6025806 1.2156359
0002b0 6e 2b 18 3f f5 09 ad 3f b4 e4 e0 3e c4 10 63 3f
       0.5944127 1.3518664 0.43924487 0.8869746
0002c0 1c d8 4c 3d 71 29 15 be dd 07 0f 40 78 81 80 3f
       0.050010785 -0.1456659 2.234855 1.0039511
0002d0 ec 94 0b 3f 0c af 54 bf ef 2c 8b 3f 53 fc 58 3f
       0.5452411 -0.830796 1.0873088 0.84760016
0002e0 9e 69 ee be 5b 18 dd bd ef 8c 44 3f 4a fd 98 bf
       -0.46564955 -0.10795661 0.7677755 -1.1952298
0002f0 55 90 b5 3f 19 a9 9f be 97 e9 81 bf f5 07 23 c0
       1.4184672 -0.311837 -1.0149411 -2.5473607
000300 1f ff 65 bf f3 e4 0f 3f b4 71 0c c0 6a ca d1 bf
       -0.8984241 0.56208724 -2.19444 -1.6389897
000310 69 a3 9c be ee 0b 6d 3e a1 2b 11 be c8 0c 1b 3f
       -0.30593422 0.23149082 -0.141768 0.6056638
000320 9c 6c ed 3f e4 7c ec 3e 07 05 34 3f a8 17 07 bf
       1.854877 0.46189034 0.7032017 -0.5277047
000330 8b e6 5d bf cf d4 a8 bd 01 03 0e 3d d2 79 45 be
       -0.86679906 -0.08243715 0.034670833 -0.19284752
000340 51 b6 06 40 2c 6f 4d 3f e5 06 88 3f 74 54 1e 3d
       2.1048777 0.8024776 1.0627104 0.03865476
000350 c7 b0 f3 bf 16 4e 50 be 2f 8b 24 be a8 ca 3b 3e
       -1.9038323 -0.20342287 -0.1606872 0.18339026
000360 d8 b7 a5 be 5e 79 29 3f 95 e5 34 3f a3 8a bc 3e
       -0.32366824 0.66200817 0.70662814 0.3682452
000370 8d d4 c6 3f f4 46 0c 40 12 08 06 bf cd 5e a1 3f
       1.5533615 2.1918306 -0.52356064 1.2607056
000380 22 c9 04 40 2a ba 26 3f 29 48 a0 3f 73 da 6c be
       2.0747762 0.65127814 1.2522022 -0.23130207
000390 e3 6c f0 be 29 18 ac bf 1b 1a 7b 3f 82 39 10 3f
       -0.46958074 -1.3444873 0.9808671 0.5633775
0003a0 03 53 78 3e bd 39 58 bf a8 33 f0 bf e0 64 81 3f
       0.24250416 -0.844631 -1.8765764 1.010891
0003b0 47 da 03 bf e7 b5 0e 40 8b 35 43 be 39 f3 5f bf
       -0.5150494 2.2298524 -0.19063394 -0.87480503
0003c0 17 eb ba 36 50 bb ad be 08 39 82 bf f0 5a af bf
       5.5706e-06 -0.3393197 -1.0173655 -1.3699627
0003d0 34 16 ff bf 88 75 dc bf 70 d4 69 bf 43 82 f1 be
       -1.9928651 -1.7223368 -0.9133978 -0.47169694
0003e0 f1 aa bf be 07 6d 47 be 88 87 0c bf f4 30 ea 3e
       -0.37435105 -0.19475184 -0.54894304 0.45740473
0003f0 c7 80 3c 3e b3 49 72 bd 27 30 e7 3f 1c 24 fe bf
       0.184085 -0.059152316 1.806157 -1.985477

encoder.gru.weight_ih_l0 f4 [300, 100]
000000 e1 15 39 bd e2 b7 9a bd 7b 54 99 bc d4 f8 3c 3d
       -0.04518688 -0.07554604 -0.018717041 0.04613574
000010 93 08 a2 3d 1f 1d 93 bc d4 db c0 bb fd 88 7a bc
       0.07911792 -0.017958222 -0.0058855806 -0.01529145
000020 73 df dd bc 9b 56 10 bd f5 4f 95 bd 43 cd 86 bd
       -0.027084088 -0.035238843 -0.07290641 -0.06582119
000030 9e 47 ab 3d 92 ca 36 bd ed 02 76 bd 6e b4 ed bc
       0.08363269 -0.04462678 -0.060061384 -0.0290167
000040 5e a0 90 3c 03 30 3e bd e9 20 a3 3b 9f 1b 8e bd
       0.017654594 -0.046432506 0.0049782884 -0.06938862
000050 84 1d c2 bd bf e1 1c 3d 96 35 cf 3d c7 3b 58 bd
       -0.09478286 0.038301226 0.101176426 -0.052791383
000060 31 c5 94 3d a2 40 74 bd ee b7 b0 3d d7 ec 9f 3d
       0.07264174 -0.05963195 0.08628832 0.078088455
000070 4a ce 6f bd 10 b3 4d bc e4 14 52 3c e9 a0 c1 bd
       -0.058546342 -0.012554899 0.0128223635 -0.09454519
000080 42 2c b8 3c 3d fe 9d 3d 32 c1 0e 3d 22 bc 49 3c
       0.022482041 0.07714508 0.034852214 0.012312921
000090 1c 3a 4f 3c b1 d6 c7 bd a6 ba 65 3c 3a 28 ad 3d
       0.012648132 -0.09757746 0.014021551 0.08454938
0000a0 e4 d6 bc bc dd ad 95 3d 2d de b0 3c 89 34 2b bd
       -0.023051687 0.073085524 0.021590317 -0.04179815
0000b0 b1 5b 87 bd 06 fd 24 3d b4 81 ce bc c3 ec 33 3c
       -0.066092856 0.040280364 -0.025208332 0.010981741
0000c0 d4 31 62 bc f2 25 97 3c fc 0d 8f 3d 00 0e 07 3b
       -0.013805825 0.01845071 0.06985089 0.002060771
0000d0 6a ba 84 3d e8 5b 0c bc 34 8c 1d 3d 13 aa ba 3b
       0.06480868 -0.008566834 0.038463786 0.005696544
0000e0 5f 94 3d 3d 2c d1 01 3c a5 cc df 3c 47 dc b8 3d
       0.046284076 0.007923406 0.027319262 0.090263896
0000f0 cf de 05 3d bf eb 93 bd 54 b4 89 bc 88 9f 52 3d
       0.03268319 -0.072226994 -0.01680962 0.051421672
000100 39 f9 15 3d 4d 07 46 bd 2b 01 8f bd 24 2a 79 bd
       0.03661463 -0.048346806 -0.06982645 -0.060831204
000110 a9 c2 e1 3c 8e b9 9f 3c 80 7c 0d bb ed 09 fe bc
       0.027558642 0.019497659 -0.00215891 -0.031010592
000120 2f 23 b1 3d 7f 46 a2 bd fc c5 94 3d 47 7d a7 39
       0.08649289 -0.07923602 0.07264325 0.0003194606
000130 56 a8 cb bd 54 e9 8f 3d cd 9f d5 3c 66 ce 4d 3d
       -0.09944217 0.07026926 0.026077176 0.050245665
000140 f3 7c 8c 3d ab fe d4 3c 11 27 7f 3d aa de b7 3d
       0.0685977 0.026000341 0.062293116 0.08978017
000150 82 a5 dc bc 45 39 8c bd 46 63 b2 3d cc 67 b3 bb
       -0.026934389 -0.06846861 0.08710341 -0.00547502
000160 23 1f 53 3d 4e 76 50 ba 91 3e 8f bd 33 c0 ac 3d
       0.051543366 -0.0007952199 -0.069943555 0.084350966
000170 b8 a5 ac bc 25 64 ba bd 82 23 14 3c ef 96 93 3c
       -0.021075115 -0.09101132 0.009041669 0.018016307
000180 73 fd ee 3c 51 2a 7a 3c 1d 85 19 3d fe 16 34 3b
       0.029173588 0.015268878 0.037480462 0.0027479525
000190 c3 d5 92 bd f5 83 86 bd 5c f9 d3 bc bd c1 3b 3d
       -0.07169678 -0.065681376 -0.02587574 0.04583906
0001a0 35 bb c6 bd 7d 59 30 3d aa ff cb bc 27 41 13 bd
       -0.09703676 0.043054093 -0.024902184 -0.035950806
0001b0 94 ce 6e 3d ac c5 04 3c aa 7e c5 3d be 95 9b bc
       0.058302477 0.008103769 0.096433 -0.018992301
0001c0 da 76 98 3d e5 20 72 bc 4d f9 b4 3c 8e a9 38 3d
       0.07444544 -0.0147783505 0.022091532 0.045083575
0001d0 d8 48 0d bd 7a ad 48 3d ea 95 8a bd 6c 32 29 3d
       -0.034493297 0.048993565 -0.06766875 0.04130785
0001e0 4c 1e af 3d 06 08 a5 bd 09 a7 91 bd 10 be 72 bd
       0.085507005 -0.08058171 -0.071119376 -0.05926329
0001f0 20 fa 9c bd 0a 8a b2 bd b3 5b be 3d c6 68 a2 bd
       -0.07664895 -0.08717735 0.09294834 -0.0793014
000200 5f b5 53 bd a9 42 36 bd 9f a4 e8 3c c1 5d 85 3d
       -0.05168664 -0.044497166 0.02839881 0.06512023
000210 30 37 53 3d 7d 8d b0 3d 35 4d f5 bc 0f bf 09 bc
       0.051566303 0.08620737 -0.029944042 -0.008407368
000220 d8 28 b1 3d dc 6b ae 3d 1c c7 42 3c 8d 2a c4 3d
       0.086503685 0.08516666 0.011888292 0.095784284
000230 83 56 e1 3c e8 13 38 3d 73 40 24 bc 6f 06 1e 3b
       0.027507072 0.04494086 -0.0100251315 0.0024112721
000240 78 28 86 bd 38 54 40 bd 89 08 d3 bc ea 3d a1 bd
       -0.065506876 -0.046955317 -0.025760906 -0.07873137
000250 81 df 73 bd 39 e6 9b bd af 7b c0 bd 32 0d d1 bc
       -0.05953932 -0.07612271 -0.09398591 -0.025518987
000260 6f a0 d1 ba f6 3b db bc df 36 16 3b cc 05 09 bd
       -0.0015993248 -0.02676199 0.002292089 -0.033452794
000270 95 94 17 3c a5 93 7e 3d af d9 0b 3c 81 06 5f bd
       0.009251733 0.062152524 0.0085357865 -0.054449562
000280 5d 84 91 bc 81 b1 26 bc dc 83 e0 3c 7e be 88 3d
       -0.017763311 -0.010174156 0.027406625 0.066769585
000290 a9 55 3d 3d a5 43 46 3d bb 96 fa bb ff 6d 28 3d
       0.04622427 0.048404355 -0.007647363 0.041120525
0002a0 5f 3b 40 3c 8b b5 ed bc ad fb c1 bd ae bc c1 bd
       0.011732905 -0.02901723 -0.094718315 -0.09459816
0002b0 3c af ad 3d 9e 81 a3 3b cb ea cd bc 35 e7 a6 3d
       0.08480689 0.004989817 -0.025136372 0.08149568
0002c0 3d da b9 3d 23 8f c9 bd cb 51 30 3d 9e e8 6f bb
       0.09074829 -0.09841754 0.043046754 -0.0036607157
0002d0 2e 00 a7 bd fe d2 c5 3d 51 c4 b1 3d 35 81 89 bd
       -0.08154331 0.09659384 0.086800225 -0.067140974
0002e0 03 02 55 3d 75 17 26 bd 50 6d 3d 3d 8d 28 c8 bd
       0.05200387 -0.040549714 0.046246827 -0.097733594
0002f0 9b 81 66 b8 ab 6b 32 3b c8 cc b7 3d 1f 69 be 3d
       -5.4956978e-05 0.002722482 0.08974606 0.09297394
000300 22 d0 16 bd 0d 46 bc bd b8 8e 82 bd 36 d7 d0 bc
       -0.036819585 -0.091930486 -0.06374878 -0.025493246
000310 52 6e c2 bd fc db 71 3c 6e bd 8e bd 6c 76 b2 bd
       -0.09493698 0.014761921 -0.069697246 -0.087139934
000320 e4 f9 75 bd 56 8e 9b bd 46 32 c0 bb 08 b5 f7 bb
       -0.060052767 -0.07595508 -0.005865368 -0.0075594224
000330 42 41 18 bd 53 11 aa 3b 06 0d 52 bc 39 63 27 bd
       -0.03717161 0.0051900535 -0.012820488 -0.04086611
000340 0f 05 5a bc 7d f4 a4 bc b7 18 08 3c 8d af 89 bd
       -0.01330687 -0.020136112 0.008306674 -0.06722937
000350 70 63 d2 3d 19 99 89 bb 3a ea 97 3c 27 c8 ba bd
       0.102728724 -0.004199159 0.018544305 -0.09120207
000360 33 88 50 bc 22 bf ae bd 28 bf 9d 3d 36 d0 a6 bd
       -0.012727785 -0.085325494 0.07702476 -0.08145182
000370 f1 96 48 bd 6f 1c 0b bd 33 c2 86 3d 5c 47 29 bd
       -0.048972074 -0.033962663 0.06580009 -0.04132782
000380 6a b5 fb 3c e5 92 6b 3d 1d e5 42 bd 05 27 93 bc
       0.030726153 0.057513136 -0.04758178 -0.017962942
000390 ec ba b7 bd 85 68 c6 bc 70 db 11 3d 92 2f 5f bb
       -0.089711994 -0.02421976 0.035609663 -0.0034055454
0003a0 70 8f cc 3d 09 cf ed bc 2e 43 99 3b cc 23 7c bc
       0.09988296 -0.029029386 0.004677198 -0.015389394
0003b0 4c 48 cc bc e8 d0 97 bd 38 54 b0 3d 4b 19 86 bd
       -0.024936818 -0.074128926 0.086098135 -0.06547793
0003c0 22 1a 1c 3d 70 ba 61 3c cc 42 1c ba 3e 9f 10 3d
       0.03811086 0.01377736 -0.0005960881 0.035308115
0003d0 d8 b1 49 3d ec fa c8 3d 53 84 29 3d 4c eb a1 bc
       0.04924187 0.098134845 0.04138596 -0.019765519
0003e0 3d ed 56 3d d6 1e 8b 3d 7f b9 9a 3d 2f fd 4d 3c
       0.05247234 0.06792991 0.07554912 0.012572571
0003f0 47 35 94 bd 48 8c ac bc 5a 38 42 3c 36 a7 3e 3d
       -0.07236724 -0.021062985 0.011854256 0.046546184

encoder.gru.weight_hh_l0 f4 [300, 100]
000000 22 e9 19 3b f1 8f b5 bd a5 e2 b2 bd 96 0d 8d bd
       0.0023484905 -0.08865345 -0.08734635 -0.06887357
000010 e3 7d c4 bd a3 55 03 3b c4 9a bd 3c 3c c1 93 3d
       -0.095943235 0.0020040057 0.023145087 0.07214591
000020 b8 42 e7 3c 2e 36 b1 bd 34 49 26 bd 35 0f 54 bd
       0.028230056 -0.08652912 -0.040597156 -0.051772315
000030 f3 eb 79 bd 97 d8 9b bd c7 7b ff bb df 38 70 3d
       -0.061016034 -0.076096706 -0.007796738 0.058647987
000040 e9 75 96 bc 35 62 6f bd 41 8d 8b bd a6 42 13 3d
       -0.01836677 -0.058443267 -0.068140514 0.035952233
000050 ce 27 15 bd f9 9f 56 bd 34 12 be 3d 0a c5 1f bc
       -0.036414914 -0.052398656 0.09280816 -0.009751568
000060 2d db cd bd d1 1f 96 3c 03 17 76 3d f2 86 ac bd
       -0.1005157 0.018325718 0.06008054 -0.08424176
000070 60 69 3d bc 0f 6a b7 3d 4d f2 0c 3d c4 e3 5b bc
       -0.011560768 0.08955776 0.034410764 -0.013421003
000080 4a ba aa 3d 73 d9 84 3d fe cc a3 bd f4 dd ba bd
       0.08336313 0.06486788 -0.079980835 -0.091243654
000090 83 db ff 3c 4a e5 59 bc 6e 29 ef 3c eb 01 79 3c
       0.031232601 -0.013299296 0.02919456 0.015198211
0000a0 34 a4 1f 3c 14 20 e2 bc 29 6e 2e 3d df 9d a7 3c
       0.009743739 -0.027603187 0.042585526 0.020461021
0000b0 6b 62 b0 3d b8 22 c0 3d ba 91 aa 3d 04 5a 33 bd
       0.08612522 0.09381622 0.083285764 -0.043787017
0000c0 85 55 bb bd 32 f2 9b 3d f9 65 58 3d 25 89 c4 3d
       -0.09147171 0.076145545 0.052831624 0.09596471
0000d0 0d 3e 38 bd 8c 6d 4c bd be 09 c5 3d fc 7e 75 bd
       -0.04498105 -0.04990916 0.09620999 -0.059935555
0000e0 a2 6d 93 3d 6d 13 a0 bc 8d c5 93 3c 4d 08 40 3c
       0.07198645 -0.019540513 0.018038535 0.011720729
0000f0 97 c1 41 3c 02 4e c3 3d 1c 51 7d 3d da a5 b2 bd
       0.011825941 0.09536363 0.06184493 -0.0872304
000100 42 39 c9 3d 90 21 9d 3c 91 86 fb 3b 63 db 7f bd
       0.09825374 0.019181043 0.0076759537 -0.062465083
000110 28 5e 7b bd 44 06 90 3d fd f3 ba bc be 03 c7 bd
       -0.06136909 0.07032445 -0.02282142 -0.09717511
000120 6e ed a6 3c 74 28 4a bd 1a 0b 64 bc f6 97 8a 3d
       0.020376887 -0.049354985 -0.013918662 0.067672655
000130 bb a0 b1 bc a4 da 9a bc 51 dc 39 3d 91 ba af bb
       -0.021683088 -0.018903084 0.045376126 -0.0053628166
000140 80 20 c4 3d ae 16 57 3d 64 ca aa bd 4d 71 bc 3d
       0.095765114 0.052511863 -0.08339384 0.09201298
000150 d2 7f 9c bd 8a 4b 47 3d 72 fd db 3c 8d fe aa bd
       -0.07641567 0.048656024 0.02685425 -0.08349333
000160 9f 83 6b 3c 54 6a 44 3d 50 21 c5 bd 04 1b b6 3b
       0.014374643 0.047952965 -0.096254945 0.0055574197
000170 7a e2 be 3d 03 f3 95 bd 10 1e a1 bd a9 cd f2 bb
       0.09320541 -0.073217414 -0.07867062 -0.0074097705
000180 03 79 4a bc 3a 61 5c bd a1 19 b7 bc 8a dd b1 3d
       -0.012357953 -0.05380366 -0.022351088 0.08684833
000190 e1 3a 0f 3c ea 3b 98 ba b6 af f1 3c 06 ed 53 3d
       0.008742065 -0.0011614535 0.02950273 0.051739715
0001a0 93 1b a5 3c c3 0f 0e 3d 0c a2 a2 bd d1 6c aa 3d
       0.02015475 0.034683 -0.07941064 0.08321536
0001b0 59 13 7f 3d fc a0 9c bd 48 14 b5 3d b6 65 ec bc
       0.06227431 -0.07647893 0.08841759 -0.028857093
0001c0 ab b3 4d 3d b0 07 12 3d 01 8f 83 3d 91 1b fd 3c
       0.050220173 0.035651863 0.0642376 0.030896934
0001d0 42 18 63 3d b9 3f 96 bd d0 23 2a bd 23 7e cf 3c
       0.055443056 -0.07336373 -0.04153806 0.025328701
0001e0 06 e0 c2 3d a3 e2 9c bd e6 ac 97 3d 44 c6 90 bc
       0.09515385 -0.07660415 0.07406025 -0.017672665
0001f0 04 a1 be 3d 53 5b b0 3d 5e 86 96 3d 27 38 9b bc
       0.09308055 0.08611169 0.07349847 -0.018947674
000200 fb 02 84 3c 60 df 99 bd d1 8d 51 bd f6 1a 51 3d
       0.016114702 -0.075133085 -0.051160637 0.051051103
000210 1e 35 02 bd 6c a3 f0 bc 09 f2 81 bd ba 90 7a 3d
       -0.031788938 -0.0293748 -0.06344993 0.06117318
000220 86 62 1c bd 62 b6 9f 3a 91 3c 48 bd 92 a8 f0 3c
       -0.038179897 0.0012185092 -0.048885886 0.029377256
000230 45 fc 23 3d b7 9c 55 3d 86 30 0c bd d9 f3 8d bd
       0.040035505 0.052151408 -0.034225963 -0.06931276
000240 a4 9b bd bd b2 be 6d 3d 69 65 8d 3d 38 e9 87 3d
       -0.09258202 0.05804319 0.06904108 0.0663628
000250 d0 57 be 3c eb 92 67 bd 8a 5d 34 3a 78 9e b3 3d
       0.023235232 -0.056536596 0.00068803935 0.0877046
000260 41 6f 8b 3d 5f ce 74 3d ad b4 e7 bc ef 38 c4 bd
       0.068083294 0.059767123 -0.028284395 -0.09581172
000270 d0 ee a4 3d a3 15 83 bd bd 14 ce 3d 39 dc 9c 3d
       0.08053362 -0.06400611 0.10062549 0.07659192
000280 e5 8d 71 bd 77 38 ad 3d 78 c9 60 3d c7 c3 f1 bc
       -0.05897321 0.084580354 0.054879636 -0.0295123
000290 f1 64 a5 3d 37 8d b1 bd f7 e9 02 bd d4 cd 40 bd
       0.08075894 -0.08669513 -0.031961408 -0.047071293
0002a0 5e a1 98 bc cd 6a aa 3c cf 2c 42 bd 80 e7 77 3d
       -0.018631633 0.02080288 -0.047406014 0.06052351
0002b0 b2 54 b6 bb 2d 68 c7 3d e7 ae d3 3c df 9b f8 3c
       -0.0055642957 0.09736667 0.025840236 0.030347763
0002c0 3c b1 a8 3d ed d9 22 3d 8e ad 1d 3d 51 4d a8 bd
       0.0823693 0.03975861 0.038495593 -0.08217872
0002d0 db 9e 3d bd 93 73 8f bd c9 85 88 bd 14 c6 37 3d
       -0.046294075 -0.07004466 -0.066661425 0.044866636
0002e0 f6 ff b7 bd 93 a6 61 3c 9f 7d 5a bc c6 51 a0 bd
       -0.089843675 0.013772625 -0.013335614 -0.07828097
0002f0 f6 2b 85 bd fd cb b1 3c 62 5e 9d 3d dc 66 a4 bd
       -0.065025255 0.021703715 0.07684018 -0.08027431
000300 58 98 07 bc e9 ce 19 bd ca 30 24 3d ed 30 c4 3d
       -0.008276068 -0.03755084 0.04008559 0.09579644
000310 6e 7b 45 bd 64 8e 0f bd 2a 32 98 3d 0f 01 c8 bd
       -0.048213415 -0.035047904 0.07431443 -0.09765827
000320 9e 65 63 3d 85 72 28 bc df 84 91 bd dc 16 82 bd
       0.05551683 -0.01028121 -0.07105421 -0.06352016
000330 48 d6 a2 3d 4c 7c 80 bd f5 23 5d bd 94 4b fa bc
       0.07951027 -0.06273708 -0.05398937 -0.030553617
000340 b4 54 8f bd 8c d1 91 3c b3 6f db 3b 04 d7 98 3b
       -0.06998578 0.017800115 0.006696665 0.0046643037
000350 9e 4e a2 bc 96 9a fe 3c 00 21 90 3c 93 9c 81 3b
       -0.019812878 0.031079572 0.01759386 0.0039554327
000360 77 3f 6a 3b d5 3b db 3c 42 f2 d8 bc 29 16 89 3d
       0.0035743394 0.026761929 -0.026482705 0.0669368
000370 6d a0 06 3d 77 05 3e bc f8 17 c6 3d 97 8b cf 3d
       0.032867838 -0.011597983 0.096725404 0.101340465
000380 3d 3d 87 bc 48 aa cb 3d e1 76 53 3d 53 a7 f2 3b
       -0.016508693 0.09944588 0.051627044 0.0074052005
000390 3a 4c f2 3c d2 cb 85 3d 78 a4 33 bd fe eb ba bc
       0.029577363 0.06533016 -0.04385802 -0.022817608
0003a0 33 01 fa 3b 35 81 49 bd fe 10 84 bd 2f 89 ab bc
       0.0076295375 -0.049195487 -0.064485535 -0.020939438
0003b0 16 8c 52 3d a8 03 5a 3d 68 72 6b bd db f8 c3 3d
       0.051403128 0.053226143 -0.057482153 0.0956895
0003c0 d8 bf c0 bd 9d 8d 07 bd 1f 1f 68 bd c6 79 fc 3c
       -0.09411591 -0.033094037 -0.056670304 0.030819785
0003d0 bf 28 ac bd 25 26 b4 3d aa 9d b3 bc 6a 6d 63 3b
       -0.08406209 0.08796338 -0.021925766 0.0034702667
0003e0 a6 0b d0 bb bb cd 44 3d e0 49 6a 3c 76 82 c2 3d
       -0.006349045 0.048047762 0.01429984 0.0949754
0003f0 f3 99 a9 3b 76 ad dc 3c 7b 50 33 3d 00 08 c9 bd
       0.005175823 0.026938181 0.043777924 -0.09815979

encoder.gru.bias_ih_l0 f4 [300]
000000 f4 ab d4 3d a0 a6 51 bd d7 39 80 bd ae 62 93 3c
       0.1038436 -0.051184297 -0.06261032 0.01799139
000010 08 1f 4f 3d 73 a1 b5 3d 2e 48 0b bd 67 45 89 3b
       0.050566703 0.088686846 -0.034004383 0.0041891816
000020 f1 66 b1 bd d3 e2 38 3d e3 37 92 bd d6 b5 d5 3d
       -0.08662213 0.04513819 -0.07139566 0.10435073
000030 b1 f4 5a bd 1b 6c 89 3d 85 9d c6 bd 1c 30 bc bd
       -0.053456012 0.067100726 -0.09698013 -0.09188864
000040 94 98 a1 3d 08 1c a6 3c f1 9c 69 3d a5 17 20 bd
       0.0789043 0.020277038 0.057034437 -0.03908505
000050 aa 07 de 3c 09 7f a1 3d a5 11 1f bd 51 0a 27 3d
       0.027103264 0.07885558 -0.038835187 0.040781323
000060 17 86 34 bb 46 78 96 bd b4 a2 15 39 44 5a 7f bd
       -0.0027545744 -0.07347159 0.00014270359 -0.062341943
000070 ea f7 42 3d f9 ec b1 bd db 45 40 3d 85 95 95 3d
       0.04759971 -0.08687777 0.04694162 0.07303909
000080 ed cc 15 bc cf eb ab 3d db d4 2c bb f4 12 4e 3d
       -0.009143096 0.08394586 -0.002637199 0.050311044
000090 44 d4 5b bd 2a 92 92 3d d0 0c a3 3d d9 e2 8c bc
       -0.05366923 0.07156785 0.07961428 -0.017198013
0000a0 1c 35 ef 3d a7 a1 d8 3d 04 1e 31 3d 10 f1 1c 3d
       0.11680052 0.10577708 0.043241516 0.038315833
0000b0 77 80 35 3c ee 0f 18 bd 9f 64 96 3c 7b 62 c9 bc
       0.011077992 -0.037124567 0.018358527 -0.024583092
0000c0 e6 f5 88 3d b8 c7 6d bd 6a 72 aa 3d 16 71 e6 bc
       0.066875264 -0.058051795 0.08322604 -0.028130095
0000d0 58 fe 58 bd a9 6b 46 3c 51 fb 9c 3d 6d c9 18 bc
       -0.052976936 0.012110629 0.07665122 -0.009325367
0000e0 67 d0 78 bc b9 92 b8 3a 58 37 2d bc 1d 8b 90 3d
       -0.015186406 0.0014081813 -0.010572277 0.07057784
0000f0 3e aa 0d 3d 4f 87 9e 3d e7 fc 15 3d 3d 66 b7 bd
       0.034586184 0.07740652 0.03661814 -0.08955047
000100 c1 f0 88 bc e3 ff 83 bd f3 7a cc 3d c0 a9 0d 3d
       -0.016716363 -0.06445291 0.09984388 0.034585714
000110 98 1f b9 bd 81 05 29 bd 1e 1c f4 3c 8c 22 7c 3d
       -0.09039229 -0.041265015 0.029798564 0.061556384
000120 54 74 91 3d 69 00 ed 3d 6c 09 b3 3d 4c e7 4b 3c
       0.07102266 0.11572344 0.087420315 0.012445282
000130 b3 02 a7 3d 08 70 6c 3d b5 9b b5 3c 4e 70 01 bd
       0.08154812 0.05772403 0.022168973 -0.031601243
000140 6d 4c 42 bd ca de 49 bd c4 9e d4 bc 66 ae 41 bd
       -0.047436167 -0.049284734 -0.025954612 -0.04728546
000150 01 6c f7 3c 4e 4f 35 3d 2d 33 ab 3d dd a4 8e bd
       0.030202867 0.044265084 0.083593704 -0.06965039
000160 d0 28 b8 bd e5 a8 a8 bd f6 50 0a 3d 19 03 db 3b
       -0.08992159 -0.08235339 0.033768617 0.006683719
000170 08 90 86 bd cb ee 09 bd 2d 33 77 3d 09 35 71 3a
       -0.065704405 -0.033674996 0.06035154 0.0009201323
000180 21 a6 c7 bc 3d 60 b2 3d f3 15 cb 3d 7c 3d a7 3c
       -0.024371209 0.08709762 0.09916296 0.02041506
000190 a2 ee 6f bd ba e1 c8 bd 78 35 a2 3b 3b 9c dd bd
       -0.058577187 -0.09808679 0.0049502216 -0.10820814
0001a0 38 c0 38 be ca b7 3b bc 6c 0d 0a be 24 89 c1 bd
       -0.18042076 -0.011457393 -0.13481683 -0.094499856
0001b0 bd bf 72 bc 53 cb 97 bc 50 da a6 bd fe c5 c5 bd
       -0.014816222 -0.01852957 -0.081471086 -0.09656905
0001c0 13 9e 2a be f1 c3 3a 3d 0b 76 1e bd a7 e1 67 3d
       -0.16661863 0.04559702 -0.038686793 0.056611683
0001d0 cd ca ea bd 25 f4 c7 3c 11 e9 41 3c 01 b5 82 ba
       -0.114644624 0.02440841 0.0118353525 -0.0009972156
0001e0 88 c2 08 bd f6 a2 03 3c c8 3b 9f bc b9 6a 80 bd
       -0.033388644 0.008034458 -0.019437686 -0.06270356
0001f0 1f 91 d2 3b 14 92 37 3c 08 21 b9 3d 78 94 01 3d
       0.006425991 0.011204261 0.09039503 0.03163573
000200 59 d0 64 bd 74 a1 d0 bc 35 78 bc bc bf 9d 25 bd
       -0.05586276 -0.025467612 -0.023006538 -0.04043364
000210 4f 5d de bd 07 e7 9c bd 88 48 b0 ba f8 91 12 bc
       -0.10857641 -0.076612525 -0.001344935 -0.0089459345
000220 b4 4b 7e 3d 6b 42 e4 bd 7f ac a2 bd 88 08 40 bb
       0.062083915 -0.11145481 -0.07943057 -0.002930196
000230 14 e6 ed bd 79 6a 81 3d 8a d8 6e 3c c9 22 f1 bd
       -0.116161495 0.06319136 0.014577994 -0.11774213
000240 74 3c 47 3d 76 45 5b 3d 0e 7c f8 bd a8 2b c0 bc
       0.048641637 0.05353304 -0.121330366 -0.023458317
000250 59 14 58 3d 25 94 4a 3d ad fd 4f bd 0d 46 aa 3c
       0.05275378 0.049457688 -0.050779033 0.020785356
000260 a7 71 e3 3c ca 3d 57 3d 21 0f 2d 3d 96 14 72 bc
       0.027764155 0.05254916 0.042250756 -0.014775416
000270 0e 68 0b be 72 a2 fa bd fe c9 04 3c ff 4e 2a bd
       -0.13613912 -0.12238015 0.008104799 -0.041579243
000280 20 d6 08 bd fd 71 7d 3d e3 3e 84 3d 97 98 b9 bc
       -0.03340733 0.061876286 0.06457307 -0.022655768
000290 7f 0d b6 3d f0 ce c7 bc da a1 cb bd 26 f5 9e bd
       0.08889293 -0.024390668 -0.0994298 -0.07761602
0002a0 f1 76 e9 bd 33 8b 6b bd 8b 04 60 bd 86 fd 8f 3c
       -0.113996394 -0.057505798 -0.054691833 0.017576944
0002b0 e6 55 74 bd cd db bd bd bc 0d 9a 3b fc 85 a4 bd
       -0.05965223 -0.09270439 0.0047013443 -0.08033368
0002c0 84 19 20 be a7 df 13 be a0 fa 47 3c ad 9b 89 3c
       -0.15634733 -0.14440785 0.01220575 0.016797865
0002d0 6c 5c 18 bd e6 b5 05 3d 50 84 5b 3d fa 4b 95 3d
       -0.037197515 0.032644175 0.05359298 0.07289882
0002e0 f7 a8 bf bd f7 de 97 bc 8f 80 6e bd 31 8b 0a bd
       -0.09358399 -0.018538935 -0.05822807 -0.03382415
0002f0 4b 4e b6 bd b7 c2 3a bd de a9 3b bd 06 87 34 bd
       -0.08901652 -0.04559585 -0.045816295 -0.04407408
000300 0f d1 c3 bd f2 e9 71 bd 37 fb 51 bd 4e 3e 95 3d
       -0.09561359 -0.059061 -0.051264968 0.07287274
000310 69 c2 9e 3d 4a af a4 bd 94 da 1d 3d b6 1b 8a 3d
       0.077519245 -0.08041246 0.03853853 0.06743567
000320 b8 a7 01 3d e7 cd 1f bd c1 ea e1 bd 61 b2 2d be
       0.03165409 -0.039014723 -0.11031104 -0.16962577
000330 e9 ae c0 bd 76 98 d8 bc a4 f0 00 3e 1d 90 43 bd
       -0.094083615 -0.026439887 0.12591797 -0.04774486
000340 07 aa bc bd 5f 67 30 be b5 5d b0 3d a2 9a 8d 3d
       -0.09212118 -0.17226933 0.08611623 0.069142595
000350 b5 e4 10 3c 90 2e 53 bd 0e 96 52 bd 51 ca dc 3d
       0.0088435905 -0.051558077 -0.051412635 0.10780776
000360 80 bd 2b 3e ae b5 26 be 88 af 56 bc 6b 23 1e be
       0.16771507 -0.16280243 -0.013103373 -0.15443198
000370 43 67 1f 3e 62 53 9d bd fb a9 2e 3e 9b 93 f2 3d
       0.15566735 -0.0768192 0.1705703 0.1184456
000380 66 05 b9 39 73 30 2b bd 2d 91 2b bd 64 f7 cd 3d
       0.00035289972 -0.04179425 -0.041886497 0.10056952
000390 e3 30 f7 bc 5d ff cc bd 57 d2 07 be ef 2f 8e 3d
       -0.030174678 -0.10009644 -0.13263832 0.06942736
0003a0 cd 64 19 3d 1a 51 d0 3b 84 17 1b bd 31 3d b1 bd
       0.037449647 0.0063573243 -0.037864223 -0.086542495
0003b0 2b 7d 5f 3d 29 37 0a 3d 86 5c 3a 3c ae a2 9a 3c
       0.05456273 0.03374401 0.011374598 0.0188764
0003c0 cf dc f4 bc 4f 0a fe 3c 3c 20 ce 3d 29 d0 31 be
       -0.029890446 0.031010775 0.10064742 -0.17364563
0003d0 26 38 18 bd 8e dc 28 3e 62 32 9f bd 1d 73 47 be
       -0.037162922 0.16490385 -0.07773282 -0.19477506
0003e0 ec 49 4e 3e ba 53 21 3c 17 14 ca bd 7b a3 00 3e
       0.20145386 0.009846622 -0.09867113 0.12562363
0003f0 3a ff 2f bd df e8 17 be 1c 35 72 3e c7 78 06 bd
       -0.042968012 -0.14834927 0.23653072 -0.032830026

encoder.gru.bias_hh_l0 f4 [300]
000000 25 ad 9d 3c b0 e5 72 bd e6 48 08 3e 06 3b 19 3e
       0.0192476 -0.05930108 0.13309059 0.14963922
000010 1e da 9c 3d 33 92 64 3d 6c 41 66 3c d2 6a 2b 3d
       0.0765879 0.05580349 0.014053684 0.04184992
000020 fa 23 49 bb f3 dd a1 3c ce 6d be 3d fd 76 d9 bb
       -0.003069161 0.019759154 0.09298287 -0.006636499
000030 ca c8 3e 3d 90 95 c3 bd a4 0b 78 3c fa cc ab 3d
       0.046578206 -0.09550011 0.015139494 0.083887056
000040 06 ab e4 bc b0 81 e8 3c fd ea 96 3d 74 2e a1 bd
       -0.027913582 0.028382152 0.07369039 -0.07870188
000050 a2 3d 97 bc 28 54 65 3d 30 e2 5a 3d 91 08 2b 3d
       -0.018462006 0.05598846 0.053438365 0.041756216
000060 6c 28 de b9 c5 4d 3e bc 02 e0 a2 3d 67 ff 20 3c
       -0.00042373256 -0.011615221 0.07952882 0.009826518
000070 e5 81 b2 bd 6b 7d 70 bc d2 7a 27 3d 37 ca 65 3d
       -0.08716182 -0.0146783395 0.040888615 0.05610105
000080 28 06 41 3d 2c 9a 89 3d d4 15 ea 3d 5d 75 2f bd
       0.04712501 0.06718859 0.11429945 -0.042836536
000090 68 29 69 bd 7c c1 b1 3d 99 ec 38 3d a2 81 8e 3d
       -0.056924254 0.08679482 0.045147512 0.06958319
0000a0 ce f9 e4 3d 7d 6f c4 3d 8a 62 20 3d d9 b0 1b bd
       0.11180459 0.09591577 0.039156474 -0.038010452
0000b0 7b 70 81 bc 4e 6c b2 bd b9 2f 18 3e 00 17 e7 3d
       -0.015800705 -0.08712064 0.14861955 0.11283684
0000c0 40 84 70 3d 4c b2 ba bd 86 27 96 3c 45 56 a0 bd
       0.058719873 -0.09116039 0.018329393 -0.078289546
0000d0 54 f6 ce bb da 96 24 bc d1 9d b7 3d b4 be 36 bc
       -0.0063159857 -0.010045731 0.08965648 -0.011153866
0000e0 b9 98 ac 3d f1 32 82 bd 50 2d 86 bc 09 5d a6 3d
       0.08427567 -0.063573726 -0.016379029 0.08123214
0000f0 68 5d ca ba ee 68 09 bd ad b1 af 3c c8 88 af 3c
       -0.0015439214 -0.033547334 0.021447027 0.021427527
000100 e5 70 a2 bc 2e 9b 84 bd e1 37 7a 3d fa 8d d1 bc
       -0.019829223 -0.06474911 0.061088447 -0.025580395
000110 4a 02 7a bd 6d 29 6c bc fa e6 b6 bc b8 7d d6 3d
       -0.06103734 -0.014414174 -0.022326935 0.10473198
000120 ab 9b c8 3d a4 cf a7 3b 12 3a 63 3d 7c 65 e5 bc
       0.09795316 0.0051211882 0.055475302 -0.028002493
000130 69 5b 0b 3e 0a 44 c8 3c 23 ed bc bc 41 4d c7 3d
       0.13609089 0.024446506 -0.023062294 0.09731532
000140 b6 72 8d 3d 23 92 24 bd cd d1 b4 3d 46 32 9e bd
       0.06906645 -0.04017843 0.08829079 -0.07724433
000150 a2 2e b3 3d 43 c8 c0 3d 9b cb 3a 3c 78 46 7f bc
       0.08749129 0.09413197 0.011401082 -0.015580766
000160 58 aa 23 bd 59 d6 d0 3c 68 99 95 bc 76 32 75 3d
       -0.039957374 0.025492834 -0.018261626 0.059862576
000170 c9 0a 05 3d b8 6d 50 bd f3 37 32 bd a8 3e ad bc
       0.03248099 -0.050885886 -0.04351039 -0.02114804
000180 98 27 af 3d 85 c1 7f 3d 27 b5 6f bd 6e ef 81 bd
       0.08552474 0.062440414 -0.05852237 -0.06344496
000190 0e b7 c4 bd 19 d7 4d bd 66 95 3a be 8b 46 c4 bc
       -0.096052274 -0.05025396 -0.18221053 -0.023959419
0001a0 00 a3 23 be ab 7d df bb 7d 80 84 bd 84 4d 8f 3b
       -0.15980148 -0.0068204007 -0.0646982 0.0043732543
0001b0 79 72 87 3d 97 ed 27 3d ce 56 96 bc 12 18 db 3c
       0.06613631 0.040998068 -0.018351939 0.026744876
0001c0 14 81 21 be b2 20 90 3d 96 c4 1d bc ac 11 82 bd
       -0.15771896 0.07037486 -0.009629389 -0.06351027
0001d0 a5 68 21 be 7a 8f 08 be 5f 04 4b 3d 1d 91 c6 bd
       -0.15762575 -0.13335982 0.049564715 -0.09695647
0001e0 ea 32 6d 3d 2e 46 83 3c 08 47 66 bd e8 fa 0d bd
       0.057909884 0.016024675 -0.056220084 -0.03466311
0001f0 d1 d3 9b bd 96 d2 b3 bd bf 93 63 3d 7d 53 ee bd
       -0.0760876 -0.087804005 0.055560824 -0.11637018
000200 1d 08 d7 bd 8e ad 27 3d a4 af 1c bd d4 71 d9 3a
       -0.10499594 0.040937 -0.03825344 0.001658971
000210 c9 87 72 bd 56 56 b2 3b 23 36 a1 bd f2 d1 14 be
       -0.059211526 0.005442421 -0.07871654 -0.14533213
000220 fb d1 c3 bc bb 6f 34 3d 60 15 7c 3c 4c 31 ca bd
       -0.023903837 0.044051867 0.015385956 -0.09872684
000230 03 0f 06 3d 8c 0d 1e bd ac fc 6b 3d 01 fc ba 3c
       0.03272916 -0.038587138 0.057614014 0.022825243
000240 dd d4 55 bd 32 b5 42 bd b9 bc 34 bd f0 f5 b6 bd
       -0.052204955 -0.047536083 -0.044125292 -0.089336276
000250 11 7e 79 bd dc 98 5f bd 00 0a 04 be d7 48 fc bd
       -0.060911242 -0.054589137 -0.1289444 -0.123185806
000260 65 10 1b 3d e7 02 9d bb dc 74 ee bd 58 b2 7c 3b
       0.037857432 -0.0047916058 -0.11643383 0.003855845
000270 3c 68 0c be 35 b6 a8 3c d4 3f 06 bd 09 ff b0 bc
       -0.13711637 0.020594696 -0.032775715 -0.021605985
000280 87 25 9a 3c ae 6e 9d 3c 05 44 99 bd 55 c9 69 bd
       0.018816723 0.019217815 -0.07483677 -0.05707677
000290 19 b5 85 bd 23 f6 68 b9 07 b9 14 bc 5e 59 89 bd
       -0.06528682 -0.00022216937 -0.009077317 -0.067064986
0002a0 84 08 22 3c aa c6 4c bd 39 df da bc c9 63 ea bd
       0.009889726 -0.04999415 -0.026717769 -0.11444814
0002b0 4f 52 65 bd 1b 06 c3 bc 33 40 dc bd a1 8f f0 bd
       -0.0559867 -0.023806622 -0.107544325 -0.11746145
0002c0 23 cd 09 3c e1 71 c1 bd b3 8c 67 3d 56 23 9d 3c
       0.008410725 -0.09445549 0.056530666 0.019181889
0002d0 f8 42 20 bd f1 d1 97 3d fd 7c 08 3d 7a a3 ba ba
       -0.039126366 0.0741309 0.033322323 -0.0014239394
0002e0 bc 26 e6 bd 86 a5 52 bd 03 7f d8 bd 6f 2f d5 bd
       -0.11237857 -0.051427387 -0.105711006 -0.10409438
0002f0 d4 e1 e1 bd d7 51 18 3d 71 6d 82 bd 8a 43 17 3d
       -0.110294014 0.037187424 -0.063685305 0.036929645
000300 fc 60 bf bd 99 87 e7 bd 75 f9 a2 bd 41 ad 82 3c
       -0.0934467 -0.1130516 -0.079577364 0.015951755
000310 43 9d ca bd d6 55 2f 3b 57 fc bb bd 2d 68 8c bd
       -0.098932765 0.0026754043 -0.091789894 -0.068558075
000320 da 79 af bd 41 02 67 3c 60 48 4b bb 38 dc 56 3d
       -0.08568163 0.0140996585 -0.003101848 0.05245611
000330 1a 7e a7 3d a0 2d c7 bc 5f 7f 86 3c fa a1 ec bd
       0.08178349 -0.024313748 0.016418157 -0.11554332
000340 51 43 0c be ab 5f fc bd bd a2 8d bd 8a 68 52 3d
       -0.13697554 -0.12322935 -0.069158055 0.051369227
000350 d5 ff ac bd b1 77 de bd c9 8c dc 3d 51 b8 56 bd
       -0.084472336 -0.10862673 0.1076904 -0.05242187
000360 81 8d 97 3d 71 c9 a1 bd da 0a ec 3a 8b 64 8d bd
       0.074000366 -0.0789975 0.0018008605 -0.06903943
000370 53 69 03 bd 01 90 05 be 96 65 d7 3c 9f 24 bc 3d
       -0.032082867 -0.13043214 0.026293557 0.091866724
000380 7a 6c a6 bd 32 01 9c bb e6 95 0a bd 33 64 96 3b
       -0.08126159 -0.0047608847 -0.03383436 0.0045895814
000390 e7 4f 10 bc 9a 51 1c bd cd 14 1f be dd 15 ab bc
       -0.008808113 -0.03816376 -0.15535279 -0.020884449
0003a0 a7 62 0b 3d 05 0a 49 bc 26 bc 52 3d ff 88 50 3d
       0.03402963 -0.012270455 0.051448964 0.0509119
0003b0 36 ea b6 3d 8d 03 a7 3d 7f eb 36 3d ab a8 1e bd
       0.08931391 0.08154974 0.04465818 -0.038735073
0003c0 dc 7d c4 3c e3 90 09 bd ae 6b 56 bc e3 a7 8c bd
       0.023985796 -0.03358544 -0.013087196 -0.06867959
0003d0 ac 54 2d 3d 68 e4 0b 3e 01 2d bb bd 81 d3 91 bd
       0.042317078 0.13661349 -0.09139443 -0.07120419
0003e0 6b 88 7a 3d 8f 0a b8 bd a9 ae e6 bc ee a5 0d 3e
       0.061165255 -0.08986389 -0.028159456 0.13832828
0003f0 e7 00 53 3d 12 ab 98 bc 42 b6 90 3c f0 0c 0e bc
       0.051514532 -0.01863626 0.017665032 -0.008670077

decoder.embedding.weight f4 [189, 100]
000000 d6 58 d1 3e 3a 03 96 be 84 7f 39 3f 45 bb 28 be
       0.4088809 -0.29299337 0.724602 -0.16477688
000010 ac 65 e8 3f 0e 9a e9 3e e9 05 1c 3f 17 72 84 3e
       1.8156028 0.45625347 0.6094652 0.25868294
000020 83 6a 24 c0 6b 86 54 3f e8 98 b1 3f 1c 03 48 3f
       -2.569001 0.83017606 1.3874788 0.78129745
000030 26 f1 40 3e 8d ef a1 3c 34 3c e7 3e bb 78 ff bf
       0.18841991 0.019767547 0.4516312 -1.9958719
000040 44 14 0c bf c3 c5 36 bf f8 5d ca 3d c3 09 da 3f
       -0.5471842 -0.7139551 0.09881204 1.7034229
000050 9c 64 ed 3f 9c 15 f1 be 8d 58 8d 3e e6 2e 9a 3f
       1.8546329 -0.470868 0.2760662 1.2045562
000060 7b 36 23 be ae 83 b2 3f 00 45 c0 bf 41 60 ff 3f
       -0.15938751 1.3946435 -1.5021057 1.9951249
000070 26 a2 48 3e 0d 88 57 bf dd 85 47 3e 73 9b 88 3f
       0.19593105 -0.8419197 0.19484659 1.0672439
000080 67 d1 8c bf 54 63 b6 3f 6f 92 70 bf 0f 02 d3 bc
       -1.1001405 1.4249063 -0.9397344 -0.025757818
000090 7a 02 a8 bf 7c ba 12 40 04 62 08 be 3c 9b dc 3f
       -1.3125756 2.292632 -0.1331864 1.7234874
0000a0 10 70 ce 3f 98 93 20 bf 33 97 d4 3d b1 b6 6d 3f
       1.6127949 -0.6272521 0.103804015 0.9285689
0000b0 2a 44 d7 3e f2 52 6c be 02 39 73 3f a7 ca 61 3f
       0.42044193 -0.23078516 0.9500886 0.8819985
0000c0 11 95 0b c0 03 02 8f 3f 67 8c f5 3f 15 02 be bf
       -2.1809733 1.1172489 1.9183472 -1.4844385
0000d0 cd ad de 3f 8c 73 a0 be f2 26 ff bf ca 13 e0 bf
       1.739679 -0.31338155 -1.993376 -1.7506039
0000e0 bb 66 ae 3e 6d 56 d8 3e 39 e3 81 3f 19 3d 1a 3e
       0.34062752 0.42253438 1.0147468 0.1506237
0000f0 8b 65 dd 3e ac 0b 0e bf 2e 06 57 bf 8a 7a 8f 3f
       0.43241534 -0.5548656 -0.83993804 1.1209271
000100 3b de 05 bf 6a 55 1f bf cc f1 5e bf 74 6f 9c 3f
       -0.5229222 -0.62239707 -0.870877 1.2221513
000110 24 a9 3f be d1 d2 67 3e 87 b0 57 be c5 65 59 bf
       -0.18716866 0.22639014 -0.21063434 -0.84920913
000120 62 d6 fb be 6d 6c d3 bf 10 df 7f bf 6a ca 8b bf
       -0.49187 -1.6517464 -0.9994974 -1.0921147
000130 37 3c 18 3f 88 16 86 bc c0 3d bd be b8 84 2e bf
       0.5946688 -0.016368166 -0.36961174 -0.6817126
000140 cf 6e 88 3e a2 5f 03 3f 5c b5 38 3f e7 00 7d 3e
       0.2664704 0.513178 0.7215173 0.24707375
000150 4a ba e3 be 7f 58 4f 3f 73 42 39 be 76 70 31 3f
       -0.44478065 0.8099441 -0.18091755 0.69312227
000160 eb 3f 13 c0 cf 3b bc 3f 5e 26 b8 3f 93 66 6c bf
       -2.3007762 1.4705752 1.4386709 -0.92344016
000170 be 33 bf bf 3d a1 d1 bf df 8b ae be bb df 17 3f
       -1.4937665 -1.6377331 -0.34091088 0.5932576
000180 6e 1d df bd 2d af c9 bf 94 10 d9 be a0 36 98 3e
       -0.10894285 -1.5756584 -0.4239546 0.29729176
000190 39 15 29 3f fd 51 47 3f 28 ab 61 3f e8 aa 55 bf
       0.6604801 0.7785948 0.8815179 -0.8346391
0001a0 60 e1 40 40 94 b5 1d 3f 38 08 42 3e 41 a6 19 3b
       3.0137558 0.6160519 0.18948448 0.0023445042
0001b0 59 96 2a 3f 42 ca 05 bf 67 28 35 3f b5 a5 3f 3f
       0.6663566 -0.52261746 0.70764774 0.74862224
0001c0 c1 b1 e8 3e 8f d4 d8 3e 00 27 b7 bf e1 c6 1e be
       0.45448115 0.4234967 -1.4308777 -0.15505554
0001d0 0a 4a 00 40 90 22 1a be 30 a6 97 3e 82 3f 1a c0
       2.004519 -0.15052247 0.29618979 -2.4101262
0001e0 2a 1b ba bf e9 9d b8 be 8f 77 8e 3f 61 88 fc 3e
       -1.453954 -0.36057976 1.1130236 0.493228
0001f0 bb 9c cf 3e c2 2f 20 bf 81 17 66 bf a1 d1 9f 3f
       0.40549263 -0.6257287 -0.89879614 1.2485849
000200 47 a8 35 3f f2 b1 4b 3d ab e0 31 3f 36 4f 71 bf
       0.70959896 0.04973025 0.6948344 -0.9426149
000210 26 c4 a4 bf a8 05 94 3f b7 6e 91 3f 7b f8 be 3f
       -1.287236 1.1564226 1.1361912 1.491958
000220 b3 fe d5 3e 89 08 9f be c8 1d a1 bf cb e7 d2 3e
       0.41795883 -0.310612 -1.2587214 0.4119247
000230 48 72 04 bf 31 2a b5 bf 0e ad 58 3f 2c 4e 29 bf
       -0.5173688 -1.4153501 0.8463906 -0.66134906
000240 73 a8 38 be de 25 d4 be c4 7e 28 40 69 fa 15 3f
       -0.18033008 -0.4143514 2.6327372 0.5858522
000250 d9 dd c6 3f 9e ba bf 3e 36 9b 6e 3f 36 0a 94 bf
       1.5536453 0.37447065 0.93205583 -1.1565616
000260 7b a5 d0 3e 6c 3b 3e 3e ff fb f5 3f 17 2c 87 3f
       0.40751252 0.18577355 1.9217528 1.056033
000270 64 ff d0 3e 89 58 e8 be 9c af 7d 3f a8 08 5c bf
       0.40819848 -0.45380047 0.99096084 -0.8595071
000280 12 d7 14 40 fb e9 1d 40 86 50 c1 bf 3c 75 f6 be
       2.3256269 2.467406 -1.5102699 -0.48136318
000290 71 62 db be 42 2f 4e 3f 93 a0 65 3f 1d a2 d4 3f
       -0.42848542 0.8054086 0.8969814 1.6611973
0002a0 0e 0f d9 3e c1 ec 80 3c 8e da 8a 3e 18 e1 b2 3e
       0.42394298 0.015737893 0.2711987 0.34937358
0002b0 b8 72 bb 3f e5 5d 11 3f 92 05 fb 3c e5 51 ab bf
       1.4644384 0.56783897 0.030642305 -1.3384367
0002c0 80 61 58 3f 26 8f ff bf 09 f6 d1 3f 9c 0d cd 3e
       0.84523773 -1.996556 1.6403209 0.40049446
0002d0 ff bd 04 bf d6 36 1b bf d9 01 2e 3f 67 dd 2c bf
       -0.5185241 -0.6063055 0.6797157 -0.67525333
0002e0 81 91 64 bf 84 80 8c be f9 30 69 bf 98 45 05 bf
       -0.8928452 -0.274418 -0.9109035 -0.52059317
0002f0 d0 e0 fd 3f fb 61 39 be 5a 45 ee 3e 67 74 77 be
       1.9834232 -0.18103783 0.46537286 -0.24165498
000300 c1 1e 31 bf 8e c7 39 bf 83 e4 e1 3e 21 d4 43 40
       -0.6918755 -0.7257012 0.44119653 3.0598223
000310 6a 3d 55 3e 97 cc c4 3f 83 f3 07 3e 4b 22 e1 3e
       0.20824209 1.5374936 0.13276486 0.43971476
000320 3e c5 d1 be 0c 36 0a 3e 25 90 86 3f a2 77 8e bf
       -0.40970796 0.1349718 1.051274 -1.1130259
000330 17 18 b7 3f 87 02 79 3f 3f dc 95 3f b8 c8 69 3e
       1.4304227 0.9726948 1.1707839 0.22830474
000340 e9 36 0d c0 5c 3a 40 3f 48 48 13 c0 a9 a4 6f 3f
       -2.2064764 0.7508905 -2.3012867 0.93610626
000350 65 b7 20 c0 6f e6 c8 bf c7 35 af 3f f2 37 b1 bf
       -2.5111935 -1.5695323 1.3688287 -1.3845198
000360 4c a2 cd 3e 00 07 e5 3f c6 e9 c6 bd 13 82 b1 3f
       0.40162885 1.7892761 -0.097125575 1.386782
000370 51 d5 44 bd d3 57 79 bd b4 0a 70 3f 5f fa ca 3f
       -0.048054997 -0.06087477 0.9376633 1.5857657
000380 77 e7 26 3e 47 40 f0 3f c1 de 08 bf ef 0c 88 3f
       0.16299234 1.8769616 -0.53464895 1.0628947
000390 71 9a 76 bf 56 26 52 be f0 5f 8f 3f cb 93 83 bf
       -0.9632941 -0.20522436 1.1201153 -1.0279478
0003a0 61 c5 77 3e 6e 8f d3 3e 6a 31 9a 3f 3e 03 0b be
       0.24196388 0.41320366 1.204633 -0.13575456
0003b0 09 94 b6 be e9 81 85 bf 59 e0 6b bf e4 09 32 be
       -0.35659817 -1.043027 -0.921392 -0.17386585
0003c0 1f fc e3 bf 17 e6 d9 3e 5f e7 47 3f d9 76 e1 be
       -1.7811316 0.42558357 0.7808742 -0.44035986
0003d0 59 ae 3b 40 bc d5 44 3f 6e e2 f6 3e a8 c0 ae be
       2.9325163 0.7688863 0.48219627 -0.3413136
0003e0 bc 05 25 be 72 df 68 bf 33 4f 07 bf ff 5a f2 bc
       -0.16115469 -0.9096595 -0.52855223 -0.029584406
0003f0 d3 3d 8c be bf 9d d8 bf db d9 4a be 31 5e 4a 3f
       -0.27390918 -1.692314 -0.19809668 0.79049975

decoder.attn.weight f4 [15, 200]
000000 0b 56 65 3a 62 1d 61 bc 5f eb ba 3c eb 78 bc 3d
       0.0008748478 -0.013739916 0.022817312 0.09202751
000010 40 37 35 3c 41 f0 2c bd 7e 9b 96 bc 92 11 1a 3d
       0.011060536 -0.04222131 -0.018384691 0.037614413
000020 e4 18 f2 bc 5f 8b 13 3b 50 4e 2e bd 32 5a 9c bb
       -0.029552884 0.0022513492 -0.042555153 -0.0047714943
000030 77 5b 5a bb 84 4a d6 3a a2 53 91 3b 13 8d 4b bc
       -0.0033318677 0.0016349112 0.0044350186 -0.012423771
000040 98 ea 91 3c 44 3b 2e bc f5 99 82 3d e0 92 9f bc
       0.017812058 -0.010634247 0.06377021 -0.019479215
000050 f2 5c 16 bd 9a 17 2e bc 83 38 bf bb 12 45 d5 3c
       -0.036709733 -0.010625744 -0.005835594 0.026033912
000060 7c db e3 3c e2 6b 38 bd f0 37 59 39 36 78 62 3c
       0.02781462 -0.04502476 0.00020715571 0.013822606
000070 c1 4d 83 bd c1 3e 33 bb 88 61 98 bc 5f ad 00 bc
       -0.06411315 -0.0027350637 -0.018601194 -0.007853835
000080 6d 03 9a bd 5e 5a 1c 3d c5 7b 73 bd 97 3b de 3c
       -0.07520185 0.03817212 -0.059444208 0.027128024
000090 6d 57 03 bd b7 0e 5b bd c2 1f 17 3d ea 94 51 3d
       -0.032065798 -0.05348083 0.03689552 0.051167406
0000a0 be 0c 6e bb ad 43 c2 3d 9b 99 85 ba 3c 7e 28 3c
       -0.0036323513 0.094855644 -0.0010192873 0.010284003
0000b0 62 e4 a9 3c b2 6a 47 bd 2f ef a7 bc 9b e1 2b bd
       0.020738784 -0.048685737 -0.020499794 -0.0419632
0000c0 f1 46 e5 bb 1f 10 ef bc 46 e0 83 bd 00 4d 0b bd
       -0.0069969823 -0.029182492 -0.06439261 -0.03400898
0000d0 88 c6 ea 3c 32 9d 0a 3d 00 86 d8 3d 66 e0 81 3d
       0.02865912 0.03384132 0.105724335 0.06341629
0000e0 8f 2b 77 bd ab 9d 74 3d 19 e8 1f 3d 72 cc 3f bc
       -0.060344275 0.059720676 0.039039705 -0.011706458
0000f0 6c c2 cb bc 17 01 8c 3c 2c b1 84 bd b8 b7 4e bd
       -0.024872981 0.017090363 -0.06479105 -0.050468177
000100 d4 9d c8 3a 4e af 6b bd ef 33 82 3c cc d0 18 3d
       0.0015305826 -0.05754023 0.015893904 0.0373085
000110 5b c5 a5 3d 5d 27 2d 3d d7 e5 41 bd 6e f6 c1 3d
       0.08094283 0.042273868 -0.047338333 0.09470831
000120 73 a3 62 3d 70 dc 42 3d 91 1c 03 bc d2 3e 8d 3d
       0.05533166 0.047573507 -0.008002416 0.06896748
000130 b7 88 34 bd b7 8d e4 bc 2a 40 85 bd 96 cb a4 bc
       -0.044075694 -0.027899606 -0.06506379 -0.020116609
000140 bd 8e 2a bb 58 7d 18 3d 4a 1f c6 bb b3 c8 35 bc
       -0.002602502 0.037228912 -0.0060462104 -0.011095214
000150 fc f4 d8 3b a6 f0 a7 3d c6 4e 47 3d 16 38 68 3d
       0.0066210013 0.08200197 0.04865911 0.056694113
000160 ea 05 7a 3d 60 61 04 bd 31 fa 9b bb 32 10 7e 3d
       0.061040796 -0.032319427 -0.0047600497 0.062027164
000170 d9 1d e3 3c f8 c3 a8 3d dc 74 fb bc 03 ea 85 bb
       0.027724193 0.08240503 -0.030695371 -0.0040867343
000180 75 0f b7 3c 88 b5 ce bc 47 66 65 bd dd c8 10 bd
       0.022346238 -0.025233045 -0.056005742 -0.03534781
000190 bd f8 de bd 55 98 56 bd e3 97 7b bd cc e9 8c bb
       -0.10887287 -0.05239137 -0.061424147 -0.0043003317
0001a0 63 db 00 bc 26 4c 67 3c de e1 3e 3d 52 74 6a 3d
       -0.007864806 0.014117276 0.046602122 0.057239838
0001b0 81 65 f1 3c 6d dc 09 bd b0 80 65 3d 1d 2e 2f bc
       0.029467346 -0.03365748 0.05603093 -0.010692147
0001c0 70 a3 a1 bd 1a 4b b8 3b 4b 39 aa 3c 32 98 e9 3c
       -0.07892501 0.005624187 0.020779273 0.028514955
0001d0 51 9b a2 bc 8a 44 45 3b fe ec 53 3d 66 19 8a bd
       -0.019849451 0.0030100667 0.051739685 -0.067431256
0001e0 d2 f7 a5 3d bd fe 84 bc 6b 33 c9 bd 97 1d 0a 3d
       0.081039086 -0.01623475 -0.0982426 0.033719625
0001f0 f0 ea d5 3d 1a 68 86 bc 96 13 9f 3d 53 c8 31 3c
       0.104452014 -0.016407061 0.077674076 0.010850984
000200 15 e2 7a bb b7 14 d4 3c 74 fe 58 bd c4 89 64 3d
       -0.0038281728 0.025888784 -0.05297704 0.055795446
000210 63 8e a2 bc 16 d4 63 3c 7c 74 4c bd 67 69 aa 3b
       -0.019843286 0.013905546 -0.049915776 0.005200553
000220 fa d1 46 bd cd 5a cc bc a3 ac f7 bc 3c a1 21 bb
       -0.048540093 -0.024945641 -0.030233687 -0.0024662754
000230 05 80 31 3d 2e f1 b1 bd 78 b5 9d bd 81 a0 32 bd
       0.04333498 -0.086885795 -0.07700628 -0.0436101
000240 3a 64 8b bc 9e 0e 38 3d af a0 07 3b 47 6a 19 bc
       -0.017015565 0.044935815 0.002069514 -0.009363717
000250 83 99 81 3d 7d 66 2f 3d af a7 49 3c 6a 36 a5 3d
       0.06328108 0.04282235 0.012308045 0.08067019
000260 47 45 c8 3b 37 99 66 bd a2 cf 69 bd cd c8 9d 3c
       0.006111774 -0.05629846 -0.05708278 0.019260788
000270 d4 b4 a0 3c 3e 16 86 3c 72 3f 85 3d f5 3c db 3c
       0.019617476 0.016368028 0.06506242 0.026762465
000280 7c 18 b4 bc d9 7f 33 bd bf 21 e6 ba 45 96 d0 bc
       -0.021984331 -0.043823097 -0.0017557665 -0.02546228
000290 b7 2b 7c 3d 2f fd 66 3d 73 c6 86 bd 4d d7 24 3d
       0.061565127 0.0563938 -0.0658082 0.04024439
0002a0 50 8d 73 3b 59 00 54 bd 4b 40 eb ba ef 4e 73 bd
       0.0037163086 -0.051758144 -0.0017948238 -0.05940145
0002b0 84 f2 63 3d 56 6f 8d bd 36 97 17 3d 75 5f 9b bd
       0.055651203 -0.06906001 0.03700944 -0.07586566
0002c0 d7 4d c8 bc 11 83 68 bc 42 06 c0 bc a6 dc a5 3b
       -0.02445118 -0.014191405 -0.023440484 0.0050617037
0002d0 db 50 e6 bc 27 6f 10 bd fb f8 fd bc 12 2b 21 bc
       -0.028114727 -0.035262253 -0.031002512 -0.009836929
0002e0 d5 da 95 3c 05 e4 14 bd ea 82 dd bc 0c f2 c0 3d
       0.018292824 -0.03635027 -0.027039964 0.09421167
0002f0 ae e7 93 3d 16 3f 5e bd 0e 66 61 3d 0b 9f 7f bd
       0.07221924 -0.054259382 0.055028968 -0.062407535
000300 7e ab 2c 3b e2 47 f0 3b 53 f0 5d 3d e4 90 3f bd
       0.0026347334 0.007332788 0.05418427 -0.046769038
000310 b1 12 1d 3d 9a 94 07 3d 03 83 42 bd fc c2 fb 3c
       0.038347904 0.033100702 -0.047488224 0.030732624
000320 2c d0 de 3c a3 97 67 3d 41 af 81 bb 87 89 18 3d
       0.027198873 0.056541096 -0.0039576595 0.03724053
000330 3c 08 8f bd 0e 7e 75 bd 5e d9 56 bd eb 21 69 3d
       -0.069839925 -0.05993467 -0.05245339 0.056917112
000340 84 cf e3 bc 36 3d 49 3d f4 d9 32 bc f0 80 06 3b
       -0.027808912 0.04913064 -0.010916222 0.002052363
000350 fe 42 02 3d 6b 79 56 bd 7f 5c 93 bd e4 49 b2 bc
       0.03180217 -0.052361887 -0.071953766 -0.02176375
000360 2a 4e be bc 79 ad a9 3c 70 99 0a bd 17 37 30 bd
       -0.02323063 0.020712601 -0.033837736 -0.043021288
000370 b6 8f 1c 3d 1e 1f 47 3d 4c c5 5e bd d5 50 da bc
       0.03822299 0.04861366 -0.054387376 -0.026649872
000380 30 11 ec bc 7d fe 7f bd b6 9f ef 3c 18 45 37 bd
       -0.02881679 -0.06249856 0.02925096 -0.044743627
000390 7b 13 0b bd 3b da cb b9 04 32 33 3d a4 c8 e2 3c
       -0.033954125 -0.00038881772 0.04374887 0.027683564
0003a0 0f 11 2c 3d bd 40 d5 bc 27 50 4d bd fa 43 bd bb
       0.042008456 -0.026031846 -0.050125267 -0.0057759257
0003b0 0c da d1 bb 42 47 a2 bc 2d 5e 8b 3d dd 99 23 3c
       -0.006404167 -0.019809369 0.06805072 0.009985414
0003c0 4c 44 b4 bb 29 53 da 3c a3 e6 24 bc 1d 3b f8 3c
       -0.0055013057 0.026650982 -0.010064754 0.030301625
0003d0 2d 46 6b bd 84 63 fa bc 79 f6 b4 bc 34 e5 c2 bb
       -0.05743997 -0.03056503 -0.022090184 -0.0059477333
0003e0 4f 55 7a bc 8a c3 80 bd f3 7b 1b 3c 37 a7 e4 bc
       -0.015279128 -0.06287296 0.009490001 -0.027911766
0003f0 b0 0d 63 bd 15 dd 92 bd 71 8a 9c 3d a3 3b 8c 3d
       -0.055432975 -0.07171074 0.07643593 0.06847312

decoder.attn.bias f4 [15]
000000 d9 44 38 bd 13 26 91 bd 4d 97 c2 3d b9 dd a0 3e
       -0.044987533 -0.0708734 0.095015146 0.3141916
000010 1d 3c 4a 3d 48 85 76 3e c6 9c 4d 3e 34 72 b3 bd
       0.049373735 0.2407428 0.20079336 -0.08762017
000020 02 d0 b6 3d 14 50 66 bd b6 c6 d5 bd 36 a6 be bd
       0.08926393 -0.056228712 -0.10438292 -0.09309046
000030 6d 06 15 be 69 9e 69 be 26 c1 33 be
       -0.14553232 -0.22814335 -0.17554149
