best_models/seq2seq-1-5.254667.pt (torch, 17679 bytes, 16 tensors)

encoder.embedding.weight f4 [142, 5]
1.0978687 -0.36874032 -1.476715 0.2998611 0.34692803 1.16235 1.4100266 -2.161519
1.6277508 -0.5750868 -0.1643894 0.48230425 -0.3088845 -1.0811765 -1.0079274 0.8010493
-0.3202497 -0.86484486 -0.81389964 2.809232 0.64258814 -0.24174267 0.9937272 1.0112373
1.5190121 -0.18594825 1.0122826 -0.5262978 -0.20812497 -1.3843633 -0.92861325 -0.47492585
0.64642686 -0.18331696 3.1137674 -0.87105155 1.8984294 0.20807947 2.0666757 -0.32210392
0.76719725 0.47264612 0.23411363 0.97546536 -0.015345614 0.1319459 -1.0561326 1.9063293
0.5229324 1.9134398 -0.66371983 0.3735108 -1.043213 0.19002476 -0.9780078 -1.415468
0.8501266 0.0031893023 0.20295961 0.369674 0.70533943 0.2958102 0.32448813 1.6033075
0.73183656 -0.6171781 -1.1996312 0.3591099 0.95449287 2.4029007 1.5310614 1.1481509
0.21343325 -1.2102437 1.3953377 -0.94401526 -0.77663535 -0.04207967 0.32365134 -0.05885731
-0.55592775 0.45044377 0.837598 0.5843758 1.6363088 -0.30801395 -0.04322391 0.16824225
1.9894975 0.559246 2.5083046 -0.25763544 0.263651 -1.5808421 -1.1663467 0.94859564
0.24449565 0.5791005 0.63811755 -0.7593499 -0.13025467 -0.34188935 -0.48258963 -2.3021822
-0.05554107 -0.50261706 -0.2540197 0.83569694 1.7209792 -0.5551313 -0.7625313 0.62503225
1.3925768 0.50178105 0.2881914 -1.3229038 -1.6771698 0.50533384 0.9184493 -2.1011722
0.44129738 -1.4140695 0.78884953 1.6837393 -0.27204266 -1.9860585 -0.59619135 -0.94508684
-0.14995942 -0.053464197 0.700637 0.049913373 -1.4656082 -0.85753256 0.0628644 -0.76184535
-0.014802378 -0.46846914 -1.6115056 -0.35025042 1.9964769 -0.06409895 0.68802756 1.5009665
0.8183431 -1.0648509 1.6734174 0.9266271 -0.06918663 3.0690293 1.2017461 -0.42089218
-0.93949693 0.7299601 0.75075394 1.9173709 -0.6507134 0.0025159775 0.561806 -1.6919775
-1.6711495 2.2132409 0.56544447 -1.6868681 0.37883094 0.28008235 1.0797073 1.8221526
-0.26101342 -0.12977417 -2.4910607 -0.49126136 0.66726065 -0.28278577 1.50434 1.0258482
-0.9633017 0.12181583 0.6412825 0.30167997 -0.6783541 -1.106735 -1.174646 -0.03099482
-0.53067756 1.9675415 1.5399461 -0.028057344 0.0149708735 -0.081654556 -2.0804079 -0.28762046
0.9915808 -1.4894166 -0.21749434 0.83762753 -0.96848273 0.9216102 1.8007178 1.5583582
-1.0490681 -0.20386377 0.22790718 1.0984806 -0.84186935 0.6996124 1.592672 -1.0015061
-0.8697034 1.2596503 -1.7595059 -2.3379204 -0.3514736 -2.4795601 -0.24694389 0.4009474
1.1365914 -0.3779157 0.102452576 0.82014227 -0.29741752 0.0074796644 -0.13172823 -0.93206227
0.01804143 -0.13272192 0.45912784 -0.7096672 0.28693697 -0.4304056 -1.7679427 0.38551775
-0.41079897 -2.0251863 0.8434904 -1.8170865 0.7280389 0.6376247 1.8330137 -1.5281063
-1.4894208 -0.14080459 -0.64231294 -0.37087578 -0.09117314 -0.84326434 -0.7912941 -1.8696017
-0.55147463 -0.6013218 1.648972 -0.066822484 1.3635217 0.74675345 0.7833619 0.4099582
00000000: f686 8c3f 88cb bcbe ff04 bdbf 6587 993e
00000010: 8da0 b13e e3c7 943f c07b b43f 5456 0ac0
00000020: 235a d03f e338 13bf b255 28be 95f0 f63e
00000030: 1c26 9ebe fe63 8abf c403 81bf 9111 4d3f
00000040: c5f7 a3be 7966 5dbf ba5b 50bf 75ca 3340
00000050: a880 243f 648b 77be e864 7e3f 3970 813f
00000060: fd6e c23f 3869 3ebe 7a92 813f 74bb 06bf
00000070: b61e 55be d132 b1bf 99b9 6dbf 7b29 f3be
00000080: 3b7c 253f 71b7 3bbe f747 4740 3cfd 5ebf
00000090: bcff f23f c912 553e 6a44 0440 ceea a4be
000000a0: 0a67 443f acfe f13e 7cbb 6f3e 19b8 793f
000000b0: 2c6c 7bbc d31c 073e 5a2f 87bf 9902 f43f
000000c0: e6de 053f 98eb f43f 8be9 29bf cf3c bf3e
000000d0: 0188 85bf da95 423e b85e 7abf 0e2e b5bf
000000e0: e6a1 593f 9d03 513b a5d4 4f3e e945 bd3e
000000f0: 2091 343f 6f74 973e 4f23 a63e 2e39 cd3f
00000100: a459 3b3f 62ff 1dbf 848d 99bf 41dd b73e
00000110: a559 743f 20c9 1940 d2f9 c33f 9cf6 923f
00000120: 3f8e 5a3e 44e9 9abf 6d9a b23f fcaa 71bf
00000130: 93d1 46bf bb5b 2cbd a1b5 a53e 5d14 71bd
00000140: 4851 0ebf 91a0 e63e d36c 563f a799 153f
00000150: 9172 d13f 01b4 9dbe 8e0b 31bd b247 2c3e
00000160: dba7 fe3f bf2a 0f3f 1088 2040 cbe8 83be
00000170: 44fd 863e 0959 cabf d94a 95bf 2ad7 723f
00000180: 115d 7a3e ee3f 143f ac5b 233f c164 42bf
00000190: 7b61 05be 1f0c afbe fd15 f7be f456 13c0
000001a0: 087f 63bd 83ab 00bf df0e 82be 3cf0 553f
000001b0: 0c49 dc3f 161d 0ebf 4035 43bf 1d02 203f
000001c0: f53f b23f b974 003f d38d 933e e954 a9bf
000001d0: 80ad d6bf 8f5d 013f 7e1f 6b3f 9b79 06c0
000001e0: bbf1 e13e 3b00 b5bf 0bf2 493f c584 d73f
000001f0: 2d49 8bbe 2a37 febf ff9f 18bf 36f1 71bf
00000200: f68e 19be 46fd 5abd f25c 333f f771 4c3d
00000210: 0d99 bbbf 4187 5bbf 0dbf 803d 4c08 43bf
00000220: ac85 72bc 30db efbe d145 cebf 0654 b3be
00000230: 8e8c ff3f 4f46 83bd 9322 303f ac1f c03f
00000240: ef7e 513f 094d 88bf 8b32 d63f 6f37 6d3f
00000250: b8b1 8dbd fa6a 4440 d1d2 993f 2e7f d7be
00000260: df82 70bf aade 3a3f 6931 403f 696c f53f
00000270: 2795 26bf 19e3 243b 85d2 0f3f b892 d8bf
00000280: 3ae8 d5bf bda5 0d40 f8c0 103f 4beb d7bf
00000290: 21f6 c13e f466 8f3e d933 8a3f 4c3c e93f
000002a0: 8da3 85be 85e3 04be 8a6d 1fc0 9c86 fbbe
000002b0: 98d1 2a3f 4cc9 90be 378e c03f fe4e 833f
000002c0: f19a 76bf 947a f93d 172b 243f cc75 9a3e
000002d0: 9da8 2dbf 7ea9 8dbf cd5a 96bf d9e8 fdbc
000002e0: 7cda 07bf 66d8 fb3f f41c c53f 84d8 e5bc
000002f0: 6548 753c 813a a7bd 6725 05c0 fd42 93be
00000300: 3dd8 7d3f 34a5 bebf d6b6 5ebe c26e 563f
00000310: 7cee 77bf a5ee 6b3f ec7d e63f 4878 c73f
00000320: dd47 86bf aac1 50be 8060 693e 039b 8c3f
00000330: c084 57bf cc19 333f addc cb3f 5a31 80bf
00000340: e2a4 5ebf 393c a13f 7d37 e1bf 7da0 15c0
00000350: 59f4 b3be 1db1 1ec0 dcde 7cbe fa48 cd3e
00000360: d47b 913f 2b7e c1be a8d2 d13d d8f4 513f
00000370: 1c47 98be f917 f53b c4e3 06be a29b 6ebf
00000380: 9fcb 933c 41e8 07be ce12 eb3e c0ac 35bf
00000390: 67e9 923e 1f5e dcbe f24b e2bf 9562 c53e
000003a0: 3e54 d2be a79c 01c0 fdee 573f 4a96 e8bf
000003b0: c260 3a3f 5f3b 233f 31a0 ea3f fd98 c3bf
000003c0: 57a5 bebf 142f 10be 9f6e 24bf 6ee3 bdbe
000003d0: fcb8 babd 2ce0 57bf 4092 4abf 1c4f efbf
000003e0: 712d 0dbf 3af0 19bf 8411 d33f 3ada 88bd
000003f0: e187 ae3f 3c2b 3f3f 688a 483f 0be6 d13e

encoder.gru.weight_ih_l0 f4 [15, 5]
0.057269476 -0.0787042 -0.05488941 0.43693143 0.08580012 -0.04791446 -0.11450926 -0.14333583
0.046070293 -0.19353834 -0.122476205 0.20479429 0.4374777 0.16665633 -0.2839834 -0.103631735
0.42248487 0.10277531 0.24746168 0.33535165 0.16181572 -0.18857047 0.1674156 0.33968064
-0.21561268 -0.43538252 0.40739575 0.18274802 -0.01657113 -0.2083765 0.23981532 -0.39718458
-0.26734897 -0.24607904 -0.29135412 -0.13068207 -0.25634223 0.4393259 -0.037642974 -0.4241359
-0.17687991 -0.1444682 -0.15584873 -0.16983072 -0.00022900142 -0.2121481 -0.09911456 0.109176576
0.12413882 -0.15978757 0.28218794 -0.3956775 -0.13150251 -0.04961389 0.32806176 -0.27283022
0.23510946 -0.32965446 0.14416575 -0.2375047 -0.26790094 -0.12863901 0.42083713 -0.22871666
0.15733054 0.17353629 0.27828038 -0.14587505 0.08098532 0.084762454 0.28834045 -0.06837882
-0.30620185 0.42359912 -0.3678433
00000000: 6693 6a3d ab2f a1bd b8d3 60bd 7ab5 df3e
00000010: f9b7 af3d f441 44bd d583 eabd a1c6 12be
00000020: 34b4 3c3d ea2e 46be ced4 fabd 98b5 513e
00000030: 14fd df3e f5a7 2a3e 4666 91be e03c d4bd
00000040: f04f d83e dd7b d23d 9866 7d3e 36b3 ab3e
00000050: 05b3 253e 9e18 41be ff6e 2b3e 9fea ad3e
00000060: 92c9 5cbe 75ea debe 2d96 d03e 4c22 3b3e
00000070: 2ec0 87bc a660 55be 2692 753e c75b cbbe
00000080: f7e1 88be 25fc 7bbe 5e2c 95be 85d1 05be
00000090: 4a3f 83be 53ef e03e 852f 1abd 5728 d9be
000000a0: 0220 35be 79ef 13be cf96 1fbe 1be8 2dbe
000000b0: 1a20 70b9 5a3d 59be 93fc cabd f897 df3d
000000c0: 7e3c fe3d 5a9f 23be f07a 903e 3e96 cabe
000000d0: 98a8 06be ef37 4bbd b6f7 a73e 67b0 8bbe
000000e0: 89c0 703e 78c8 a8be 30a0 133e 6f34 73be
000000f0: 502a 89be f2b9 03be f777 d73e b334 6abe
00000100: 421b 213e 7fb3 313e c47a 8e3e 4560 15be
00000110: a2db a53d f097 ad3d 5ca1 933e 320a 8cbd
00000120: 7dc6 9cbe fce1 d83e f555 bcbe

encoder.gru.weight_hh_l0 f4 [15, 5]
0.06337991 0.21685047 0.42403942 0.19114406 0.07329899 -0.09518899 0.3381467 -0.4470148
0.22455254 0.3075799 -0.22938825 -0.062222257 0.35121897 0.048871607 -0.11292442 -0.44476363
0.31821123 -0.36622494 -0.31758076 0.14554118 -0.028818283 0.214515 -0.11920862 -0.3385844
0.41102952 0.008892489 0.12032367 -0.26906526 0.3485467 -0.022876672 0.116870284 -0.11604846
0.06659791 -0.32265815 -0.049028326 -0.021120964 0.1905685 -0.32181156 0.032384958 0.09784475
0.087864436 0.05524908 -0.07268039 -0.008724195 0.11785237 0.39876032 -0.32771283 -0.38717365
0.007906105 0.43040228 -0.046272367 0.34594932 -0.027261376 0.086163804 -0.082911626 0.3085118
-0.21475537 0.41225368 0.23645589 0.120341055 0.07489314 -0.2523165 -0.36510918 -0.30052608
-0.42054927 -0.2922049 0.39227462 -0.04277046 -0.27293605 0.29588935 -0.3293794 -0.0805228
-0.046693206 -0.010574198 -0.31812975
00000000: 54cd 813d 0d0e 5e3e b21b d93e 45bb 433e
00000010: c81d 963d 72f2 c2bd 9021 ad3e 20df e4be
00000020: 1af1 653e 1d7b 9d3e c1e4 6abe c4dc 7ebd
00000030: f9d2 b33e 982d 483d eb44 e7bd 0fb8 e3be
00000040: 95ec a23e d681 bbbe f299 a2be bf08 153e
00000050: 5214 ecbc d2a9 5b3e a623 f4bd ef5a adbe
00000060: 7672 d23e cdb1 113c 426c f63d ecc2 89be
00000070: b774 b23e dc67 bbbc b059 ef3d d1aa edbd
00000080: 7c64 883d 7333 a5be edd1 48bd df05 adbc
00000090: 6424 433e 7cc4 a4be 17a6 043d d462 c83d
000000a0: 45f2 b33d dc4c 623d 75d9 94bd edef 0ebc
000000b0: 955c f13d 502a cc3e fac9 a7be a03b c6be
000000c0: 9c88 013c b05d dc3e 1888 3dbd 4520 b13e
000000d0: 4053 dfbc a676 b03d 92cd a9bd 42f5 9d3e
000000e0: d5e8 5bbe ea12 d33e 7e21 723e 5f75 f63d
000000f0: 9361 993d a12f 81be 97ef babe 8ede 99be
00000100: 3c52 d7be e19b 95be 38d8 c83e 1430 2fbd
00000110: 46be 8bbe cf7e 973e 6ba4 a8be 23e9 a4bd
00000120: 6041 3fbd 673f 2dbc e7e1 a2be

encoder.gru.bias_ih_l0 f4 [15]
-0.08939339 -0.3286772 -0.22174692 0.32693663 -0.35283145 -0.13461663 -0.43887416 0.283161
-0.33623806 -0.05873388 0.022639226 0.29514238 -0.15924317 -0.037460737 0.10446538
00000000: e213 b7bd 6148 a8be a011 63be 3d64 a73e
00000010: 53a6 b4be f1d8 09be 1db4 e0be 7bfa 903e
00000020: 6527 acbe f092 70bd e675 b93c e71c 973e
00000030: a410 23be 6e70 19bd f2f1 d53d

encoder.gru.bias_hh_l0 f4 [15]
-0.3018609 0.018937953 -0.115315504 0.047806032 -0.11510688 0.111283794 0.3426262 -0.15846136
-0.26353717 0.35104582 0.33340657 -0.32052612 -0.19766837 0.18167137 0.32913238
00000000: 838d 9abe c423 9b3c 892a ecbd 42d0 433d
00000010: 28bd ebbd c2e8 e33d b46c af3e b243 22be
00000020: 58ee 86be 47bc b33e 44b4 aa3e 001c a4be
00000030: 9469 4abe 0f08 3a3e 0a84 a83e

decoder.embedding.weight f4 [163, 5]
-0.32725853 -0.080519475 -0.5920611 0.47794357 1.0523161 0.3034931 -0.2890745 -0.013822194
-0.48442593 1.1021158 -0.61488134 0.76765335 0.7118092 0.67032003 0.085718766 -0.45759517
0.5653555 0.19080667 -0.45997784 1.5306134 0.29384643 -0.49095377 0.5761679 0.42906612
0.29479626 -1.4435308 1.8769889 0.36350307 -1.6849153 -1.489332 0.5490528 1.060897
1.4824046 0.9052627 1.3701173 0.22285964 1.3402117 0.18605682 0.30604392 -0.16923845
0.13575052 -0.7336508 -0.11602111 0.61039174 -0.97543204 2.3057663 -0.04145868 0.2465722
-1.5214517 1.2852167 -0.33730862 0.8289009 -0.7392559 0.7759246 -1.2837567 -0.050812185
1.1021138 0.82212424 -1.4848409 -0.51855946 0.9589319 -1.8996826 -2.2069945 -0.6187104
-0.72299457 -0.5051895 0.4015358 -1.1128749 -0.019008009 0.12962799 -1.3755622 -1.135584
-0.31695858 1.067947 -0.71422297 -0.83739597 0.16042635 -0.25900292 -2.038533 0.4219546
1.2778776 -0.36726615 1.0813558 0.7138422 -0.5501919 0.2660461 -0.9195401 -0.48619065
-0.05251437 -0.86149937 0.1118713 -1.0838258 1.4670528 1.3439898 0.1423499 -2.0859892
-0.2421426 -0.6786223 0.02184717 0.5715629 -0.9992445 0.9484953 0.28293687 0.14700337
-0.6655421 1.2474084 -0.040686842 -0.7938032 -1.2671472 2.753191 -1.2409086 1.9841665
0.7570763 2.0219848 0.57354635 1.10426 0.3261997 -0.014752271 -1.2064986 0.8436307
0.7918075 0.12520555 -1.0576314 0.21087778 1.058065 -0.53888845 -1.1947055 0.9586273
-0.10350011 -0.5664973 -1.4887452 0.93531775 -2.4255652 -0.53842044 0.6562761 -0.7899585
0.17467766 0.9167704 -0.3176022 2.3307862 -0.59826326 0.80418533 -0.8897107 -0.25001377
0.09248925 0.9551252 0.8446138 -0.5382504 0.075774215 -0.4058028 -0.052671596 0.32667065
-0.16201785 0.013240797 1.0926067 -0.15287553 -0.61048204 -0.58171886 -0.35327825 -0.6781786
-1.3182975 0.3358616 -0.38380554 -0.95572853 -0.061583452 0.67272145 -0.7078704 -0.86158866
-0.14468431 -0.21371321 1.5901166 1.1917171 0.3415613 0.48211947 -2.1069129 -1.11787
-0.63353235 -0.37018275 -1.0220674 0.21082321 -1.0737388 -1.8005757 -0.2076436 0.7242016
-0.2813604 1.0474856 -0.76670647 0.91713834 0.4448184 -0.73796594 -0.11781884 0.43081874
0.6095381 -1.2686554 1.22852 0.4021258 0.49193186 -1.7054652 0.82636875 -0.8699941
-0.24823177 -1.367698 0.9827088 -0.4279417 0.68887 0.6279476 -1.4971471 -0.39291263
0.0616182 -0.20060587 0.038428232 0.02332011 0.03317502 0.8750123 -0.5339962 -0.78228885
0.3604261 0.29770952 0.838779 -2.129287 -0.03881216 -1.687215 -0.3702903 -1.6698363
0.3635245 -0.4352692 0.8607256 -0.9208953 -0.2882898 0.26998338 -1.9472303 1.358432
0.29884285 0.21605359 -0.8105792 0.31591564 1.09949 -1.2685403 -1.2477708 0.9856809
-2.0364814 -0.78103346 -0.036495302 0.61517 -0.9253314 2.084429 0.8016749 -0.45735273
-1.1762757 0.62831455 0.5111726 -0.5680876 -0.66785616 -0.090982355 0.15560202 0.25704098
00000000: 6e8e a7be 65e7 a4bd 5191 17bf 05b5 f43e
00000010: 4bb2 863f 7363 9b3e 9301 94be 7c76 62bc
00000020: ad06 f8be 2112 8d3f dd68 1dbf ee84 443f
00000030: 2139 363f 189a 2b3f 528d af3d ea49 eabe
00000040: 23bb 103f d362 433e 3782 ebbe 24eb c33f
00000050: 0a73 963e 4b5e fbbe bd7f 133f 8eae db3e
00000060: 89ef 963e 9ec5 b8bf 2c41 f03f 131d ba3e
00000070: 4eab d7bf 6ea2 bebf b98e 0c3f 79cb 873f
00000080: 6fbf bd3f 4cbf 673f 0160 af3f 5135 643e
00000090: 0f8c ab3f ae85 3e3e cab1 9c3e d84c 2dbe
000000a0: 2f02 0b3e 8ad0 3bbf 7a9c edbd a242 1c3f
000000b0: eab5 79bf ad91 1340 94d0 29bd 6c7d 7c3e
000000c0: eebe c2bf fb81 a43f b7b3 acbe d932 543f
000000d0: e03f 3dbf ffa2 463f 2452 a4bf 7020 50bd
000000e0: 1112 8d3f bc76 523f 440f bebf 50c0 04bf
000000f0: 907c 753f cd28 f3bf 663f 0dc0 ce63 1ebf
00000100: 2c16 39bf 1954 01bf 1a96 cd3e af72 8ebf
00000110: afb6 9bbc 33bd 043e 6c12 b0bf d15a 91bf
00000120: 6548 a2be 7db2 883f 51d7 36bf 955f 56bf
00000130: ce46 243e 089c 84be 5377 02c0 6f0a d83e
00000140: 7e91 a33f 4f0a bcbe de69 8a3f 5dbe 363f
00000150: 60d9 0cbf 3237 883e fb66 6bbf fbed f8be
00000160: 4f19 57bd 398b 5cbf c81c e53d ceba 8abf
00000170: 63c8 bb3f dc07 ac3f 2cc4 113e d980 05c0
00000180: 3bf4 77be 31ba 2dbf d6f8 b23c f251 123f
00000190: 7dce 7fbf 97d0 723f 1add 903e 0d88 163e
000001a0: f860 2abf 14ab 9f3f 3fa7 26bd b036 4bbf
000001b0: e131 a2bf 4834 3040 18d6 9ebf 2bf9 fd3f
000001c0: c1cf 413f 3368 0140 efd3 123f 6458 8d3f
000001d0: a603 a73e 82b3 71bc 8c6e 9abf 2ef8 573f
000001e0: e5b3 4a3f e235 003e 7760 87bf 58f0 573e
000001f0: ad6e 873f 98f4 09bf 1cec 98bf 9968 753f
00000200: def7 d3bd f805 11bf 348f bebf fc70 6f3f
00000210: 763c 1bc0 ecd5 09bf b601 283f b83a 4abf
00000220: b3de 323e 77b1 6a3f c19c a2be 9a2b 1540
00000230: c827 19bf 17df 4d3f 15c4 63bf ce01 80be
00000240: 016b bd3d 1683 743f 9c38 583f c7ca 09bf
00000250: 832f 9b3d 62c5 cfbe 2cbe 57bd 6041 a73e
00000260: 02e8 25be eeef 583c 89da 8b3f 678b 1cbe
00000270: 8d48 1cbf 87eb 14bf e3e0 b4be 1d9d 2dbf
00000280: f9bd a8bf 0df6 ab3e 2982 c4be a0aa 74bf
00000290: ee3e 7cbd 7937 2c3f ff36 35bf 1391 5cbf
000002a0: 2028 14be a3d7 5abe f188 cb3f 308a 983f
000002b0: 1fe1 ae3e 5dd8 f63e a9d7 06c0 5d16 8fbf
000002c0: 2d2f 22bf 9888 bdbe 1bd3 82bf 0ae2 573e
000002d0: 4670 89bf 4479 e6bf 86a0 54be 4765 393f
000002e0: 780e 90be 0214 863f e046 44bf 94c9 6a3f
000002f0: 3dbf e33e 56eb 3cbf 014b f1bd 4694 dc3e
00000300: b00a 1c3f 4d63 a2bf 2540 9d3f 6fe3 cd3e
00000310: 7ede fb3e af4c dabf e78c 533f efb7 5ebf
00000320: 7830 7ebe ba10 afbf ce92 7b3f 2d1b dbbe
00000330: c959 303f 2dc1 203f 84a2 bfbf d82b c9be
00000340: 5e63 7c3d a06b 4dbe ec66 1d3d d109 bf3c
00000350: 88e2 073d ce00 603f fab3 08bf 1544 48bf
00000360: c589 b83e 626d 983e 38ba 563f 3d46 08c0
00000370: 80f9 1ebd a9f6 d7bf b196 bdbe 32bd d5bf
00000380: e21f ba3e 9bdb debe 8358 5c3f cbbf 6bbf
00000390: b89a 93be 433b 8a3e d83e f9bf 1ae1 ad3f
000003a0: ee01 993e 273d 5d3e 1e82 4fbf b2bf a13e
000003b0: 17bc 8c3f 875f a2bf f4b6 9fbf 9555 7c3f
000003c0: b655 02c0 cff1 47bf 197c 15bd c87b 1d3f
000003d0: 85e2 6cbf 4967 0540 913a 4d3f 232a eabe
000003e0: 3490 96bf 39d9 203f 35dc 023f 306e 11bf
000003f0: 9ff8 2abf f554 babd 2356 1f3e e09a 833e

decoder.attn.weight f4 [15, 10]
-0.24535896 0.26175982 -0.28482154 0.22083895 -0.17777026 0.021251868 -0.25135106 0.21266632
0.20980394 0.012344262 -0.05260322 0.11408588 0.19605523 0.17507522 0.28420994 -0.043005608
-0.15115441 -0.11594214 0.23772317 -0.24706398 0.24784297 0.28065228 0.11348497 -0.12631227
0.055845667 0.20421836 0.21793535 0.20378369 0.04866973 -0.25311372 -0.27229333 0.13754438
0.22526889 -0.16329432 0.042834498 -0.21356674 0.2945828 -0.1316984 -0.014992605 -0.2337573
0.04006676 0.16762368 0.2285478 0.0011951372 -0.19826396 0.26603732 0.028705973 -0.058868974
-0.19131888 -0.04634891 0.29993957 0.09978938 0.20742267 0.1780402 -0.18645287 -0.13053292
-0.13184161 -0.11615035 -0.25287887 -0.2931323 0.18678029 -0.26106498 0.20319483 -0.0064744405
0.21004188 0.28829482 -0.07663983 -0.23602086 -0.14519885 0.057764634 -0.24661838 0.2912781
-0.023525182 0.23499724 -0.18710725 0.25492358 -0.20850782 -0.116758265 -0.28172868 0.0606892
-0.1762273 -0.07605003 0.31511572 0.26287842 0.067431994 0.16330105 0.18474832 -0.065389045
-0.22056057 0.30440548 0.098618135 0.21820521 0.22220264 -0.05010463 0.21702592 -0.16776831
-0.17016017 0.053020645 -0.30614424 -0.272864 0.18042783 0.067371994 0.16976286 0.116480544
-0.11046256 0.035949983 0.25553337 0.29394662 0.15787321 0.23149224 0.24590893 0.30585635
-0.15877202 0.022389542 0.2334467 0.025071934 -0.18520036 -0.22324969 0.18485269 -0.25471833
0.1448362 -0.23815247 0.026164643 -0.23809296 -0.021388805 -0.07456162 0.039778806 0.1719588
-0.2343234 -0.16166925 -0.2870338 -0.1818033 0.281821 0.17828614 -0.26953107 0.2029632
-0.26310754 0.058280036 -0.0084028235 -0.0057964497 -0.29700702 0.20634183 -0.29129294 -0.2266695
0.13902734 0.29077542 -0.072968304 -0.27597705 0.19859415 0.26260018
00000000: 613f 7bbe 6205 863e 21d4 91be 9b23 623e
00000010: 6809 36be 6618 ae3c 16b1 80be 33c5 593e
00000020: d8d6 563e 963f 4a3c 7976 57bd dca5 e93d
00000030: b4c2 483e eb46 333e f783 913e a626 30bd
00000040: 39c8 1abe 1373 edbd b46d 733e 57fe 7cbe
00000050: 8cca 7d3e a8b1 8f3e cf6a e83d 0158 01be
00000060: 6dbe 643d 9e1e 513e 722a 5f3e acac 503e
00000070: e959 473d 1f98 81be 086a 8bbe 6fd8 0c3e
00000080: e3ac 663e a036 27be 3a73 2f3d 3db1 5abe
00000090: 8fd3 963e f2db 06be 8ba3 75bc 135e 6fbe
000000a0: 0b1d 243d 8ba5 2b3e 6f08 6a3e 26a6 9c3a
000000b0: b505 4bbe 0b36 883e ca28 eb3c 9820 71bd
000000c0: 19e9 43be 5bd8 3dbd ae91 993e 605e cc3d
000000d0: 9c66 543e 2c50 363e 80ed 3ebe 6caa 05be
000000e0: 7d01 07be 3ce0 edbd 5779 81be 7015 96be
000000f0: 5543 3f3e 4faa 85be 4e12 503e 8b27 d4bb
00000100: 3815 573e 619b 933e 58f5 9cbd 74af 71be
00000110: 02af 14be 9c9a 6c3d 8789 7cbe 6722 953e
00000120: e2b7 c0bc 1ea3 703e 0b99 3fbe 5885 823e
00000130: 1383 55be f51e efbd be3e 90be 3d95 783d
00000140: ee74 34be 1ec0 9bbd d956 a13e 0098 863e
00000150: c919 8a3d 6438 273e aa2e 3d3e b1ea 85bd
00000160: a1da 61be 09db 9b3e 4ef8 c93d 3071 5f3e
00000170: 1789 633e 833a 4dbd 0b3c 5e3e 75cb 2bbe
00000180: 783e 2ebe 2d2c 593d f0be 9cbe d5b4 8bbe
00000190: 13c2 383e 54fa 893d 51d6 2d3e 5a8d ee3d
000001a0: 323a e2bd 4a40 133d 45d5 823e 2c80 963e
000001b0: 84a9 213e 4d0c 6d3e 8dcf 7b3e 3499 9c3e
000001c0: 2295 22be 466a b73c a70c 6f3e a863 cd3c
000001d0: 2aa5 3dbe 919b 64be 064a 3d3e 716a 82be
000001e0: f14f 143e 3ede 73be 3c57 d63c a4ce 73be
000001f0: 9337 afbc c3b3 98bd 1aef 223d f815 303e
00000200: 79f2 6fbe a08c 25be 18f6 92be a52a 3abe
00000210: d84a 903e a490 363e faff 89be 96d5 4f3e
00000220: 08b6 86be 0cb7 6e3d ffab 09bc 25f0 bdbb
00000230: 4e11 98be 464b 533e 5924 95be 0d1c 68be
00000240: 2f5d 0e3e 84e0 943e 6870 95bd dd4c 8dbe
00000250: 445c 4b3e 8873 863e

decoder.attn.bias f4 [15]
0.06856303 0.0585953 -0.17107277 0.2648798 -0.16497982 -0.15026958 0.034518607 -0.2571221
-0.07158137 0.0011770983 -0.17229132 0.21730089 0.23380382 0.18922055 -0.27950722
00000000: c66a 8c3d a001 703d b32d 2fbe 539e 873e
00000010: 78f0 28be 45e0 19be 6263 0d3d 82a5 83be
00000020: 4199 92bd dd48 9a3a 236d 30be 2084 5e3e
00000030: 456a 6f3e 08c3 413e 921b 8fbe

decoder.attn_combine.weight f4 [5, 10]
-0.12813388 0.030189043 -0.0008983248 0.06501228 -0.30843237 -0.16671307 0.10268057 -0.026064312
-0.14238645 0.29892993 0.02888841 0.12715259 -0.092501886 -0.16826452 -0.28730947 -0.14374454
-0.18052976 0.11647837 -0.29258135 0.0075970213 -0.06689334 -0.061863873 -0.033064123 0.24481978
-0.13926509 0.06213397 0.05700561 -0.12348251 0.15808666 -0.2706524 0.034855787 0.14012878
0.30289948 0.030937051 0.22790872 -0.30992696 -0.19460021 0.09558083 -0.14130297 0.30719033
-0.110974 -0.19555442 0.043854367 -0.12020822 0.11852538 0.23721471 0.03028861 -0.050989192
-0.023137625 0.040517725
00000000: 8735 03be 034f f73c 8f7d 6bba 2925 853d
00000010: d9ea 9dbe d5b6 2abe 314a d23d d384 d5bc
00000020: c1cd 11be 580d 993e 63a7 ec3c 4a34 023e
00000030: a171 bdbd 894d 2cbe 3a1a 93be c531 13be
00000040: cbdc 38be 368c ee3d 39cd 95be 6ff0 f83b
00000050: 60ff 88bd f964 7dbd 3f6e 07bd 09b2 7a3e
00000060: 829b 0ebe 3180 7e3d b77e 693d 66e4 fcbd
00000070: 78e1 213e f492 8abe f1c4 0e3d eb7d 0f3e
00000080: a415 9b3e b36f fd3c e760 693e bfae 9ebe
00000090: 4745 47be e2bf c33d bab1 10be 0d48 9d3e
000000a0: 5646 e3bd 6b3f 48be a3a0 333d ba2f f6bd
000000b0: 6fbd f23d 6ae8 723e d21f f83c 0bda 50bd
000000c0: 1e8b bdbc eaf5 253d

decoder.attn_combine.bias f4 [5]
-0.08650005 -0.13199009 0.1217663 -0.010432435 -0.19961572
00000000: f026 b1bd 6928 07be 9c60 f93d ceec 2abc
00000010: 1068 4cbe

decoder.gru.weight_ih_l0 f4 [15, 5]
-0.3139922 -0.4328298 0.26104593 0.051547725 -0.19753852 -0.025842499 0.23696658 0.013889659
0.17689553 -0.3732224 0.059054714 -0.2698127 0.14486834 -0.13497698 0.3375377 0.17430378
0.07644376 0.111047134 0.0107152015 0.43141398 0.42837003 0.12197096 0.24663013 -0.43191338
-0.09249937 0.06973383 0.14987764 0.14185879 0.00022312014 -0.15548976 0.23803726 -0.20125176
-0.16999123 -0.3549808 -0.13337362 -0.04013349 -0.30907822 -0.103529096 -0.29023293 -0.20118527
-0.34803796 0.12377458 0.25793523 -0.27741295 -0.32650438 -0.13080028 -0.3345251 0.32871056
0.03152298 -0.4189065 0.10610201 0.22288883 -0.038581844 0.43727127 0.19140346 0.089034125
-0.32294732 0.38988805 -0.12655285 -0.3125086 -0.010629565 -0.027946644 0.06319851 -0.028123295
0.34559038 -0.09987153 0.30178258 -0.38283643 0.42404595 0.37247294 -0.1647774 -0.24230124
0.4390043 0.01720115 0.27265117
00000000: 96c3 a0be de9b ddbe d0a7 853e b523 533d
00000010: 8a47 4abe a6b3 d3bc 5ea7 723e 7491 633c
00000020: 1a24 353e 0217 bfbe 5be3 713d e424 8abe
00000030: 5e58 143e 6837 0abe bed1 ac3e b17c 323e
00000040: 8c8e 9c3d ae6c e33d d08e 2f3c 4be2 dc3e
00000050: 5153 db3e e9cb f93d 9c8c 7c3e c023 ddbe
00000060: 4f70 bdbd 9cd0 8e3d 8679 193e 6e43 113e
00000070: 5bf5 6939 b538 1fbe 0ac0 733e f114 4ebe
00000080: 2e12 2ebe 0bc0 b5be 1893 08be 0463 24bd
00000090: 803f 9ebe 1007 d4bd 6999 94be 8303 4ebe
000000a0: 0832 b2be 877d fd3d 1610 843e 1209 8ebe
000000b0: 952b a7be 82f0 05be e046 abbe c04c a83e
000000c0: 3e1e 013d ea7a d6be 034c d93d f83c 643e
000000d0: ff07 1ebd 05e2 df3e 45ff 433e 8657 b63d
000000e0: 5a59 a5be 689f c73e 1297 01be 2101 a0be
000000f0: a127 2ebc 5cf0 e4bc 386e 813d d362 e6bc
00000100: 39f1 b03e 7289 ccbd 3f83 9a3e 2303 c4be
00000110: 8d1c d93e c6b4 be3e 68bb 28be d11d 78be
00000120: 2cc5 e03e 6de9 8c3c ef98 8b3e

decoder.gru.weight_hh_l0 f4 [15, 5]
-0.097119376 -0.41745102 0.35282105 0.07772129 0.238775 0.03269013 -0.14152952 -0.23452833
-0.062423516 -0.1770795 0.124081396 -0.39320916 -0.33201346 -0.389272 0.070979066 0.41018173
0.18362814 -0.10108866 -0.2682862 -0.012476109 -0.19699444 -0.4286246 -0.3057212 -0.39771974
-0.34615254 0.2708467 0.06492702 0.09980049 0.108036526 -0.26302978 0.2596933 -0.302922
0.22974287 0.13450535 -0.12534809 -0.29344988 -0.04813016 0.16274565 0.31912446 -0.106039174
-0.06112757 -0.15183036 0.3676852 0.24335496 0.1676209 -0.09308488 0.3715119 0.13022089
-0.39104992 0.21537262 -0.15749463 -0.05137196 0.22017635 0.30570936 0.13445702 -0.12397602
0.31216928 0.14201628 -0.061773866 0.2079823 0.27039734 -0.12912369 -0.1648482 -0.16649093
0.26051286 0.25869405 -0.36485103 0.07662673 -0.1699664 -0.3589236 -0.008378461 0.3187588
-0.40066838 0.21888174 0.18127584
00000000: 86e6 c6bd 24bc d5be f6a4 b43e 572c 9f3d
00000010: 6f81 743e 16e6 053d 1ded 10be 3228 70be
00000020: cdaf 7fbd 5454 35be 631e fe3d b652 c9be
00000030: abfd a9be a94e c7be 795d 913d 5703 d23e
00000040: 0409 3c3e 9207 cfbd cf5c 89be 9868 4cbc
00000050: e9b8 49be af74 dbbe 7d87 9cbe eca1 cbbe
00000060: e83a b1be 6bac 8a3e 75f8 843d 3364 cc3d
00000070: 4142 dd3d d7ab 86be 85f6 843e 9818 9bbe
00000080: b741 6b3e c5bb 093e 405b 00be 103f 96be
00000090: 2124 45bd cca6 263e 4864 a33e 112b d9bd
000000a0: e760 7abd 6b79 1bbe 3c41 bc3e 0b32 793e
000000b0: d0a4 2b3e 49a3 bebd cf36 be3e a058 053e
000000c0: b237 c8be a48a 5c3e 4646 21be 686b 52bd
000000d0: e975 613e f085 9c3e 1aaf 093e 24e7 fdbd
000000e0: a7d4 9f3e b76c 113e 9806 7dbd 50f9 543e
000000f0: 8571 8a3e 0039 04be f7cd 28be 997c 2abe
00000100: f161 853e 8c73 843e c1cd babe 7aee 9c3d
00000110: ac0b 2ebe d6c4 b7be d045 09bc 5a34 a33e
00000120: 6824 cdbe 8922 603e 60a0 393e

decoder.gru.bias_ih_l0 f4 [15]
-0.3370378 -0.1698106 -0.13441886 0.3734491 0.044817537 -0.3479259 0.15098985 -0.40762892
0.008668118 0.31168047 -0.112839215 -0.0055101854 0.30638993 -0.39135617 0.32905072
00000000: 3890 acbe d4e2 2dbe 19a5 09be b834 bf3e
00000010: 9892 373d 5823 b2be 159d 1a3e bdb4 d0be
00000020: b904 0e3c 9594 9f3e 3f18 e7bd c98e b4bb
00000030: 24df 9c3e d65f c8be 5679 a83e

decoder.gru.bias_hh_l0 f4 [15]
-0.24162184 0.103226 0.1490833 -0.43724427 -0.050442874 0.062161382 0.1295131 -0.44630632
0.22371379 -0.073121324 0.4080728 -0.17381531 0.029111026 -0.2860209 0.4134732
00000000: b76b 77be 2768 d33d 4ba9 183e 7bde dfbe
00000010: 309d 4ebd ef9c 7e3d 159f 043e 4382 e4be
00000020: 3a15 653e a2c0 95bd ebee d03e a4fc 31be
00000030: 3f7a ee3c 5571 92be c2b2 d33e

decoder.out.weight f4 [163, 5]
0.29558483 -0.31606314 -0.008109046 0.00982968 0.38378024 -0.2858095 0.040485177 -0.38295844
-0.28119063 0.47429132 -0.15780362 0.024376623 0.1870683 0.40431312 0.4340347 -0.17084482
0.31718063 -0.41145 -0.16069992 0.44557187 0.14645313 0.26141787 0.38019997 0.40484822
-0.18329321 0.3657518 0.38921526 0.31764513 0.21116915 0.3826315 0.2632836 -0.16147178
-0.028053276 -0.166925 0.1290135 0.03600791 -0.37593934 -0.37886894 -0.30646935 0.141624
-0.19458437 0.23175696 -0.15964873 -0.0030500856 -0.39731464 -0.37770095 0.07280788 -0.08077435
0.43068144 -0.044049215 0.25531825 0.19820386 -0.26506042 0.24195756 0.24744609 0.33317932
0.33110905 -0.011186949 -0.26831275 0.2708877 -0.23367476 0.33268273 0.14076424 0.18376076
-0.14281382 0.026253793 -0.35508066 0.38243204 -0.13556813 0.4379425 0.4442518 0.20171262
0.06974151 -0.10590323 0.17933178 -0.30088064 0.003118303 -0.11415922 -0.22404999 0.18453224
0.18369153 -0.094872035 0.26229542 -0.24419565 -0.33494058 0.27961946 0.2531864 0.3990321
0.31292802 0.26655772 0.04850873 -0.38229975 -0.041561063 0.053955823 0.22174953 -0.38260415
0.25643036 -0.29167897 0.16467157 0.2514612 -0.42582145 -0.11488128 0.3421364 0.257649
0.40987778 -0.0021489752 -0.11317875 -0.29753435 0.06911941 -0.051405024 -0.08959493 0.2610718
-0.11953613 0.1792402 0.06628688 0.42046908 -0.2445875 0.13894553 0.26657858 -0.4485061
0.24382903 -0.28150696 -0.4330932 -0.15638776 -0.22005822 0.3993017 0.25227827 -0.38060433
-0.34207472 -0.37815192 -0.16588543 0.19696884 0.40063524 0.22068515 0.38873821 0.055274207
0.018527104 -0.2803161 0.23069027 -0.31023872 -0.3154709 -0.08503668 -0.084396586 0.2535722
-0.10769691 0.22627385 0.24426702 -0.0075009777 0.3098299 0.26272282 -0.11057955 -0.26292056
-0.07556045 0.019837303 -0.066497155 -0.17476685 -0.39205918 -0.16794395 0.39819488 -0.42414024
0.4389381 -0.113397524 0.20747215 -0.11422661 -0.17894447 -0.1084958 0.097850345 0.208663
-0.03978022 -0.017440317 -0.34948233 -0.19661427 0.008416744 -0.11476739 0.034132056 0.23838088
0.38483846 0.07967021 0.26321056 -0.19088012 -0.008041486 -0.017876167 0.117780484 0.38565814
-0.42277873 -0.43981358 -0.22840044 0.3800622 0.034803744 -0.3905263 0.3090892 0.35714123
-0.3112127 -0.27952522 -0.26799068 0.064604044 -0.33975825 -0.057696056 0.30828726 -0.08103518
-0.036985084 -0.05130994 -0.0914681 0.30942732 -0.15665604 0.12235458 0.08938586 0.35986376
-0.3844838 0.08139583 0.28076935 0.17512941 0.26004797 -0.4074535 -0.34320045 -0.16789825
0.16942298 0.13073395 -0.28282017 -0.04772861 0.17228815 0.15021178 0.037420537 0.051866796
0.042679574 0.34494346 -0.13246208 0.30208626 -0.36148426 -0.10644996 -0.20218237 -0.31507292
0.2331186 0.19576664 0.31236872 -0.3338804 0.012854319 -0.3200668 0.3751769 -0.12040521
-0.39340144 0.34806117 -0.10365504 -0.41241407 0.2808742 0.192879 -0.2877246 0.027438702
-0.10730182 0.066362865 0.26866764 0.19200963 -0.23301576 0.033713 -0.3087605 -0.10251025
00000000: e556 973e 07d3 a1be cedb 04bc ab0c 213c
00000010: d87e c43e 9f55 92be c9d3 253d 2113 c4be
00000020: 38f8 8fbe 50d6 f23e 4697 21be 7cb1 c73c
00000030: d58e 3f3e 2102 cf3e cc39 de3e f2f1 2ebe
00000040: 8065 a23e 93a9 d2be 858e 24be ff21 e43e
00000050: cff7 153e 90d8 853e 92a9 c23e 4448 cf3e
00000060: 37b1 3bbe d243 bb3e 3947 c73e 62a2 a23e
00000070: ba3c 583e 47e8 c33e 1ccd 863e dc58 25be
00000080: fccf e5bc 63ee 2abe 1d1c 043e 087d 133d
00000090: 1f7b c0be 1cfb c1be 8de9 9cbe e205 113e
000000a0: 2041 47be b251 6d3e f57a 23be f2e3 47bb
000000b0: d36c cbbe 0562 c1be 4c1c 953d 066d a5bd
000000c0: 4782 dc3e f36c 34bd 13b9 823e f4f5 4a3e
000000d0: 00b6 87be b9c3 773e 8262 7d3e 7b96 aa3e
000000e0: 2087 a93e 7749 37bc 4a60 89be cbb1 8a3e
000000f0: 7048 6fbe 6455 aa3e 8024 103e c82b 3c3e
00000100: c93d 12be 3212 d73c 22cd b5be 22ce c33e
00000110: 5fd2 0abe 003a e03e f974 e33e c18d 4e3e
00000120: a3d4 8e3d cbe3 d8bd c0a2 373e 070d 9abe
00000130: 715c 4c3b 4fcc e9bd 5c6d 65be 05f6 3c3e
00000140: a219 3c3e 454c c2bd 964b 863e 6d0e 7abe
00000150: 557d abbe 482a 8f3e a6a1 813e ef4d cc3e
00000160: 1a38 a03e 417a 883e 17b1 463d cbbc c3be
00000170: ef3b 2abd c800 5d3d 4f12 633e b1e4 c3be
00000180: d74a 833e f256 95be aa9f 283e 86bf 803e
00000190: 4505 dabe e046 ebbd 812c af3e 92ea 833e
000001a0: 80db d13e d2d5 0cbb 43ca e7bd 6c56 98be
000001b0: 7a8e 8d3d 138e 52bd 8c7d b7bd 34ab 853e
000001c0: 5ccf f4bd be8a 373e 6ac1 873d b947 d73e
000001d0: 2575 7abe bd47 0e3e fd7c 883e 97a2 e5be
000001e0: 51ae 793e ae21 90be 64be ddbe 1d24 20be
000001f0: f156 61be 4671 cc3e 9e2a 813e 92de c2be
00000200: 6b24 afbe 219d c1be dfdd 29be 33b2 493e
00000210: 1020 cd3e 4afb 613e b208 c73e 3567 623d
00000220: 27c6 973c 9885 8fbe 123a 6c3e 9cd7 9ebe
00000230: 6785 a1be b627 aebd 1ed8 acbd 37d4 813e
00000240: 3390 dcbd 55b4 673e 2221 7a3e c3ca f5bb
00000250: 06a2 9e3e 9b83 863e 8877 e2bd 869d 86be
00000260: 70bf 9abd d781 a23c a92f 88bd 15f6 32be
00000270: fbbb c8be 80f9 2bbe 33e0 cb3e e928 d9be
00000280: 7fbc e03e f63c e8bd 9473 543e a4ef e9bd
00000290: 383d 37be 0c33 debd c365 c83d c1ab 553e
000002a0: 95f0 22bd ffde 8ebc 59ef b2be 4055 49be
000002b0: 62e6 093c 2a0b ebbd 0ece 0b3d 1e1a 743e
000002c0: 8c09 c53e 232a a33d 89c3 863e 1476 43be
000002d0: 70c0 03bc 0a71 92bc e536 f13d fc74 c53e
000002e0: 7476 d8be 3f2f e1be cee1 69be 8397 c23e
000002f0: 5f8e 0e3d 10f3 c7be f140 9e3e 37db b63e
00000300: 4557 9fbe ee1d 8fbe 1336 89be 204f 843d
00000310: cbf4 adbe b352 6cbd d4d7 9d3e c6f5 a5bd
00000320: ac7d 17bd 5f2a 52bd a153 bbbd 426d 9e3e
00000330: 716a 20be 0a95 fa3d ef0f b73d 1040 b83e
00000340: 10db c4be dbb2 a63d 00c1 8f3e 2055 333e
00000350: 0225 853e bf9d d0be f8b7 afbe 85ed 2bbe
00000360: 387d 2d3e 1fdf 053e cecd 90be 137f 43bd
00000370: 4e6c 303e 1ed1 193e 4746 193d 4772 543d
00000380: c7d0 2e3d 6e9c b03e 24a4 07be 0dab 9a3e
00000390: 7714 b9be 7002 dabd e508 4fbe 3d51 a1be
000003a0: a4b6 6e3e 0d77 483e cbee 9f3e 5ff2 aabe
000003b0: ec9a 523c ccdf a3be 3017 c03e 0297 f6bd
000003c0: ea6b c9be 1335 b23e 1849 d4bd f027 d3be
000003d0: bece 8f3e 1382 453e a450 93be 21c7 e03c
000003e0: 0ec1 dbbd 41e9 873d ce8e 893e 2c9e 443e
000003f0: af9b 6ebe a516 0a3d db15 9ebe e5f0 d1bd

decoder.out.bias f4 [163]
0.07903224 -0.09475567 0.16699226 0.25389057 0.36600658 0.075260855 -0.33727017 0.3101517
0.14793715 0.29982987 -0.26472557 -0.12987527 -0.015653418 -0.10813529 -0.17901339 0.22550918
-0.35674903 0.43307418 -0.21196637 -0.16708665 0.37115076 0.41260424 -0.02820481 0.30388802
-0.2071128 -0.1116749 -0.19872124 -0.40802673 -0.07991556 0.30716056 -0.32285783 -0.25255367
-0.3773536 0.24950393 -0.3301527 -0.21196018 -0.13367458 -0.19795956 0.011521685 -0.25547498
-0.13165201 0.25246152 -0.016841896 0.19438404 0.3923751 -0.27514237 0.30548388 -0.13996588
-0.4369321 -0.06049297 0.30890572 0.087974854 0.11218709 -0.3336823 -0.3645157 0.35330433
0.09713823 0.011575638 0.15915643 -0.15109369 -0.19768335 0.4237278 -0.2639506 -0.2954101
-0.19621988 -0.029209496 -0.15589178 -0.23068847 0.30073708 -0.08851092 -0.4251095 0.3024079
0.2947942 -0.19454297 0.38896328 0.1251187 -0.445194 -0.16668487 0.1932024 -0.23101483
0.21347195 0.034989532 0.16523632 0.2894984 0.19443268 -0.093875766 -0.2514374 0.28374773
-0.08790647 0.015046676 0.3477632 0.31796277 -0.2918954 -0.41451955 0.31441072 -0.044348154
0.13975418 0.05999109 0.23527458 -0.23106505 0.23877005 -0.033885892 -0.08394566 0.15798463
0.10746562 0.016891735 0.3352772 0.024101349 -0.16164829 -0.28836766 0.1415382 -0.36147368
-0.2811321 0.09753392 -0.3149236 0.14157683 -0.10946511 -0.20675465 -0.16552646 0.39969042
0.20820035 -0.23505227 0.17153409 -0.2430413 0.37500194 0.17801525 -0.2214863 0.22735927
0.33952254 0.18502887 0.31423214 0.1193094 -0.0451443 0.24384071 0.071893826 -0.07947006
0.031021845 -0.26636422 0.4202358 0.06994422 0.30747747 -0.095032975 -0.053628083 -0.4120502
-0.24100934 -0.17600642 -0.37333608 0.10277992 0.25785866 -0.06347327 -0.37479955 0.24783224
-0.11408267 0.076821156 0.33283842 -0.21720964 0.11349127 0.3032479 -0.33970395 0.3283799
-0.09652058 -0.07147468 -0.44719085
00000000: a8db a13d 430f c2bd 0500 2b3e f2fd 813e
00000010: 3765 bb3e 5d22 9a3d adae acbe 34cc 9e3e
00000020: d67c 173e 4d83 993e 1c8a 87be 06fe 04be
00000030: 993b 80bc 0976 ddbd 494f 37be e1eb 663e
00000040: cfa7 b6be e6bb dd3e b60d 59be c318 2bbe
00000050: 7907 be3e dd40 d33e c60d e7bc 3697 9b3e
00000060: 6115 54be cfb5 e4bd 957d 4bbe e1e8 d0be
00000070: c5aa a3bd 2644 9d3e 9f4d a5be b74e 81be
00000080: 7e34 c1be f57d 7f3e c609 a9be 170c 59be
00000090: fde1 08be e9b5 4abe 73c5 3c3c 9ecd 82be
000000a0: c9cf 06be a342 813e 04f8 89bc 9c0c 473e
000000b0: 64e5 c83e 76df 8cbe 6268 9c3e 3753 0fbe
000000c0: 90b5 dfbe 7ac7 77bd e428 9e3e 292c b43d
000000d0: 58c2 e53d 68d8 aabe cda1 babe 4ee4 b43e
000000e0: 69f0 c63d bfa7 3d3c e7f9 223e 4eb8 1abe
000000f0: 816d 4abe daf2 d83e 8824 87be fe3f 97be
00000100: dded 48be c148 efbc 18a2 1fbe 9939 6cbe
00000110: 36fa 993e 3745 b5bd f4a7 d9be 35d5 9a3e
00000120: 44ef 963e 4636 47be 3226 c73e 1e1f 003e
00000130: 78f0 e3be 70af 2abe dad6 453e 278f 6cbe
00000140: 6498 5a3e 2f51 0f3d b633 293e 2239 943e
00000150: 5c19 473e f041 c0bd 67bc 80be 6247 913e
00000160: 4f08 b4bd 5586 763c 050e b23e 04cc a23e
00000170: 5073 95be e83b d4be 71fa a03e 69a6 35bd
00000180: b81b 0f3e 38b9 753d d2eb 703e 519c 6cbe
00000190: 2380 743e efcb 0abd b4eb abbd b9c6 213e
000001a0: ef16 dc3d 8960 8a3c 74a9 ab3e 3170 c53c
000001b0: 2187 25be eda4 93be 64ef 103e 1413 b9be
000001c0: 8cf0 8fbe ddbf c73d ab3d a1be 84f9 103e
000001d0: 3e2f e0bd 7eb7 53be c57f 29be 39a4 cc3e
000001e0: 7932 553e 8bb1 70be a2a6 2f3e d2df 78be
000001f0: 4100 c03e a149 363e 4ecd 62be ded0 683e
00000200: e6d5 ad3e 3578 3d3e 09e3 a03e 7d58 f43d
00000210: 3be9 38bd 61b1 793e 123d 933d 33c1 a2bd
00000220: 8621 fe3c e460 88be 2629 d73e ea3e 8f3d
00000230: b06d 9d3e a6a0 c2bd 1fa9 5bbd 3ef8 d2be
00000240: 27cb 76be 073b 34be e825 bfbe 477e d23d
00000250: 0d06 843e 46fe 81bd bae5 bfbe bcc7 7d3e
00000260: 2da4 e9bd 6954 9d3d cc69 aa3e 346c 5ebe
00000270: 1c6e e83d 4f43 9b3e aded adbe 6921 a83e
00000280: 95ac c5bd 5161 92bd 33f6 e4be
