best_models/seq2seq-2021-03-22-09-38-47.pt (torch, 262479 bytes, 16 tensors)

encoder.embedding.weight f4 [162, 50]
000000 02 f0 3e bd 8b e7 1b 3f 59 63 9f bf 32 6e 9a 3f
       -0.046615608 0.6090018 -1.2452193 1.2064879
000010 a9 07 9b bf ce 31 99 3e 96 56 b5 bf 16 9d f3 be
       -1.2111713 0.2992081 -1.4167049 -0.47580785
000020 2a 97 c4 bf a8 c7 95 bd a9 12 a9 3e 6e 25 d3 3e
       -1.5358632 -0.07313472 0.3302205 0.41239494
000030 5d 97 e9 bf 7e 93 f9 3e 85 cb ba 3f 16 fc 52 3f
       -1.8249317 0.4874534 1.4593359 0.824159
000040 13 a5 8b be d8 2a fb 3e 7e 2d 89 bf 7f fe 70 3f
       -0.2727438 0.49056125 -1.0717008 0.9413833
000050 e4 d6 a0 bf b5 44 4e bf 93 c2 c5 bf 30 02 53 be
       -1.256558 -0.8057359 -1.5450004 -0.20606303
000060 65 9c 0f bf 4c 3a 93 3e a2 d6 90 3e 48 61 f3 bf
       -0.56098014 0.28755414 0.28288752 -1.9014063
000070 6d 04 27 bf 58 d9 d4 be 9a 07 ae 3d a8 f8 83 be
       -0.6524113 -0.4157207 0.08497544 -0.25775647
000080 d6 ba b1 bf b1 53 c6 3f 62 06 b3 bf 9e 48 da 3e
       -1.3885143 1.549429 -1.3986323 0.42633528
000090 24 9d ae bf 25 87 f1 be da 70 75 3e ba 9f 06 c0
       -1.3641706 -0.4717342 0.2396883 -2.103499
0000a0 7b 56 b6 3f 36 14 86 bf c5 80 80 bc f5 4a 47 3f
       1.4245142 -1.0474918 -0.015686402 0.7784875
0000b0 1a 4c 93 bf 32 46 34 3f d8 1c 98 3e dc 40 8b 3f
       -1.1507599 0.7041961 0.29709506 1.0879169
0000c0 1b fb d9 be 46 e8 58 3e a9 f3 67 bf f2 15 af bf
       -0.4257439 0.21182355 -0.9060617 -1.3678572
0000d0 3e 28 3b bd 93 f9 f2 bf 7d 5d 9f 3e 3e 30 c3 be
       -0.045692675 -1.8982414 0.31126013 -0.38122743
0000e0 c2 1d 6e 3f 86 80 80 bf fe 28 01 40 c1 31 c4 3e
       0.93014157 -1.0039222 2.018127 0.3831921
0000f0 0d 0d 1f 3e 31 8b 2a bd 4b 67 95 3f 7f 4a 2e 3f
       0.15532322 -0.04163665 1.1672148 0.6808242
000100 9a 4a a0 bd eb 42 36 bf 9e 1e 45 bd a2 68 bf bd
       -0.07826729 -0.7119586 -0.048124902 -0.09346129
000110 d9 40 9a 3e e1 91 55 3d 7b f4 96 3f de 8a ba 3f
       0.301276 0.052141074 1.179336 1.4573629
000120 3b 65 34 bf bc da 2d 3d 83 a0 12 c0 52 cd e7 3f
       -0.70466965 0.04244493 -2.2910469 1.8109534
000130 bc 6c a6 bf f7 0c 04 c0 d8 fb c3 3f 90 f6 2a 3f
       -1.3001933 -2.0632913 1.5311232 0.66782475
000140 94 10 cf be 89 d8 9d 3f b2 49 8b bf bb 46 0e bf
       -0.40442336 1.2331706 -1.0881865 -0.55576676
000150 b3 ed cc bf 07 04 cc bf f8 95 1d 3f 5e 14 68 bf
       -1.601004 -1.5938729 0.6155696 -0.9065608
000160 e9 37 d6 be 14 55 90 bf 61 ad 51 3f f6 dc c9 bd
       -0.4183953 -1.1275964 0.8190518 -0.09856598
000170 53 ee 31 be 03 cf f5 3d 33 0f 1a 3e a4 b6 04 40
       -0.1737607 0.12002375 0.1504486 2.0736475
000180 16 d4 8c 3e ba 56 67 bf e2 06 15 c0 78 84 08 3f
       0.2750556 -0.9036671 -2.328545 0.5332713
000190 e5 a5 5d bf a9 a0 6a bd 4f e8 08 c0 b4 8b 91 bf
       -0.8658126 -0.057282124 -2.139179 -1.1370759
0001a0 0c 80 07 3e f7 56 43 bf 4f c6 a0 bf 28 69 6c 3f
       0.1323244 -0.7630457 -1.2560519 0.92347956
0001b0 fb 4e 9c 3f 91 17 92 bf 97 b8 fb 3e 38 6c 35 3f
       1.2211603 -1.1413442 0.49164268 0.70868254
0001c0 c5 66 84 3f ac 97 64 3f 66 6f b9 bf ea 5f 01 40
       1.0343863 0.8929393 -1.4487121 2.0214791
0001d0 3f 0a aa 3f cc 4c 1a 3f ee f7 00 bf 54 3e 60 bf
       1.3284377 0.6027343 -0.5037831 -0.87595105
0001e0 02 c3 1f 3e 97 fa c1 be 09 fc 7b bc 7c 3b 2f bf
       0.15601733 -0.37886497 -0.015379914 -0.6845014
0001f0 8a b2 14 3c d0 c5 a6 3e 4c 9f 25 3f d6 40 ae bf
       0.00907577 0.32572794 0.6469619 -1.3613536
000200 37 5a 94 3f a4 fb 09 40 42 7e 95 bf a5 0f 2a 3e
       1.1590031 2.155984 -1.1679156 0.1660753
000210 8f ef 62 bf fb e7 4e bf 40 6f fe be 9c 2f 28 3f
       -0.8864679 -0.80822724 -0.49694252 0.65697646
000220 5c 82 f2 be f9 e6 30 3f 43 6f 9d 3d bd 1f 05 3f
       -0.4736508 0.69102436 0.07687237 0.52001554
000230 37 5d 07 40 f8 90 65 be 31 c8 4c 3f 56 51 90 3e
       2.1150644 -0.22418582 0.7999297 0.28187054
000240 33 0f 5d bf 73 7d cf 3e 30 92 58 3e 16 5f 37 3e
       -0.8635132 0.40525398 0.21149516 0.17907366
000250 d7 74 b9 3f 7c dc 94 3f fe ba c8 bf 53 45 b8 be
       1.4488782 1.1629786 -1.5682065 -0.3599039
000260 d9 d3 f4 be 4e f2 85 3f 16 56 f9 bf da 35 89 3f
       -0.47817877 1.046457 -1.9479396 1.0719559
000270 c7 5b 1b 40 d3 fd a6 3e 1f d8 07 c0 f4 3a 88 bf
       2.4274766 0.32615528 -2.122566 -1.0642991
000280 db 0c 8f 3e 6e 24 52 3f e9 4d b7 3d 3f 0b df 3e
       0.27939495 0.8208684 0.08950407 0.43563268
000290 f1 91 5c bf 2c d5 35 40 22 27 d7 bf cf 9b 2a bf
       -0.8616019 2.841136 -1.6808817 -0.66643995
0002a0 25 58 90 bd e1 fa 38 3f 08 9a 16 3f 73 82 f9 be
       -0.07048062 0.7225781 0.58828783 -0.48732337
0002b0 a7 3b fe 3f e1 95 38 3f f5 46 21 3f 1d aa e7 be
       1.9861954 0.721037 0.62998897 -0.45246974
0002c0 3b b7 85 bf 8f 52 68 3d 9d 2f 42 be f3 2a 5d bf
       -1.0446543 0.05671936 -0.18963476 -0.8639366
0002d0 46 14 52 bf 18 a1 2a 3f 82 e4 31 3e 12 8b 46 bf
       -0.82062185 0.6665206 0.17372325 -0.77555954
0002e0 14 d6 24 3f 70 8a db bf 5e 15 96 bf 68 f3 29 3f
       0.6438916 -1.7151623 -1.1725271 0.66387033
0002f0 01 3d 0c bf b8 82 c1 be e1 6a 91 be f6 db 8e bf
       -0.54780585 -0.37795043 -0.28401855 -1.1160877
000300 00 a9 95 3f ff 15 df 3f 63 f6 1f bc 2a 29 a1 be
       1.16922 1.7428588 -0.009763333 -0.31476718
000310 3d 36 11 40 d9 2c 10 be af 89 a2 3f 7d 11 5f bf
       2.2689354 -0.14079608 1.2698268 -0.8713606
000320 cc 03 88 3f bc 4d e5 be 2f 2d e1 be 2f 5f c5 3f
       1.0626159 -0.4478587 -0.43979785 1.5419673
000330 31 92 21 3f ca 96 8a bf 82 e3 ec 3f 43 ce 8a be
       0.63113695 -1.0827267 1.850693 -0.2711049
000340 75 f3 c1 bf 86 ac 9d 3f c2 3f b6 bd 72 4a 1f bf
       -1.5152422 1.2318275 -0.088988796 -0.6222297
000350 e7 6b 5e bf 40 7b 9a be db 4d a3 3e c6 7c 00 be
       -0.86883396 -0.30172157 0.31895337 -0.12547597
000360 8d 4d 44 be a5 78 94 3f 77 e5 e6 bd d7 2f cc 3f
       -0.19170208 1.1599318 -0.11274236 1.59521
000370 84 af 9f 3f cb 03 73 bf 87 4a a4 be 35 48 5f 3f
       1.2475438 -0.9492766 -0.3208811 0.87219554
000380 2f 4f 85 3d 3f df 2c bf 8a 18 09 40 db d1 83 bf
       0.06509244 -0.67528147 2.1421227 -1.0298418
000390 96 c0 23 3e f8 9d 40 3f c0 3e 65 3f 38 c8 ff be
       0.15991434 0.7524104 0.89548874 -0.49957442
0003a0 a3 81 ec 3f f3 03 d9 3d 4a 60 f6 3f f6 cd ff bd
       1.8477062 0.105964564 1.9248135 -0.12490456
0003b0 5a b8 d5 bf dc 2a ca 3f 81 11 51 3f 2a 21 4a 3e
       -1.6696885 1.579433 0.81667334 0.19739214
0003c0 e6 d8 d1 3f ed 67 c0 3e 9b b2 46 c0 30 82 8a bf
       1.6394317 0.3757929 -3.1046512 -1.082098
0003d0 f2 21 36 3e 0c 1a 39 bf 95 0c 89 3f bc 08 03 bd
       0.17786387 -0.7230537 1.0706965 -0.03199075
0003e0 81 43 4c 3f 02 b2 65 3f ec 4a 5e be 63 97 a5 3f
       0.797905 0.89724743 -0.21708268 1.2936825
0003f0 c7 2b f0 bd 12 25 87 bf 4d e1 19 3f 53 c2 45 be
       -0.117271 -1.0558188 0.60109407 -0.1931241

encoder.gru.weight_ih_l0 f4 [150, 50]
000000 5d 88 f6 3d 0b 59 d0 3c d3 52 80 bd 39 f9 eb 3d
       0.12037728 0.025433084 -0.062657975 0.11522145
000010 26 01 88 bd f9 8f ce bd 42 84 40 bc b0 78 d3 bd
       -0.06640844 -0.10086054 -0.011750283 -0.10325754
000020 b2 fe 0f bd 0c 95 ee 3d db bf 34 bd fb b0 0e bd
       -0.035155006 0.11649522 -0.04412828 -0.03483675
000030 b9 1e 08 be 44 cb d3 3d 96 d7 e3 bd 79 eb cf bd
       -0.1329297 0.10341504 -0.11125104 -0.10152335
000040 95 80 a8 3c 2d 20 94 3c 1d 2e 71 bc 52 2b cc 3d
       0.020569125 0.018081749 -0.014720467 0.099692
000050 09 89 02 3e cf e9 2f 3d 71 9e 0b 3e 74 75 de 3a
       0.12747587 0.042947587 0.1363466 0.001697226
000060 40 53 08 3d 80 81 33 3d 9c e4 4c bd 4d 2c e8 3d
       0.03328252 0.043824673 -0.050022706 0.11336575
000070 ef bb fb 3b 33 26 9f 3d f8 ba 0c 3e c4 a4 d7 bd
       0.0076823155 0.07770958 0.13743198 -0.105294734
000080 f7 98 0d 3e 14 2d 5f 3d db 62 5a bc 74 60 60 bc
       0.13827883 0.05448635 -0.013329233 -0.013694871
000090 fe d7 a2 3c cd 8b 10 3e 83 28 08 3e 64 38 93 3d
       0.019878384 0.1411583 0.13296704 0.0718849
0000a0 56 3d 8a 3c 27 bd e2 bd 07 1a 87 bd 2a cb 7d 3d
       0.01687495 -0.11071234 -0.06596761 0.06196133
0000b0 f9 cf 0e be ab 29 c1 3d 88 a7 87 3d eb e0 ef bd
       -0.13946523 0.09431776 0.06623751 -0.117128216
0000c0 24 3f 53 3d f8 17 0d be d9 f8 8e 3d 7c bc f7 3d
       0.051573887 -0.13778675 0.06981058 0.120964974
0000d0 41 94 e4 3d 94 35 16 bc 8a e8 0d 3d 38 38 bf bd
       0.1116109 -0.009168047 0.034645595 -0.09336895
0000e0 a6 74 9e 3d f1 86 0f 3e 7d d4 d8 3d d5 8d 6f bd
       0.07737093 0.1401632 0.10587404 -0.05848487
0000f0 01 70 96 bd 31 d5 d1 3d 21 61 fc 3d 3e ba fd bd
       -0.07345582 0.10245741 0.12323213 -0.123890385
000100 a6 26 85 3c 28 18 4f 3b f6 dc 33 3d 2c fe 41 bc
       0.01625378 0.0031600092 0.043911897 -0.011840384
000110 0a 74 b2 3d 94 a9 00 be a2 52 e2 bd 4f 4e 0b be
       0.08713539 -0.12564689 -0.11050917 -0.13604091
000120 14 e1 21 bd 9a 5c b2 bd 14 7e d9 3a 92 ed b2 bc
       -0.03952129 -0.087090686 0.001659336 -0.021841798
000130 e4 4f 89 bd 3f e0 09 3e f9 c5 08 bc 9a e3 70 bc
       -0.06704691 0.1346445 -0.008347982 -0.014702702
000140 96 68 74 3d 13 1f c5 bd a1 82 c9 bd 26 c4 01 be
       0.059670053 -0.096250676 -0.098393686 -0.12672481
000150 54 27 69 bd 0f c5 f3 3d 6a e7 27 bd c9 cd c8 bc
       -0.05692227 0.1190282 -0.040992178 -0.024512189
000160 c1 f1 d8 3b 3c cc 89 3d 90 12 e1 bc 2c d7 c3 bd
       0.006620616 0.06728408 -0.027474672 -0.09562525
000170 04 b1 89 3d 5b ce 9f bb a4 19 fe bd 51 10 dd bb
       0.06723216 -0.0048768944 -0.12407234 -0.00674633
000180 0d 98 ff 3c bb 52 0f 3e 0b e4 c2 bd e2 49 ef bd
       0.031200433 0.13996403 -0.09516152 -0.11684014
000190 1b 89 99 3d 64 fc 21 3d 88 24 4c 3d 20 bb 6e 3d
       0.07496854 0.03954734 0.049839526 0.058283925
0001a0 c5 79 51 bd 51 6d 8b bd ef 64 53 3b 7f c1 e0 bd
       -0.05114152 -0.0680796 0.0032256206 -0.109744065
0001b0 53 c0 02 3e b2 31 cf bb f5 e9 ad 3c 6e 6b d0 bd
       0.12768678 -0.006323063 0.021229723 -0.101767406
0001c0 24 20 8c 3d 93 bc ef 3d af 3e f8 bc 16 ba 08 3e
       0.06842068 0.117058896 -0.030303327 0.13352236
0001d0 cc 72 5d bc 00 16 e8 3d ed a7 8e bc ed ad 8d bd
       -0.013516139 0.11332321 -0.017414058 -0.06917939
0001e0 11 05 42 3d 20 3d fb 3d 8a a3 0f 3e c7 03 74 bd
       0.047368113 0.12267518 0.14027229 -0.059573915
0001f0 fc a4 9f 3d e5 97 da bd 1c 75 76 bd f7 a2 62 bd
       0.0779514 -0.10673503 -0.060170278 -0.055331197
000200 4c 9d f0 3c a5 3e 46 3d 60 3e dd 3d 93 d7 1e bd
       0.02937188 0.048399586 0.10802913 -0.038779806
000210 81 fb 79 bc b4 b9 0b 3e 54 f1 12 bd 49 2d ed 3c
       -0.015257717 0.13645059 -0.03587468 0.028952258
000220 c6 40 d9 bc 8b 45 a0 3d c4 31 01 be 2d 7b f9 3d
       -0.026520144 0.07825764 -0.1261664 0.12181697
000230 41 3d 40 bd 5e 86 93 3d 91 d5 38 3d a0 68 47 3d
       -0.046933416 0.07203363 0.045125548 0.048683763
000240 07 e0 2c bc fd db 00 bd 32 b3 ce 3d 2a c6 bc bd
       -0.010551459 -0.031459797 0.100927725 -0.09217484
000250 c9 41 fe bd 3c f7 59 3d 35 22 a7 3d 57 ac a6 3d
       -0.12414891 0.053214297 0.08160821 0.0813834
000260 ae a2 3f 3d 86 ca f0 3c 6f 8a 40 3d a0 5b 01 be
       0.046786003 0.029393446 0.04700702 -0.12632608
000270 8f 94 f7 bd 63 02 55 3d bf 37 02 be 38 c6 9e 3d
       -0.12088882 0.05200423 -0.12716578 0.07752651
000280 0f 56 09 3e b0 4b c3 bd 4e 57 ec 3d 54 b7 08 3e
       0.13411735 -0.095359206 0.115400895 0.13351184
000290 c1 95 06 3b df 29 85 ba 0e 13 0d bd 9a 24 06 3e
       0.0020536038 -0.0010159573 -0.034442 0.130999
0002a0 f0 05 2d bb 6a 88 c7 3d 1d 07 04 be ad e6 da bd
       -0.0026401244 0.09742816 -0.12893339 -0.10688529
0002b0 7a 32 2e bd a0 60 20 3d cd 36 e3 3d 5d 1d 40 bd
       -0.042528607 0.03915465 0.11094437 -0.046903003
0002c0 44 a1 0a 3e ae bf 2a 3d 36 fe 6d 3c f5 96 f5 3b
       0.1353808 0.041686706 0.014525941 0.007494802
0002d0 4b e4 be bd 14 d5 e6 bd 96 3c a2 bd e9 be 40 bc
       -0.09320887 -0.1127111 -0.07921712 -0.0117642665
0002e0 42 7f b8 3d ac f8 d7 bd 22 10 9c bd 09 04 6b 3c
       0.090086475 -0.10545477 -0.076202646 0.014344224
0002f0 d4 5d cc 3d 1f f7 05 3e ea f7 0f 3e 7f 40 be bd
       0.09978834 0.1308255 0.14059415 -0.092896454
000300 ed f6 03 bd ea 9f 72 bd 3a ec fd 3d 72 2e 66 3d
       -0.03221791 -0.059234537 0.12398572 0.056196637
000310 9e b6 98 3d 6d ab e1 3b 31 d3 b5 3d 97 33 c3 3d
       0.074567065 0.0068868906 0.08878172 0.09531324
000320 64 4b 0a 3d c9 54 ef 3d 6b df ab 3d e7 6e e6 3d
       0.033763304 0.11686093 0.08392223 0.11251622
000330 a8 70 b7 bc 3b 69 ba bd 7a 1c ba bc 5d 19 17 3d
       -0.022392586 -0.09102102 -0.022718657 0.036889423
000340 d4 ea 8f bd 08 3c ed 3c aa 85 d4 bd 05 55 61 3d
       -0.07027212 0.02895929 -0.10377057 0.05501272
000350 35 30 e4 3c 3c 7b 33 3c 74 b4 16 bd fb ec cc 3c
       0.027855018 0.010954674 -0.036793187 0.025015345
000360 8e 12 f0 bd ee e6 ae 3d 96 b3 0e 3e cd df 05 be
       -0.11722289 0.0854014 0.13935694 -0.13073654
000370 3c 35 4d 3d 2e 4c a7 3c cf dd ae bd a6 b0 f3 bd
       0.050099596 0.020422067 -0.085384004 -0.118989274
000380 53 26 30 39 73 19 dd bb 3b db df 3d 98 b6 b9 bd
       0.00016798945 -0.0067474185 0.10930487 -0.0906803
000390 68 5f b5 3c 57 82 2a bd 9e c5 4d 3d 64 7e b4 bd
       0.02214022 -0.041628208 0.05023729 -0.088131696
0003a0 f7 54 de bd 17 a6 2e bd 42 01 20 bb 3f ce 82 3d
       -0.108560495 -0.042638864 -0.0024414812 0.063869946
0003b0 29 1c 25 3c 43 88 88 3d e7 76 ef 3d 71 df 7f 3d
       0.010077515 0.06666615 0.11692601 0.06246895
0003c0 bf 0d d2 3d d3 49 d6 bc 72 ec ed 3d a5 44 41 3c
       0.10256528 -0.026158249 0.11617364 0.011796151
0003d0 17 a8 1f 3c 90 aa d0 bd 70 15 e1 3d f4 2c 9a bd
       0.009744666 -0.10188782 0.10990417 -0.075281054
0003e0 0a ae 80 3d 6a 1a bf bd 93 af ab 3d 03 c9 db 3d
       0.06283195 -0.0933121 0.083830975 0.10731699
0003f0 65 ac c4 bb ac c4 4b bc 6b 2f 05 3e 3a df 0e be
       -0.0060019963 -0.012437027 0.1300637 -0.13952342

encoder.gru.weight_hh_l0 f4 [150, 50]
000000 22 8f be bc 50 7c 25 3c be 7e 65 3d c5 84 ec bd
       -0.02326161 0.010100439 0.056029074 -0.11548761
000010 d1 72 98 bd d0 56 a2 bd 3b 11 af 3d a0 48 33 3c
       -0.074437745 -0.079267144 0.08548208 0.010942608
000020 0b e1 36 bd 4f 08 34 bd 5b 34 ef 3d 15 f3 46 bc
       -0.04464821 -0.043953236 0.11679908 -0.012142916
000030 cb a9 f3 3d 8d 61 d2 bc c2 e7 94 3d 79 34 be bd
       0.1189762 -0.025681281 0.07270767 -0.09287352
000040 55 35 03 bb 1c 4e ce 3d b2 fb fe 3d ec 34 c8 3d
       -0.0020020802 0.10073492 0.12450351 0.09775719
000050 56 bd 82 3d 00 5b f2 bd 45 a6 75 3c 82 de 06 be
       0.06383769 -0.11833763 0.014993255 -0.13170817
000060 c8 56 b3 3d 05 ac 13 3d f8 d6 03 bd 8e 87 63 3d
       0.087567866 0.036052722 -0.032187432 0.055549197
000070 4b 49 89 bd e3 27 91 bc 09 d2 7d 3d d3 42 08 3d
       -0.06703433 -0.017719215 0.061967883 0.033266854
000080 19 cf f8 bd 55 0b de bc d1 3b 06 be 99 fa ae bc
       -0.12148876 -0.027105013 -0.13108756 -0.021359729
000090 1a fc f3 3d 23 3b 07 be d5 14 94 3c 8b 89 a4 3d
       0.11913319 -0.13206153 0.01807634 0.08034047
0000a0 25 3a 7a bd 0e aa 59 bd bf 1a 20 3d 82 2e 08 bd
       -0.061090607 -0.053140692 0.039088007 -0.03324748
0000b0 5a e9 94 bd 74 f2 85 bd 5e 69 f0 3d 7d 87 e9 bc
       -0.07271071 -0.06540385 0.11738847 -0.028506989
0000c0 fd 59 02 3e e3 e1 44 3d ee 11 ed 3d d9 ce f3 3d
       0.1272964 0.048066985 0.115756854 0.119046874
0000d0 4e 42 0e 3e 50 c9 bd 3b 45 47 fc bd 65 c6 8c bd
       0.1389248 0.0057918206 -0.12318281 -0.06873778
0000e0 65 d6 3b 3d e3 43 8a 3d 7d 88 14 3b 80 a5 b0 bd
       0.04585876 0.067512296 0.0022664361 -0.086253166
0000f0 16 c4 83 3d bd 76 10 3e 4f a8 ff bd e0 94 0b be
       0.06433885 0.14107795 -0.12483274 -0.1363101
000100 b8 7e f0 3d 17 95 02 3e 32 74 ab 3d 11 88 ef 3d
       0.1174292 0.12752186 0.08371772 0.116958745
000110 b0 47 ec 3d eb fd 79 3d 26 28 9c 3d 80 1d 5a bd
       0.11537111 0.06103317 0.07624845 -0.05325079
000120 05 f0 6a 3d ac eb ee 3d e1 a4 f1 bb 4e 33 47 3d
       0.057357807 0.116660446 -0.0073743914 0.048632912
000130 99 de e0 3d b2 68 e6 bd df 2a 66 3d b6 d3 5e bb
       0.10979957 -0.11250438 0.05619323 -0.0034000701
000140 48 b8 be 3d c6 5e 9c bd 50 f7 8c 3c 33 34 db 3d
       0.093124926 -0.07635264 0.017207772 0.107033156
000150 bf dd fe bd 0b df 4d 3d 9e 31 dc bd ba e8 c0 bd
       -0.124446385 0.05026154 -0.10751651 -0.09419389
000160 00 35 10 3e 11 3d 09 be bd 41 50 3d c1 54 04 be
       0.14082718 -0.13402201 0.050843943 -0.12922956
000170 cb 00 ae 3d 40 01 df bb ee a4 6f bd cf e8 c6 bb
       0.08496245 -0.006805569 -0.0585069 -0.0060702334
000180 07 62 da 3d 80 a6 b8 3d fa 54 bd 3c 1c 97 d8 bd
       0.106632285 0.09016132 0.023111809 -0.10575697
000190 df 83 0d be 58 3f 09 bc 7d 15 2b bd 9e 6f 79 3d
       -0.13819836 -0.008376919 -0.04176854 0.060897462
0001a0 1f a5 ee 3d 86 29 10 be 99 6e 0b 3e e5 17 f4 3c
       0.11652588 -0.1407834 0.13616408 0.02979655
0001b0 80 48 d7 bc 4a 3e 98 3b 08 bd 40 3c 0a 95 0f be
       -0.026279688 0.0046460973 0.011763819 -0.14021698
0001c0 94 e9 cb 3c 76 f0 c8 3c a5 4d 07 be 38 9b 02 3e
       0.024891652 0.024528723 -0.13213213 0.12754524
0001d0 ce 25 ec 3d 84 b2 b5 bc 37 85 bd 3b 58 bd bc 3d
       0.11530648 -0.02217985 0.0057837027 0.09215802
0001e0 b2 e6 9f bc 5b 0e 4a 3d 13 a1 0a 3d 0b 05 04 be
       -0.019519184 0.049330097 0.03384502 -0.12892549
0001f0 9e a9 71 bc 8a ec c2 3c 6d bc e5 3d db 15 67 bd
       -0.014749913 0.023794431 0.1121758 -0.056417327
000200 c7 a7 c9 3d dc 93 04 3e d9 db 15 bd 32 90 e9 bd
       0.09846454 0.12947029 -0.036586616 -0.11404456
000210 56 80 bd bd 8c d4 82 bd 79 e5 9e bd 39 7a 65 3d
       -0.09252994 -0.06388196 -0.07758612 0.056024764
000220 87 78 d3 3d 3f 32 b4 bd 03 42 c7 bd 2f eb 09 be
       0.10325723 -0.08798646 -0.097293876 -0.13468622
000230 9a 65 65 3d da 08 f1 bc 2c e1 0f 3e 16 6a da bd
       0.056005098 -0.029423166 0.1405074 -0.106647655
000240 62 a9 fa bd d5 e7 f1 bc c6 a0 cb bd 61 6d 8b bd
       -0.122393385 -0.029529491 -0.099427745 -0.06807972
000250 ff 35 e6 bd 89 9d c8 3d 41 16 f4 3c 78 04 d0 bd
       -0.11240768 0.097956724 0.029795768 -0.10157102
000260 bd 5a a5 bd 59 e2 6d bd 14 ae d8 bd a2 3a 09 3e
       -0.080739476 -0.05807719 -0.10580078 0.13401273
000270 7a 0a 0d be 27 03 87 3d f9 e9 a1 bc cd 99 ed bd
       -0.13773528 0.06592398 -0.019764887 -0.11601601
000280 37 86 26 bd 1c db 61 bc ca 33 f4 bd 3d a8 01 be
       -0.04065534 -0.01378515 -0.119239405 -0.12661834
000290 f8 a2 f1 3c fa 05 54 3d 00 fa ad bc c5 f6 bf bd
       0.029496655 0.051763512 -0.021237373 -0.093732394
0002a0 c3 4f 8a bd fe 45 bb 3c 68 cd c0 bd 39 71 ae bc
       -0.067534946 0.022860523 -0.09414178 -0.021294223
0002b0 99 b8 05 be f6 50 2d 3d 7c 07 0b 3e 84 4a bc 3c
       -0.130587 0.04231354 0.13577074 0.02298475
0002c0 8d b0 60 bd 2e d6 5f 3d 40 e0 f8 3b 02 e5 00 be
       -0.054855872 0.054647617 0.007595092 -0.1258736
0002d0 fe 19 46 3d df 79 09 3d 31 39 77 bd f0 66 0f be
       0.04836463 0.03356349 -0.060357276 -0.14004111
0002e0 61 38 8f bd e3 bb 47 3d e5 fd c1 bd ab 6b 70 bd
       -0.06993175 0.048763167 -0.09472255 -0.05869643
0002f0 2c 36 a7 bd eb 2f 86 bc 85 40 ef bd d4 e2 28 bd
       -0.08164629 -0.016380271 -0.11682228 -0.041231945
000300 cb 8b d1 3d 32 52 df 3d 68 d0 ec 3d ea 06 87 bd
       0.102317415 0.109043494 0.11563188 -0.06593116
000310 85 d3 a0 bd 99 76 c6 3d 98 b1 04 be d3 d1 b0 bd
       -0.07852844 0.096905895 -0.12958372 -0.08633771
000320 b0 72 32 3d fc 7b af bc 8a d9 cc bd 0e 08 ed 3d
       0.043566406 -0.021421425 -0.1000243 0.11573802
000330 da c1 7c 3d 8c 2a 95 bd b0 4c 06 be 33 da 8e bd
       0.06170831 -0.07283506 -0.13115191 -0.06975212
000340 3a 30 13 3d 10 e5 b9 bd f5 1c b5 3d 5e a2 4f bc
       0.035934664 -0.09076893 0.08843414 -0.012672989
000350 0f f1 af bc 18 ad 3c bd 38 7d 5b 3d 5e 70 eb 3a
       -0.02147725 -0.046063513 0.053586215 0.0017962565
000360 5b 93 a6 bd a3 58 e8 3c b1 40 16 3c c7 55 74 3d
       -0.081335746 0.028362578 0.009170697 0.059652116
000370 68 6f fe 3d 9d 70 a0 3d 4e 64 83 3d d6 c0 7d bd
       0.12423593 0.07833979 0.06415616 -0.06195148
000380 d3 e4 ca bd 06 e2 a6 bc b1 52 0c be 4d 30 8d bd
       -0.09906926 -0.020371448 -0.1370342 -0.06893978
000390 d6 6d fa 3d a8 73 f0 3d d3 2a ee bd 14 5e 38 bd
       0.12227981 0.1174081 -0.11629262 -0.045011595
0003a0 77 ab 02 be 05 31 fd bc 19 e3 30 3d be 86 02 be
       -0.12760721 -0.030907163 0.043185327 -0.12746713
0003b0 b5 3f 0a bc e8 7e 47 3d 19 be fc bd 8d b0 8b 3d
       -0.0084380405 0.04870501 -0.12340946 0.06820784
0003c0 42 58 a6 bd d8 b8 6e bc 54 ef cf 3d 43 23 03 be
       -0.081223026 -0.014570437 0.1015307 -0.1280642
0003d0 00 0a 8b bd b1 09 e1 bd 35 12 9e 3d dc eb 32 3d
       -0.06789017 -0.109881766 0.077183165 0.043681964
0003e0 fe 64 de 3d ce c0 14 3d 46 9f c9 3d c1 85 2a bd
       0.108591065 0.036316685 0.09844832 -0.041631464
0003f0 1d b9 06 be 7f 25 df 3d f1 c1 52 3d 75 45 45 bd
       -0.13156553 0.10895824 0.05145449 -0.048161943

encoder.gru.bias_ih_l0 f4 [150]
000000 88 5a c0 bd 5d 44 08 3e 2e d5 39 3c 0e ee ed 3c
       -0.093922675 0.13307329 0.01134233 0.029044177
000010 a6 a1 ed 3d e7 70 09 3e e2 03 80 bc 8b 2f 9e bd
       0.116030976 0.13421975 -0.015626851 -0.07723912
000020 ae da 06 be 9a 0e f7 3d cf 6f ec bd 0e 01 74 bd
       -0.13169357 0.12063332 -0.11544763 -0.05957132
000030 2e 77 cb 3d 50 6d 86 3c 2f 26 ef bc ec f4 07 3e
       0.09934841 0.016409546 -0.029193012 0.13277024
000040 b2 a8 05 3e 27 2f 9b 3d c3 70 2f 39 2f e3 07 be
       0.13052633 0.07577353 0.00016731308 -0.13270257
000050 88 d6 f2 3d 51 bd 99 bd a7 08 ee bd b3 58 ba bd
       0.11857325 -0.07506812 -0.11622744 -0.09098949
000060 4d a8 fa 3d 0b ed 05 be 1c 88 07 3e b0 85 04 be
       0.12239132 -0.13078706 0.13235515 -0.12941623
000070 55 19 a6 bd 97 b0 ef 3d d1 67 f4 3b 5f a8 42 3c
       -0.081103005 0.11703604 0.007458665 0.011880963
000080 9e e7 5e bd 10 9f 5e 3d db 99 ab 3d cf d7 61 bc
       -0.054420106 0.054350913 0.08378955 -0.013784363
000090 35 5f 02 be 7a ca 12 3d ba 17 a8 3d 03 0a 3a 3d
       -0.12731631 0.035837628 0.082076505 0.045419704
0000a0 92 e3 96 bd d7 77 d5 bc 64 7c ef 3c 32 d9 bc bd
       -0.07367624 -0.02605812 0.029234119 -0.09221114
0000b0 25 c1 a5 3c 49 9f b2 3d 0a d5 a4 bd 84 5b 56 bd
       0.0202337 0.087217875 -0.080484465 -0.05233337
0000c0 2f d5 c5 3d 03 1e c7 3d f2 af f5 3d 5f c0 de bd
       0.09659802 0.09722521 0.119964495 -0.108765356
0000d0 29 36 d8 3d 85 ab c8 bd 90 47 05 bd 6c bc 40 bc
       0.10557205 -0.0979834 -0.03253895 -0.011763673
0000e0 00 f4 07 be 17 14 16 bd 31 ed b5 bb 65 ce 8b 3c
       -0.13276672 -0.036640253 -0.005551957 0.01706619
0000f0 7d 4c 39 bd a2 8e f9 bd ea 9e be bc cb f4 0e 3e
       -0.04523896 -0.12185408 -0.023269136 0.13960569
000100 43 67 c6 bc 3b f2 34 bd 98 f9 07 3e a4 c1 a1 3d
       -0.02421916 -0.04417632 0.13278806 0.07898262
000110 b5 9f 83 bc 84 4f d0 3d ef e1 5b 3d 86 ab 9f bd
       -0.016067365 0.101714164 0.053682264 -0.077963874
000120 23 bf 74 3b 47 93 6c bc 72 47 a2 3c 38 40 e2 3b
       0.0037345372 -0.0144394105 0.019809458 0.006904628
000130 63 75 ba bd f7 b9 cd bd ba 20 39 bc f2 15 07 be
       -0.09104421 -0.100452356 -0.0112993065 -0.13191965
000140 29 07 ab 3c 5a e3 f4 bd 55 75 d8 3d e7 e6 ed 3d
       0.020877438 -0.11957426 0.10569254 0.11616307
000150 77 51 bf bd 95 e3 9c 3c 3a 51 e5 bd c1 48 34 bd
       -0.0934171 0.019151488 -0.11197133 -0.044014696
000160 0e 05 40 3d 15 e9 16 3d 2b ad 4a bb c2 f5 f9 bd
       0.04687982 0.036843378 -0.003092597 -0.12205078
000170 fe 8e c7 3d ff cf b8 bc dc 8b 9e bd 07 a9 83 3d
       0.097440705 -0.022560118 -0.0774152 0.06428724
000180 04 65 a6 bc af 59 f5 3d db 2a df bb 9e 6b 0c 3e
       -0.02031184 0.119799964 -0.0068105287 0.13712928
000190 9b 91 0b be 52 e9 ae bc 3f 61 f6 3d c6 1d c9 3d
       -0.13629763 -0.02135149 0.12030267 0.09820132
0001a0 4e 40 93 3d de c7 09 3e 1f 78 b4 bd 0b 2e 21 3c
       0.071899995 0.1345515 -0.08811974 0.009837638
0001b0 82 90 9d bc 96 9f 5c 3b 29 3a f4 3d 81 ea 08 bd
       -0.019233946 0.0033664457 0.11925156 -0.033426765
0001c0 43 e7 02 be 9c ad 93 3d 44 42 45 3d b3 38 e2 3d
       -0.12783532 0.07210848 0.0481589 0.11045971
0001d0 dd e9 73 3c 96 05 54 bd 09 42 f9 3d 93 f2 ac 3d
       0.0148873 -0.05176314 0.12170798 0.08444705
0001e0 59 f1 2b 3c a6 42 cb 3d 8e 28 96 bc ce 2f 2e be
       0.0104945535 0.099248216 -0.018329885 -0.17010424
0001f0 ec e0 ba bc 76 b5 3b bd bd 34 c2 bd d0 61 89 bd
       -0.02281233 -0.04582735 -0.09482715 -0.067081094
000200 63 7e c6 bd 08 34 b1 3d 6d 86 2e 3e 2b 15 df bb
       -0.09692075 0.08652502 0.17043467 -0.0068079433
000210 6c ac 22 be 6a 65 02 3e ad 80 8b 3d b1 53 de bd
       -0.15886086 0.12733999 0.06811652 -0.108558066
000220 74 4f 7d bc a0 6c 6f 3d 56 ce 1d 3e 6e 3d ee bd
       -0.015460838 0.058453202 0.15410742 -0.116328105
000230 f4 be f6 bd 08 2f f8 bd a9 b6 82 bd 48 2b 2d 3d
       -0.1204814 -0.121183455 -0.06382496 0.042277604
000240 38 a4 09 be 2d 36 ae 3d 80 3c 54 3d 60 98 cc 3d
       -0.1344155 0.08506427 0.05181551 0.09990001
000250 27 47 a6 bc 98 b9 99 bd
       -0.0202976 -0.07506102

encoder.gru.bias_hh_l0 f4 [150]
000000 f3 3d d7 bc 00 a4 03 bc e9 f6 e9 3d 22 3f e6 3d
       -0.026274657 -0.008034706 0.114240475 0.112425104
000010 d0 cb 84 bd 36 13 b5 bc 31 71 d7 bc de d2 f7 3d
       -0.06484187 -0.022103887 -0.026299091 0.121007666
000020 a5 7c fc bd 44 ce d4 bd 0c 9c 0b 3d 9e d1 9d bc
       -0.123284616 -0.103909045 0.034084365 -0.019264992
000030 0f a0 f4 bd 90 4b b1 3c 0c be 46 bd f6 4a e8 3d
       -0.11944591 0.021642476 -0.048521087 0.11342423
000040 c0 ec 9f 3d 8e 37 03 3d b3 11 52 3d a3 34 b8 bd
       0.07808828 0.032035403 0.05128641 -0.08994415
000050 02 77 e7 bd 85 f0 22 bd f5 9c 97 bc 5a 02 79 bd
       -0.11301996 -0.03978016 -0.01850746 -0.06079326
000060 26 db f4 3c f4 2d b4 bd 4c 94 f4 bc cd 8e ca bd
       0.029889654 -0.08797827 -0.02985587 -0.09890518
000070 05 fe fe 3d 12 35 92 bc 19 7e 31 bc a3 b2 0c 3e
       0.12450794 -0.017847572 -0.010833287 0.1374002
000080 9a de 5c bd e4 bc cd 3d 39 dd 44 3d c6 ed ca bc
       -0.053923227 0.10045794 0.048062537 -0.024771582
000090 31 4a 94 3d e6 87 55 bd 08 5a a6 3d f3 4f 56 3d
       0.072407134 -0.052131556 0.08122641 0.05232234
0000a0 07 39 ca bd cf 82 91 3d af 14 6e 3b f8 ea 92 3d
       -0.09874158 0.07105028 0.0036328246 0.07173723
0000b0 6c 54 dd bd df ae a0 bd eb e9 9b bd a2 88 de bd
       -0.10807118 -0.07845854 -0.07612976 -0.108659044
0000c0 71 0f f4 3d 91 16 c1 bd 32 04 56 bd 34 5e fb 3d
       0.11917008 -0.09428132 -0.052250095 0.12273827
0000d0 9a fe 15 bb d6 d6 08 3c 2d 8f af 3d ef 81 e1 bc
       -0.002288735 0.008352002 0.085722305 -0.027527777
0000e0 d2 73 fd bd 50 21 52 bd c1 eb da 3d 1a 79 e2 3d
       -0.123756066 -0.0513013 0.10689498 0.110582545
0000f0 a7 16 80 3c 17 cd 7a bd 9d 77 a2 3d c6 c8 86 bd
       0.015635801 -0.061230745 0.07932971 -0.06581263
000100 0c 6e b8 bd 38 40 b0 bd fe 53 9b 3c 3c 1e 93 bd
       -0.09005365 -0.08605999 0.018960949 -0.07183501
000110 76 20 02 3d c5 4b 13 3d 76 e8 c3 bd dd ff a2 bd
       0.03176924 0.03596093 -0.09565823 -0.07958958
000120 88 fb 9f bd 0a 37 00 3e e1 30 ea 3c 85 02 23 3d
       -0.07811648 0.12520996 0.02858776 0.039797325
000130 e9 51 d0 3c 26 cd f9 3d 26 61 e3 3c ac 24 e4 bd
       0.025429683 0.12197332 0.027756285 -0.11139807
000140 da b5 5b 3d 62 ea 78 bd f7 ce bf 3a b4 26 2f 3c
       0.053640224 -0.0607704 0.0014633824 0.01069038
000150 81 cb ca bd 87 ef ce bc 8e e9 90 3c a9 bf 9a bd
       -0.099020965 -0.0252607 0.017689493 -0.075560875
000160 de 67 ac bd 46 bf 02 be 48 8d b1 bd 3b fc 78 bd
       -0.084182486 -0.12768278 -0.086695254 -0.06078742
000170 a6 87 5e bd 53 00 dd bd 8e 5c 8b bd 0e 9e d9 bb
       -0.054328583 -0.107910775 -0.06804763 -0.006641156
000180 71 57 cc 3d af 6a 68 3d 83 35 de bc 99 59 55 bd
       0.099776156 0.056742366 -0.027125126 -0.0520874
000190 00 80 f2 3c cc b3 d9 3b e1 06 fd 3d 7e a2 10 3e
       0.02960205 0.006643748 0.12354828 0.14124486
0001a0 1c 5a 2e bc c2 ae a9 bd 9e 07 0b be 0d b9 20 be
       -0.010641601 -0.082852855 -0.13577124 -0.15695591
0001b0 d2 4f 0d 3e 80 cf 72 3d 07 89 a4 bc 84 56 09 3e
       0.1379998 0.05927992 -0.020084871 0.1341191
0001c0 3e 3e c9 bd b4 d7 ce 3d 23 9c 06 be dd 76 d0 bc
       -0.09826325 0.10099736 -0.13145499 -0.025447303
0001d0 65 38 cf bc 67 28 7d bd 97 8f 63 bd d1 00 bf bd
       -0.025295446 -0.06180611 -0.05555686 -0.093263276
0001e0 0e f9 09 be 1f 54 94 bc 9a 13 3c 3d f9 2f d3 bb
       -0.13473913 -0.018106518 0.04591713 -0.006444928
0001f0 c7 50 d6 3d 33 2e 9f bd f7 d6 fc bd 0f b6 84 3d
       0.10464626 -0.07772484 -0.12345689 0.064800374
000200 32 3d e8 3d ac 50 02 3d 4e b1 01 3e bd e1 45 bd
       0.11339797 0.031815216 0.12665293 -0.048310984
000210 98 ed 74 3d ef 93 71 3d dc 3c 4d bd f9 c8 02 3e
       0.0597969 0.05897897 -0.05010687 0.12771977
000220 ad 24 41 bb f4 6e 8a 3d 29 cc ba bd 6a 9c fa 3d
       -0.0029471323 0.06759444 -0.09120972 0.12236865
000230 01 a9 ee bd 80 00 e3 3d c8 f5 e9 bd 40 74 a8 3b
       -0.11653329 0.1108408 -0.11423832 0.005140811
000240 fa 5a 0c bd ed 31 3f 3d 90 59 76 bd e3 07 24 3d
       -0.03426645 0.046678472 -0.060144007 0.040046584
000250 a6 b4 21 3e 54 58 5a 3d
       0.15791568 0.053306893

decoder.embedding.weight f4 [189, 50]
000000 72 d7 1d 3f dd 00 4c bf 5d 25 aa be ad 20 8a 3f
       0.6165687 -0.7968882 -0.3323163 1.0791222
000010 98 36 0d c0 d8 9d 16 40 a4 9a 44 3f 3f 8b 13 be
       -2.2064571 2.353384 0.7679846 -0.14408587
000020 20 db 6a bd 58 07 67 3f 70 85 71 3f b4 87 e4 3f
       -0.05733788 0.9024558 0.94344234 1.7853913
000030 42 f6 c1 bc 9f 54 87 bd 7f b0 54 3f 1c 0d ae bf
       -0.023676995 -0.06607937 0.8308181 -1.3597751
000040 e8 6c 6b 3e 8d 50 17 3e 4a ea e0 bf c5 fd 8f 3f
       0.22990763 0.14776821 -1.7571499 1.1249319
000050 49 ad 61 bf 2b 25 1d 3f 20 9b eb bf c0 5a a9 3e
       -0.8815504 0.6138484 -1.8406715 0.3307705
000060 58 38 84 bf ad 35 74 3e 71 b0 c6 3f dd 35 99 3f
       -1.0329695 0.238486 1.5522596 1.1969563
000070 8f ce 1f be 03 c3 c8 bf 06 ac 21 be a3 36 64 3f
       -0.1560614 -1.5684513 -0.15788278 0.8914587
000080 6e 1d 85 3c 64 bb 19 3f 3a 6b 85 be a1 63 b5 be
       0.016249385 0.6005156 -0.2605837 -0.35427573
000090 8a f3 7b bd 6f a5 8f 3f dc e9 d9 3f 68 83 1a 40
       -0.061511554 1.1222361 1.7024493 2.4142704
0000a0 4f cb c3 3f 6c 7e f2 3e 74 f5 d3 3f c0 4f 32 3f
       1.529642 0.47362077 1.6559281 0.6965294
0000b0 fd c1 4f 3f 42 5d b8 3e d7 53 83 bf fd ca 11 40
       0.8115538 0.3600865 -1.0259961 2.2780144
0000c0 3d e5 e3 be d4 72 86 3e a6 fb 1a 3f 33 fa 25 bf
       -0.44510832 0.26259482 0.60540235 -0.648349
0000d0 3b 29 c9 3f 5a 2d d2 3f fd c9 91 bf 9c 78 17 3f
       1.5715708 1.642009 -1.1389767 0.5916841
0000e0 76 dd 82 3f 62 24 ac 3e 6c dd 61 3f 50 c1 9a 3f
       1.0223835 0.33621508 0.8822849 1.2090244
0000f0 4c ac 90 be c5 fc 03 bf 35 98 a8 bf 71 00 6c be
       -0.28256452 -0.5155757 -1.317145 -0.23047043
000100 78 23 91 3f ff 9e e1 bf 84 14 77 3e eb a7 3a 3e
       1.1338949 -1.7626647 0.2412892 0.18228118
000110 4e 23 9f be 85 31 75 bf 8e ac ee 3f f1 b7 19 3f
       -0.31081623 -0.95778686 1.864641 0.600463
000120 06 26 96 3f ac ce fe 3e 0a 71 26 3e 36 aa 55 3d
       1.1730354 0.49767053 0.16254058 0.05216428
000130 6c e5 88 3e 0d f7 ac 3d 98 fa e0 bf bb cb e5 bf
       0.26737535 0.08445559 -1.7576475 -1.7952799
000140 15 49 bf 3f d1 b2 b0 3f fd 43 69 3f 74 95 f2 3e
       1.4944178 1.380457 0.91119367 0.4737965
000150 24 30 d6 be 92 6e 61 3f 1e f4 13 3e 50 45 58 3f
       -0.41833603 0.8805934 0.14448592 0.8448076
000160 c1 3e 3b 3f 6a 25 b8 be b7 f6 ed bb 0f c2 e4 bf
       0.7314263 -0.35966045 -0.0072620767 -1.7871722
000170 40 3c f7 bd 51 d7 3a bf 6f 08 66 be ec 29 8f 3e
       -0.12072039 -0.72984797 -0.22464155 0.2796167
000180 f0 fb 92 be 89 62 fb 3f ca 1c 9f 3f ec eb cc 3f
       -0.28707838 1.9639446 1.2430661 1.6009498
000190 88 a1 4a bf 79 dd 22 3f 35 76 56 bf 63 70 01 3f
       -0.7915273 0.6361919 -0.8377412 0.50562114
0001a0 ce d4 72 3f ca 20 0f bf 56 84 13 3f c0 d3 91 bd
       0.94855964 -0.5590941 0.57623804 -0.07120466
0001b0 1a b7 ac bd b8 9e 2a bf 17 2e bf 3e 49 32 c0 bf
       -0.08433361 -0.66648436 0.3733985 -1.5015346
0001c0 aa 99 3b bf fd da 8d be e5 b2 0e bf a7 df b4 3e
       -0.7328135 -0.27706137 -0.5574172 0.35326883
0001d0 87 83 89 3d 49 42 66 3d 18 61 a3 3f 1e e5 92 bf
       0.0671454 0.05621556 1.2764006 -1.1476171
0001e0 fd 8f 01 3f d1 a5 bd 3e 0e d9 fa 3e 1f 52 a6 3f
       0.50610334 0.3704057 0.48993725 1.2993811
0001f0 8a 0f a9 3f ff 70 82 bf ed 79 43 bf 5a 5a e6 bd
       1.3207867 -1.0190734 -0.7635792 -0.11247702
000200 ad 26 f4 be e0 72 c3 3f 2b ae ea 3d f8 70 b2 bf
       -0.47685757 1.5269432 0.11459001 -1.3940725
000210 82 cb f2 3e d6 4b dd bf c4 e1 92 bf a3 ca b7 bf
       0.4742089 -1.7288768 -1.1475148 -1.4358715
000220 82 8b 67 be a4 c0 a8 3f 05 15 2f 3f 93 cf d1 3f
       -0.22611812 1.3183789 0.6839145 1.6391472
000230 b3 74 a4 bf c1 c1 00 3e 87 7c 8a bf 19 c5 af bf
       -1.2848114 0.12573911 -1.0819253 -1.3732024
000240 2e a7 15 bf e2 7f 2b be b7 1a b0 3e 85 6e 8c bf
       -0.5845822 -0.16748002 0.34395382 -1.0971228
000250 75 38 8e be 7e d3 f7 3d 6a 53 71 3e 5c 70 44 3f
       -0.27777448 0.12100886 0.23566976 0.76733947
000260 6b 15 8b bf 58 95 9c 3e 8f 03 f3 3f 05 de 7e 3f
       -1.0865911 0.3058269 1.8985461 0.99557525
000270 9a 34 02 c0 17 69 9e bf 51 7c c1 bf c0 c4 42 3e
       -2.0344605 -1.2375821 -1.5116063 0.19020367
000280 f1 89 76 bc 47 19 b2 bd 62 72 07 3f 6a 20 9d 3e
       -0.015047536 -0.086962275 0.5290891 0.30688792
000290 8e bf 48 bf f3 ba 72 bf a0 15 11 bf ff f4 c0 be
       -0.7841729 -0.9481651 -0.5667362 -0.37686917
0002a0 3e c4 f2 3e c5 e7 50 3f bf 4e 08 be 22 23 58 3f
       0.47415346 0.8160365 -0.13311289 0.8442861
0002b0 5b 63 2d bf 7c 80 87 bf 1c 6f 27 bf bc d1 5b bf
       -0.6772973 -1.0586085 -0.65403914 -0.85866904
0002c0 23 22 37 3f 6e 9e b1 be 9a d1 ad bf aa 99 0e bf
       0.71536463 -0.34691185 -1.357959 -0.5570322
0002d0 d8 bc fd be 88 3b 1c 3f cc bc 85 be ed 09 fe 3d
       -0.4955814 0.6102834 -0.26120603 0.12404237
0002e0 a7 3f b9 3f 5b 5a 6a 3f 3c 3b 45 bf 12 b3 01 3f
       1.447255 0.9154412 -0.7704351 0.50663865
0002f0 48 87 9b 3f 83 63 36 bf b4 87 e5 be eb 84 46 bf
       1.215066 -0.7124559 -0.44830096 -0.77546567
000300 65 92 44 bf 91 c1 38 bf e2 58 c9 bd 15 93 f1 bd
       -0.7678588 -0.7217036 -0.09831406 -0.11795632
000310 c3 69 52 bf 23 04 6f be e5 5d 23 bf d2 82 1f bf
       -0.8219263 -0.23341422 -0.63815147 -0.6230899
000320 ef 20 9a bf 9a 14 6b 3f 34 59 12 be d8 68 28 bf
       -1.20413 0.9182831 -0.14291841 -0.6578498
000330 97 13 21 3d 25 54 8a 3f a2 0a 93 bf e6 e8 a3 3f
       0.039325323 1.0806929 -1.148762 1.280545
000340 39 99 50 3e 71 68 81 3e 83 d7 fa be bf a4 e4 3e
       0.2037095 0.25274995 -0.48992547 0.4465694
000350 38 2f e2 3e f4 64 0e 3e 05 56 a6 be 66 6e 61 be
       0.4417665 0.13905698 -0.32487503 -0.2201477
000360 fc 47 a3 be e2 c2 b5 3f 37 f8 69 bf 66 97 7a bf
       -0.31890857 1.4200099 -0.9139437 -0.97887266
000370 a6 df 0b 3e 39 38 9b bf 23 5b 50 40 77 96 b3 3e
       0.13659534 -1.2126533 3.2555625 0.35075733
000380 54 cd 63 bd 89 23 ac 3f f0 99 89 be e8 71 18 bf
       -0.055615738 1.3448344 -0.26875257 -0.5954881
000390 b9 d6 cf 3e 32 1a 0f 3f 22 e8 f7 3f 4f d7 39 bf
       0.40593508 0.55899346 1.9367716 -0.7259416
0003a0 55 15 70 3f 8c 0f c4 3f e0 98 43 3e de 2c 6c 3f
       0.9378255 1.5317245 0.19101286 0.9225596
0003b0 2f 42 00 bf 89 87 7a be c8 e1 29 be 9e 50 4d 3e
       -0.5010099 -0.24465765 -0.16590035 0.20050284
0003c0 9b ec a0 3f 3c 00 d0 bf 9a 96 65 bf 01 9c 32 bf
       1.2572206 -1.6250072 -0.89682925 -0.69769293
0003d0 28 5c b0 bf 99 b0 a4 3e ee 72 25 bf d7 64 56 bf
       -1.3778124 0.32165983 -0.64628494 -0.8374762
0003e0 53 27 9e 3f 02 3a 2a 3e f1 a5 fe bf 9c af 3a 3f
       1.2355751 0.1662369 -1.9894391 0.7292421
0003f0 54 0d 42 bf 17 92 0e c0 00 94 79 bf 65 d7 3b 3e
       -0.7580159 -2.2276666 -0.97491455 0.18343885

decoder.attn.weight f4 [15, 100]
000000 6a 3f 65 bd c5 d8 87 bc a9 b6 be bd 75 85 84 bb
       -0.05596868 -0.016582856 -0.093121834 -0.0040442296
000010 ff 4e d6 3c 54 f1 8a 3d f0 bd 83 3c f0 08 fa bc
       0.026160715 0.06784311 0.01608178 -0.03052184
000020 bd 43 b4 bd 6e 46 c9 3d 99 72 36 bd f4 ec 4f 3c
       -0.088019826 0.098278865 -0.044542883 0.012690771
000030 8c 6e ab 3d 12 36 70 3d 2e bf 9d bd d7 cf b2 bd
       0.083706945 0.058645315 -0.0770248 -0.087310486
000040 b6 e5 e7 bc 37 c3 e1 bb 2d 16 72 bc 2e 5c 13 3d
       -0.028307777 -0.0068897265 -0.014775795 0.03597658
000050 27 72 90 3b c9 81 26 bd 2e 0b 60 3d cd 3e cb bd
       0.0044081393 -0.040651117 0.05469816 -0.09924088
000060 97 87 8f bd e8 5d 55 bd a2 cd 96 bd 9c db 98 bb
       -0.070082836 -0.05209151 -0.0736344 -0.0046648514
000070 f5 6b b5 bd 45 2d 5c bd 33 c3 37 bc fe d4 f3 bc
       -0.08858482 -0.05375411 -0.011215973 -0.029764649
000080 f4 cb 04 3d ae 73 85 bc 75 ba 99 3d 03 29 61 bc
       0.032421067 -0.016290512 0.07506267 -0.013742688
000090 33 05 15 3d 83 32 be bc dc 01 c5 bd 26 49 c1 3d
       0.03638191 -0.023217445 -0.09619495 0.0943778
0000a0 9c 69 74 3d b2 6c 97 ba 43 b1 8d bd dc 98 b1 3c
       0.05967103 -0.001155278 -0.069185756 0.021679334
0000b0 15 f1 7c bd ad 4b 6e bd 09 ca 87 3d 8d 19 21 3d
       -0.06175335 -0.05817764 0.06630332 0.039331008
0000c0 02 71 38 bd 1e d3 b5 3d c3 fe a3 3d d9 19 1d bd
       -0.045029648 0.08878158 0.08007576 -0.03835473
0000d0 4f 76 c6 3d a0 db 1e bd 9b 45 90 3d 17 cc a7 3d
       0.09690534 -0.03878367 0.07044526 0.08193224
0000e0 79 6d c3 bd a0 a1 ba 3c 35 2e 8a bd 20 e7 b4 bd
       -0.095423646 0.022782147 -0.067470945 -0.08833146
0000f0 ee 54 54 bd e5 f3 bd bd e3 cd ad 3c 43 7b 11 bd
       -0.051838808 -0.09275035 0.021216339 -0.035517942
000100 b4 ea 09 bd 87 52 60 bd 14 94 39 3d aa 82 28 bd
       -0.033671096 -0.054766204 0.045307234 -0.041140236
000110 93 7f 89 bd 7a c6 c5 3d 1a 93 16 bd ef 11 4e 3d
       -0.06713786 0.09656997 -0.03676138 0.05031007
000120 9b ad 9d 3c f7 18 7a bd a7 23 12 3c ee 06 00 3c
       0.01924782 -0.061058965 0.008919633 0.007814152
000130 f0 ff a1 3d e3 1c 8e bc bf 7f 1b 3d 6b 22 c9 bd
       0.07910144 -0.017347759 0.037963625 -0.09821018
000140 6c 90 a6 3d 73 1e ba bd 3d b3 13 3d 34 e4 27 bb
       0.08133015 -0.09087839 0.036059607 -0.0025618197
000150 3d cc 35 3d 71 1f 84 3d 72 9e c4 bd 15 5c 22 3d
       0.04438423 0.064513095 -0.096005335 0.039638598
000160 73 60 d1 3c 9d 32 b7 bd 83 ee 02 bb 72 cc b7 bd
       0.025558686 -0.089452006 -0.001997859 -0.08974542
000170 26 d3 9b bc 2c 79 51 3c 92 d2 a7 3c a3 5c 92 3b
       -0.019021582 0.012785237 0.02048615 0.0044666096
000180 97 e3 12 3d 26 ee b3 3d be ae 16 bd d1 18 1c bd
       0.035861578 0.087856576 -0.03678774 -0.038109604
000190 b9 49 e8 bb 48 ee a2 3d a9 bf 3f 3d 71 33 97 3d
       -0.0070888666 0.07955605 0.04681364 0.073828585
0001a0 77 de aa 3d e4 19 fd bc 74 85 84 3d 9f d0 cb 3d
       0.08343213 -0.030896135 0.06470767 0.09951901
0001b0 ea 50 4b 3c 3e d4 aa bd 91 ff 1b bd 61 72 a5 3c
       0.012409428 -0.08341263 -0.038085524 0.020196142
0001c0 05 eb 3e 3b 00 43 b3 3b 3a 1a 98 3d a1 3f 7c 3d
       0.0029131782 0.0054706335 0.07426877 0.06158412
0001d0 49 04 50 3c 01 c5 c8 bd 15 d3 aa 3d 2d 0a 68 bd
       0.012696334 -0.098032005 0.08341042 -0.05665033
0001e0 0a 44 20 3d b6 95 11 bb 6e cf 2f 3d 7d 3c 24 bb
       0.039127387 -0.0022214479 0.04292243 -0.0025060468
0001f0 4c 4a 95 bd 97 12 5d bd cd fc b2 3d 65 6e c2 bd
       -0.07289562 -0.053972807 0.08739624 -0.09493712
000200 79 76 97 bd bb 67 0b 3d 05 19 25 bd 75 be 9b 3d
       -0.07395644 0.034034472 -0.040307064 0.07604686
000210 e0 fa 9b 3d 24 6d b0 bd 12 79 ad 3d 2c 1f 7f bd
       0.0761621 -0.08614567 0.08470358 -0.062285587
000220 8a e8 51 bd 18 a8 88 3d d2 df 8f bd 21 11 8e 3c
       -0.051247157 0.06672686 -0.07025112 0.017342152
000230 df 2c bf 3d ee 4e 6d bd 49 a4 52 3d f1 c9 a6 3b
       0.0933473 -0.0579366 0.051426206 0.0050899913
000240 34 6e 8b 3d 07 47 33 3d ed f7 52 bd 4f 66 0e 3d
       0.06808129 0.04376891 -0.05150597 0.034765538
000250 19 7d a1 bd 63 33 70 bd 80 96 98 3c b8 bc 59 bd
       -0.078851886 -0.058642756 0.018626451 -0.05315849
000260 ee 7b 88 3c 21 aa a8 bd c3 56 8c bd 6b e5 37 bd
       0.016660657 -0.082355745 -0.06852486 -0.044896524
000270 f5 0a 44 3c 3f 55 56 bd f7 a0 23 bd be 0b 93 3d
       0.011965503 -0.05232739 -0.03994843 0.07179974
000280 28 82 6a 3d 21 01 ba bd b8 49 47 bd 99 59 7b 3d
       0.057253033 -0.090822466 -0.048654288 0.061364744
000290 99 06 38 3d 2a ea 2f bc d9 f3 60 3c 8f 50 c9 bd
       0.044928167 -0.010736981 0.013730013 -0.098298185
0002a0 ea 95 02 bd 55 47 0e bc 18 0f f9 3a fb a7 92 bd
       -0.03188125 -0.008683999 0.0019001691 -0.07160946
0002b0 3e bf 41 3d c7 ec 05 bd f3 4c 61 bb e5 ac 4c 3d
       0.047301523 -0.03269651 -0.003437814 0.049969573
0002c0 04 f6 aa bd c2 84 07 bc 65 e5 dd 3c a0 8f cc 3d
       -0.08347705 -0.008271398 0.027086923 0.09988332
0002d0 ef 56 a2 3c 34 ad 3a 3d 59 24 c3 bd 44 f0 83 3d
       0.019816844 0.045575336 -0.09528417 0.064423114
0002e0 ec 37 be 3c 6f 29 bb bd 14 e6 ae bd 18 bb b8 3d
       0.023220025 -0.09138762 -0.08539978 0.0902006
0002f0 aa d9 50 bd 73 2c 26 bc 06 f2 63 bd d5 47 a0 3d
       -0.05098883 -0.010142433 -0.055650733 0.07826201
000300 2a cf ad 3d ae 19 22 3d 5e 79 b2 bd 25 55 11 bc
       0.08486779 0.03957527 -0.08714555 -0.008870398
000310 af 23 91 bd 3a 84 89 3d 2a 59 3e bd 4e f2 a7 3d
       -0.07086884 0.06714673 -0.046471752 0.08200513
000320 1b e2 9d bc 8e 36 91 bd 9d 94 89 3c 89 61 b9 bb
       -0.019272855 -0.070904836 0.016794497 -0.005657379
000330 8f c6 a4 3d ef c5 85 bc ea ca 3d bc 59 30 97 bd
       0.080456845 -0.016329734 -0.011584023 -0.073822685
000340 e3 ee bb bd e9 b7 4f bc 30 a8 b2 bd 6e 08 c7 bc
       -0.091764234 -0.012678125 -0.087234855 -0.024296012
000350 85 a6 a1 bd 64 fa 81 bb 15 1e 43 3a c2 e2 88 3c
       -0.07893089 -0.0039666165 0.0007443142 0.016709689
000360 0f 88 72 3d 69 2c d0 3b 95 04 35 bd 43 88 a2 3d
       0.059211787 0.0063529504 -0.044193823 0.07936146
000370 cc 58 af 3d dc d3 b5 3c e7 83 52 bd 18 ec a0 bd
       0.085618585 0.022195749 -0.051395323 -0.07857531
000380 73 c1 37 bd a3 e3 0c 3d 6f 78 bd bd 7c 0a 99 3d
       -0.044862222 0.03439678 -0.092514865 0.07472703
000390 ae 6e c3 3d d3 44 9e 3d cc b9 93 bd 96 8d 8b 3d
       0.09542595 0.07727971 -0.07213172 0.06814115
0003a0 50 fb c1 3d 12 56 aa 3d 78 a8 b4 3d d3 1c 2c bd
       0.09471762 0.08317198 0.08821195 -0.042019676
0003b0 e8 95 66 bd 5b fe 35 3c c5 bc c2 3d 4b 2c ac bc
       -0.056295305 0.011108006 0.09508661 -0.021017214
0003c0 62 25 9a bd 22 d1 d0 3c e3 76 aa bd c9 3f c2 bd
       -0.075266615 0.025490347 -0.08323457 -0.09484822
0003d0 5b 1a a8 3d 01 1e 9a 3d 8a 4b 5f 3c b0 a3 b2 bd
       0.08208152 0.07525254 0.01362885 -0.08722627
0003e0 e3 38 88 3d b4 b2 93 3d cb fa 68 bd bc 6a 19 bd
       0.06651475 0.07211819 -0.0568798 -0.037455305
0003f0 5e 78 a8 bc a8 86 f0 3c cf 23 bc 3d 47 29 35 bc
       -0.020565208 0.029361084 0.091865174 -0.011057205

decoder.attn.bias f4 [15]
000000 4a f5 60 bd 7f ab 9a bb 25 aa 2a 3c b6 b7 61 bd
       -0.054921426 -0.004720151 0.010416542 -0.05510684
000010 d3 69 67 3b c2 a4 af bd ff df b8 bd 92 87 0f bd
       0.003531088 -0.08576347 -0.09027099 -0.0350414
000020 ae 48 84 3d 1c ce ba 3c fb 00 41 bd 4f ad 75 3b
       0.06459175 0.022803359 -0.047120076 0.0037487333
000030 2c 1e b8 3d 78 54 42 3d 0d 3f e5 3c
       0.0899013 0.047443837 0.027984167
