best_models/seq2seq-2021-03-18-03-58-16.pt (torch, 799311 bytes, 16 tensors)

encoder.embedding.weight f4 [162, 100]
0	0xbfcad92a	-1.5847523
1	0x3ef5df94	0.4802214
2	0x3f769bdc	0.9633157
3	0x3f570911	0.8399821
4	0x3f70f355	0.94121295
5	0x3f017e39	0.50583225
6	0x3fa592e8	1.2935457
7	0x3da203d8	0.079108894
8	0xbf24718a	-0.64235747
9	0x3cc10644	0.023562558
10	0xc038d9ba	-2.888289
11	0x3f57e9c1	0.84341055
12	0x3e363da9	0.17796959
13	0xbf655088	-0.89576006
14	0x3e01e7e6	0.12686118
15	0xbea92622	-0.33036906
16	0x3f105240	0.56375504
17	0xc02d81d7	-2.7110498
18	0x3f62c798	0.88585806
19	0x3f9f6614	1.2453027
20	0xbfa826e4	-1.3136868
21	0xbe97b5f6	-0.29631013
22	0x3fe43c91	1.7830983
23	0xbfd45d2b	-1.6590933
24	0xbf857919	-1.0427581
25	0xbed3f768	-0.41399693
26	0xbf1472e8	-0.57987833
27	0x3f9e64d6	1.2374523
28	0x3f55be8d	0.8349388
29	0x3e9f722d	0.31141797
30	0xbf77d0cb	-0.9680297
31	0x3d8f574e	0.06999074
32	0xbf1844ab	-0.5947978
33	0x3f12addb	0.5729653
34	0xbe105afa	-0.14097205
35	0x3c06deb7	0.00823181
36	0x3f2d31d0	0.6765413
37	0x3f54de0e	0.8315133
38	0x3f88e62e	1.0695245
39	0xbf9041f2	-1.1270125
40	0xbe0685bb	-0.13136952
41	0xbfd14cb8	-1.6351538
42	0x3e134372	0.14381197
43	0xbd53e36e	-0.051730566
44	0x3f14d7ce	0.5814179
45	0xbea76ffc	-0.32702625
46	0xbf923ada	-1.142421
47	0xbf4c2a4f	-0.7975206
48	0x3fb53899	1.4157897
49	0xbf1ca41e	-0.6118792
50	0xbf3e7f1f	-0.7441272
51	0xbef2dcdb	-0.47434124
52	0xbf083b37	-0.53215355
53	0x3f5c27e6	0.8599838
54	0x3f219750	0.6312151
55	0xbfdc9a2e	-1.7234552
56	0x3eaeae34	0.3411728
57	0x3f4b1ddd	0.7934244
58	0x3fa98760	1.3244438
59	0xbfef2da2	-1.8685801
60	0xbdf52e77	-0.11971753
61	0x3f03eb5b	0.51531
62	0x400daacc	2.2135496
63	0x3fe9433b	1.8223642
64	0x3f8e12b2	1.1099455
65	0x3e619e10	0.22032952
66	0x3f979869	1.1843387
67	0x3d986769	0.07441599
68	0x3e2112e8	0.15729868
69	0x3d3430e2	0.04399193
70	0x3ebdba74	0.37056315
71	0x3f21fbf5	0.6327508
72	0x3eb379ba	0.35053807
73	0x3fa69903	1.3015445
74	0xbe9b4302	-0.3032456
75	0xbf1a4421	-0.60260206
76	0xbfb82d7c	-1.4388881
77	0xbf7f12a4	-0.9963782
78	0xc02b203d	-2.6738427
79	0x4006d4f3	2.1067474
80	0xbe18487f	-0.14871405
81	0x3fe40d91	1.781664
82	0xbfb91c36	-1.4461734
83	0xbfd21d3d	-1.6415173
84	0x3d363ef3	0.044493627
85	0xbf381671	-0.7190924
86	0xbf936c97	-1.1517514
87	0x3da392e6	0.07987003
88	0x3e70cd81	0.23515894
89	0x3e8b538f	0.27212188
90	0x3fa4d8fc	1.2878718
91	0xbedb4216	-0.42823857
92	0xbe8f2585	-0.27958313
93	0x3f2482a0	0.6426182
94	0x3f5495e3	0.8304121
95	0x3e6a5bdb	0.22886603
96	0x3ef20027	0.4726574
97	0x3f0176e1	0.5057202
98	0xbf46e09e	-0.7768649
99	0x3f83ff45	1.0312277
100	0xbf16b84f	-0.5887498
101	0x3f878096	1.0586116
102	0x3f586113	0.84523124
103	0x3f52e5f2	0.8238212
104	0xbf6cf20b	-0.9255683
105	0xbf8dd94c	-1.1081939
106	0xbf318eae	-0.69358337
107	0xbfe73900	-1.806427
108	0xbd10525f	-0.035234805
109	0xc002df19	-2.0448668
110	0x3f821fd5	1.0165964
111	0xbf36d867	-0.71423954
112	0x401c17e4	2.4389582
113	0xbea50c03	-0.32235727
114	0xc043bf3b	-3.0585468
115	0xbf3f6a74	-0.7477181
116	0xbf175d33	-0.59126586
117	0xbf8bc612	-1.0919821
118	0xbf17ac4f	-0.592473
119	0x3f7479ed	0.95498544
120	0x3ed82490	0.42215395
121	0xbf623810	-0.88366795
122	0x3fca27d7	1.5793408
123	0xbf48cb7c	-0.7843549
124	0x3db394a6	0.08768587
125	0xbfb39e37	-1.4032658
126	0xbd90b9f7	-0.0706672
127	0x3f406e98	0.7516875
128	0x3e9809ee	0.29695076
129	0xbdd6cb44	-0.104879886
130	0x3c63e6b3	0.013909983
131	0xbf948312	-1.16025
132	0x3fa012e1	1.2505761
133	0x3fb87cbb	1.4413065
134	0x3f3f7362	0.74785435
135	0xbfc39b4a	-1.5281765
136	0xbebba976	-0.36652726
137	0xbf641636	-0.8909639
138	0xbfb46b9f	-1.4095343
139	0xbff2a18e	-1.8955553
140	0x3f839395	1.0279413
141	0xbfd19bb6	-1.6375644
142	0xbd3b7297	-0.04576358
143	0xbf983954	-1.1892495
144	0xbf8d1b4a	-1.1023953
145	0x3eb70be7	0.35751268
146	0xbdbe3ae3	-0.092885755
147	0x3f6d2f21	0.9265004
148	0x3f3494ca	0.70539534
149	0x3e85a816	0.26104802
150	0xbf4dcf59	-0.8039451
151	0x3f4c2512	0.79744065
152	0xbfd70b5d	-1.6800343
153	0x3f896dc0	1.0736618
154	0xbf3a7215	-0.72830325
155	0x3fc7dd26	1.5614364
156	0x3e90b541	0.28263286
157	0x3df5f1ef	0.12009036
158	0x3f28616c	0.65773654
159	0x3f853cd7	1.0409192
160	0x3fab7d65	1.3397642
161	0xbf0e713d	-0.5564154
162	0xbf0c71f6	-0.5486139
163	0xbf743ff2	-0.9541007
164	0x3e094cf4	0.13408262
165	0xbf35165b	-0.70737237
166	0x3fbecfc1	1.4907151
167	0x3f0badcc	0.5456207
168	0x3ed87422	0.42276102
169	0x3f6711f9	0.902618
170	0xbf919218	-1.1372709
171	0x3f4dae7e	0.8034438
172	0x3e9dec67	0.30844423
173	0x3f02a401	0.510315
174	0x3fdf5f2d	1.745092
175	0x3eb8c7bd	0.36089888
176	0x3f36fc0b	0.7147834
177	0x3f9891a1	1.1919442
178	0x3ed2942e	0.41128677
179	0x3f0e1105	0.5549472
180	0x3eb3f4bf	0.35147664
181	0xbf85ac52	-1.0443213
182	0xbeb30e40	-0.3497181
183	0x3f8b3aeb	1.0877355
184	0x3fc6d8a7	1.5534867
185	0x3d2c45f4	0.0420589
186	0xbca09b0a	-0.019605178
187	0x3d91de38	0.07122463
188	0xbf0777aa	-0.5291697
189	0x3f2cce3a	0.67502177
190	0xbea52fd0	-0.3226304
191	0x3f6b5014	0.91919065
192	0xbed56517	-0.41678688
193	0x3e6d1f85	0.23156555
194	0x3ebbeb11	0.3670278
195	0xbee614eb	-0.44937834
196	0xbf28dda3	-0.6596319
197	0xbf1d8df3	-0.6154472
198	0xbf0cc369	-0.5498567
199	0x3e73b846	0.23800763
200	0xbf78fcbd	-0.9726065
201	0x3f35dc98	0.71039724
202	0xc012a7f6	-2.2915015
203	0x3ef4e2f3	0.478294
204	0xbf9fe7e5	-1.2492644
205	0x3e2d2dd0	0.16912007
206	0xbf98e962	-1.1946223
207	0x3e72cb0b	0.23710267
208	0x3f296fef	0.6618642
209	0xbf32f8fb	-0.69911164
210	0xbf50b30b	-0.815232
211	0x3f22ca03	0.63589495
212	0xbfd4cc9b	-1.6624941
213	0xbf3dadb1	-0.7409316
214	0xbf81ba55	-1.0134989
215	0xbdb0bbfa	-0.08629604
216	0x3f98925a	1.1919663
217	0xbf400f25	-0.7502311
218	0xbe234c59	-0.15947093
219	0x3f99917d	1.1997524
220	0x3fb4c175	1.4121538
221	0xbf94edbd	-1.1635052
222	0x3fd83733	1.6891845
223	0xbedf8d6b	-0.4366258
224	0xbf701e8f	-0.9379663
225	0xbf15f9f8	-0.5858455
226	0xbfdbc549	-1.7169582
227	0x3f91d1b9	1.1392127
228	0x3e32c3f7	0.17457567
229	0x3f62963b	0.88510484
230	0x3f2e5fd5	0.6811498
231	0x3e9c2875	0.30499616
232	0x3e833373	0.2562519
233	0xbe912e12	-0.2835546
234	0x3ffeffd2	1.992182
235	0xbe3ae34d	-0.18250771
236	0x3f98d4d0	1.1939945
237	0xbf33791f	-0.7010669
238	0x3d623774	0.055228665
239	0x3fce0a27	1.6096848
240	0x3f3c92ec	0.73661685
241	0x3f4510a0	0.7697849
242	0x3e8b3f8d	0.27196923
243	0xbec6bcfc	-0.3881606
244	0x39a07373	0.00030603594
245	0x3dd6a39e	0.10480426
246	0xbe262372	-0.16224459
247	0xbe6c6dc9	-0.23088755
248	0xbf81a79b	-1.0129274
249	0x3e899046	0.26867884
250	0xbeb4a9c5	-0.35285774
251	0xbfbb59cd	-1.463678
252	0x3e3755c1	0.17903806
253	0xbf2c3431	-0.6726714
254	0x3f95232b	1.1651357
255	0x3ee6ee65	0.45103756

encoder.gru.weight_ih_l0 f4 [300, 100]
0	0xbd3541b4	-0.044252113
1	0x3d740778	0.059577435
2	0xbcca6dc1	-0.024710538
3	0xbd809b6f	-0.062796466
4	0x3d8a019e	0.0673859
5	0x3db95c34	0.090507895
6	0x3d9aeed1	0.07565082
7	0xbcc02197	-0.023453517
8	0xbd3ece45	-0.046583433
9	0xbd0bf498	-0.03416881
10	0xbdc8eac6	-0.098104045
11	0x3bc8af2e	0.0061243987
12	0x3da296bc	0.079389066
13	0x3d4d6e08	0.050153762
14	0x3d7662c0	0.06015277
15	0xbc6d7771	-0.014493809
16	0x3c83e872	0.01610205
17	0x3daa3ed0	0.08312762
18	0x3d9e2a89	0.07722957
19	0x3ca48bfc	0.020086281
20	0x3d289108	0.041153938
21	0xbdbc4489	-0.091927595
22	0x3d21b55d	0.039479602
23	0xbc283657	-0.010266862
24	0x3d13f378	0.03612086
25	0x3d5461ba	0.05185101
26	0x3d29151f	0.04127991
27	0xbc476d83	-0.012172106
28	0xbb9c4c72	-0.004769855
29	0xbd55072d	-0.052008796
30	0xbaa70640	-0.0012742952
31	0x3d9610bc	0.073274106
32	0xbd7b3444	-0.06132914
33	0x3d95ae09	0.07308585
34	0xbc9bb4fc	-0.019007199
35	0x3d8edf12	0.06976141
36	0x3d396884	0.04526569
37	0x3d676df1	0.056501333
38	0xbdb845d6	-0.08997695
39	0x3c023878	0.0079480335
40	0xbd5faae1	-0.054606322
41	0xbb912aca	-0.0044301497
42	0xbdb50b0f	-0.0884
43	0x3d606879	0.054787133
44	0xbd473c98	-0.04864177
45	0x3cd0895a	0.02545612
46	0x3d8dc0ea	0.06921561
47	0x3d7b60d8	0.061371654
48	0x3c5f1d8b	0.013617883
49	0x3d1e4753	0.03864224
50	0x3d6e34be	0.058155768
51	0xbd2983ce	-0.041385464
52	0x3cde00c2	0.02709997
53	0x3c1a5ce4	0.009421561
54	0xbd70aa0b	-0.058755916
55	0xbd79769e	-0.060904138
56	0x3d04846e	0.032352857
57	0x3cf3ca02	0.02975941
58	0xbd7f5d2b	-0.06234471
59	0xbd30fa4b	-0.043207448
60	0x3d9cd60b	0.07658013
61	0x3d3a8abf	0.045542475
62	0x3da98d34	0.082788855
63	0x3ce38d8d	0.027777458
64	0x3ce6cc55	0.028173605
65	0x3cfe7817	0.031063123
66	0xbd813a67	-0.063099675
67	0x3c11b37a	0.008892888
68	0xbd02e775	-0.031959016
69	0x3d18afcc	0.037277028
70	0xbd668664	-0.05628051
71	0x3d9c5483	0.07633307
72	0xbd256dcb	-0.04038791
73	0xbc821c01	-0.015882494
74	0x3cacd21d	0.021096284
75	0xbd04d48a	-0.032429256
76	0xbdb88f28	-0.0901168
77	0xbd8a0724	-0.06739643
78	0xbcf8a209	-0.030350702
79	0x3d5daaa7	0.054117825
80	0xbd88d0dc	-0.06680462
81	0x3c82d686	0.015971433
82	0x3cd8af14	0.026450671
83	0x3d664323	0.05621637
84	0x3da47709	0.08030517
85	0x3cf9cdf1	0.030493708
86	0xbceb57ec	-0.028728448
87	0xbcc09d17	-0.023512406
88	0x3d96c7f5	0.073623575
89	0x3d6e4d77	0.058179345
90	0xbcb37e82	-0.02191091
91	0x3cac6007	0.021041883
92	0xbcdd9e90	-0.027053148
93	0xbd09c920	-0.033639073
94	0x3d267c48	0.040645868
95	0xbd85cb63	-0.065329336
96	0xbdbc81ab	-0.0920442
97	0xbd2421e5	-0.040071387
98	0xbdacd3b7	-0.08438819
99	0x3d62169a	0.055197336
100	0xbda530cd	-0.08065949
101	0xbd8f228d	-0.06989012
102	0xbce55fe7	-0.027999831
103	0xbcbfbeba	-0.023406375
104	0xbc24642f	-0.010033651
105	0x3d08532e	0.03328245
106	0xbcafe77b	-0.021472683
107	0x3d96e6b6	0.07368223
108	0xbd910ee9	-0.07082922
109	0xbd478318	-0.048709005
110	0xbd9f8f69	-0.07791025
111	0xbd398315	-0.045291025
112	0x3cc1e6be	0.023669597
113	0x3d1762d7	0.036959495
114	0xbd822af0	-0.06355846
115	0x3dc3e95b	0.095659934
116	0x3d5abad9	0.053400848
117	0x3d10393c	0.035210833
118	0x3ced22d9	0.02894728
119	0x3c54b25d	0.012981978
120	0x3d0bee73	0.03416295
121	0xbccfe437	-0.025377376
122	0xbd8a1e88	-0.067441046
123	0x3d1ad195	0.03779753
124	0xbd3fef00	-0.046858788
125	0xbd4c47f0	-0.049873292
126	0x3c974627	0.018466068
127	0x3bbbae11	0.0057275374
128	0x3b0dec70	0.002165582
129	0xbc37fd60	-0.011229843
130	0xbda218b6	-0.079148695
131	0x3cb6bfa1	0.022308173
132	0xbd94f581	-0.07273389
133	0x3c3662b9	0.011131936
134	0x3de241e0	0.11047721
135	0x3b24400d	0.0025062591
136	0x3c4fee94	0.012691159
137	0x3d9168d2	0.07100071
138	0x3c1e4255	0.0096593695
139	0x3db8d39e	0.09024738
140	0xbda3c96a	-0.07997401
141	0xbac43cc5	-0.0014971724
142	0xbc48b771	-0.012250767
143	0x3d828a11	0.0637399
144	0xbc67f38f	-0.01415719
145	0xbd05d8cd	-0.03267746
146	0xbce4f0ee	-0.027946915
147	0x3d956859	0.07295293
148	0xbdb86b7b	-0.09004875
149	0x3ccd767c	0.025080912
150	0xbd928c48	-0.07155663
151	0xbccc385d	-0.02492922
152	0x3c84d669	0.01621552
153	0x3da48135	0.08032457
154	0x3d3dd734	0.04634781
155	0x3d57c8dc	0.05268179
156	0x3d5d96eb	0.054099005
157	0xbd9ff27e	-0.078099236
158	0x3ca22b79	0.01979612
159	0xbd6df7c5	-0.05809762
160	0x3d655056	0.055984817
161	0x3d8538a6	0.065049455
162	0x3d9b0011	0.07568372
163	0xbcef8540	-0.029238343
164	0xbd24d366	-0.040240668
165	0x3d561da9	0.05227438
166	0x3dca377c	0.09873864
167	0x3d62af96	0.055343233
168	0xbd410b50	-0.04712993
169	0xbda40ef7	-0.08010667
170	0xbd9baff6	-0.07601921
171	0x3d57e723	0.052710664
172	0xbda0aaa3	-0.07845046
173	0xbd9178b4	-0.071031004
174	0xbd9cb059	-0.07650823
175	0xbd20293d	-0.039101828
176	0xbc382307	-0.01123882
177	0x3cd7e1fe	0.026352879
178	0xbd2e7f68	-0.042601973
179	0xbd1341e3	-0.035951506
180	0xbca44c20	-0.02005583
181	0x3d474778	0.048652142
182	0x3d6a535a	0.057208396
183	0x3d292123	0.041291367
184	0x3d5e842b	0.054325264
185	0xbd820b76	-0.06349842
186	0xbccea5f3	-0.025225615
187	0xbd4f29c1	-0.05057693
188	0x3db414bb	0.087930165
189	0x3bd3d5dd	0.0064647035
190	0x3dabe607	0.083934836
191	0x3d75c1b1	0.05999917
192	0x3d2de8ec	0.04245846
193	0x3d92f2c6	0.071752116
194	0x3d98aa24	0.07454327
195	0x3cb77aa7	0.022397352
196	0x3bd19297	0.0063956487
197	0x3b2c098b	0.0026250805
198	0xbda3ec6a	-0.08004077
199	0xbd816d6f	-0.06319701
200	0x3b1951bb	0.0023394662
201	0x3c8000fc	0.01562547
202	0xbcc30fd1	-0.023811253
203	0x3d90849d	0.07056544
204	0xbd8ecda9	-0.0697282
205	0xbc79caaa	-0.015246073
206	0x3d8cbadf	0.0687158
207	0x3d0e98a1	0.034813527
208	0xbca4ac65	-0.020101735
209	0x3d345875	0.04402967
210	0xbcb7bc24	-0.02242858
211	0x3d299531	0.041402046
212	0xbd3e30b2	-0.04643316
213	0xbd172d44	-0.036908403
214	0xbdb8a855	-0.09016482
215	0xbd903dbc	-0.07043025
216	0x3d95d11a	0.073152736
217	0x3ce05400	0.027383804
218	0xbd3643d8	-0.044498295
219	0xbbb133bf	-0.00540778
220	0x3d13fca0	0.036129594
221	0x3d25b2ea	0.04045383
222	0x3d05e021	0.03268445
223	0x3c5b3f4c	0.01338179
224	0x3d09d05c	0.033645973
225	0x3d82548a	0.06363781
226	0xbd63b13d	-0.05558895
227	0xbd8137b3	-0.06309452
228	0xbd6a3565	-0.057179827
229	0xbd37037d	-0.04468106
230	0xbd4259d5	-0.04744895
231	0x3c57b801	0.013166429
232	0xbdae7f2e	-0.08520351
233	0xbce07768	-0.027400687
234	0xbb82f94e	-0.0039970046
235	0xbcbe695d	-0.0232436
236	0xbd613797	-0.054984655
237	0xbda1b92f	-0.07896649
238	0xbd0c2151	-0.03421146
239	0x3ce85e22	0.028365199
240	0xbcfc15c1	-0.030772092
241	0xbda3907f	-0.07986545
242	0x3ca42f26	0.020042013
243	0xbc08b33a	-0.008343512
244	0xbc75cf49	-0.015003034
245	0x3cb92497	0.022600455
246	0xbd278811	-0.040901247
247	0x3d9fac88	0.077965796
248	0x3c35b0a0	0.011089474
249	0x3d223942	0.039605387
250	0x3c130cef	0.008975252
251	0x3d845c51	0.064629205
252	0x3c2f8d45	0.010714834
253	0x3dbf430e	0.093389615
254	0xbd919eeb	-0.07110389
255	0xbcf975b3	-0.030451631

encoder.gru.weight_hh_l0 f4 [300, 100]
0	0x3d9e2a41	0.07722903
1	0xbc93e7db	-0.018054893
2	0x3d2c7746	0.042105936
3	0xbd7ccb50	-0.06171733
4	0xbdc9a914	-0.09846702
5	0xbd28a565	-0.041173358
6	0x3d5be2c3	0.053683054
7	0x3cc58ba6	0.024114441
8	0xbd24c90c	-0.040230796
9	0x3a1bd8c8	0.00059450837
10	0x3d16caf3	0.03681464
11	0x3dca80c0	0.09887838
12	0x3c36016d	0.011108738
13	0xbd6e7ecd	-0.058226395
14	0x3dae9384	0.0852423
15	0x3d90459a	0.070445254
16	0xbd0e7ebc	-0.034788832
17	0xbb97035c	-0.0046085548
18	0x3d81056f	0.062998645
19	0x3c1c4eff	0.0095403185
20	0xbccd49f1	-0.025059672
21	0x3d88a1ad	0.06671462
22	0x3d6018e6	0.054711245
23	0xbdc75e3b	-0.0973477
24	0xbdc114df	-0.09427809
25	0xbcb3af25	-0.021934101
26	0x3dcc4393	0.09973826
27	0xbdb73e82	-0.08947469
28	0xbdaaa37c	-0.083319634
29	0x3bdb3d7a	0.006690678
30	0xbc207764	-0.00979409
31	0xbc80a61f	-0.015704213
32	0xbc3e5a00	-0.011618137
33	0x3b9e1ee4	0.00482546
34	0xbd6d8b16	-0.05799397
35	0x3db7ccd3	0.08974614
36	0xbd470b95	-0.04859503
37	0xbda6e988	-0.08150011
38	0x3d681811	0.056663577
39	0xbc8c2757	-0.017108602
40	0xbd8d80e9	-0.06909353
41	0xbd4c27ad	-0.049842525
42	0x3d11cd32	0.03559608
43	0x3cfdb907	0.030972017
44	0xbcd969dd	-0.026539737
45	0x3d9ff894	0.078110844
46	0xbccb3618	-0.024806067
47	0x3d2392db	0.039934974
48	0x3d4df504	0.050282493
49	0x3d2e7588	0.042592555
50	0xbd41392f	-0.047173675
51	0xbdbbc091	-0.091675885
52	0xbcccc99e	-0.024998482
53	0xbcf7e8c7	-0.030262364
54	0x3d2a47a5	0.04157223
55	0xbd56b22c	-0.05241601
56	0xbda88d87	-0.08230119
57	0x3da0de4a	0.07854898
58	0x3cac8d6b	0.021063527
59	0xbdbac17b	-0.09118935
60	0x3cfc4c99	0.030798243
61	0xbdb9c1e1	-0.090701826
62	0x3d97fc0c	0.07421121
63	0xbd772c70	-0.060345113
64	0x3b3ff5ad	0.0029290721
65	0x3d498193	0.049195837
66	0x3d900a5c	0.07033226
67	0xbd352152	-0.04422123
68	0xbba65cd8	-0.005076986
69	0x3d6a26d4	0.057165936
70	0xbd1e8e18	-0.03870973
71	0x3c8a9c50	0.016920239
72	0x3c1385fa	0.0090041105
73	0xbd836c82	-0.064171806
74	0xbd43fd6a	-0.047849096
75	0x3da652c1	0.08121253
76	0xbcff6792	-0.031177316
77	0xbd30df31	-0.043181602
78	0xbced2362	-0.028947536
79	0x3dc364ba	0.095406964
80	0x3db2d363	0.08731725
81	0xbdb0073b	-0.08595129
82	0xbc3c2ad3	-0.011484819
83	0xbccff18d	-0.025383735
84	0xbd1ba5fd	-0.038000096
85	0xba4f93c8	-0.00079184445
86	0x3d714cc2	0.058911093
87	0x3d1dc8de	0.03852164
88	0xbda8f349	-0.08249528
89	0x3d139a49	0.03603581
90	0xbd8a4d71	-0.06753052
91	0xbd75da4a	-0.06002263
92	0xbd9f3ad5	-0.07774893
93	0x3ce8066e	0.028323378
94	0xbbd4d48c	-0.006495064
95	0xbda1b465	-0.07895736
96	0xbc626405	-0.013817792
97	0x3dab8c33	0.0837635
98	0xbd917f85	-0.071044005
99	0xbc8ac996	-0.016941827
100	0x3d9fc04c	0.078003496
101	0xbd7d917b	-0.06190632
102	0x3d568600	0.052373886
103	0x3d868b1c	0.06569502
104	0x3dbb60fe	0.09149359
105	0x3a8be1af	0.0010672117
106	0xbdc8a683	-0.097973846
107	0xbd8f5038	-0.069977224
108	0xbd87db63	-0.066336416
109	0x3da430ac	0.08017096
110	0x3c7de350	0.01549609
111	0xbd3f16ca	-0.046652593
112	0x3d3e0853	0.046394657
113	0x3d9a4b88	0.07533938
114	0x3d3d4fc4	0.04621865
115	0x3d82e4b9	0.06391282
116	0xbcccb216	-0.024987262
117	0xbc055be2	-0.008139582
118	0x3d1829db	0.03714929
119	0xbdc4401c	-0.095825404
120	0xbd725e25	-0.059171814
121	0xbdcd5691	-0.10026277
122	0x3d9c2634	0.07624474
123	0x3c2eec50	0.0106764585
124	0x3c8c6154	0.017136253
125	0xbd34754c	-0.044057176
126	0xbd2d0fef	-0.042251524
127	0x3c004086	0.007827884
128	0x3d297cc8	0.041378766
129	0xbd003f05	-0.0313101
130	0x3d0ec4ae	0.034855537
131	0xbc77cc5b	-0.015124406
132	0xbdbdc731	-0.09266508
133	0xbd0ab07b	-0.03385971
134	0x3dacf8e1	0.084459074
135	0x3ce653af	0.028116075
136	0xbbc0b81c	-0.0058813225
137	0xbd83c78a	-0.064345434
138	0xbd7b73d4	-0.06138976
139	0xbdbb71db	-0.091525756
140	0xbdb7012c	-0.089357704
141	0xbc0a498f	-0.008440389
142	0x3d441f55	0.047881443
143	0x3c9a4d69	0.01883574
144	0xbd91d166	-0.07120018
145	0x3d3bc627	0.04584327
146	0x3d14ef20	0.03636086
147	0x3d7cde0f	0.06173521
148	0xbdc2039b	-0.09473344
149	0xbb677c0e	-0.0035321745
150	0x3d71d86b	0.059044283
151	0xbd17582e	-0.03694933
152	0x3d42bb05	0.047541637
153	0x3c888976	0.016667109
154	0xbdcf882b	-0.10133394
155	0xbd38e48c	-0.045139834
156	0xbd04417f	-0.032289024
157	0xbd806e89	-0.06271083
158	0x3d501eb8	0.050810546
159	0x3c9afe93	0.018920219
160	0x3d0e45cb	0.03473453
161	0x3c7a2c8b	0.015269409
162	0x3c777ba6	0.015105164
163	0xbcfdbacc	-0.03097286
164	0xbd0af94e	-0.03392916
165	0x3db12b14	0.086507946
166	0x3d470824	0.048591748
167	0x3ccc9dd2	0.024977598
168	0x3d43108f	0.047623213
169	0x3d8bbd32	0.068231955
170	0x3d9b81f2	0.075931445
171	0x3ca81cf1	0.020521613
172	0xbdba7f1f	-0.09106278
173	0xbda75657	-0.08170765
174	0xbd72ba61	-0.059259776
175	0xbdc59241	-0.09647036
176	0xbcf15f84	-0.02946449
177	0xbb5ea412	-0.0033972305
178	0x3d6c9605	0.057760257
179	0x3dbb59a6	0.091479585
180	0x3da10441	0.078621395
181	0x3d64a434	0.05582066
182	0x3cfd1811	0.030895265
183	0x3dc224ce	0.09479676
184	0x3c26c05d	0.010177699
185	0xbdbbd7b6	-0.09172003
186	0x3cce4e90	0.025183946
187	0x3dd0acf5	0.10189239
188	0xbdaab607	-0.083355
189	0xbd89f5d0	-0.06736338
190	0x3c15b025	0.009136234
191	0xbdb7846f	-0.089608066
192	0xbd44d63a	-0.048055865
193	0xbd36cb2d	-0.044627357
194	0x3d916101	0.0709858
195	0xbd53f7ef	-0.05175012
196	0xbd972635	-0.07380334
197	0xbd529db3	-0.051419925
198	0xbdbda0a3	-0.09259155
199	0xbd1df8f9	-0.038567517
200	0x3d79dadb	0.060999732
201	0x3cea2265	0.028580854
202	0xbd263579	-0.04057834
203	0xbd84ee65	-0.06490783
204	0xbd6bb77d	-0.057548035
205	0xbbe363cc	-0.006939387
206	0x3d950822	0.07276942
207	0x3d021bfa	0.03176496
208	0x3dba061a	0.09083195
209	0x3d7971ce	0.06089955
210	0xbcb21ab3	-0.021741247
211	0x3d8570e5	0.065156735
212	0xbd5d9976	-0.05410143
213	0xbda5eb3a	-0.081015065
214	0xbde38b2e	-0.11110531
215	0xbd96fe93	-0.07372775
216	0x3cd1b815	0.025600472
217	0xbd32abab	-0.043620747
218	0x3d486999	0.04892883
219	0xbd29451e	-0.04132568
220	0x3c7c3f0e	0.015395893
221	0xbc766793	-0.015039342
222	0xbda415e8	-0.08011991
223	0xbd165f9e	-0.03671228
224	0xbdad88e6	-0.08473377
225	0x3d8bd5b3	0.06827869
226	0x3d8a88f9	0.06764407
227	0x3dd53ed2	0.10412373
228	0xbce5a710	-0.028033763
229	0x3dbda650	0.09260237
230	0x3d1456e7	0.03621569
231	0xbdca4507	-0.09876447
232	0x3ce913af	0.028451769
233	0xbd4e266c	-0.05032961
234	0xba1929ab	-0.0005842696
235	0x3c76c4b9	0.015061551
236	0x3d9cad78	0.07650274
237	0xbd64bb85	-0.055842895
238	0xbdb35307	-0.087560706
239	0xbd921f04	-0.07134822
240	0x3d9556fe	0.07291983
241	0x3de18439	0.110115476
242	0x3d4b8959	0.04969153
243	0x3d24c972	0.040231176
244	0xbd7e34ae	-0.062061958
245	0x3ca1284f	0.019672541
246	0x3cb6ebfc	0.022329323
247	0xbd8e2c9d	-0.06942103
248	0xba7eda3b	-0.000972185
249	0xbd101410	-0.035175383
250	0x3dcf82f6	0.10132401
251	0xbd7ed217	-0.062212076
252	0xbdc9ff60	-0.09863162
253	0x3dbbe6fa	0.09174915
254	0xbdbc90d5	-0.09207312
255	0x3dbaf3b1	0.09128512

encoder.gru.bias_ih_l0 f4 [300]
0	0x3da10e28	0.07864028
1	0xbd7981a8	-0.060914665
2	0x3dfd4c94	0.12368122
3	0x3d3db3c1	0.046314005
4	0x3a178752	0.0005780357
5	0x3d2748b4	0.04084082
6	0xbcb618d8	-0.022228643
7	0xbd6ba001	-0.05752564
8	0x3ccc0b6a	0.024907786
9	0xbd4c3d0b	-0.049862903
10	0xbd9c2446	-0.07624106
11	0xbda0ac5b	-0.07845374
12	0xbd2188eb	-0.039437216
13	0xbd9b402d	-0.075806
14	0xbdc50956	-0.09620921
15	0xbb3052c8	-0.002690481
16	0x3d1a9d2d	0.03774755
17	0x3d83406b	0.06408771
18	0xbdaad7e1	-0.08341957
19	0xbd214bd8	-0.03937897
20	0xbd3e8d83	-0.046521675
21	0x3db87bac	0.090079635
22	0xbcaf4f6b	-0.021400174
23	0x3d486599	0.048925016
24	0xbd71750a	-0.058949508
25	0x3dc7fa69	0.09764559
26	0xbd80c166	-0.06286888
27	0x3da8b43d	0.08237503
28	0xbd786a20	-0.060648084
29	0x3d585619	0.052816484
30	0x3a3c0a4e	0.00071731664
31	0x3d0042d3	0.03131373
32	0x3d98cc41	0.07460833
33	0xbc2aca72	-0.010424243
34	0xbcdb2d16	-0.026754897
35	0x3dc70b3e	0.09718941
36	0xbb08808f	-0.002082858
37	0xbd3e167f	-0.046408173
38	0xbcdc5b39	-0.026898967
39	0x3db88659	0.0901
40	0x3d09a548	0.03360489
41	0x3d73e464	0.059543982
42	0x3d15b9ce	0.03655415
43	0xbdc4bd35	-0.09606401
44	0xbdaf5847	-0.085617594
45	0x3d94388f	0.0723735
46	0xbdbd97b7	-0.09257453
47	0x3d016aa9	0.03159586
48	0xbd66dfb6	-0.05636569
49	0xbca4feb7	-0.020140989
50	0xbd3a0d32	-0.04542274
51	0xb9053ef3	-0.00012707319
52	0xbd1edb6f	-0.038783487
53	0xbdbcf61a	-0.09226628
54	0xbd3e50a6	-0.04646363
55	0xbd94c61e	-0.0726435
56	0x3c67d058	0.014148794
57	0xbd8f0b28	-0.0698455
58	0xbdaa605f	-0.083191626
59	0x3dac90d6	0.08426063
60	0xbd88a980	-0.066729546
61	0x3d0cbcf2	0.03435988
62	0xbc682ff9	-0.014171594
63	0xbb364093	-0.0027809485
64	0xbd18049d	-0.037113775
65	0xbba6362a	-0.005072375
66	0x3dea42d2	0.11438526
67	0x3d6b2394	0.057406977
68	0x3d5d105e	0.053970687
69	0x3c206d91	0.009791748
70	0xbc5148a7	-0.012773669
71	0x3d822c63	0.06356122
72	0x3da0ec47	0.07857566
73	0x3de127e8	0.1099394
74	0xbd14ec79	-0.03635833
75	0x3d8de7aa	0.06928952
76	0x3d6362b3	0.05551405
77	0x3d8b6832	0.06806983
78	0xbd57023c	-0.052492365
79	0x3d10234b	0.035189908
80	0x3bfc73a4	0.007704215
81	0xbdb5234f	-0.08844625
82	0xbd63b1c8	-0.055589467
83	0xbd537d75	-0.051633317
84	0x3d46c93c	0.048531756
85	0xbc87924f	-0.016549258
86	0x3db87b14	0.0900785
87	0x3c5ac126	0.013351714
88	0x3da8a7bf	0.0823512
89	0xbc9e6117	-0.019333405
90	0x3d231592	0.039815493
91	0x3bdc882f	0.0067301015
92	0x3bbec290	0.0058215335
93	0xbd05f625	-0.032705445
94	0x3d9221b2	0.07135333
95	0x3d091bad	0.03347366
96	0xbd8b3c86	-0.06798653
97	0x3dad4ea2	0.08462264
98	0x3d554753	0.052069973
99	0xbd0ad4ee	-0.03389447
100	0xbd857e9a	-0.06518288
101	0x3d96e787	0.07368379
102	0xbdf86116	-0.12127893
103	0x3d521017	0.051284876
104	0xbd28a8ad	-0.041176487
105	0xbcd9ea6e	-0.026601043
106	0x3ca6d4d3	0.020365154
107	0xbd95be1b	-0.0731165
108	0x3d11aa99	0.035563085
109	0x3d3c9116	0.046036802
110	0xbd57d993	-0.05269773
111	0xbdb50324	-0.0883849
112	0x3d00293e	0.03128933
113	0x3d22f647	0.03978565
114	0x3c9c8e92	0.019110952
115	0xbdc49859	-0.095993705
116	0xbb8e45e9	-0.00434183
117	0xbd2ea706	-0.042639755
118	0x3dbaec6e	0.09127127
119	0x3d78d3ab	0.060748737
120	0x3c271257	0.010197244
121	0x3c91bc2f	0.017789928
122	0xbb57a992	-0.0032907468
123	0xbda92ca4	-0.08260468
124	0x3c817241	0.01580155
125	0xbd8f7887	-0.07005411
126	0xbb2906a0	-0.0025791302
127	0xbd892bd6	-0.06697814
128	0x3d23de30	0.040006816
129	0xbdafefd8	-0.085906684
130	0xbd885ec9	-0.06658704
131	0xbdaec2c6	-0.08533244
132	0x3d001959	0.031274173
133	0xbcfbe15d	-0.03074711
134	0xbcf09ea7	-0.029372526
135	0xbc72421d	-0.01478627
136	0x394fe824	0.00019827537
137	0x3dae289a	0.08503838
138	0x3c0caa86	0.008585578
139	0x3c8b3afc	0.0169959
140	0x3b2a1da6	0.0025957613
141	0x3c95c39b	0.018281749
142	0xbda92527	-0.08259039
143	0xbcea338f	-0.028589038
144	0xbd838904	-0.06422618
145	0x3dbc9a35	0.092091
146	0x3c3b9d3e	0.011451064
147	0x3d615099	0.055008505
148	0xbd267198	-0.040635675
149	0xbd9d1578	-0.076701105
150	0x3d82dd40	0.06389856
151	0xbd563f3f	-0.05230641
152	0xbd64b4e8	-0.05583659
153	0xbd3c8695	-0.046026785
154	0x3dce3ff1	0.100707896
155	0x3d0a887e	0.033821575
156	0x3cb88350	0.022523552
157	0xbda38bad	-0.079856254
158	0x3c649113	0.013950604
159	0x3d0d3031	0.034469787
160	0x3d5860ad	0.052826572
161	0x3db90fde	0.090362296
162	0x3d85c795	0.06532208
163	0xbd15b75b	-0.036551815
164	0x3c919658	0.017771885
165	0x3bc15d20	0.005900994
166	0xbe2a5e2b	-0.16637485
167	0xbdecd89a	-0.11564751
168	0x3e1748b1	0.14773823
169	0x3db3cc40	0.08779192
170	0x3d1e2ffd	0.038619984
171	0x3dc22f67	0.094816975
172	0xbdaca920	-0.084306955
173	0x3d1520e4	0.03640832
174	0x3cb180d7	0.021667881
175	0xbd062c2f	-0.03275698
176	0x3d007f6f	0.03137153
177	0x3d0134ff	0.03154468
178	0xbd9a6460	-0.07538676
179	0xbdc5d8d6	-0.09660499
180	0xbca6e98e	-0.02037504
181	0xbdc2d380	-0.09512997
182	0x3dc7a366	0.09747963
183	0xbd3fc6a0	-0.046820283
184	0xbd89f33b	-0.06735846
185	0x3d0e7dba	0.03478787
186	0xbd8ff025	-0.07028226
187	0xbdb58900	-0.08864021
188	0x3dde743c	0.10862014
189	0xbd04237d	-0.032260407
190	0x3c122ace	0.008921338
191	0x3cdcf396	0.02697162
192	0x3d91193a	0.0708489
193	0xbd7bf73f	-0.06151509
194	0x3ca0a632	0.019610498
195	0x3cf7d910	0.03025487
196	0xbcd7d5d3	-0.026347077
197	0xbdd3c0ba	-0.10339494
198	0xbd5174ab	-0.051136654
199	0xbdb4db04	-0.088308364
200	0xbaa5dc96	-0.0012654241
201	0xbd3517ba	-0.04421208
202	0x3d857dcc	0.065181345
203	0x3c998410	0.01873973
204	0xbd0917f7	-0.03347012
205	0xbdad9ca2	-0.08477141
206	0xbede3ab0	-0.4340415
207	0x3d2b3a18	0.04180345
208	0x3cc9015a	0.024536777
209	0xbe3f1fe9	-0.18664517
210	0xbb28b989	-0.0025745353
211	0x3e13f690	0.14449525
212	0x3baa0b2b	0.0051893196
213	0x3d506cca	0.050885
214	0xbe45bf59	-0.19311275
215	0xbc797cd4	-0.015227515
216	0xbe5a5b09	-0.2132379
217	0x3cc6f44c	0.024286412
218	0x3d9d859c	0.076914996
219	0xbe38a345	-0.18031032
220	0xbd51580b	-0.051109355
221	0xbe488179	-0.1958064
222	0x3d7d1744	0.061789766
223	0x3e06be33	0.13158493
224	0x3c8518eb	0.016247233
225	0x3d29d7cc	0.041465566
226	0x3e252f4d	0.16131325
227	0xbce5409b	-0.027984908
228	0x3d39d8d9	0.045372818
229	0xbe061861	-0.13095237
230	0xbdfdcf2e	-0.12393032
231	0x3cf35cb5	0.029707292
232	0x3e645294	0.22297126
233	0xbccd23b9	-0.025041448
234	0x3da05b09	0.078298636
235	0xbd850b49	-0.06496293
236	0x3dc5a713	0.096510075
237	0x3dc30cb0	0.09523904
238	0xbdd424c1	-0.10358573
239	0xbe58c5d5	-0.21169217
240	0x3d9b5b2b	0.07585748
241	0x3d9b45aa	0.07581647
242	0xbdfb1365	-0.122595586
243	0x3d230a24	0.039804593
244	0xbcc61750	-0.024181038
245	0x3e0b11b1	0.13580967
246	0x3dcd9f11	0.10040105
247	0x3e1d6385	0.15369995
248	0xbe43c5c7	-0.19118415
249	0xbd57c504	-0.052678123
250	0x3e37bcb6	0.17943081
251	0x3bdaa074	0.0066719595
252	0xbc421d8b	-0.011847864
253	0x3e02ec99	0.12785567
254	0xbddc03e0	-0.107429266
255	0x3e3c4e50	0.18389249

encoder.gru.bias_hh_l0 f4 [300]
0	0x3d591cf9	0.053006146
1	0xbd5bd7b4	-0.053672507
2	0x3afdf1b9	0.0019374407
3	0xbd2274bc	-0.039662108
4	0x3df46c57	0.11934727
5	0xbc2b1178	-0.010441177
6	0xbd9a1acb	-0.075246416
7	0x3aa7b907	0.0012796231
8	0xbd0ecf7a	-0.034865834
9	0xbd9b6138	-0.075869024
10	0xbd72d252	-0.05928261
11	0x3d7a8723	0.061164033
12	0x3d92a204	0.07159808
13	0x3d80e152	0.062929764
14	0xbd9a85ed	-0.075450756
15	0x3da6d615	0.08146302
16	0x3d3256b5	0.04353972
17	0x3df32251	0.1187178
18	0x3d29c43c	0.04144691
19	0x3d21c798	0.039496988
20	0xbda6ccd6	-0.08144538
21	0x3ce5bebc	0.02804505
22	0xbcd115c4	-0.025523074
23	0x3cbdaad0	0.023152739
24	0xbd580c47	-0.052746084
25	0x3daed859	0.08537359
26	0xbda367d7	-0.0797879
27	0xbdc59747	-0.096479945
28	0xbdbb9af6	-0.09160416
29	0x3d1919ea	0.03737823
30	0xbd5ca04a	-0.0538638
31	0xbc864cea	-0.016394097
32	0xbd5b73f5	-0.053577382
33	0x3da73d5f	0.081660025
34	0xbd816437	-0.063179426
35	0x3dd19f42	0.10235454
36	0x3d690438	0.05688879
37	0x3bdef96e	0.0068046367
38	0xbd2bbd8b	-0.04192881
39	0xbc6d156c	-0.014470439
40	0xbba2916a	-0.0049611824
41	0xbdb4676e	-0.0880879
42	0x3dd4c662	0.10389401
43	0xbd003dca	-0.031308927
44	0x3dbfdfaf	0.09368836
45	0x3dd8c974	0.10585299
46	0x3d9c5441	0.07633258
47	0xbd1c802e	-0.03820818
48	0x3d0b1a18	0.03396043
49	0x3d95c7fb	0.07313534
50	0xbc29745a	-0.010342682
51	0xbd4db627	-0.050222542
52	0xbc92544c	-0.017862462
53	0x3d0be945	0.03415801
54	0x3d6b7846	0.05748775
55	0xbc1dc203	-0.0096287755
56	0x3dc87ed5	0.09789816
57	0xbd666b25	-0.056254525
58	0x3cb1b49f	0.021692572
59	0xbb834f3e	-0.004007249
60	0x3b031563	0.002000176
61	0xbd76c306	-0.060244583
62	0x3d01acb8	0.031658858
63	0x3d8e4c52	0.06948151
64	0xbd93a15a	-0.0720851
65	0x3d666d28	0.056256443
66	0x3bd8d3a4	0.0066170264
67	0x3e032528	0.12807143
68	0xbc7e5107	-0.015522248
69	0x3dad5d2f	0.08465039
70	0x3ddcfee3	0.10790803
71	0xbd762aa6	-0.060099266
72	0xbd81bcc3	-0.063348316
73	0xbd701302	-0.058611877
74	0x3b93eb51	0.004514136
75	0xbc824bec	-0.015905343
76	0xbd4a4774	-0.04938455
77	0x3dce815e	0.100832686
78	0xbd91dbf1	-0.071220286
79	0xbd3eb42b	-0.04655854
80	0xbd503b08	-0.050837547
81	0x3d18a778	0.037269086
82	0xbdbe3499	-0.09287376
83	0xbd88f968	-0.066881955
84	0x3d87c37e	0.06629084
85	0x3d515ffe	0.051116936
86	0xbd9b7794	-0.07591167
87	0xbd1de270	-0.038546026
88	0xbdad0aa4	-0.08449295
89	0x3d459f83	0.048247825
90	0xbdcf8820	-0.10133386
91	0xbd92b9b2	-0.07164325
92	0x3ce649b0	0.028111309
93	0xbddc8cde	-0.10769056
94	0xbdacf743	-0.08445599
95	0x3d34a39e	0.04410135
96	0x3ce24f79	0.027625786
97	0xbcfea449	-0.031084197
98	0x3d2068ec	0.03916256
99	0x3d97546a	0.073891476
100	0xbd03dd34	-0.032193378
101	0x3db44ff9	0.08804316
102	0xbdb42991	-0.08796991
103	0xbd175b2d	-0.036952186
104	0x3c14923b	0.009068067
105	0xbd8c062a	-0.06837113
106	0x3c55397c	0.013014194
107	0x3d3941b1	0.045228664
108	0x3d923f5f	0.07140993
109	0xbd1d7991	-0.038446013
110	0x3c7dd5a9	0.015492835
111	0xbcd33317	-0.025781197
112	0x3d72b160	0.05925119
113	0xbd5c2dae	-0.0537545
114	0x3b37c9ec	0.0028043939
115	0x3d3ddc12	0.046352454
116	0x3c915718	0.017741725
117	0x3c6a4992	0.014299767
118	0x3b2ff1ea	0.0026847073
119	0x3d78058b	0.06055216
120	0xbc0ae520	-0.008477479
121	0xbca6bd85	-0.020354042
122	0x3d69b9a1	0.057061795
123	0x3db8fd93	0.090327404
124	0xbdb39422	-0.087684885
125	0x3db764ab	0.08954748
126	0xbc937c41	-0.018003585
127	0xbde3f822	-0.11131312
128	0x3d54edde	0.05198466
129	0xbe1ea839	-0.1549386
130	0x3dfb17f3	0.12260427
131	0xbad3f0e9	-0.0016169819
132	0xbdbe445c	-0.09290382
133	0x3b9bae04	0.004750969
134	0x3c952543	0.018206244
135	0xbd80fb1d	-0.06297896
136	0xbc3f636f	-0.011681422
137	0x3c15e963	0.009149882
138	0xbdb95dcd	-0.09051094
139	0x3d5afbe4	0.053462878
140	0xbd512735	-0.05106278
141	0xbcaa964c	-0.02082362
142	0xbdabed74	-0.083949
143	0x3c823e84	0.01589895
144	0xbd917aeb	-0.07103523
145	0x3b619c0e	0.0034425291
146	0xbdceb3fa	-0.100929216
147	0xbd2c5c1d	-0.042080034
148	0xbcfe267e	-0.031024214
149	0xbcb312b5	-0.021859506
150	0xbd9041c5	-0.070437945
151	0x3dad5e08	0.08465201
152	0xbd16e89c	-0.036842927
153	0x3b89f51b	0.004210127
154	0x3d9d2875	0.07673732
155	0x3bc3ccf5	0.0059753605
156	0x3cc6093c	0.024174325
157	0x3d2b25cd	0.041784097
158	0x3d248143	0.040162336
159	0x3db38c09	0.08766944
160	0xbddee442	-0.108833805
161	0x3dc7a10a	0.09747513
162	0x3d8e667d	0.06953142
163	0xbd37d5ba	-0.04488156
164	0x3c4fd487	0.012684948
165	0x3d41745f	0.04723012
166	0xbe197a49	-0.14988054
167	0xbdc12250	-0.09430373
168	0x3d3207b7	0.04346439
169	0xbc951d9e	-0.0182026
170	0x3d003120	0.03129685
171	0x3bb0806a	0.005386402
172	0x3dc37d23	0.09545352
173	0x3ca5c139	0.020233737
174	0x3de1119a	0.10989685
175	0x3c09fd92	0.008422272
176	0xbd66966a	-0.05629579
177	0xbc26fde3	-0.010192367
178	0xbb157a4e	-0.0022808495
179	0xbbebd9e4	-0.0071976054
180	0xbd63988d	-0.055565406
181	0x3d98b27c	0.07455918
182	0x3c951687	0.018199218
183	0xbd9afbb0	-0.07567537
184	0xbdbf38ab	-0.093369804
185	0xbc8d9a42	-0.01728547
186	0x3d92b52b	0.07163461
187	0xbd5bde5a	-0.053678848
188	0x3bd0d5c6	0.00637314
189	0xbd82c596	-0.06385343
190	0x3bf49e24	0.007465141
191	0x3ccac856	0.02475373
192	0x3cfa1af5	0.030530432
193	0x3d5a38eb	0.053276937
194	0xbdb8fe32	-0.09032859
195	0x3cc93e1e	0.024565753
196	0x3d8368cf	0.06416475
197	0xbe32481d	-0.17410322
198	0x3d840b6d	0.06447492
199	0xbd82d8ca	-0.063890055
200	0x3d6d973a	0.05800555
201	0x3c8c58f5	0.017132262
202	0x3a4fefd3	0.000793216
203	0x3d011a65	0.031519312
204	0x3de5c7a5	0.1121972
205	0xbde19896	-0.110154316
206	0xbe4fa314	-0.20277053
207	0xbda3823f	-0.07983827
208	0x3dc1d150	0.09463751
209	0xbd18eb44	-0.03733374
210	0xbda7bf63	-0.08190801
211	0xbceb8b9e	-0.028753098
212	0xbd639e7b	-0.05557106
213	0xbda60f25	-0.08108357
214	0xbe0edd15	-0.13951524
215	0x3cc6ea3d	0.024281615
216	0xbe2101ea	-0.15723386
217	0x3e25176a	0.16122213
218	0x3c20739c	0.009793188
219	0xbdcc61c9	-0.099795885
220	0x3c9863ca	0.01860227
221	0xbd358f46	-0.04432609
222	0x3dab9869	0.08378679
223	0x3d894caf	0.06704079
224	0xbd467993	-0.048455786
225	0x3cc4d449	0.024027007
226	0x3cec906f	0.028877465
227	0x3cb33e9e	0.021880444
228	0x3d9babba	0.076011136
229	0xbddeee29	-0.10885269
230	0xbe1514ad	-0.14558668
231	0x3d21d392	0.03950841
232	0x3dce2530	0.10065687
233	0x3ba9d2dc	0.005182607
234	0xbdc7f850	-0.09764159
235	0xbc04f33b	-0.008114631
236	0xbd20a68d	-0.039221335
237	0x3cf74e07	0.030188574
238	0xbb625efb	-0.0034541476
239	0x3cd75dcb	0.026289841
240	0x3c977c9b	0.018492034
241	0x3d9db39f	0.07700276
242	0xbd94bed9	-0.07262964
243	0x3d1805ba	0.037114836
244	0x3d4a1fac	0.04934661
245	0x3d13e81a	0.03611002
246	0xbcf53ae9	-0.029935317
247	0x3e5f00cc	0.21777648
248	0xbdf1af8d	-0.11801062
249	0xbd39b8ce	-0.04534226
250	0x3e1c1b1c	0.15244716
251	0xbc6ff445	-0.014645641
252	0xbd02b713	-0.031912874
253	0xbd4448dd	-0.04792105
254	0x3cc3176a	0.023814876
255	0xbcbc2790	-0.022968084

decoder.embedding.weight f4 [189, 100]
0	0x3ffd67b8	1.9797277
1	0x3f18400b	0.5947272
2	0x3e8dbc56	0.2768275
3	0x3f8d8c27	1.1058396
4	0x3fe21ee5	1.7665678
5	0xbf23afdc	-0.63940215
6	0xbf8c9c44	-1.0985188
7	0xbfa17e45	-1.2616659
8	0x3e9ff505	0.31241623
9	0x3f4f5d32	0.8100158
10	0x3f70c5f0	0.9405203
11	0x3e885771	0.26629212
12	0x3f52d54c	0.82356715
13	0xbd7e1302	-0.062029846
14	0xbcac8238	-0.021058187
15	0x3febec73	1.8431534
16	0x3fd1f688	1.640336
17	0xbf91f461	-1.1402704
18	0x3ef1b59e	0.47208875
19	0x3fc1fcc5	1.5155264
20	0xbe5e807b	-0.21728699
21	0x3ebbfac6	0.36714762
22	0x3fdaf680	1.7106476
23	0x3e274c77	0.16337763
24	0xbf818279	-1.0117942
25	0xbd9eb343	-0.07749035
26	0x3edbd064	0.42932427
27	0xbd7f55a3	-0.06233753
28	0xbea426ed	-0.32060948
29	0xbe913184	-0.2835809
30	0x3f9bf612	1.218447
31	0xbe9b4517	-0.3032615
32	0x3e9095df	0.28239343
33	0x3fc0f82e	1.5075738
34	0x3fc62138	1.5478888
35	0xbead1f9f	-0.33813187
36	0x3fd58bef	1.6683329
37	0xbd32ceda	-0.0436543
38	0x3f0824dd	0.5318125
39	0xbf8c9341	-1.0982438
40	0x3e74bc32	0.23899916
41	0xbf9c7d84	-1.2225804
42	0xbf94f6a2	-1.1637766
43	0x3f88ce21	1.0687906
44	0x3ca2f28c	0.019891046
45	0xbfc9fcf4	-1.578032
46	0xbea85f75	-0.32885328
47	0x3f29ae7b	0.6628186
48	0x3e8fbaa8	0.28072095
49	0x3fec1ea0	1.8446846
50	0xbf9ed80a	-1.240968
51	0x3e173025	0.1476446
52	0xbfbf226b	-1.4932379
53	0x3f124ec4	0.57151437
54	0xbf374d1d	-0.7160204
55	0x3f9ccf9f	1.2250861
56	0x3f9279a5	1.1443373
57	0x3df9ac1d	0.12191031
58	0x3f049676	0.51792085
59	0xbf49259b	-0.78573006
60	0xbf623aeb	-0.8837115
61	0x3f4b0aec	0.7931354
62	0xbf75c415	-0.9600232
63	0x3fe217c6	1.7663505
64	0xbfcaaa5e	-1.5833242
65	0x3ff008d4	1.8752694
66	0x3f032a4e	0.51236427
67	0x3eb77f3e	0.35839266
68	0xbfb80d60	-1.4379082
69	0xbebfecb7	-0.37485287
70	0xbf49c1c0	-0.78811264
71	0xbf224815	-0.6339124
72	0xbfc60a55	-1.5471903
73	0x3f8a01e2	1.0781825
74	0x3f3bcf7a	0.7336346
75	0x3fb90f34	1.4457765
76	0xbf2eea68	-0.68326426
77	0x3ef61e49	0.4806998
78	0xbfcc7681	-1.5973665
79	0x3fda028d	1.7032028
80	0xbed0b9ed	-0.4076685
81	0x3d101282	0.0351739
82	0x3f0841cb	0.5322539
83	0x4024f3bf	2.577377
84	0xc005e27c	-2.0919485
85	0xbfbe443c	-1.4864573
86	0xbf5d3498	-0.86408377
87	0x3e42d997	0.19028316
88	0xbe92dabb	-0.28682503
89	0x3e81e67d	0.2537116
90	0x3e14d8d0	0.14535832
91	0x40095dd0	2.1463509
92	0xbe5d496e	-0.21610042
93	0xc026501c	-2.5986395
94	0x3ecffeeb	0.40624174
95	0xbfd20b69	-1.6409732
96	0x3f993d13	1.1971763
97	0xbb27f3ba	-0.002562745
98	0xbd9fc299	-0.078007884
99	0x3ca9e7fc	0.020740502
100	0xbefab345	-0.48964897
101	0x3f7c55e5	0.98568565
102	0x3f093d88	0.53609514
103	0xc007ed6e	-2.1238666
104	0x3f9b617a	1.2139122
105	0xbf5cbc0b	-0.8622443
106	0xbe455c04	-0.19273382
107	0x3d917a25	0.07103375
108	0x3f95fa3b	1.1716989
109	0x3f00dd72	0.503379
110	0xbf2b1320	-0.6682606
111	0xbfbdff01	-1.4843446
112	0xbf8c991b	-1.0984224
113	0xbf15e34c	-0.5854995
114	0x4002bdb6	2.042829
115	0xbf14a667	-0.5806641
116	0xbf74aaee	-0.9557332
117	0x3e3a887d	0.18216129
118	0x3f165eb5	0.5873826
119	0x3cfd76f0	0.030940503
120	0x3ed11121	0.4083338
121	0xbe3b451d	-0.18288083
122	0x3e358263	0.1772552
123	0x3ee3d933	0.44501647
124	0x3dc64852	0.09681763
125	0x3e9df513	0.3085104
126	0xbfbf25c6	-1.4933403
127	0x3efaaff0	0.48962355
128	0xbe3f3a6e	-0.18674633
129	0x3f2a5175	0.66530544
130	0xbebf2e1c	-0.37339866
131	0xbf89157b	-1.070968
132	0xc0037b80	-2.0544128
133	0x3f082a0f	0.53189176
134	0x3e105775	0.14095862
135	0xbe024378	-0.1272105
136	0xbf663bba	-0.89934886
137	0x3f3461ed	0.7046192
138	0xbf8a1a8c	-1.0789351
139	0xbf81aa5d	-1.0130116
140	0x3f08c49f	0.5342502
141	0xbf682f32	-0.90697014
142	0x3e73871d	0.2378201
143	0x3ed8ee3d	0.4236926
144	0x3f811f9c	1.0087771
145	0x3f9c3a39	1.2205268
146	0x3fa525d0	1.2902164
147	0x3f4aff10	0.79295444
148	0x3e39f5f3	0.18160228
149	0x3ff0b13e	1.880409
150	0xbecc0d70	-0.39854002
151	0x3f56e266	0.83939207
152	0xbf634f0e	-0.887925
153	0xbf96626c	-1.1748786
154	0xbe2acaaa	-0.16678873
155	0xbeef5ab7	-0.46748897
156	0x3f855eb2	1.0419524
157	0xbfc80d38	-1.5629034
158	0x3703bb12	7.851764e-06
159	0x3e4cdc9f	0.20006035
160	0xbf027379	-0.5095745
161	0x3f1553ce	0.58331
162	0xbf2fe2a9	-0.6870523
163	0x3f477630	0.77914715
164	0x3f65a79d	0.8970888
165	0x40209069	2.508814
166	0x3e1eeb8b	0.1551954
167	0xc008f6ec	-2.140071
168	0x3ec71fef	0.3889155
169	0x3fd11926	1.63358
170	0x3f604700	0.8760834
171	0x3faf9d2a	1.3719838
172	0x3f52c360	0.8232937
173	0xbdace5e9	-0.084422894
174	0xbfac186f	-1.3444957
175	0x3f43beda	0.7646309
176	0x3ff7f006	1.9370124
177	0xc00c1ffd	-2.1894524
178	0x3f4267f5	0.75939876
179	0xbf1a9fba	-0.60399973
180	0x3e79fd12	0.24412945
181	0xbed0cefd	-0.4078292
182	0xc001a86d	-2.025905
183	0xbe91c87e	-0.28473276
184	0x3ffd3d3f	1.9784316
185	0xbf8f72bd	-1.120689
186	0xbea3ddd7	-0.32005188
187	0xbf90fca6	-1.1327102
188	0x3f28ea1d	0.6598223
189	0xbf3ddfc7	-0.7416958
190	0xbe81ab2c	-0.25325906
191	0x3f51730f	0.8181619
192	0x3f5a8890	0.8536463
193	0xbf0da5b8	-0.5533099
194	0xbf33977b	-0.70153016
195	0xbf859804	-1.0437016
196	0xbf43fce4	-0.76557755
197	0xbfa6804a	-1.3007901
198	0xbebe6bb6	-0.37191552
199	0xbfd8bdc6	-1.6932914
200	0x3f93749b	1.151996
201	0x3fbc2733	1.4699463
202	0xbf90b925	-1.1306502
203	0x3e65d52a	0.22444597
204	0x3fe84c41	1.8148271
205	0x3f954f94	1.166491
206	0x4024b27b	2.5733936
207	0xbf223def	-0.63375753
208	0x3fafe156	1.3740642
209	0xbf87baac	-1.0603843
210	0xbfac2298	-1.3448057
211	0x3f6ad9a9	0.91738373
212	0x3f228d90	0.6349726
213	0xbfa2ce81	-1.271927
214	0x3f2ee6d8	0.6832099
215	0x3f8e533f	1.1119155
216	0x3f9c5215	1.221255
217	0x3fcb79c2	1.5896533
218	0x3e14892f	0.14505456
219	0xbed8b54e	-0.42325824
220	0xbec4ad63	-0.38413534
221	0x3f3376aa	0.7010294
222	0xbdeffafb	-0.117177926
223	0x3f7ed02a	0.99536383
224	0x3eebe2bf	0.4607143
225	0xbec5f084	-0.3866006
226	0x3f86b5c1	1.0524217
227	0xbe4443b5	-0.19166453
228	0x4006cda0	2.1063004
229	0x3eb22640	0.34794807
230	0x3f2c4de0	0.6730633
231	0xbfb3e377	-1.4053792
232	0x3f94d090	1.1626148
233	0xbf68287f	-0.9068679
234	0x3fba064c	1.4533172
235	0xbe625c66	-0.2210556
236	0x3f7fdd75	0.9994729
237	0x3f459357	0.7717795
238	0x3fa5c444	1.295052
239	0xbf15f617	-0.5857863
240	0xbf7aecfa	-0.9801785
241	0xbf3493ce	-0.7053803
242	0x3f1f5a40	0.62247086
243	0x3edd0f6e	0.43175834
244	0xbe5d4486	-0.21608171
245	0x3ecfa07c	0.40552127
246	0x3fa15e0d	1.2606827
247	0x3f7a33b1	0.97735125
248	0x3f66c8dd	0.90150243
249	0xbeb27f34	-0.34862673
250	0x3f319385	0.6936572
251	0x3f3b4346	0.73149526
252	0xbf0c833e	-0.5488776
253	0x3f24c889	0.6436849
254	0xbdc79b7d	-0.09746454
255	0x3e40a02c	0.188111

decoder.attn.weight f4 [15, 200]
0	0xbd372fc0	-0.044723272
1	0xbccf4460	-0.025301158
2	0x3d82f965	0.063952245
3	0x3b68ca9d	0.0035521158
4	0xbc9e45db	-0.019320419
5	0xbc9686e7	-0.018374873
6	0xbccf5908	-0.025311008
7	0xbd88edd9	-0.06685991
8	0xbd9d0247	-0.0766645
9	0xbd39a1d7	-0.045320358
10	0x3e45f2bd	0.19330879
11	0x3c05bd66	0.008162832
12	0xbd22fa32	-0.039789386
13	0x3c74bc86	0.014937526
14	0xbdc88e76	-0.09792797
15	0x3d682922	0.056679852
16	0xbca956cd	-0.020671273
17	0x3cf2215b	0.02955692
18	0xbe0483f2	-0.12940958
19	0x3e28a8b4	0.16470605
20	0xbd78b790	-0.060721934
21	0x3badd31a	0.0053047063
22	0x3c97e421	0.018541398
23	0xbe0b21b2	-0.13587072
24	0x3d7390d4	0.05946429
25	0x3bacc803	0.0052728667
26	0xbd5b6f2a	-0.05357281
27	0x3e1df4aa	0.15425363
28	0x3d75ed05	0.060040493
29	0x3d5661dd	0.052339423
30	0x3d878373	0.06616869
31	0xbc67295c	-0.014108982
32	0xbc082710	-0.0083100945
33	0xbd030fb0	-0.031997383
34	0x3dd20ae8	0.102559865
35	0x3cab3104	0.020897396
36	0x3d58a861	0.052894954
37	0x3d11dd78	0.0356116
38	0x3d85d278	0.06534284
39	0xbd746813	-0.059669565
40	0xbc466ec9	-0.012111374
41	0x3c74a309	0.014931449
42	0x3d0a8b1b	0.033824068
43	0x3d703b9e	0.058650605
44	0xbdab9765	-0.083784856
45	0xbd888c88	-0.06667429
46	0xbd835ee5	-0.06414584
47	0x3b1be262	0.0023786058
48	0xbcc84d88	-0.024451032
49	0x3d46428c	0.048403308
50	0x3c2ae5d9	0.0104307765
51	0x3dc387af	0.09547364
52	0xbd83c303	-0.0643368
53	0x3c28aaa4	0.01029459
54	0x3dd38637	0.10328334
55	0xba8feae2	-0.0010980035
56	0x3d3beb4d	0.045878697
57	0x3e22c8b3	0.15896873
58	0x3cfe26ce	0.031024363
59	0x3da9b0f8	0.08285707
60	0x3d56c7e0	0.05243671
61	0x3dcd272a	0.100172356
62	0xbd72bd9c	-0.059262857
63	0xbe2b56bd	-0.16732307
64	0xbcb0e5c4	-0.021593936
65	0xbc98e04c	-0.01866164
66	0xbdb1f95d	-0.086901404
67	0xbd487801	-0.04894257
68	0xbd6cbf5c	-0.057799682
69	0x3ae04339	0.0017109878
70	0x3e33eb80	0.17570305
71	0x3bce0945	0.006287726
72	0x3d390652	0.045172043
73	0xbd97edbc	-0.07418391
74	0xbc906eff	-0.017631052
75	0x3c7be087	0.015373356
76	0xbd512d80	-0.051068783
77	0xbd5d7826	-0.05406966
78	0x3a8e5e39	0.0010861821
79	0xbe1b4ac6	-0.15165243
80	0x3d465a3e	0.048425905
81	0x3c50c85d	0.012743083
82	0xbda07eb1	-0.078366645
83	0xbd8f6899	-0.07002372
84	0x3b000e03	0.0019539602
85	0xbd632e5e	-0.05546414
86	0xbdb127cb	-0.08650168
87	0xbdf7e5d2	-0.121043816
88	0xbc5fde7a	-0.013663882
89	0xbd9bc3d2	-0.07605709
90	0xbd7496f7	-0.059714284
91	0x3c5378a1	0.012907178
92	0xbc4e9ea2	-0.012611063
93	0x3dbaa3c3	0.09113266
94	0xbda6cbd3	-0.08144345
95	0xbd31aa95	-0.04337557
96	0x3c5e4e13	0.013568419
97	0x3d1d7a2e	0.038446598
98	0xbd1f0d0e	-0.03883081
99	0xbb6b3cea	-0.0035894462
100	0x3d8d5e4d	0.06902752
101	0x3d1fc264	0.039003745
102	0xbd540d44	-0.051770464
103	0x3c927c65	0.017881582
104	0xbc89f281	-0.016839268
105	0xbd186e4c	-0.037214562
106	0x3d42dd56	0.047574364
107	0x3d142a48	0.036173135
108	0xbd78d696	-0.06075152
109	0x3c7a9b34	0.015295792
110	0xbd0fc737	-0.035102095
111	0xbcfa6104	-0.030563839
112	0x3d375113	0.044755053
113	0x3c850fad	0.016242826
114	0xbd9fa501	-0.07795144
115	0xbcb41113	-0.021980798
116	0x3c8a0e1e	0.016852435
117	0x3da06c5d	0.07833169
118	0xbd727aa8	-0.059199005
119	0x3d70b7cb	0.05876903
120	0x3d1f5ab3	0.038904857
121	0x3db1604c	0.08660945
122	0xbddea106	-0.108705565
123	0xbbee969b	-0.007281137
124	0xbdb65b9c	-0.08904192
125	0x3bcaa28c	0.006183928
126	0x3dae7895	0.08519093
127	0xbc494cc0	-0.012286365
128	0xbca049d3	-0.019566452
129	0x3dd8045b	0.10547706
130	0x3d62d5ee	0.0553798
131	0x3d842c62	0.06453778
132	0xbca44273	-0.020051217
133	0x3dc85eba	0.09783693
134	0xbccd92ef	-0.025094477
135	0x3cc90ce2	0.024542276
136	0x3db6c9fe	0.08925246
137	0xbda4b24b	-0.08041819
138	0x3b8b64b9	0.0042539504
139	0xbcf42d2e	-0.0298067
140	0x3de73611	0.11289609
141	0x3d15d91a	0.036583997
142	0x3d41e919	0.04734144
143	0xbd4fa725	-0.05069651
144	0x3d04444b	0.03229169
145	0x3d97bbb4	0.074088484
146	0x3d36aa3a	0.044595934
147	0x3bc05558	0.005869549
148	0xbd310b4d	-0.043223668
149	0xbbf195b0	-0.0073725805
150	0xbe159680	-0.14608192
151	0xbd1f38f1	-0.038872663
152	0xbd0e80f9	-0.034790967
153	0x3d4ceb8a	0.050029315
154	0xbca275ab	-0.0198315
155	0xbd139fb1	-0.036040965
156	0x3d6c32ee	0.057665758
157	0xbd7b98e8	-0.06142512
158	0xbd50f201	-0.051012043
159	0x3c961f29	0.018325405
160	0xbdbcf5fc	-0.09226605
161	0xbd748c30	-0.059704006
162	0xbce67ed2	-0.028136645
163	0x3c49c4fb	0.01231503
164	0x3d065d68	0.032803923
165	0xbd9a956c	-0.07548031
166	0x3ce838e4	0.02834744
167	0x3d25c433	0.040470313
168	0xbcce0fdc	-0.025154047
169	0x3ca8ee80	0.020621538
170	0xbca0f2d0	-0.019647032
171	0xbc786c05	-0.015162473
172	0x3d2ab38d	0.04167514
173	0xbcbd6cda	-0.023123194
174	0xbca68792	-0.020328317
175	0xbdb73a21	-0.08946634
176	0x3d33f00e	0.043930106
177	0xbd3867d5	-0.045020897
178	0x3d77e403	0.060520183
179	0xbd64bd83	-0.055844795
180	0x3d2ae8db	0.041725975
181	0x3c5e18ce	0.013555719
182	0xbd976ee0	-0.073941946
183	0x3c260252	0.010132389
184	0xbd42f8c8	-0.047600538
185	0xbd7cfef2	-0.061766572
186	0xbdbdb362	-0.0926273
187	0x3b82a3b4	0.0039868
188	0x3b9d1892	0.004794189
189	0xbdd63bb0	-0.10460603
190	0xbd6b926c	-0.057512686
191	0xbcce595a	-0.02518909
192	0xbd005941	-0.03133512
193	0x3d83b01c	0.064300746
194	0x3d4c2bcf	0.049846467
195	0x3cf3744a	0.029718537
196	0xbd862d04	-0.06551555
197	0x3db4e3d1	0.08832515
198	0x3c038243	0.008026662
199	0xbc94a036	-0.0181428
200	0xbe20ada6	-0.15691242
201	0xbe861448	-0.26187348
202	0xbd578923	-0.05262102
203	0xbda23ef0	-0.079221606
204	0xbe15137b	-0.14558212
205	0x3d117163	0.035508525
206	0x3b39bfe8	0.0028343145
207	0xbcc22968	-0.023701385
208	0xbd8a2848	-0.06745964
209	0xbbba0ce4	-0.005677806
210	0xbdf9b06f	-0.12191855
211	0x3e08d51a	0.13362542
212	0xbc820dab	-0.015875658
213	0x3ca1872a	0.019717772
214	0xbd4f2989	-0.05057672
215	0x3e2710fa	0.1631507
216	0xbcdfd00c	-0.027320884
217	0x3e76b78d	0.24093457
218	0x3e84750e	0.25870556
219	0xbd756c89	-0.05991796
220	0x3d99fa6c	0.07518467
221	0xbe4b5961	-0.19858314
222	0x3db26009	0.087097235
223	0xbd2bd52f	-0.041951355
224	0xbd955fd0	-0.072936654
225	0x3d26902e	0.040664844
226	0xbde310a2	-0.11087157
227	0xbd46561f	-0.048421975
228	0xbd86d043	-0.065826915
229	0x3e23a1bf	0.1597967
230	0xbde873e5	-0.1135023
231	0xbd4929a0	-0.049111962
232	0x3dd341b4	0.10315266
233	0xbc92a6e1	-0.01790184
234	0x3d845c2b	0.06462892
235	0x3e2bb61a	0.16768685
236	0xbdbe1e4c	-0.092831224
237	0xbe00a4a6	-0.12562808
238	0xbe01bb5c	-0.12669128
239	0x3e1cfe4b	0.1533138
240	0xbccecea0	-0.02524501
241	0x3d59eaeb	0.05320255
242	0x3e2e6243	0.17029671
243	0x3dc6e932	0.09712447
244	0xbda5eb54	-0.08101526
245	0x3da4b874	0.08042994
246	0x3da9b27e	0.08285998
247	0xbd4c90cc	-0.049942777
248	0xbe0a1d32	-0.134877
249	0x3d28bcd6	0.041195713
250	0xbdc7c175	-0.09753696
251	0x3b641af3	0.0034806102
252	0xbd15e691	-0.03659684
253	0xbe100465	-0.14064176
254	0x3c234440	0.009965003
255	0xbe3628fa	-0.17789069

decoder.attn.bias f4 [15]
0	0xbb3ed62e	-0.002911936
1	0x3c6a2a33	0.014292288
2	0xbd7a8c26	-0.061168812
3	0xbe46d605	-0.1941758
4	0xbe1d85bd	-0.15383048
5	0xbd57c28d	-0.052675772
6	0xbdf40696	-0.11915319
7	0xbd96d967	-0.07365685
8	0xbdfc42b4	-0.1231741
9	0x3e3d28a9	0.18472542
10	0xbd44227d	-0.047884453
11	0x3d9e191e	0.077196345
12	0x3eaf2580	0.34208298
13	0x3dd7ba5f	0.10533594
14	0xbd60387d	-0.05474137
