best_models/seq2seq-1-5.143255.pt (torch, 17999 bytes, 16 tensors)

encoder.embedding.weight f4 [147, 5]
0	0xbfb3a228	-1.4033861
1	0xbe17af2e	-0.1481292
2	0x3efdbcff	0.49558255
3	0x3eaf4212	0.34230095
4	0x3f97cf49	1.1860133
5	0x3e2ee80c	0.17080706
6	0x3fa0da8d	1.2566696
7	0x3e4b3d70	0.19847655
8	0x3e981f08	0.29711175
9	0x3d954760	0.07289004
10	0xbf452ac5	-0.77018386
11	0x3fdfd8d3	1.7488045
12	0xbf1c894d	-0.61147004
13	0x3f9b0971	1.2112256
14	0xbfb19868	-1.3874636
15	0x3ecf1be4	0.40450966
16	0x3d1735c4	0.03691651
17	0xbe0b776c	-0.13619775
18	0xbf3b39b1	-0.73134905
19	0xbfb14e21	-1.3851968
20	0x3f0deebc	0.55442405
21	0xbf4e284f	-0.80530256
22	0x3f317fdd	0.6933573
23	0xbf3eb383	-0.74492663
24	0xbfbbf6b2	-1.468466
25	0xbe3a341d	-0.18183942
26	0xbdcc669a	-0.09980507
27	0x3f9c8f73	1.2231277
28	0xbf4a5871	-0.790412
29	0x3f0dbe31	0.55368334
30	0xbfa65077	-1.2993306
31	0xbe9b229e	-0.30299848
32	0xc012fd5c	-2.2967138
33	0x3f08e714	0.534776
34	0x3f9abd33	1.2088989
35	0xbf2a6afd	-0.665695
36	0xbf772a51	-0.96548945
37	0x3f2d99c1	0.67812735
38	0x3f96da2b	1.178533
39	0xbe98ecd8	-0.29868197
40	0x3fa4c1f0	1.2871685
41	0x3f8f1d6e	1.1180856
42	0xbd33337d	-0.043750275
43	0x3f1f72ed	0.6228474
44	0xbfccf55d	-1.6012379
45	0xbf58de61	-0.84714323
46	0xbf314fa3	-0.6926214
47	0x3f6a356c	0.91487765
48	0xbe152bb0	-0.14567447
49	0x3fb47b20	1.4100075
50	0x3ea9bb24	0.3315059
51	0xbf8171bf	-1.0112838
52	0x3fe9126a	1.8208745
53	0x3da745d7	0.08167618
54	0x3f14223e	0.5786475
55	0x3d9e4665	0.077282704
56	0x3f6070fb	0.87672395
57	0xbf0904de	-0.5352305
58	0x3f6114b8	0.8792224
59	0xbe9b440d	-0.30325356
60	0xbf426c47	-0.7594647
61	0xbefba434	-0.49148715
62	0xbf1f95cb	-0.6233794
63	0xbff0bc06	-1.880738
64	0xbf089220	-0.5334797
65	0x3f50f257	0.8161978
66	0x3fe3a643	1.7785114
67	0xbf845734	-1.0339112
68	0xbf523f0e	-0.82127464
69	0x3f3bea78	0.73404646
70	0xbf93f292	-1.1558402
71	0xbfcb3791	-1.5876333
72	0xbe24f92f	-0.16110681
73	0x3fabbf9d	1.3417851
74	0xc026e78b	-2.6078823
75	0xbde4ed27	-0.11178046
76	0xbf35400e	-0.70800865
77	0xbf2a12f8	-0.66435194
78	0xbf940014	-1.1562524
79	0x3f77fcb6	0.9686998
80	0x3f9fdd0d	1.2489334
81	0xbf858c1d	-1.0433384
82	0xbfa54a70	-1.2913342
83	0xbec236b0	-0.37932348
84	0x3e5b170b	0.21395509
85	0xbf0440ec	-0.5166156
86	0xbf5fb1a8	-0.87380457
87	0x3dacf34f	0.08444845
88	0x3f38172d	0.71910363
89	0x3e313f34	0.17309266
90	0xbe32e564	-0.17470318
91	0xbfb38155	-1.4023844
92	0xbf5992dd	-0.8498972
93	0x3ff0a1b6	1.879935
94	0xbeba0268	-0.3632996
95	0xbf2f941c	-0.6858537
96	0x3f166e38	0.5876193
97	0xbdd1fda8	-0.10253459
98	0xbe11b93a	-0.14230815
99	0xbfd1d966	-1.639447
100	0xbe90198a	-0.28144485
101	0x3dfb350b	0.122659765
102	0xbfaa50c7	-1.3305901
103	0xbebb0d54	-0.36533606
104	0x3f6570e1	0.89625365
105	0xbfb566a7	-1.4171952
106	0x403a3021	2.9091876
107	0xbd3ea66a	-0.046545424
108	0x3f226c74	0.63446736
109	0xbf6e1f3e	-0.9301642
110	0xbf05c934	-0.52260137
111	0xbf6e69d8	-0.93130255
112	0xbfa5aba2	-1.2943003
113	0x3c5e2d1e	0.013560561
114	0xbf617111	-0.8806315
115	0xbf2b15e7	-0.66830295
116	0xbf91dbf9	-1.1395255
117	0xbea942a1	-0.33058646
118	0x3ea377c4	0.3192731
119	0xbfc5aced	-1.5443398
120	0xbf21d635	-0.6321748
121	0x3eeb501c	0.45959556
122	0x3c9989b6	0.018742424
123	0x3f29285b	0.660772
124	0xbdd1b498	-0.10239524
125	0x3f4009c9	0.7501493
126	0xbf0fda8b	-0.56192845
127	0xbfb98b9a	-1.4495728
128	0x3f30a643	0.69003695
129	0xbec388be	-0.38190264
130	0x3ed6118b	0.4181026
131	0x3f98e0a6	1.1943557
132	0x3dc078e9	0.09398062
133	0x3ecfe2ca	0.40602714
134	0x3f6cc361	0.92485625
135	0xbf24dcac	-0.6439922
136	0xbf954d72	-1.166426
137	0xbfe36066	-1.7763793
138	0x3f214346	0.62993276
139	0xbd894703	-0.067029975
140	0xbf719ce4	-0.9438002
141	0x3f96a57f	1.1769255
142	0xc04e3a2c	-3.2223005
143	0x3fa8cd27	1.3187608
144	0xbf07a388	-0.52983904
145	0xbe6b3f38	-0.22973335
146	0x3eb09c55	0.34494272
147	0x4002640b	2.0373561
148	0x3f908d4d	1.1293122
149	0xbf65bf47	-0.8974499
150	0xbfb2ba28	-1.396306
151	0x3e6a2f75	0.22869666
152	0xbdc77544	-0.097391635
153	0x3f2d017c	0.6758039
154	0x3fbb09eb	1.4612402
155	0xbeca4316	-0.39504308
156	0x3f1b8e5c	0.607641
157	0xbfa43d86	-1.2831275
158	0xbe360c3f	-0.17778109
159	0x3f6319d8	0.8871131
160	0xbf0c0aa1	-0.5470372
161	0x3f23be4c	0.63962245
162	0xbfde3037	-1.7358464
163	0xbf06a21c	-0.5259111
164	0xbf5f4a17	-0.8722243
165	0xbf66c205	-0.901398
166	0xbe931267	-0.28724977
167	0xbd863087	-0.065522246
168	0x3ecfe2e9	0.40602806
169	0xbf0f4e26	-0.5597862
170	0x3fa291e8	1.2700777
171	0x3ec1f84b	0.37884745
172	0x3fca1903	1.5788883
173	0x3f5fc803	0.8741457
174	0xbfb2b77f	-1.3962249
175	0xbf99621c	-1.1983066
176	0xbf0ecf61	-0.55785185
177	0x3ebd767b	0.37004456
178	0xbf55c6f7	-0.8350672
179	0xbf9bc476	-1.216933
180	0x3f763a6a	0.9618288
181	0x3f20db9e	0.6283511
182	0xc03c268b	-2.9398525
183	0xbe27db7f	-0.16392325
184	0x3ba3f67b	0.005003748
185	0xbf351164	-0.7072966
186	0xbf705eb4	-0.93894506
187	0x3e94c088	0.2905314
188	0x3fc643e2	1.5489466
189	0xbfd66b93	-1.6751579
190	0xbfabb3b4	-1.3414216
191	0xbb8b81fa	-0.004257438
192	0x3f852abb	1.0403665
193	0xbf4bf5fd	-0.79672223
194	0x3f7fda07	0.9994206
195	0x3f8bb3aa	1.0914204
196	0x4007b5f8	2.1204815
197	0xbd791e52	-0.06081993
198	0x3ef7f9b3	0.48432693
199	0xbe41fda1	-0.18944408
200	0xbe121e8b	-0.14269464
201	0xbf66eb20	-0.9020252
202	0x3ea2ae48	0.3177359
203	0xbf255058	-0.6457572
204	0xbf23c983	-0.6397936
205	0x3eb10144	0.34571278
206	0x3ef9bbf5	0.48776212
207	0x40275607	2.6146257
208	0xbf8b465c	-1.0880847
209	0xbfc14650	-1.5099583
210	0x3f48dfb2	0.7846633
211	0xbf23b771	-0.63951784
212	0x3ea78a8e	0.32722896
213	0x3d2e08b4	0.04248877
214	0x3f0a05d1	0.53915125
215	0xbf88051b	-1.0626558
216	0xbea562ca	-0.32301933
217	0x3f547d47	0.8300366
218	0x3f187297	0.5954985
219	0x3e480d01	0.1953621
220	0xbe8f9365	-0.2804214
221	0x40102bbd	2.2526696
222	0x3f858a16	1.0432765
223	0xbe4fc2e7	-0.20289193
224	0x3dae371f	0.08506607
225	0xbded3aa2	-0.11583449
226	0xbf079786	-0.5296558
227	0xbe1856d9	-0.1487688
228	0xbfcca073	-1.5986465
229	0x3f4c9c3b	0.7992589
230	0xbf27c2a3	-0.6553137
231	0x3f22bd8f	0.63570493
232	0x3e069b1d	0.13145109
233	0xbea881e7	-0.32911608
234	0xbf7d6730	-0.98985577
235	0x3ecbf670	0.39836454
236	0x3ec06fd9	0.37585333
237	0x3ec61765	0.38689724
238	0x3e27a58e	0.16371748
239	0x3e1c14c4	0.15242296
240	0x3ef0aa55	0.47004953
241	0x3fd88669	1.6916019
242	0x3f174aaf	0.59098333
243	0x3f8789ab	1.0588888
244	0x3c1dbce7	0.009627557
245	0x3bb4af3e	0.0055140546
246	0xbdbf7a5a	-0.093495086
247	0x3daa5328	0.08316642
248	0x3de5632c	0.11200556
249	0xbef062e3	-0.46950445
250	0x400e0c51	2.2195017
251	0x3fc5676f	1.542219
252	0x3f94fa69	1.1638919
253	0x3df254cd	0.11832581
254	0x3e56e45b	0.20985548
255	0xbf6bf634	-0.9217255

encoder.gru.weight_ih_l0 f4 [15, 5]
0	0xbea1f3e2	-0.3163138
1	0x3de60431	0.11231268
2	0x3de1cea2	0.1102574
3	0xbe931c38	-0.28732467
4	0xbeb07727	-0.34465906
5	0xbe1a86d6	-0.15090498
6	0x3d9011c9	0.07034642
7	0xbe8d763b	-0.27629265
8	0xbd8847d6	-0.066543266
9	0x3d10efe2	0.03538502
10	0x3ea4df0c	0.3220142
11	0xbedee55a	-0.43534356
12	0x3e781783	0.24227719
13	0xbea65241	-0.3248463
14	0x3e986b65	0.29769436
15	0xbed617f4	-0.4181515
16	0x3d732949	0.059365544
17	0x3ecc2f81	0.39879993
18	0x3eae04b2	0.33987957
19	0x3d69908a	0.05702261
20	0x3d7d3912	0.061822005
21	0xbe611a2a	-0.21982637
22	0xbe3161c6	-0.17322454
23	0xbd3cc489	-0.046085868
24	0xbedb8351	-0.42873624
25	0x3ec8072c	0.39067972
26	0x3ecf70ec	0.4051584
27	0xbe3f6692	-0.18691471
28	0x3db90022	0.090332285
29	0xbdee58c6	-0.11638026
30	0x3eadf128	0.3397305
31	0xbe75ccff	-0.24003981
32	0xbe2dee09	-0.16985334
33	0x3ec2bfc9	0.38036945
34	0xbe827885	-0.25482574
35	0x3e9c964a	0.3058341
36	0xbe1e6af4	-0.15470487
37	0xbd520915	-0.051278193
38	0xbde35729	-0.11100609
39	0xbe71c282	-0.23609355
40	0xbdb0d64f	-0.08634626
41	0x3eb6de53	0.35716495
42	0xbed2a356	-0.4114024
43	0xbe8c3c6d	-0.2738985
44	0x3ebcefb7	0.36901638
45	0x3e40cfac	0.1882922
46	0xbe02ea1e	-0.12784621
47	0xbee4674b	-0.44610056
48	0xbea9b511	-0.33145955
49	0xbed4e755	-0.41582742
50	0xbc97daa5	-0.018536875
51	0x3e62e275	0.22156699
52	0x3dd8f91d	0.105943896
53	0xbdb94a41	-0.09047366
54	0xbe868074	-0.26269877
55	0x3d3f19fd	0.046655644
56	0x3e0da11e	0.13830993
57	0x3edab53b	0.42716393
58	0xbe9f1457	-0.31070206
59	0x3ed18b8d	0.4092678
60	0x3ed3920d	0.41322365
61	0xbed950f8	-0.42444587
62	0xbe4dbe09	-0.20092024
63	0xbe1ce081	-0.15320016
64	0x3e8dddfd	0.27708426
65	0x3e19e930	0.1503036
66	0xbed501b3	-0.4160286
67	0xbee258b3	-0.44208297
68	0xbe252201	-0.16126253
69	0x3de1b57d	0.11020944
70	0xbc819bae	-0.015821304
71	0xbeb97f48	-0.3622992
72	0xbe7f5449	-0.24934496
73	0x3e968fae	0.29406494
74	0xbcc41b22	-0.02393872

encoder.gru.weight_hh_l0 f4 [15, 5]
0	0x3ec03c11	0.37545827
1	0x3ecd7bca	0.40133506
2	0xbdd9d0f7	-0.1063556
3	0xbe43ee8a	-0.19133964
4	0xbddd6f69	-0.108122654
5	0x3e7eccfd	0.24882884
6	0xbeb36153	-0.3503519
7	0x3eb26e4b	0.34849772
8	0xbda4c2f8	-0.08045
9	0x3ea169bb	0.31525978
10	0xbda167fe	-0.07881163
11	0xbe3cdcca	-0.184436
12	0x3e69f474	0.22847158
13	0xbdd2ef0c	-0.10299501
14	0xbdc0ce75	-0.094143786
15	0xbe64b92a	-0.2233626
16	0x3de2c76e	0.110731944
17	0xbea945d5	-0.3306109
18	0x3d644ce1	0.05573738
19	0x3c9a1014	0.018806495
20	0xbdfad6e4	-0.122480184
21	0xbe9bc803	-0.30426034
22	0xbece84ad	-0.403356
23	0xbde0a25a	-0.10968466
24	0x3ebeea4d	0.37288132
25	0x3e88217f	0.26588055
26	0xbe9efda0	-0.31052876
27	0xbeae4032	-0.34033352
28	0xbe178b50	-0.14799237
29	0xbd55fcd7	-0.05224308
30	0xbe5dc1df	-0.21655987
31	0xbed487da	-0.41509897
32	0xbcf15afa	-0.029462326
33	0x3eac617d	0.33668128
34	0xbeac5e4f	-0.33665702
35	0x3e89fd1f	0.2695093
36	0xbe9992f2	-0.29994923
37	0x3ecb1450	0.39663935
38	0xbe97790f	-0.29584548
39	0xbe8ec4b3	-0.27884445
40	0xbe97085f	-0.29498574
41	0x3ea73e2e	0.32664627
42	0xbe01c3a2	-0.12672284
43	0xbeca715a	-0.39539605
44	0xbe3ecd40	-0.18632984
45	0x3e4a5984	0.1976071
46	0x3cd8a765	0.026447007
47	0x3e76e2f0	0.24110007
48	0x3e85f407	0.2616274
49	0xbe8d4879	-0.27594355
50	0x3e8843df	0.26614282
51	0x3c96a7b6	0.018390518
52	0xbea7d8f1	-0.327827
53	0xbe09758e	-0.1342375
54	0x3dc8c86d	0.09803853
55	0xbe103257	-0.14081703
56	0xbe7ac381	-0.24488641
57	0x3e300dc0	0.17192745
58	0xbe9c12c1	-0.30483058
59	0x3eca8205	0.39552322
60	0xbee504d3	-0.44730243
61	0x3c0c9ba0	0.008582026
62	0x3e541116	0.20709643
63	0x3edf866b	0.4365724
64	0xbe45fcaf	-0.19334672
65	0x3ed99c98	0.42502284
66	0x3ebf3c99	0.3735092
67	0x3ea14959	0.31501272
68	0x3e7e0b69	0.2480904
69	0x3d85391d	0.06505034
70	0xbe5772e1	-0.21039917
71	0xbe4c31a5	-0.19940813
72	0x3dbf59c0	0.0934329
73	0xbe87aaea	-0.26497585
74	0xbed329b5	-0.41242757

encoder.gru.bias_ih_l0 f4 [15]
0	0x3df7ecab	0.12105688
1	0xbe98bad0	-0.29830027
2	0x3ededfa9	0.43530014
3	0xbeb3131e	-0.34975523
4	0xbe01c96c	-0.12674493
5	0x3dc56c39	0.096397825
6	0xbece0d1b	-0.40244374
7	0x3ec88968	0.39167333
8	0xbdcfda90	-0.10149109
9	0x3e528b12	0.20560864
10	0x3ec73c44	0.38913167
11	0x3ea6d077	0.3258092
12	0x3e6226f9	0.2208518
13	0xbe3b7056	-0.18304572
14	0x3ec24c9e	0.3794908

encoder.gru.bias_hh_l0 f4 [15]
0	0xbe61f7ef	-0.22067235
1	0xbe211e49	-0.15734209
2	0x3e33f108	0.17572415
3	0x3dde2c6e	0.10848318
4	0xbe06dab0	-0.1316936
5	0x3eb15342	0.34633833
6	0xbeb9fd89	-0.36326244
7	0x3e0680bc	0.13135046
8	0x3e3da56c	0.18520135
9	0xbdcea9b0	-0.10090959
10	0xbe775cef	-0.24156545
11	0x3ebc0332	0.36721188
12	0xbea5b379	-0.3236349
13	0xbbaaa4e8	-0.0052076466
14	0xbe934c3f	-0.2876911

decoder.embedding.weight f4 [171, 5]
0	0xbeba68c0	-0.36408043
1	0x3eef95df	0.4679403
2	0xbd93a3ee	-0.072090015
3	0xbe02ead4	-0.12784892
4	0x3f0dad1a	0.5534226
5	0x3f047062	0.5173398
6	0xbeae9b57	-0.3410289
7	0xbe9ef7db	-0.31048474
8	0x3f6c3f23	0.9228384
9	0x3f9b34db	1.2125505
10	0xbfdfb555	-1.7477213
11	0x3f3206db	0.6954171
12	0xbf86cde4	-1.0531583
13	0x3f26ab00	0.65104675
14	0xbff0d789	-1.8815776
15	0x3f6d2111	0.9262858
16	0xbec0025a	-0.37501794
17	0xbdffabdd	-0.12483952
18	0xc05aa923	-3.4165733
19	0xc04def70	-3.217739
20	0xbf8a19fc	-1.078918
21	0xbf0ba970	-0.54555416
22	0x40298777	2.648893
23	0xbdf07e05	-0.11742786
24	0x3fe55040	1.7915115
25	0xbe99616c	-0.2995714
26	0xbf8a10ec	-1.0786414
27	0x3fa26a0d	1.2688614
28	0x3d832499	0.06403465
29	0xbf31023a	-0.6914402
30	0xbf83fae2	-1.0310938
31	0x3ea8ee45	0.32994285
32	0x3f2c7022	0.673586
33	0x400b0c58	2.1726284
34	0x3e4c09c0	0.19925594
35	0x3fd3cc9f	1.654682
36	0x3d1f82a1	0.038942937
37	0x3d12de8a	0.03585676
38	0x3f040de2	0.51583683
39	0xbf8ac040	-1.083992
40	0xbea4888f	-0.32135436
41	0xbf331b3b	-0.69963425
42	0x3f69dd65	0.91353446
43	0xbff6698e	-1.9250963
44	0x3fa31bab	1.2742819
45	0xc0147873	-2.3198516
46	0xbfb22164	-1.391644
47	0xbf42419c	-0.7588136
48	0x3f6b189c	0.91834426
49	0x3f6e3ca5	0.93061286
50	0x3f19695e	0.599264
51	0x3e21d606	0.158043
52	0x3f84faf1	1.0389081
53	0xbef80e05	-0.48448196
54	0xbece12f6	-0.4024884
55	0xbfa17fea	-1.2617161
56	0x3f5bba46	0.85831106
57	0x402ecd44	2.7312784
58	0xbabd2ab3	-0.0014432281
59	0x3fab88b3	1.3401092
60	0x3eaf3cbc	0.34226024
61	0x3f8533aa	1.0406392
62	0xbf99fcb3	-1.2030243
63	0x3f7f6cfe	0.99775684
64	0xbecea9de	-0.40363973
65	0x3f8a0e24	1.0785565
66	0xbe9ae757	-0.30254623
67	0x4005eaee	2.092464
68	0xbf88618e	-1.0654771
69	0xbd5acd88	-0.053418666
70	0x3f220858	0.6329398
71	0x3ff100c7	1.8828362
72	0xbfd9d3a0	-1.7017708
73	0x3f06b1d1	0.52615076
74	0x3f523fc6	0.8212856
75	0x3f6592cc	0.8967712
76	0xbeb44071	-0.35205415
77	0xbecec56d	-0.40385
78	0x3da41e5e	0.080136046
79	0x3e873a9f	0.26411912
80	0xbf664ccb	-0.89960927
81	0xbefd25a7	-0.4944279
82	0xbf874bb5	-1.0569979
83	0x3ea479cc	0.32124174
84	0xbf1247c2	-0.57140744
85	0x3f55d379	0.83525807
86	0x3ccc72eb	0.02495714
87	0xbff40c71	-1.9066297
88	0xbeb767bd	-0.35821334
89	0x3f48bb66	0.7841095
90	0x3f28f3cf	0.6599702
91	0x3e94a1c3	0.29029664
92	0xbf069a3a	-0.5257908
93	0xbf8110e2	-1.0083277
94	0xbebf4156	-0.37354535
95	0xbce11699	-0.027476596
96	0xbe517b11	-0.20457102
97	0xbeceb35a	-0.4037121
98	0xbf64f858	-0.8944144
99	0x3e15ba37	0.14621817
100	0x3fca5c68	1.580945
101	0x3f13f58f	0.5779657
102	0x3f6926d0	0.9107485
103	0x3f95d277	1.1704854
104	0xbfe6c315	-1.8028284
105	0xbfdcfe49	-1.7265102
106	0x3f916670	1.1359386
107	0xbfeb38da	-1.8376725
108	0x3f8d8b47	1.1058129
109	0x3e515bd6	0.20445189
110	0x3e3f07f6	0.1865538
111	0x3f850967	1.0393494
112	0x3fbc25fd	1.4699093
113	0xbe22c489	-0.15895285
114	0xbf1a9ca8	-0.6039529
115	0xbf580e6a	-0.84396994
116	0x3e81ec88	0.25375772
117	0xbff3f682	-1.9059603
118	0xbe3429b1	-0.17594029
119	0xbfb20a97	-1.3909482
120	0x3f849fee	1.0361307
121	0x3fb43b46	1.4080589
122	0x3f427b9a	0.7596985
123	0x3e2b48de	0.16727015
124	0xc008c15f	-2.1368024
125	0xbfb492fa	-1.4107354
126	0x3ec4a1fd	0.38404837
127	0x3e8ab8fc	0.27094257
128	0xbfa3af8b	-1.2787946
129	0xbfbf227c	-1.4932399
130	0x3fd3d867	1.6550416
131	0x3ecc3e5d	0.3989133
132	0xbfb02162	-1.3760188
133	0x3e31d491	0.17366244
134	0xbfcee9b6	-1.6165073
135	0xbed4dc12	-0.4157415
136	0x3e895b48	0.26827455
137	0x3defa17d	0.11700723
138	0x3fbf34b6	1.4937961
139	0x3f13da5c	0.57755065
140	0x3fe2ac65	1.7708861
141	0xbfc64190	-1.5488758
142	0xbe4941a0	-0.1965394
143	0x3e85e3a3	0.26150236
144	0x3e14e19e	0.14539191
145	0xbfb08bc4	-1.3792653
146	0xbf2d4d92	-0.6769649
147	0x3ec63989	0.3871577
148	0x3f58b614	0.8465283
149	0x3e77014c	0.24121588
150	0xbe8a39bd	-0.26997176
151	0x3ed464f6	0.41483277
152	0xbed00c2e	-0.40634292
153	0xbe2f47cc	-0.17117232
154	0x3f7542de	0.95805156
155	0xbfd5ae48	-1.6693811
156	0x3fee9c1a	1.8641388
157	0x3eebb280	0.46034622
158	0x3f82e59c	1.0226321
159	0x3cea7767	0.028621389
160	0xbff848d6	-1.9397228
161	0x3f98f0df	1.1948508
162	0xbf2a1a9c	-0.6644685
163	0x3f5b8281	0.8574601
164	0xbf38c244	-0.72171426
165	0xbefd2629	-0.49443176
166	0xbf199677	-0.59995216
167	0x3fd23b81	1.6424409
168	0xbcd9fb2e	-0.02660903
169	0xbf19e4e2	-0.6011487
170	0x40055762	2.0834584
171	0xbebe5cee	-0.37180275
172	0xbf58c3d2	-0.846738
173	0xbf54e432	-0.831607
174	0xbcab78f8	-0.020931706
175	0x3d2c86a0	0.042120576
176	0xbf9e867f	-1.2384795
177	0xbe8fbf86	-0.28075808
178	0xbe5f6d3f	-0.21819018
179	0xbfc5847f	-1.543106
180	0xbf82efd9	-1.0229446
181	0xbec691dd	-0.3878316
182	0xbf3d7915	-0.7401288
183	0x3d26e9c4	0.04075028
184	0xbfbc6613	-1.471865
185	0x3e4a9891	0.19784762
186	0xc0223cbc	-2.534957
187	0xc0407055	-3.0068562
188	0x3f9af3d5	1.2105662
189	0x3f98d293	1.1939262
190	0xbf0c853c	-0.548908
191	0xc0193bf4	-2.3942842
192	0x3f38be1a	0.7216507
193	0x3e9444fe	0.28958887
194	0x3eadaad2	0.33919388
195	0xbe9d738c	-0.30752218
196	0x40015c6e	2.0212665
197	0xbf0642c9	-0.52445656
198	0x3d85d363	0.065344594
199	0x3fc6e3f6	1.5538318
200	0xbf3ca0d2	-0.7368289
201	0x3f631437	0.8870272
202	0x3f6917c7	0.91051906
203	0x3e97fbb2	0.29684216
204	0xbfadc44d	-1.3575531
205	0x3c92a9e3	0.017903274
206	0xbf867c2d	-1.0506645
207	0x3ed162c6	0.4089567
208	0xbf8e7bdc	-1.1131549
209	0x3ec0124c	0.3751396
210	0xbedf3a1d	-0.43599024
211	0x3e977f61	0.2958937
212	0xbffed2ca	-1.9908078
213	0xbf8945ab	-1.0724386
214	0xbeee13b6	-0.46499413
215	0xbc918e0d	-0.01776793
216	0x3e566242	0.2093592
217	0x3e988087	0.2978556
218	0xbf5a25c3	-0.8521387
219	0x3e375d97	0.17906795
220	0x3f0678cf	0.5252809
221	0x3de21ed6	0.11041038
222	0x40087ad0	2.1324959
223	0xbf457311	-0.771287
224	0x3fd051d5	1.6274973
225	0x40007a34	2.0074587
226	0x3dc1dd30	0.09466016
227	0xbf1b7515	-0.6072553
228	0x3f3efa1f	0.74600405
229	0x3f876811	1.0578634
230	0xc011b61f	-2.2767408
231	0xbf43ac15	-0.7643445
232	0xbfb9963f	-1.4498976
233	0xbf90956a	-1.1295598
234	0x3f470418	0.7774062
235	0x3f0a371e	0.5399035
236	0xbed0f2e8	-0.40810323
237	0xbe66852b	-0.22511737
238	0xbfcaf1d0	-1.5855045
239	0x3fde0310	1.7344685
240	0x3fc296a8	1.5202227
241	0x3ef16e31	0.47154382
242	0x3f085980	0.53261566
243	0xbdfea6f6	-0.12434189
244	0xbeb084d8	-0.34476352
245	0xbdc8cc88	-0.09804636
246	0x3f8e1001	1.1098634
247	0xbf37737b	-0.71660584
248	0x3fcbcc00	1.5921631
249	0xbf8de25d	-1.1084706
250	0x3f07d5b9	0.5306049
251	0x3f5bfe9f	0.85935396
252	0xbf169dd7	-0.58834594
253	0xbf01feb3	-0.50779265
254	0xbe6a2f48	-0.22869599
255	0xbee4f94f	-0.44721457

decoder.attn.weight f4 [15, 10]
0	0xbcaecd7e	-0.02133822
1	0x3e3b17f6	0.18270859
2	0xbe0c53b0	-0.13703799
3	0x3cbe37d3	0.023219978
4	0x3dfb096f	0.12257659
5	0x3e804db0	0.2505927
6	0xbe9639c4	-0.29340947
7	0xbe901261	-0.28139022
8	0x3e3f09a4	0.18656021
9	0x3df7e8ff	0.12104987
10	0x3d286853	0.041115116
11	0xbdb28eb1	-0.087186225
12	0x3dba6b68	0.09102517
13	0x3e0ba2c9	0.13636316
14	0xbe260d30	-0.16215968
15	0xbd2df56f	-0.04247039
16	0xbdc37a62	-0.09544827
17	0x3bbe32e1	0.005804405
18	0xbe32d22a	-0.17462984
19	0x3e4cac61	0.19987632
20	0x3de4f5c0	0.111796856
21	0x3e3f497a	0.18680373
22	0xbe55f866	-0.20895538
23	0xbddbe9b1	-0.107379325
24	0xbe414529	-0.18874039
25	0xbe482323	-0.19544654
26	0x3e1d4234	0.15357286
27	0xbea0e120	-0.31421757
28	0x3d5c986a	0.05385629
29	0xbdcc6313	-0.099798344
30	0xbe8efd50	-0.27927637
31	0x3d06f3e0	0.03294742
32	0xbe5baa62	-0.21451715
33	0xbe7f5ba6	-0.24937305
34	0xbe7d3d37	-0.24730383
35	0x3e5665f4	0.2093733
36	0x3e209b92	0.15684345
37	0x3e70ade6	0.23503837
38	0xbd78719c	-0.06065522
39	0x3e1e1a9d	0.1543984
40	0xbe14aa40	-0.1451807
41	0xbccffa91	-0.025388034
42	0xbe10a869	-0.14126743
43	0xbb98ff77	-0.0046691257
44	0x3c6ab68c	0.014325749
45	0xbe0ae900	-0.13565445
46	0x3e106362	0.14100412
47	0xbd2105b0	-0.039312065
48	0xbe361cbf	-0.17784403
49	0x3e431fd7	0.19055115
50	0xbe5ef1cd	-0.21771927
51	0x3e7ad6c7	0.24495994
52	0x3de27184	0.11056808
53	0xbcfc5363	-0.03080148
54	0x3e3001bd	0.17188163
55	0xbe913878	-0.28363395
56	0x3db7e303	0.08978846
57	0xbe9e9e13	-0.30979976
58	0xbcf64309	-0.030061262
59	0x38bff382	9.1529466e-05
60	0x3c350b10	0.011050001
61	0x3ca04c82	0.019567732
62	0x3dd308d6	0.1030442
63	0xbda881b3	-0.08227863
64	0x3d246463	0.0401348
65	0x3e51c2bb	0.2048444
66	0x3e313e91	0.17309023
67	0x3e51d711	0.20492198
68	0xbe6cafef	-0.23113988
69	0x3e939130	0.28821707
70	0x3df916ae	0.12162529
71	0xbe2728b6	-0.16324124
72	0xbe4c3b64	-0.1994453
73	0x3d6cdb45	0.0578263
74	0x3e03a629	0.12856354
75	0x3cb2f578	0.021845564
76	0xbe2ffb07	-0.17185603
77	0xbd0906d4	-0.033453777
78	0xbe126a57	-0.14298378
79	0xbd366ef2	-0.0445394
80	0xbe78f7d0	-0.24313283
81	0xbe228330	-0.15870357
82	0xbe579201	-0.2105179
83	0x3e8906b1	0.26762918
84	0xbddbb0d2	-0.10727085
85	0x3e2503ec	0.16114777
86	0xbe366082	-0.17810252
87	0x3e80216e	0.25025505
88	0x3cde82ca	0.027161974
89	0x3e349b77	0.1763743
90	0x3dabd867	0.08390885
91	0xbe95353e	-0.29142183
92	0x3e94b16f	0.2904162
93	0xbe81e915	-0.2537314
94	0x3de03eda	0.10949488
95	0xbe0cf1fc	-0.13764185
96	0xbdc0dcde	-0.09417127
97	0xbe87311b	-0.26404652
98	0x3e315cac	0.17320508
99	0x3e9bbacf	0.3041596
100	0xbdaae771	-0.08344925
101	0xbe79cf00	-0.2439537
102	0xbe94b579	-0.29044703
103	0xbe9a8cce	-0.3018555
104	0x3e42fd83	0.1904202
105	0xbe46e8aa	-0.19424692
106	0x3e90c509	0.28275326
107	0xbc49afbb	-0.012309964
108	0xbe9d1523	-0.3068019
109	0xbe871e32	-0.26390225
110	0x3c96b994	0.018399037
111	0xbca79371	-0.020456048
112	0xbd82b60d	-0.0638238
113	0xbd8a4d8c	-0.06753072
114	0x3e6e42eb	0.23267715
115	0x3d2adced	0.041714597
116	0xbe11067c	-0.1416263
117	0xbe5c6069	-0.21521153
118	0x3e671c5f	0.22569416
119	0x3e60e932	0.21963957
120	0xbd992d29	-0.07479317
121	0x3e96a654	0.29423773
122	0xbe8bb437	-0.2728593
123	0xbdc1d746	-0.09464888
124	0xbe7b82a4	-0.24561554
125	0x3c8614c7	0.01636733
126	0xbe8406f7	-0.25786564
127	0x3e24b5ab	0.16084926
128	0x3dc17eba	0.09447999
129	0xbd63f998	-0.055657953
130	0x3ccd8359	0.025087046
131	0x3e002c0a	0.125168
132	0xbb93ef54	-0.004514614
133	0x3e5ec61e	0.21755263
134	0x3d79959a	0.060933687
135	0xbd22bd9a	-0.0397316
136	0x3e384220	0.17993975
137	0x3cd1db52	0.025617275
138	0xbe2a0236	-0.16602406
139	0xbe114c53	-0.14189272
140	0xbe8f1fb6	-0.2795388
141	0xbcf1bf08	-0.029510036
142	0xbe7e1408	-0.24812329
143	0x3df74abe	0.12074803
144	0xbe838461	-0.25686935
145	0x3e5d530d	0.21613713
146	0xbd84503f	-0.06460618
147	0xbe88f813	-0.26751766
148	0xbdff4d3e	-0.12465905
149	0xbe7e1aa8	-0.24814856

decoder.attn.bias f4 [15]
0	0x3e1b82d5	0.15186627
1	0x3e52cbf2	0.20585611
2	0xbe961df0	-0.29319715
3	0xbe695882	-0.2278767
4	0xbdec9d30	-0.11553419
5	0xbe9671c3	-0.29383668
6	0xbe7d392e	-0.24728844
7	0xbd5797ea	-0.05263511
8	0xbe0be13c	-0.13660139
9	0x3e09e7bb	0.13467304
10	0xbe624c87	-0.22099505
11	0xbd8e70d3	-0.06955113
12	0x3de81482	0.113320366
13	0x3e14a42f	0.14515756
14	0xbd69488a	-0.056953944

decoder.attn_combine.weight f4 [5, 10]
0	0xbdec60ab	-0.115418755
1	0x3d8963a9	0.06708462
2	0xbe83c8c5	-0.25739112
3	0x3d00edad	0.031476665
4	0x3dc1ff67	0.09472542
5	0x3e22edbe	0.15911004
6	0x3bec9225	0.00721957
7	0x3c813327	0.015771462
8	0xbdf1b210	-0.11801541
9	0x3d187ef1	0.037230436
10	0xbdca83d0	-0.098884225
11	0x3e3d4713	0.18484144
12	0xbc1e09fe	-0.009645937
13	0xbdb1860a	-0.08668144
14	0x3e7031ce	0.23456499
15	0x3e690bcb	0.22758405
16	0x3e0af5dc	0.1357035
17	0x3e985c3d	0.29757872
18	0x3e487bd6	0.1957849
19	0xbdc3b7b9	-0.09556527
20	0x3e220110	0.15820718
21	0x3ca2612d	0.019821728
22	0xbe7d135e	-0.24714419
23	0x3e82ef1c	0.2557305
24	0xbe861856	-0.26190442
25	0x3e6acf87	0.22930728
26	0xbd5bb27b	-0.05363701
27	0x3dbee870	0.09321678
28	0x3e0e45c4	0.13893801
29	0xbe7e0ea5	-0.24810274
30	0xbe4cb978	-0.19992626
31	0x3e286b30	0.16447139
32	0xbe90b9a4	-0.28266633
33	0x3cf06a97	0.029347701
34	0xbe1cb1a4	-0.1530214
35	0x3e9d7f15	0.30761018
36	0xbe955674	-0.2916752
37	0x3d3698e5	0.044579405
38	0xbdfba8d1	-0.122880585
39	0xbe9c2819	-0.30499342
40	0x3d013d02	0.031552322
41	0x3e0b8335	0.1362427
42	0xbe541651	-0.20711638
43	0xbe8296ac	-0.2550558
44	0x3d1890fe	0.03724765
45	0x3e34e0f4	0.17663938
46	0xbe77c934	-0.24197847
47	0x3d15b7c1	0.036552195
48	0x3e1ea623	0.15493064
49	0x3d584054	0.052795723

decoder.attn_combine.bias f4 [5]
0	0xbde0b62b	-0.10972246
1	0x3e290592	0.16506031
2	0x3c1f3b5c	0.009718742
3	0x3dd5bddd	0.10436604
4	0x3dc1bc25	0.09459714

decoder.gru.weight_ih_l0 f4 [15, 5]
0	0xbed4a049	-0.41528538
1	0x3ed8c0d8	0.42334628
2	0xbe3e1cec	-0.1856572
3	0xbca40e1e	-0.020026263
4	0xbe57fbf3	-0.21092205
5	0x3d1c3417	0.038135614
6	0xbe53839c	-0.20655674
7	0x3e9dd5fe	0.30827326
8	0x3bfb7dc8	0.0076749064
9	0x3d957210	0.07297146
10	0xbe85b0f8	-0.2611158
11	0x3e5f3ea6	0.21801242
12	0x3c4ba1ef	0.012428745
13	0xbde46f84	-0.111540824
14	0x3ce63af4	0.028104283
15	0x3ea083d1	0.31350568
16	0xbe9fc17f	-0.31202313
17	0x3ec0779a	0.3759125
18	0xbb1e9148	-0.002419548
19	0xbed25eb6	-0.41087884
20	0xbdd87577	-0.1056928
21	0xbd51798d	-0.05114131
22	0x3ba27a52	0.0049584294
23	0x3e83278c	0.2561611
24	0xbe148c1b	-0.14506571
25	0x3e0fa36f	0.14027189
26	0x3c9a8ca6	0.018865895
27	0x3e1dfa13	0.15427427
28	0xbede33b8	-0.43398833
29	0x3cd7896d	0.026310647
30	0xbe60a998	-0.21939695
31	0x3ee244e1	0.44193175
32	0xbe9f8b1e	-0.31160825
33	0x3d1e5a0c	0.038660094
34	0xbe8ad3c1	-0.2711468
35	0x3e6665b8	0.2249974
36	0x3eaac7e9	0.33355644
37	0x3e78fa23	0.2431417
38	0xbe5552d0	-0.20832372
39	0xbbbac100	-0.005699277
40	0xbe0a808e	-0.13525602
41	0xbe84db26	-0.25948447
42	0x3ee03228	0.43788266
43	0x3e67a7a5	0.22622545
44	0xbe605313	-0.2190669
45	0xbdbb8ebf	-0.09158086
46	0x3e896cc5	0.26840797
47	0x3db54a02	0.088520065
48	0xbd6ebaec	-0.05828373
49	0x3dbdb581	0.09263135
50	0x3e70e9f4	0.23526746
51	0x3e206b65	0.15665968
52	0x3e18bc29	0.14915527
53	0xbae5db38	-0.0017536646
54	0xbd3e3319	-0.04643545
55	0x3ea3ce4a	0.31993324
56	0x3e5bcecf	0.2146561
57	0x3da95385	0.08267883
58	0xbed4208e	-0.41431087
59	0x3dca80cb	0.098878466
60	0xbe936425	-0.28787342
61	0x3dd36e49	0.103237696
62	0xbd11b6ff	-0.03557491
63	0x3c69e8df	0.014276712
64	0x3d5edb9f	0.054408666
65	0xbba5d0fe	-0.005060314
66	0x3dd06418	0.10175341
67	0xbeced769	-0.4039872
68	0xbe02b92c	-0.1276595
69	0x3eb40a45	0.35164085
70	0x3ee1cdc6	0.44102305
71	0x3e9ab348	0.30214906
72	0x3e1c816b	0.15283744
73	0x3e3aed38	0.18254554
74	0x3e4f6206	0.20252237

decoder.gru.weight_hh_l0 f4 [15, 5]
0	0x3dd9954f	0.106241815
1	0xbe43f5f9	-0.191368
2	0x3d101732	0.03517837
3	0xbce799b0	-0.028271526
4	0x3e52d17e	0.20587727
5	0x3e46a5db	0.19399206
6	0x3e00319e	0.12518927
7	0xbee436d2	-0.44573075
8	0x3ed69e92	0.41917855
9	0xbeb75ed0	-0.35814524
10	0x3ea058f7	0.31317875
11	0x3c822558	0.015886948
12	0xbe2926e1	-0.16518737
13	0x3e812c67	0.2522919
14	0xbc15b61b	-0.009137656
15	0x3edc9089	0.43079022
16	0x3dbc4792	0.091933385
17	0x3e29ebd1	0.16593863
18	0x3df52b77	0.11971181
19	0x3de7d00a	0.11318977
20	0xbeacefa5	-0.33776584
21	0x3d41b5f8	0.04729268
22	0xbd7b9cdd	-0.061428893
23	0xbe56df77	-0.20983683
24	0xbee41029	-0.4454358
25	0xbe47d105	-0.19513328
26	0x3d862fc5	0.0655208
27	0x3e94b721	0.29045966
28	0x3e712857	0.23550545
29	0x3e2772f3	0.16352443
30	0x3d996fd0	0.0749203
31	0xbee20e63	-0.441516
32	0x3e065209	0.13117231
33	0x3e382302	0.17982104
34	0xbed93811	-0.42425588
35	0x3ec89f9a	0.39184266
36	0xbbc630b7	-0.0060482877
37	0xbecff2b0	-0.40614843
38	0x3ecc6c8c	0.39926565
39	0x3e0a87f7	0.13528429
40	0xbe3cd285	-0.18439682
41	0x3d4db8d4	0.050225094
42	0x3d1f6436	0.038913928
43	0xbed03d06	-0.40671557
44	0x3e3f36ac	0.186732
45	0xbe89204b	-0.2678245
46	0x3e09788c	0.13424891
47	0x3e9f2841	0.310854
48	0x3e6c82ea	0.23096815
49	0xbcd6f706	-0.026240837
50	0x3ecacfa9	0.39611557
51	0xbec32fdd	-0.38122454
52	0x3ebfde83	0.3747445
53	0xbd7ccf14	-0.061720923
54	0x3c1d2617	0.009591601
55	0xbe35c53e	-0.17751023
56	0x3e3aba6f	0.18235181
57	0x3dd38b25	0.10329274
58	0xbea72ac7	-0.32649824
59	0x3ec3d692	0.38249642
60	0xbedf815f	-0.4365339
61	0x3db98654	0.09058824
62	0xbdd4af46	-0.10384993
63	0xbdad6ed7	-0.08468407
64	0xbde5a181	-0.11212445
65	0xbdb45de6	-0.08806972
66	0xbe58a55c	-0.2115683
67	0xbdbf9000	-0.09353638
68	0xbde4f1b3	-0.11178913
69	0x3dc38db4	0.09548512
70	0xbea346e0	-0.3189001
71	0x3ec682ae	0.38771576
72	0xbe99fcba	-0.30075628
73	0x3d81f129	0.06344826
74	0x3e92f769	0.28704384

decoder.gru.bias_ih_l0 f4 [15]
0	0x3edde76b	0.4334062
1	0x3dae3a6d	0.085072376
2	0xbd503592	-0.05083234
3	0x3d59b257	0.053148594
4	0xbe0bef39	-0.13665475
5	0xbde80451	-0.11328948
6	0xbd833d25	-0.06408147
7	0xbee33dff	-0.44383237
8	0xbd8b8ffb	-0.068145715
9	0x3dbd8b1d	0.092550494
10	0xbd0bf7fa	-0.034172036
11	0x3dd13865	0.102158345
12	0x3d04181f	0.032249566
13	0xbc97f194	-0.01854781
14	0xbedb55f8	-0.42839026

decoder.gru.bias_hh_l0 f4 [15]
0	0x3d6aa72f	0.057288345
1	0xbe09a7e1	-0.13442947
2	0xbe72d56f	-0.23714231
3	0x3e572523	0.2101026
4	0x3e17b4ad	0.14815016
5	0x3e7928ef	0.24332021
6	0xbe82bea5	-0.25536075
7	0x3de01b78	0.10942739
8	0xbe4896f3	-0.19588833
9	0x3ebf4807	0.3735964
10	0x3ec49eee	0.38402504
11	0xbeaac250	-0.33351374
12	0x3e3b292b	0.18277423
13	0xbcc13209	-0.023583429
14	0xbe86f9f9	-0.2636259

decoder.out.weight f4 [171, 5]
0	0x3e89c6ae	0.26909393
1	0x3a4f797f	0.00079145277
2	0x3d69741c	0.056995496
3	0xbeacb4ff	-0.3373184
4	0x3e73de6b	0.23815314
5	0xbeba0474	-0.36331522
6	0xbbb37a3f	-0.0054772194
7	0x3ec87749	0.39153507
8	0xbe51094b	-0.20413701
9	0x3d56cb18	0.05243978
10	0x3e0f0817	0.1396793
11	0x3de02733	0.10944977
12	0xbe502993	-0.2032836
13	0x3befd99f	0.0073196436
14	0xbe3da988	-0.18521702
15	0xbe3c23b6	-0.18372998
16	0x3d99fb96	0.07518689
17	0xbddf5196	-0.10904233
18	0xbedd9a48	-0.4328177
19	0xbe068639	-0.1313714
20	0x3e939fed	0.2883295
21	0x3e692acd	0.22770233
22	0x3e09718f	0.13422225
23	0xbeb3d080	-0.3512001
24	0xbe3ab3e0	-0.1823268
25	0xbebf24ec	-0.37332857
26	0x3df4d81c	0.11955282
27	0x3eb91f90	0.36156893
28	0xbec9b36c	-0.393947
29	0xbe5ee2fa	-0.21766272
30	0xbed987dd	-0.42486468
31	0xbec4878f	-0.38384673
32	0x3ec61b8d	0.38692895
33	0xbd709df9	-0.058744404
34	0xbede31e0	-0.43397427
35	0xbe23f6db	-0.16012137
36	0x3dbc5f90	0.091979146
37	0x3e61d011	0.22052027
38	0x3edb2af1	0.428062
39	0x3da9ba24	0.08287457
40	0xbea0395b	-0.3129376
41	0x3e7c8c44	0.24662882
42	0x3e60c914	0.21951705
43	0xbd26662c	-0.040624782
44	0xbe4c0915	-0.1992534
45	0x3ed38841	0.4131489
46	0xbe7f2302	-0.24915698
47	0x3df7ef21	0.12106157
48	0xbe6b8e03	-0.23003392
49	0x3eca4653	0.39506778
50	0xbdd8df25	-0.105894364
51	0x3dac4a33	0.0841259
52	0xbe6c17ed	-0.23056002
53	0x3e7a9357	0.24470268
54	0x3d037a65	0.032099146
55	0x3ed04443	0.4067708
56	0xbe8aff45	-0.2714788
57	0xbedb6e1e	-0.4285745
58	0xbd56383b	-0.05229972
59	0x3d69c8f1	0.0570764
60	0x3e90fd1a	0.283181
61	0x3ee18a8c	0.44051015
62	0xbec52bab	-0.3850988
63	0xbeca4e0a	-0.39512664
64	0x3d2f9537	0.04286691
65	0xbe95e521	-0.29276374
66	0x3e330ec3	0.174861
67	0x3eb294ad	0.34879056
68	0xbe5b34ff	-0.21406935
69	0xbedd92c6	-0.43276042
70	0xbec995f6	-0.39372224
71	0xbee42e4c	-0.44566572
72	0xbec2dabd	-0.3805751
73	0xbe70948d	-0.23494168
74	0xbea9c907	-0.33161184
75	0xbe344394	-0.17603904
76	0xbda99da2	-0.08282019
77	0x3deb4b7e	0.11489008
78	0xbeb17d4d	-0.3466591
79	0x3e740f23	0.23833899
80	0x3e4620b5	0.19348414
81	0xbd6298aa	-0.055321373
82	0x3e2095d5	0.15682156
83	0x3e6f979e	0.23397681
84	0x3e7cb0ac	0.2467677
85	0x3ecff0e6	0.40613478
86	0x3e2972cd	0.165477
87	0xbe02db98	-0.12779081
88	0x3e1c6b72	0.15275362
89	0x3dc1fd66	0.0947216
90	0xbebb54ab	-0.36588034
91	0xbedcdd4b	-0.43137583
92	0x3e7656f8	0.24056613
93	0xbe7946e8	-0.24343455
94	0xbeb93e48	-0.3618033
95	0xbe83a0a8	-0.25708508
96	0xbe479af2	-0.194927
97	0x3ec7b0f7	0.390022
98	0x3eb6ea6b	0.35725722
99	0x3dba87ce	0.09107934
100	0x3e895878	0.2682531
101	0xbe8285f4	-0.25492823
102	0xbe0045b5	-0.12526591
103	0xbc9dfcd7	-0.019285602
104	0xbe230b35	-0.15922244
105	0x3e178725	0.14797647
106	0x3e88fefc	0.26757038
107	0x3e8e42bf	0.27785298
108	0xbe22c5e2	-0.15895799
109	0x3e7d6d29	0.24748673
110	0x3b987cb9	0.00465354
111	0xbed04fd7	-0.40685913
112	0x3e4eb440	0.20185947
113	0xbe04cb27	-0.12968121
114	0x3e10019a	0.14063111
115	0x3ea5583e	0.32293886
116	0x3e20ba9d	0.15696187
117	0x3cd3ffa9	0.025878744
118	0x3d3bdea0	0.04586661
119	0x3eb7e9bc	0.35920513
120	0x3ecfc356	0.40578717
121	0x3ec3063d	0.38090697
122	0x3d825b0b	0.06365021
123	0x3ce7dd57	0.028303785
124	0x3e9a55a6	0.3014347
125	0x3e03cdce	0.12871477
126	0xbc53017e	-0.012878774
127	0xbda1b948	-0.07896668
128	0x3dbe1782	0.092818275
129	0x3e58ed51	0.21184279
130	0x3e81702f	0.25280902
131	0xbd02b0a6	-0.031906746
132	0xbe77d604	-0.24202734
133	0xbe7178ea	-0.23581281
134	0xbe6db645	-0.23214062
135	0x3e968760	0.29400158
136	0x3e76d17e	0.24103352
137	0xbe46ebbc	-0.19425863
138	0x3ec24472	0.37942845
139	0x3e733f6d	0.23754664
140	0xbeb17726	-0.34661216
141	0x3ec2458d	0.37943688
142	0x3dab3cb9	0.08361191
143	0xbeb9d267	-0.36293337
144	0x3e794f60	0.24346685
145	0x3e36bd9a	0.17845765
146	0x3e6dc805	0.23220833
147	0xbeb1f23c	-0.34755123
148	0xbddf99c4	-0.10918
149	0x3cbdc54f	0.023165373
150	0x3e9cfdba	0.30662328
151	0x3eb83d7b	0.35984406
152	0x3ed2d281	0.41176227
153	0x3e61479d	0.21999975
154	0xbee2afd3	-0.44274768
155	0xbe8feb99	-0.28109434
156	0xbd4be277	-0.04977652
157	0xbe582d12	-0.21110943
158	0xbec94cdc	-0.39316452
159	0xbe1fab31	-0.15592648
160	0xbe8ee8f3	-0.279121
161	0xbed960b3	-0.42456588
162	0x3e85cd7f	0.26133344
163	0x3c2e4cff	0.0106384745
164	0x3c004080	0.007827878
165	0x3edf4c19	0.43612745
166	0x3e22bef1	0.15893151
167	0x3e8f770f	0.28020522
168	0xbd376ef9	-0.044783566
169	0x3e5d8481	0.21632577
170	0xbe646434	-0.2230385
171	0xbe1ce024	-0.15319878
172	0xbeb4dfb0	-0.3532691
173	0x3ca1d60a	0.019755382
174	0x3ceaecef	0.028677432
175	0xbde302bc	-0.11084506
176	0xbcbda334	-0.02314911
177	0x3ea16d13	0.3152853
178	0xbe905bf9	-0.2819517
179	0xbe3543e7	-0.17701684
180	0xbedf5b15	-0.43624178
181	0x3ed0b667	0.40764162
182	0xbeb50542	-0.35355574
183	0x3eb0d217	0.34535286
184	0xbeda964e	-0.42692798
185	0x3ed160fc	0.40894306
186	0xbdaca8c6	-0.084306285
187	0x3e8f5948	0.27997804
188	0xbe43fdd0	-0.1913979
189	0xbe44ce17	-0.19219242
190	0x3ea35027	0.3189709
191	0x3d684a8d	0.056711722
192	0xbedc2fef	-0.4300532
193	0xbec837e9	-0.39105156
194	0xbe155a52	-0.14585236
195	0xbe1c8cbe	-0.15288064
196	0xbcc2931a	-0.023751784
197	0xbd44251f	-0.047886964
198	0xbc238a3f	-0.009981691
199	0xbeae762b	-0.3407453
200	0x3eb39719	0.35076216
201	0x3ed14b61	0.40877822
202	0x399a9e07	0.00029490908
203	0xbd8dd9c6	-0.069263026
204	0x3ed9f84a	0.42572242
205	0x3d5315cc	0.05153446
206	0xbeb62c4e	-0.35580677
207	0x3ed34bee	0.41268867
208	0xbe278059	-0.16357554
209	0xbddeae44	-0.10873082
210	0x3e42d97f	0.1902828
211	0x3ec66ca5	0.38754764
212	0xbecc43f1	-0.39895585
213	0xbeab73f3	-0.334869
214	0xbec52420	-0.38504124
215	0xbdaa671c	-0.08320448
216	0x3e84d320	0.25942326
217	0x3e358bb6	0.17729077
218	0x3e7b4aae	0.24540207
219	0xbe8feb07	-0.28109
220	0x3ebb3476	0.36563462
221	0x3ecd8462	0.40140063
222	0xbe799aec	-0.24375504
223	0xbde5e67f	-0.11225604
224	0xbeddcc0e	-0.43319744
225	0x3d97c824	0.07411221
226	0x3e8bd098	0.27307582
227	0x3eb13f8b	0.34618792
228	0x3ed192eb	0.40932402
229	0x3eda3b4f	0.42623374
230	0x3e35af35	0.17742617
231	0xbe0ca8ae	-0.13736221
232	0xbe1825b3	-0.14858131
233	0x3ed11249	0.40834263
234	0xbea31aed	-0.3185648
235	0x3ec29868	0.38006902
236	0xbe3d0205	-0.18457802
237	0xbc2dfb29	-0.010618963
238	0x3c1e1773	0.009649145
239	0x3e46452d	0.19362326
240	0x3ec238fe	0.37934107
241	0x3e9a9f61	0.3019972
242	0xbe1ac293	-0.15113287
243	0x3dac5cfc	0.08416173
244	0x3e450b8b	0.19242685
245	0x3e684b80	0.22685051
246	0x3ebcd0bb	0.36878
247	0x3e467f50	0.19384503
248	0x3ed9e389	0.42556408
249	0xbe722fa0	-0.2365098
250	0x3da63f88	0.081175864
251	0xbe4815c7	-0.19539557
252	0x3e0946d0	0.13405919
253	0x3e35e313	0.17762403
254	0x3eb8e5a3	0.361127
255	0x3e0d61be	0.13806817

decoder.out.bias f4 [171]
0	0xbd82893f	-0.06373834
1	0xbe4af0bc	-0.19818395
2	0x3ed54b3a	0.41658956
3	0xbed0b1c6	-0.4076063
4	0x3e768e14	0.24077636
5	0x3e0b6a46	0.13614759
6	0xbcee0ec8	-0.029059783
7	0xbe45eebf	-0.19329356
8	0xbdcd2a93	-0.10017886
9	0x3d2c873a	0.04212115
10	0xbe29cab3	-0.1658123
11	0xbe00be18	-0.12572515
12	0x394fcd6a	0.00019817581
13	0xbe3bbf9c	-0.18334812
14	0x3d617185	0.0550399
15	0xbd7d9331	-0.06190795
16	0xbea30c55	-0.31845346
17	0x3d6e8fb3	0.05824251
18	0xbe8c02a8	-0.27345777
19	0xbebef4d6	-0.3729617
20	0xbebe716b	-0.37195906
21	0x3edaa95f	0.42707345
22	0xbe8564a0	-0.26053333
23	0xbcb2a27a	-0.02180599
24	0xbeaf9cd7	-0.34299347
25	0xbdec7656	-0.11546008
26	0xbe699761	-0.22811653
27	0x3e0895b7	0.13338362
28	0x3e6b8394	0.22999412
29	0xbe83f7e8	-0.25775075
30	0x3c818e63	0.015814966
31	0x3e48278b	0.19546334
32	0x3e17915b	0.14801542
33	0x3c9150f6	0.0177388
34	0x3dcb243b	0.0991902
35	0xbd2843c8	-0.041080266
36	0x3eb2b74d	0.34905472
37	0x3ee9cf0b	0.45665774
38	0xbe1d2c20	-0.15348864
39	0x3dd68e8c	0.104764074
40	0x3e6d4d26	0.23173961
41	0xbc9ecd8a	-0.019385118
42	0xbe1b1a96	-0.1514686
43	0x3e6819b2	0.22666052
44	0xbe4bc0b8	-0.19897735
45	0xbebb1abe	-0.3654384
46	0x3ec81f4e	0.39086384
47	0xbe4ca2a3	-0.19983916
48	0x3e88e6f3	0.267387
49	0x3e27a49e	0.1637139
50	0xbcf0a7e3	-0.02937693
51	0x3d95946a	0.07303698
52	0x3e0bc30b	0.13648622
53	0x3e0dfe1d	0.13866468
54	0xbe0050f6	-0.12530884
55	0xbe9245c0	-0.2856884
56	0x3ed77cf3	0.42087516
57	0xbea28655	-0.31743112
58	0xbe5f4c55	-0.21806462
59	0xbe59e7a2	-0.21279767
60	0x3ed8cc27	0.42343256
61	0xbeb7a2f0	-0.358665
62	0xbeb6382f	-0.3558974
63	0xbebcf695	-0.36906877
64	0xbe8f0df6	-0.2794034
65	0x3e45715e	0.19281527
66	0x3ca308b1	0.019901605
67	0x3e1d1ca9	0.15342964
68	0x3edb0963	0.427806
69	0xbe9d0985	-0.30671325
70	0xbeafe986	-0.34357852
71	0x3b8cfff2	0.004302972
72	0xbc0b9eee	-0.0085217785
73	0x3ec3e2c6	0.38258952
74	0xbdec6569	-0.1154278
75	0x3e995019	0.29943922
76	0x3e774ada	0.24149647
77	0x3d06977f	0.03285932
78	0xbe8a5289	-0.27016094
79	0xbe61c7e6	-0.22048911
80	0xbeac77d2	-0.33685166
81	0xbe73b8f8	-0.23801029
82	0x392191d8	0.00015408488
83	0x3e66e594	0.22548515
84	0xbe5cf961	-0.21579506
85	0xbe33043e	-0.17482087
86	0x3ee42b5d	0.44564334
87	0xbe3bf96a	-0.18356863
88	0x3eb148e4	0.34625924
89	0x3ec9f8f1	0.3944774
90	0xbe79b688	-0.24386036
91	0x3dcb1c8a	0.09917553
92	0xbc03edec	-0.00805233
93	0xbe065caa	-0.13121286
94	0x3e9d31b5	0.30701986
95	0x3e643c4f	0.22288631
96	0x3dc7302a	0.097259834
97	0xbec75791	-0.38933995
98	0x3e82a8ea	0.25519496
99	0xbe422756	-0.18960318
100	0xbe90ccda	-0.2828129
101	0xbe055472	-0.13020495
102	0x3ea7a723	0.32744703
103	0xbed08920	-0.40729618
104	0x3bcafdae	0.0061947918
105	0xbe920109	-0.28516415
106	0xbd3113f0	-0.043231905
107	0xbe3544c6	-0.17702016
108	0xbd835352	-0.064123765
109	0xbe95a466	-0.2922699
110	0xbe4d4d39	-0.2004899
111	0xbea38cf8	-0.31943488
112	0x3ebf642b	0.3738111
113	0x3eb3456b	0.350139
114	0xbda91d25	-0.08257512
115	0x3e63b12e	0.22235557
116	0x3ed8618e	0.42261928
117	0x3e1be7e6	0.15225181
118	0x3e567418	0.20942724
119	0x3e2125c1	0.15737058
120	0x3d939e87	0.07207971
121	0x3e91e022	0.28491312
122	0x3d43e8aa	0.047829308
123	0xbeb32f2a	-0.3499692
124	0x3e2b14dc	0.16707176
125	0x3e86310b	0.26209292
126	0xbec80de5	-0.390731
127	0x3ed94570	0.4243579
128	0x3c02f02f	0.007991835
129	0x3e541c5f	0.20713948
130	0x3df4c268	0.119511425
131	0x3e05371a	0.13009301
132	0x3d9f85f4	0.077892214
133	0x3edcec89	0.43149212
134	0xbe3e63f8	-0.18592823
135	0x3eb8e777	0.36114094
136	0x3d818d10	0.06325734
137	0xbccd6d4c	-0.02507653
138	0xbec78973	-0.38972053
139	0x3ec2880d	0.37994424
140	0x3d6ebc04	0.058284774
141	0xbec8ded5	-0.39232507
142	0x3e7c93b2	0.24665716
143	0xbd5f3585	-0.0544944
144	0x3edf72e2	0.43642336
145	0x3e894a67	0.26814577
146	0x3e5f08dd	0.21780725
147	0x3e859200	0.26087952
148	0xbe879bbb	-0.26486
149	0xbdf46d79	-0.11934943
150	0x3e6d6c7d	0.23185916
151	0xbe34b69d	-0.17647786
152	0xbee4bb24	-0.44674027
153	0xbe0379f0	-0.12839484
154	0x3e2dd0d1	0.16974188
155	0xbebda610	-0.37040758
156	0x3eb5e1c6	0.35523814
157	0x3e00d846	0.12582502
158	0xbd87642d	-0.06610904
159	0x3d2a5842	0.041588075
160	0xbeb4fa9b	-0.35347447
161	0x3e81da95	0.25362077
162	0x3e0a3d27	0.1349989
163	0x3e8d9be0	0.27657986
164	0x3ee0d7e3	0.43914708
165	0x3e33ad65	0.17546614
166	0xbedf97ab	-0.436704
167	0x3d4cf859	0.05004153
168	0xbe69f45e	-0.22847125
169	0x3c6df35f	0.014523356
170	0xbea59acc	-0.32344663
