best_models/seq2seq-2021-03-22-01-21-38.pt (torch, 34959 bytes, 16 tensors)

encoder.embedding.weight f4 [162, 10]
0	0x3f72d313	0.94853324
1	0xbbc2f309	-0.005949382
2	0xbf814d69	-1.0101749
3	0x3fe5ceae	1.7953699
4	0xbf58071d	-0.84385854
5	0xbff99172	-1.9497511
6	0x3e586760	0.21133184
7	0xbfc97893	-1.5739921
8	0x3f33d4bb	0.70246476
9	0xbf60a93f	-0.8775825
10	0x3f574bff	0.84100336
11	0xbf59f435	-0.85138255
12	0xbe973a32	-0.29536587
13	0xbd10896f	-0.035287317
14	0x3fa0a009	1.2548839
15	0x3f8a01b7	1.0781773
16	0x3f65deff	0.8979339
17	0x3f3fbbb0	0.74895763
18	0x3e3c0d21	0.18364383
19	0xbffe923e	-1.988838
20	0x3deb99d2	0.11503948
21	0xbf5232e9	-0.8210893
22	0xbe3cd683	-0.18441205
23	0xbf8a084f	-1.0783786
24	0x3f201add	0.6254099
25	0x3f9c20fd	1.2197567
26	0xbf369ecd	-0.7133606
27	0xbe2cd060	-0.16876364
28	0xbe65284a	-0.2237865
29	0xbf022486	-0.5083698
30	0x3f33b451	0.70197016
31	0x3e1d0122	0.15332463
32	0xbebcc9fe	-0.36872858
33	0x3ee67c5e	0.4501676
34	0x3f5d0e14	0.86349607
35	0xbf053dd5	-0.52047473
36	0x3fa3c0df	1.2793235
37	0x3d488c7f	0.048962113
38	0x3ed2841b	0.41116413
39	0x3f9f4448	1.2442713
40	0x3fb68a05	1.426087
41	0x3f7d448a	0.9893271
42	0xbee1f17f	-0.4412956
43	0xbeb5399e	-0.3539552
44	0x3f96e660	1.1789055
45	0xbf6d65fb	-0.92733735
46	0xbe9fd984	-0.3122064
47	0x3f0748ff	0.5284576
48	0x3df555ea	0.119792774
49	0x3f34c0df	0.706068
50	0xbfea44ab	-1.8302206
51	0x3f010b3a	0.50407755
52	0x3d887176	0.06662266
53	0x3d4014da	0.046894886
54	0x3dcc77f2	0.09983815
55	0x3faa665a	1.3312485
56	0x3ec2c7c2	0.38043028
57	0xbf5540e8	-0.83302164
58	0x3f047a83	0.5174944
59	0xbfcd4eb3	-1.6039642
60	0x3e15a621	0.14614154
61	0xbee469c8	-0.44611955
62	0xbf4443a7	-0.7666573
63	0x400843c8	2.129137
64	0x4033e944	2.8111124
65	0x3e2e9ed7	0.1705278
66	0xbf01e9fe	-0.5074767
67	0x3c555d76	0.013022771
68	0xbfae7b02	-1.3631289
69	0x3f67716f	0.9040746
70	0x3e0683af	0.13136171
71	0xbf30c5b3	-0.69051665
72	0xbd2008b5	-0.039070804
73	0xbf6a31b6	-0.914821
74	0xbddb0f91	-0.106963284
75	0xbfac0388	-1.3438578
76	0xbe076ba9	-0.13224663
77	0x3f247cf2	0.6425315
78	0x3f3c5807	0.7357182
79	0x3ecb59f4	0.39717066
80	0xbfcd152f	-1.602209
81	0x3e60db1e	0.21958587
82	0xbf2e6aa2	-0.6813146
83	0xbf49c19a	-0.7881104
84	0x3fbd3c1f	1.4783973
85	0xbf309878	-0.6898265
86	0xbed1be46	-0.4096548
87	0x3feaa34c	1.8331084
88	0x3ebc2bb0	0.3675208
89	0x3e501309	0.20319761
90	0xc00a5e3b	-2.1620014
91	0x3f05a1d8	0.5220008
92	0xbf9ca219	-1.2236968
93	0xbf8232f5	-1.0171801
94	0xbf32f6d1	-0.6990786
95	0xbe94c11f	-0.2905359
96	0xbdb15af2	-0.086599246
97	0xc008d45a	-2.137961
98	0xbd6835e1	-0.056692008
99	0xbf1a8e24	-0.6037314
100	0xbf0d3ed3	-0.5517399
101	0xbfa00be5	-1.250363
102	0x3f951f94	1.1650262
103	0xbf2dc6d4	-0.6788151
104	0x3f33b162	0.7019254
105	0xbf7ddd7a	-0.9916607
106	0xbdfb2e2e	-0.122646675
107	0xbfca1a27	-1.5789231
108	0xbedac6fc	-0.42729938
109	0xc021dc0b	-2.5290554
110	0xbf2ad4ff	-0.66731256
111	0xbf35e6e0	-0.7105541
112	0x3fc7f122	1.5620463
113	0xbfea8389	-1.8321391
114	0xbfc20582	-1.5157931
115	0xbea770c4	-0.3270322
116	0xbe89d234	-0.26918185
117	0xbe97918b	-0.29603228
118	0x3eef23d8	0.46707034
119	0x3f9c541e	1.221317
120	0x3f0f645d	0.5601252
121	0x3edb0855	0.42779794
122	0xbf8aea9b	-1.0852846
123	0xbd8bf47e	-0.068337426
124	0xbfa9285f	-1.3215445
125	0xbfaa8435	-1.3321596
126	0xbf32c336	-0.6982912
127	0xbf9c2a63	-1.2200435
128	0xbfac751a	-1.3473237
129	0x3f9614e0	1.172512
130	0xbff9d7da	-1.9518998
131	0x3f2332d5	0.6374944
132	0xbf8e8e11	-1.1137105
133	0x3eeb8980	0.46003342
134	0x3fd5e8c9	1.6711665
135	0x3f5ed644	0.87045693
136	0x4037beb1	2.8710139
137	0xbf97ad41	-1.1849748
138	0x3e6b329c	0.22968525
139	0x3e27db10	0.1639216
140	0xbe6411ab	-0.22272365
141	0x3fb58ee5	1.4184233
142	0xbb634079	-0.003467588
143	0xbe8ba9d2	-0.27278
144	0xbf19f4a1	-0.601389
145	0x3e071e75	0.13195212
146	0xbf1c3b5c	-0.61028075
147	0xbddcab13	-0.10774817
148	0x3fb4dc0e	1.4129655
149	0x3ea11e48	0.31468415
150	0xbf7dd3be	-0.9915122
151	0x3bad39cc	0.005286431
152	0x3eb9fa7a	0.3632391
153	0x3f97c7a9	1.1857806
154	0xbe8ff83d	-0.28119078
155	0xbe841a59	-0.25801352
156	0x3f2cc76f	0.6749181
157	0x3faa5b2f	1.3309077
158	0x3f64028f	0.89066404
159	0x3ff8a836	1.9426334
160	0xbffeb22f	-1.9898127
161	0xbf43b1bb	-0.7644307
162	0x3d3398bd	0.043846834
163	0x3f044a47	0.5167584
164	0xbfb93bc0	-1.4471359
165	0x3f27515e	0.6535853
166	0xbf197257	-0.59940094
167	0xbe33d6fe	-0.17562482
168	0xbf4b06a7	-0.79307026
169	0xbf848aa3	-1.0354809
170	0x3f3c110b	0.73463506
171	0xbee0be2d	-0.43895093
172	0x3dc180e0	0.09448409
173	0x3ef4ec14	0.47836363
174	0xc02ed802	-2.731934
175	0xbf532ccd	-0.82490236
176	0x3f67e278	0.9057994
177	0x3fbf9a5c	1.4968982
178	0xbe131a1f	-0.14365433
179	0x3f1a9927	0.6038994
180	0xbdc608bd	-0.096696354
181	0xbf12d62d	-0.57358056
182	0x3fa2b219	1.2710601
183	0xbf1afba7	-0.6054024
184	0xbfb4d51a	-1.4127533
185	0xbf855487	-1.0416421
186	0xbf3297a7	-0.69762653
187	0x3d32d5ec	0.043661043
188	0xbf3ae7ba	-0.73009837
189	0x3f19b547	0.6004223
190	0xbf4c00df	-0.7968883
191	0xbf45f5a1	-0.77327925
192	0x3f8a5fa4	1.0810437
193	0xbe6dc8e4	-0.23221165
194	0x3eb74b03	0.35799417
195	0xbfddf914	-1.7341638
196	0xbf40da18	-0.75332785
197	0xbf9ada11	-1.2097799
198	0xbfad1960	-1.3523369
199	0xbecfd69a	-0.40593415
200	0x3ecdd669	0.40202644
201	0x3f54aabb	0.83073014
202	0x3f4a8afb	0.7911832
203	0xbf17dcda	-0.5932137
204	0x3f3a90c8	0.7287717
205	0x3f578d1f	0.8419971
206	0xbf1e66e4	-0.6187575
207	0x3e945f37	0.28978893
208	0xbe4c6a5c	-0.19962448
209	0x3e7c07f1	0.24612404
210	0xbef95f12	-0.48705345
211	0xbf21fc25	-0.6327537
212	0x3fa5cd9a	1.295337
213	0x3c8182f7	0.01580952
214	0xbeb4077d	-0.35161963
215	0x3fa9adbb	1.3256143
216	0xbf46a613	-0.7759716
217	0xbfa078de	-1.2536886
218	0xbe919c10	-0.2843938
219	0x3f8d79bf	1.1052779
220	0x3fca7631	1.5817319
221	0xbf477156	-0.7790731
222	0x3dfa43ab	0.12219938
223	0xbe06b14b	-0.1315357
224	0xbe118777	-0.14211832
225	0x4015bf25	2.3397915
226	0x406177ed	3.5229447
227	0x3f60db51	0.8783465
228	0x3f37fbdd	0.7186869
229	0x3db67345	0.08908705
230	0x3f85a520	1.0441017
231	0xbf02535a	-0.50908434
232	0xbef516c0	-0.4786892
233	0xbde0af81	-0.10970975
234	0x3f25a942	0.6471139
235	0x3fb8e9d9	1.4446365
236	0x3f6c329a	0.9226471
237	0x3f39e659	0.7261711
238	0xbfcb84f7	-1.5899953
239	0xbd3c8b0e	-0.04603105
240	0x3fba8248	1.4571009
241	0x3dfac618	0.12244815
242	0x3f7f5f2e	0.9975461
243	0xbf86f8a3	-1.0544628
244	0x3e90e6ca	0.28301078
245	0x3e96e5c4	0.29472172
246	0x3e280f9d	0.16412206
247	0xbfe56a56	-1.7923076
248	0xbe4fe0d5	-0.2030061
249	0x3edd84e9	0.43265465
250	0xbf0ca6ca	-0.54942
251	0x3eea79ea	0.45796138
252	0x3fb1f65e	1.390331
253	0x3f528ea8	0.82248926
254	0xbed498f0	-0.41522932
255	0xbcbfffca	-0.0234374

encoder.gru.weight_ih_l0 f4 [30, 10]
0	0xbddcbcc4	-0.10778192
1	0x3dca082d	0.09864841
2	0xbe04268b	-0.12905328
3	0xbda399ad	-0.07988296
4	0x3e82ec9d	0.25571147
5	0xbe32e735	-0.17471011
6	0x3e89a60e	0.26884502
7	0xbe1d6745	-0.15371425
8	0xbd46043f	-0.048343893
9	0x3d7f8196	0.062379442
10	0xbd4d7445	-0.05015971
11	0xbdaca5c3	-0.08430054
12	0x3e720439	0.23634423
13	0x3db42176	0.08795445
14	0x3e8fd22e	0.28090042
15	0xbe9ab8bc	-0.30219066
16	0xbddc7042	-0.10763599
17	0x3e5e9baa	0.21739069
18	0xbe321fb1	-0.17394902
19	0x3e51c88c	0.20486659
20	0xbc805ee9	-0.015670257
21	0x3e3b39cd	0.18283768
22	0x3e48cd8f	0.19609664
23	0xbdc3dfcc	-0.0956417
24	0xbcdaf14f	-0.026726393
25	0x3de434ab	0.11142858
26	0x3daf1f23	0.08550861
27	0xbe322e1e	-0.17400405
28	0xbe68106e	-0.22662517
29	0x3e73405d	0.23755021
30	0x3e947a5a	0.28999597
31	0xbe102a72	-0.14078692
32	0xbdecd474	-0.1156396
33	0x3dd2134c	0.10257587
34	0x3d39b24a	0.045336045
35	0xbe8f66f9	-0.2800825
36	0xbe3e5d4d	-0.18590279
37	0x3e49c22e	0.1970298
38	0x3e849997	0.2589843
39	0xbdf0056f	-0.117197864
40	0x3d32df37	0.043669906
41	0x3e8d35b5	0.27580038
42	0xbe363410	-0.17793298
43	0x3e70e395	0.23524316
44	0x3e1f21a1	0.15540172
45	0xbdb4f080	-0.08834934
46	0x3e279540	0.16365528
47	0x3cd2d998	0.025738522
48	0x3dd261d3	0.10272565
49	0xbe9c6190	-0.30543184
50	0x3df07dd6	0.11742751
51	0xbe00f005	-0.1259156
52	0x3dcd7910	0.100328565
53	0xbdaeaf87	-0.08529573
54	0xbe59ad6f	-0.21257566
55	0xbdb62b46	-0.088949725
56	0xbe8e3c89	-0.2778056
57	0x3e20a2f8	0.15687168
58	0x3e8b8ae6	0.2725441
59	0x3e8937be	0.2680034
60	0xbe8daec0	-0.27672386
61	0xbe5e44c8	-0.21705925
62	0xbe00b2c8	-0.125682
63	0xbe6bc6c5	-0.23025043
64	0x3e305119	0.17218436
65	0xbe81b561	-0.25333694
66	0x3dd90123	0.1059592
67	0x3e80d89b	0.25165257
68	0x3e53658c	0.20644206
69	0xbe46c130	-0.19409633
70	0x3df6ab99	0.120444484
71	0xbc84fd96	-0.0162342
72	0xbe944a23	-0.28962812
73	0xbe830a28	-0.25593686
74	0xbdd406e6	-0.10352878
75	0xbdbe1dd3	-0.09283032
76	0xbe7179ca	-0.23581615
77	0xbcb2b9dc	-0.02181714
78	0xbd61b217	-0.05510148
79	0xbdc4d3c9	-0.09610707
80	0x3e2a12af	0.1660869
81	0xbe14d425	-0.14534052
82	0x3e9f1d68	0.31077123
83	0x3e6b3399	0.22968902
84	0xbe633396	-0.22187647
85	0xbe9d2e8a	-0.3069957
86	0x3e808a91	0.25105718
87	0x3e58aa4d	0.21158715
88	0x3e8a331f	0.26992127
89	0xbd550491	-0.052006308
90	0x3de3bd26	0.111200616
91	0xbc666e50	-0.0140643865
92	0xbe99bdc6	-0.30027598
93	0x3e22574b	0.15853612
94	0xbd1b7bad	-0.037959743
95	0x3dbbf222	0.091770425
96	0x3dbafa1f	0.09129738
97	0x3e72ab35	0.23698123
98	0x3dc63725	0.09678487
99	0x3e27f166	0.1640068
100	0xbb37ab04	-0.0028025517
101	0x3e9ac471	0.30227998
102	0x3e7e5a3a	0.24839106
103	0x3c9acb05	0.018895635
104	0x3e892c38	0.2679155
105	0x3d814ff9	0.06314082
106	0xbe9cec4e	-0.30649036
107	0x3dd9659f	0.10615086
108	0xbc169453	-0.009190637
109	0x3d7015b3	0.058614444
110	0x3e3e5f55	0.18591054
111	0x3e79dd04	0.24400717
112	0xbe891cf9	-0.26779917
113	0x3e9f4f8f	0.31115386
114	0xbe18025d	-0.14844652
115	0x3df37e5d	0.11889336
116	0xbd451718	-0.048117727
117	0x3e25a897	0.16177593
118	0xbe03b6b3	-0.12862663
119	0xbcafcdee	-0.0214605
120	0x3e8ef6eb	0.27922758
121	0xbe516c76	-0.20451531
122	0xbd42eba4	-0.047588006
123	0x3e79723a	0.2435998
124	0xbdf33271	-0.11874855
125	0xbe692adb	-0.22770254
126	0xbe87861c	-0.26469505
127	0xbe9da35f	-0.30788705
128	0x3c566f01	0.013087989
129	0xbe42ad57	-0.19011436
130	0xbe374146	-0.17895994
131	0xbe7c2526	-0.24623546
132	0x3d3cee3a	0.046125628
133	0x3d24a21b	0.04019366
134	0xbca44dba	-0.020056594
135	0x3e2c5b23	0.16831641
136	0x3e56c9a0	0.20975351
137	0x3e0d4a89	0.13797964
138	0x3e0d013c	0.13770002
139	0x3cca99a1	0.02473146
140	0xbe91c4ff	-0.2847061
141	0x3e6d7781	0.23190118
142	0x3b7350bd	0.0037126981
143	0x3e9b6434	0.30349886
144	0x3d44ef75	0.048079927
145	0xbe982e8f	-0.2972302
146	0x3e5ff2a5	0.21869905
147	0xbd9b1f64	-0.07574347
148	0xbe6bb23b	-0.23017208
149	0xbe2d5999	-0.1692871
150	0xbd258284	-0.040407673
151	0xbccb9120	-0.024849474
152	0xbda132a1	-0.07870985
153	0xbd6e9a02	-0.058252342
154	0x3db5fe46	0.088863894
155	0xbddd6a99	-0.108113475
156	0xbded92f3	-0.11600294
157	0x3e667703	0.22506337
158	0x3d4aeae2	0.049540408
159	0xbe81f17c	-0.2537955
160	0xbe8854d7	-0.26627228
161	0x3de1c368	0.11023599
162	0xbd93d64c	-0.07218608
163	0xbcba30b9	-0.02272831
164	0x3df1c1a9	0.11804516
165	0xbe83cc1f	-0.2574167
166	0x3e7c190b	0.24618928
167	0x3ca6a9b8	0.0203446
168	0x3da3a9c8	0.079913676
169	0x3e3a5dd9	0.18199863
170	0xbdc32f3f	-0.09530496
171	0xbe67285b	-0.22573988
172	0xbe9b2078	-0.3029821
173	0xbe7dbefd	-0.24779887
174	0xbe8f5b33	-0.27999267
175	0xbe860162	-0.2617293
176	0xbe363e06	-0.17797098
177	0xbe7d203d	-0.24719329
178	0x3e611151	0.21979262
179	0xbe418234	-0.18897325
180	0xbe93fa56	-0.2890193
181	0x3d80b50a	0.062845305
182	0xbe47f065	-0.19525297
183	0xbe95f683	-0.29289636
184	0xbd8cc9b5	-0.0687441
185	0x3e423223	0.18964438
186	0x3c49407f	0.0122834435
187	0x3e8d82a5	0.27638736
188	0xbe2841a2	-0.16431287
189	0xbe7aaeb2	-0.24480703
190	0xbe127237	-0.14301382
191	0x3e55a713	0.20864515
192	0x3db8f476	0.09031002
193	0x3e602a98	0.21891248
194	0x3e7549c2	0.23953918
195	0xbcab640c	-0.02092173
196	0x3e501fc7	0.20324622
197	0x3e0ef565	0.13960798
198	0x3e13b20b	0.14423387
199	0xbe52ebb0	-0.2059772
200	0xbe546b9f	-0.20744179
201	0xbe86c1d8	-0.26319766
202	0x3e000075	0.12500174
203	0xbe88bcdd	-0.2670659
204	0x3ea30037	0.318361
205	0xbd2a8901	-0.041634563
206	0x3e276fd8	0.16351259
207	0xbe135631	-0.14388348
208	0x3d957307	0.0729733
209	0xbd9d6be8	-0.07686597
210	0x3e1ec507	0.15504847
211	0x3e5dd6d9	0.21663989
212	0xbe964783	-0.29351434
213	0xbe6d38ad	-0.23166151
214	0x3db1feb5	0.0869116
215	0xbe2ba7d6	-0.16763243
216	0x3e760fc8	0.24029458
217	0x3e60296a	0.21890798
218	0xbe63580f	-0.2220156
219	0xbe0994d0	-0.13435674
220	0xbdc622a5	-0.09674577
221	0xbd44c843	-0.048042547
222	0x3ea1479d	0.3149995
223	0x3e89d262	0.26918322
224	0x3de462f2	0.11151685
225	0xbe9964c4	-0.2995969
226	0x3dabed58	0.08394879
227	0xbe4da676	-0.20083031
228	0x3e96b4ce	0.29434818
229	0xbe7d3f1a	-0.24731103
230	0x3e7b3987	0.24533664
231	0x3ab201b6	0.0013580832
232	0x3e67dc4c	0.2264263
233	0x3e2f88ef	0.1714208
234	0xbdf34370	-0.11878097
235	0x3e893028	0.26794553
236	0x3e952010	0.29126024
237	0xbc8becfe	-0.01708078
238	0x3e7d6859	0.24746837
239	0xbdde976c	-0.10868725
240	0x3dd3c92b	0.10341104
241	0x3e3d6665	0.18496092
242	0x3e2e45f5	0.17018874
243	0x3df64408	0.12024695
244	0x3e80ab64	0.2513076
245	0xbe9fb353	-0.311915
246	0xbc726d49	-0.014796563
247	0xbe17e234	-0.14832383
248	0x3e9fa45a	0.31180078
249	0xbe6d04f3	-0.23146419
250	0x3d973dda	0.07384844
251	0xbe9dbb14	-0.30806792
252	0xbe52f9fc	-0.20603174
253	0x3e295c97	0.16539226
254	0xbe1052eb	-0.1409413
255	0x3d9fd3ba	0.078040555

encoder.gru.weight_hh_l0 f4 [30, 10]
0	0xbe81347c	-0.25235355
1	0x3daf915d	0.08572648
2	0xbd69c31b	-0.057070833
3	0x3e16e8d0	0.14737248
4	0xbd0409b8	-0.03223583
5	0xbdf50461	-0.11963726
6	0x3e46f18f	0.19428085
7	0x3e4973d8	0.19673097
8	0xbd3b3a41	-0.045709852
9	0x3e98991b	0.2980431
10	0xbe933421	-0.2875071
11	0xbe93a033	-0.2883316
12	0xbe816ce8	-0.252784
13	0xbe46b76b	-0.19405906
14	0x3e4bb416	0.19892916
15	0xbe0d7d49	-0.13817324
16	0xbc9d3938	-0.019192323
17	0x3e847720	0.25872135
18	0x3e51d234	0.20490342
19	0xbda65fa4	-0.08123711
20	0x3e876a59	0.26448324
21	0x3ea129e3	0.3147727
22	0x3d89b139	0.06723256
23	0xbdbfaf72	-0.093596354
24	0x3da8faf5	0.08250991
25	0x3dc72f58	0.09725827
26	0x3e3e2a34	0.18570787
27	0xbe6f4361	-0.23365547
28	0xbe4de48f	-0.2010672
29	0x3ea12d2c	0.31479776
30	0x3da3e0c9	0.08001859
31	0xbe8b895b	-0.2725323
32	0xbe9ee3fc	-0.31033313
33	0x3e97c59d	0.29642954
34	0x3e823e38	0.25438094
35	0x3e435530	0.19075465
36	0xbe373f21	-0.17895176
37	0xbe703709	-0.23458494
38	0x3e768793	0.24075155
39	0xbe081bf9	-0.1329192
40	0x3e936648	0.28788972
41	0x3e99f271	0.3006778
42	0xbe567b5e	-0.20945498
43	0xbe994dd5	-0.29942194
44	0x3e33ad51	0.17546584
45	0xbd4c635c	-0.049899444
46	0x3dd8bd44	0.105829746
47	0x3e9dc9ad	0.3081793
48	0x3e2f79df	0.17136334
49	0x3e11a6fc	0.14223856
50	0x3ba1d745	0.004938992
51	0x3e81f1d5	0.25379816
52	0x3dbd1a11	0.092334874
53	0xbcf5cb86	-0.030004274
54	0xbe29a55c	-0.16566986
55	0xbdc6b20b	-0.09701928
56	0x3e7598b1	0.23984028
57	0xbe69456f	-0.22780393
58	0x3e25ff9d	0.1621079
59	0x3d6e53d5	0.058185417
60	0xbdf1c3d7	-0.118049316
61	0x3dd3c981	0.10341168
62	0x3e14bb0b	0.14524476
63	0x3c89a793	0.016803538
64	0x3a316f41	0.0006768592
65	0x3e2de8fc	0.16983408
66	0xbe8720c8	-0.26392198
67	0xbe7f91f7	-0.24958025
68	0x3e86961f	0.26286408
69	0x3e8ad430	0.2711501
70	0x3df4212f	0.11920392
71	0x3deec96f	0.11659514
72	0x3e8ea327	0.2785885
73	0x3e4dd155	0.20099385
74	0x3e01f9cf	0.1269295
75	0x3e7983f9	0.2436675
76	0x3e4b38ef	0.19845937
77	0xbe741fc4	-0.23840243
78	0x3e5791f3	0.21051769
79	0x3e8bc180	0.27296066
80	0xbe0cb774	-0.13741857
81	0xbd9b5048	-0.07583672
82	0xbd0a6728	-0.033789784
83	0x3e3449b8	0.17606246
84	0x3e4a37bb	0.19747822
85	0x3e38b8f0	0.18039298
86	0x3e33dce9	0.1756474
87	0xbe9d375a	-0.30706292
88	0xbdbbd93b	-0.09172293
89	0x3e62210a	0.22082916
90	0x3e1be563	0.15224223
91	0xbe80ca81	-0.25154498
92	0xbe8116cf	-0.25212714
93	0x3e068bff	0.13139342
94	0x3e661217	0.22467838
95	0x3e58958a	0.21150795
96	0xbd0ba188	-0.034089595
97	0xbe0fe4c4	-0.14052111
98	0xbe260d13	-0.16215925
99	0xbe3d44ad	-0.18483229
100	0x3e8eb64c	0.27873456
101	0xbe1f92e0	-0.15583372
102	0xbe52c817	-0.2058414
103	0xbe45b4fa	-0.19307318
104	0xbe94735a	-0.28994256
105	0xbea01e0a	-0.31272918
106	0xbdfd946e	-0.12381826
107	0xbe1c09b5	-0.15238078
108	0xbe21e00c	-0.15808123
109	0xbe2d3f95	-0.16918786
110	0xbe03ab71	-0.12858368
111	0x3d93588b	0.071946226
112	0xbe28c4a0	-0.16481256
113	0xbc068fcc	-0.008212995
114	0xbd885a7e	-0.06657885
115	0x3e60948d	0.21931668
116	0xbe0c13e0	-0.13679457
117	0x3e572cd9	0.21013202
118	0x3e9a4f88	0.30138803
119	0x3e3e0b77	0.18559061
120	0xbd2ce7d8	-0.04221329
121	0x3dfe09c3	0.12404206
122	0x3dbf2a96	0.093342945
123	0x3e4b74be	0.19868752
124	0x3e6c4200	0.23072052
125	0xbded9bed	-0.11602006
126	0x3d013df0	0.03155321
127	0xbe8b4d74	-0.2720753
128	0x3e18aed3	0.1491044
129	0x3df3bbff	0.11901092
130	0x3e224563	0.15846781
131	0x3dfd2a6a	0.123616055
132	0xbe5ca4e0	-0.2154727
133	0x3e44fcc5	0.19237049
134	0x3e7c226f	0.2462251
135	0x3e8befda	0.2733143
136	0xbe627fc2	-0.22119048
137	0x3e5bda50	0.21469998
138	0xbcf2d1a5	-0.029640982
139	0xbe4642fc	-0.1936149
140	0x3e037884	0.12838942
141	0xbe7efe9b	-0.24901812
142	0x3d05b025	0.032638688
143	0xbe30015f	-0.17188023
144	0x3e5642b7	0.20923887
145	0xbe9dc9ed	-0.3081812
146	0xbc5c7038	-0.013454489
147	0x3cba2f46	0.02272762
148	0xbd66bc29	-0.056331787
149	0xbe68756d	-0.22701044
150	0x3dadb378	0.084814966
151	0x3e912208	0.28346276
152	0x3e5a1a3d	0.21299072
153	0xbe8b5c32	-0.27218777
154	0xbce54c5d	-0.027990514
155	0x3cbb8e11	0.022894891
156	0xbe2e00ed	-0.1699254
157	0xbd44dade	-0.04806029
158	0x3cc7a976	0.024372797
159	0xbe85ef8b	-0.2615932
160	0xbd7948ab	-0.060860317
161	0x3e8c4b91	0.27401403
162	0x3e77506c	0.24151772
163	0xbe12a90d	-0.143223
164	0x3df86311	0.121282704
165	0xbd44f28e	-0.04808288
166	0x3e40c636	0.18825611
167	0xbe8ae0a2	-0.27124506
168	0x3c99967a	0.01874851
169	0xbe961fae	-0.29321045
170	0x3e349381	0.17634393
171	0xbe212b4b	-0.15739171
172	0xbe95b5c3	-0.29240236
173	0xbe1033b4	-0.14082223
174	0xbe07b200	-0.13251495
175	0x3d533d1d	0.051571954
176	0x3e821cad	0.25412503
177	0xbe1e3258	-0.15448892
178	0x3e72a32a	0.23695055
179	0x3e3fafee	0.18719456
180	0xbe9e08df	-0.30866143
181	0xbda00fd8	-0.07815522
182	0x3db4e241	0.08832217
183	0xbd9eb4b7	-0.07749312
184	0xbc980422	-0.018556658
185	0x3dddad17	0.1082403
186	0xbe684e3c	-0.22686094
187	0xbd287bcc	-0.041133687
188	0x3e99dcbf	0.30051228
189	0xbe22acb2	-0.1588619
190	0xbe679071	-0.22613694
191	0xbdce0e61	-0.10061336
192	0x3e5e55c3	0.21712403
193	0xbe226ca0	-0.1586175
194	0x3e971c01	0.29513553
195	0x3e13667f	0.14394568
196	0xbe6bb0c5	-0.23016651
197	0xbe50ee32	-0.20403364
198	0x3dfb65ce	0.12275277
199	0xbc399425	-0.011326824
200	0x3e10767f	0.14107703
201	0xbe93c05e	-0.28857702
202	0xbb3e22e0	-0.0029012486
203	0x3c2e9a73	0.010656941
204	0x3d24b6db	0.040213447
205	0x3d6a3269	0.05717698
206	0xbe953db6	-0.29148644
207	0xbe2cf344	-0.16889673
208	0x3dd71d74	0.105036646
209	0x3d3b66da	0.045752384
210	0x3e48ebaa	0.19621149
211	0xbd86b90f	-0.06578266
212	0xbe3837df	-0.17990063
213	0xbcf50c49	-0.029913085
214	0x3c2b8b02	0.010470154
215	0x3d3cc5d8	0.046087116
216	0x3e9b7e42	0.30369765
217	0x3e797c54	0.24363834
218	0x3e917bd9	0.284148
219	0xbe380d80	-0.179739
220	0x3d98a309	0.074529715
221	0x3e5374d9	0.20650043
222	0xbe6e23ff	-0.23255919
223	0x3e93fe08	0.28904748
224	0xbdc6c821	-0.0970614
225	0xbe8a59f3	-0.2702175
226	0x3ddc7e2c	0.10766253
227	0xbd7bb626	-0.061453007
228	0xbe6e1685	-0.23250778
229	0xbdd71dae	-0.10503708
230	0x3e507f0b	0.20360963
231	0x3d99ce03	0.07509997
232	0x3e544290	0.20728517
233	0xbe1b3a4e	-0.1515896
234	0x3d9e48b4	0.07728711
235	0x3e1ac124	0.1511274
236	0xbe307026	-0.17230281
237	0x3de7d265	0.113194264
238	0xbea20b4e	-0.3164925
239	0x3e8fd61c	0.2809304
240	0xbdb81f46	-0.0899034
241	0xbe63c62f	-0.2224357
242	0x3e01674f	0.12637065
243	0x3e6b321a	0.22968331
244	0xbc290f1d	-0.010318545
245	0xbc0fc86e	-0.0087758135
246	0xbd9115c9	-0.07084233
247	0xbe77db32	-0.2420471
248	0xbe9329bf	-0.28742787
249	0x3e94d5b3	0.2906929
250	0xbd821e0d	-0.06353388
251	0xbe1f82f8	-0.15577304
252	0x3de0ea92	0.10982241
253	0xbe93fc07	-0.2890322
254	0x3cff992f	0.031200973
255	0xbe944051	-0.2895532

encoder.gru.bias_ih_l0 f4 [30]
0	0x3dd3189b	0.103074275
1	0xbe03462f	-0.12819742
2	0x3e2106bd	0.15725227
3	0x3e915f76	0.28393143
4	0x3e5a875f	0.21340702
5	0x3db014aa	0.08597691
6	0xbb9b37e1	-0.004736886
7	0x3dc183bc	0.094489545
8	0x3d1026f0	0.035193384
9	0x3d5446ff	0.05182552
10	0xbe572001	-0.21008302
11	0xbe0d20d9	-0.13782062
12	0x3cec79a4	0.028866597
13	0x3e246dc5	0.16057499
14	0xbe259513	-0.16170149
15	0xbd4764e9	-0.04868022
16	0xbdb041f3	-0.08606329
17	0xbea369b2	-0.31916577
18	0xbe65a1ff	-0.22425078
19	0xbe20abd7	-0.15690552
20	0x3e8be0f3	0.2732006
21	0x3d819abe	0.06328343
22	0xbd123c7f	-0.035702225
23	0x3e9fa869	0.31183174
24	0x3e6dceee	0.23223469
25	0xbd8cd74f	-0.06877004
26	0x3dabe5e3	0.08393457
27	0x3e6322c3	0.2218123
28	0x3e302347	0.17200957
29	0xbd2251bd	-0.039628733

encoder.gru.bias_hh_l0 f4 [30]
0	0x3d5759b5	0.052575786
1	0x3e9d32f7	0.30702946
2	0x3e35448d	0.17701931
3	0x3dbf2ceb	0.09334739
4	0xbe9d722e	-0.30751175
5	0x3df677be	0.12034558
6	0x3e8056fd	0.25066367
7	0x3e1b93a4	0.15193039
8	0xbdfc8e9a	-0.123318866
9	0xbe077004	-0.13226324
10	0xbd5bd6a9	-0.053671513
11	0xbe821883	-0.25409326
12	0xbe992a94	-0.29915297
13	0x3dd34962	0.10316731
14	0x3e59ff9b	0.21288912
15	0x3d7870af	0.06065434
16	0xbe858a61	-0.26082137
17	0x3df60b44	0.120138675
18	0x3dd2c3ae	0.10291229
19	0x3e1539a4	0.1457277
20	0xbe82b345	-0.25527397
21	0x3c57314a	0.01313431
22	0x3de6089b	0.1123211
23	0x3e3807b4	0.17971689
24	0x3e9d3bde	0.30709738
25	0xbdf51d73	-0.119685076
26	0xbe4ccf1a	-0.20000878
27	0xbe556065	-0.20837553
28	0xbe863a53	-0.26216373
29	0xbe9f47eb	-0.31109557

decoder.embedding.weight f4 [189, 10]
0	0x3e423236	0.18964466
1	0xbffe5025	-1.9868208
2	0x3f336284	0.700722
3	0x3eb82119	0.35962752
4	0x3ebcfba6	0.36910743
5	0xbf5e04c3	-0.86726016
6	0xbfd831de	-1.6890218
7	0x3e8aba34	0.27095187
8	0xbf2eea15	-0.6832593
9	0xbead7252	-0.33876282
10	0x3fadeb1e	1.3587377
11	0xbd4809cd	-0.04883747
12	0xbd2219f0	-0.039575517
13	0x3e61713e	0.22015855
14	0xbed647bd	-0.41851607
15	0xbf449cfa	-0.7680203
16	0x4015161e	2.329475
17	0xbfa02b08	-1.2513132
18	0xbff12940	-1.8840714
19	0x402f19c0	2.7359467
20	0x3e43ff89	0.19140448
21	0xc0238dcc	-2.5555296
22	0x3e27c112	0.16382244
23	0x3fc89355	1.5669962
24	0xbff931a2	-1.9468272
25	0x3f46a635	0.7759736
26	0x3e84aa3d	0.25911132
27	0x3ff2fc5d	1.8983265
28	0xbe4fa3b5	-0.20277293
29	0x3de57d26	0.11205511
30	0xbe5cfb57	-0.21580254
31	0x3fca71c0	1.5815964
32	0xbee1d3b7	-0.44106838
33	0xbeb17bff	-0.34664914
34	0x3e2b5ce3	0.16734652
35	0xbdd70b5e	-0.10500215
36	0xbeaa16bc	-0.3322047
37	0x3e1f623a	0.15564814
38	0xbfa84b3f	-1.3147963
39	0x3f4fc58b	0.811608
40	0x3ee321e2	0.44361788
41	0x3e814230	0.2524581
42	0x3fc7477e	1.5568693
43	0xbe9cdfaa	-0.30639392
44	0xbf6a226c	-0.91458774
45	0xbda57afa	-0.080800965
46	0x40064c7f	2.098419
47	0xbee8fea9	-0.4550679
48	0xbf925558	-1.1432295
49	0xbf5aeba3	-0.85515803
50	0xbee9de3e	-0.4567737
51	0xbfcea20a	-1.61432
52	0xbf635807	-0.88806194
53	0x3e9b3785	0.30315796
54	0x401351e7	2.301874
55	0x3fb3a580	1.4034882
56	0xbe70aa7e	-0.23502538
57	0x3eadc0f9	0.3393629
58	0xbeb3f010	-0.3514409
59	0x3e499993	0.1968749
60	0x3f138395	0.57622653
61	0xbd0d2aac	-0.034464523
62	0x3f9704ac	1.1798301
63	0xbe2bbae0	-0.16770506
64	0xbe8c4b02	-0.27400976
65	0xbf8686f8	-1.0509939
66	0x3fb2a76f	1.3957347
67	0xbd8e6a7f	-0.06953906
68	0x3f3b647d	0.7320021
69	0x3d829eba	0.06377931
70	0xbd8c44da	-0.0684907
71	0xbf7ce8f2	-0.98792946
72	0x3e55b179	0.20868482
73	0xbec2bd24	-0.38034928
74	0xbf821263	-1.0161861
75	0x3f576c06	0.84149206
76	0xbf5078f2	-0.8143455
77	0xbf267eac	-0.65037036
78	0x3fa482dc	1.2852435
79	0xbf161519	-0.5862594
80	0x3f8c9eb7	1.0985936
81	0x3f3706ee	0.7149495
82	0x3eb7c9ff	0.35896298
83	0x3fc87ced	1.5663124
84	0x3f845b10	1.034029
85	0xbfdad4da	-1.7096207
86	0xbf0defd7	-0.5544409
87	0x3fab1373	1.336531
88	0xbe93ff80	-0.2890587
89	0x3fad5720	1.3542213
90	0xbe84cb8f	-0.25936553
91	0xbe36cf87	-0.17852603
92	0xbf403d28	-0.7509332
93	0xbe7cc5ad	-0.24684782
94	0xbd8c8be1	-0.06862617
95	0xbebd7450	-0.37002802
96	0xbf37d3d8	-0.7180762
97	0xbf19d7ff	-0.6009521
98	0xbf2c1bd8	-0.67229986
99	0xbebaf832	-0.36517483
100	0xbf5848c1	-0.84486014
101	0x3e512601	0.20424654
102	0xbf242dc1	-0.64132315
103	0xbf64bd96	-0.89351785
104	0xbf398edd	-0.7248362
105	0x3f59028e	0.84769523
106	0xbfafed6c	-1.374433
107	0xbf89462f	-1.0724543
108	0xbe817bff	-0.25289914
109	0x3ec358d1	0.381537
110	0x3ec05fed	0.37573186
111	0x3ee6415b	0.44971737
112	0xbf06abf8	-0.52606153
113	0xbfbd9f34	-1.481421
114	0x3f7e155a	0.9925133
115	0x3f650083	0.89453906
116	0xbefab417	-0.48965523
117	0x3ec2ca22	0.3804484
118	0x3fa6ca70	1.3030529
119	0x3f383e45	0.71970016
120	0x3f45c9ac	0.7726085
121	0x3fd0bbed	1.630735
122	0x3e7bb009	0.24578871
123	0xbf524e53	-0.82150763
124	0x3e97296f	0.295238
125	0x3ea3cfdb	0.3199452
126	0xbf5cad78	-0.8620219
127	0xbf33709d	-0.7009371
128	0xbe30691b	-0.17227595
129	0xbf236b38	-0.6383548
130	0xbfc107c2	-1.5080492
131	0xbf7b1831	-0.9808379
132	0x3ded16f9	0.11576647
133	0xbf4ce7fd	-0.80041486
134	0x3dd6fb40	0.10497141
135	0x3fa54a1f	1.2913245
136	0x3f887167	1.0659608
137	0x3f903a5c	1.126781
138	0x3ee1a77f	0.44073102
139	0xbf333559	-0.7000328
140	0x3ea735be	0.3265819
141	0xbfcc3985	-1.5955054
142	0xbdb686ca	-0.08912428
143	0xbf44647c	-0.76715827
144	0xbf1baba9	-0.6080881
145	0x3ccc25a2	0.024920288
146	0xbf7f2ee2	-0.9968091
147	0xbfd6b9d7	-1.6775464
148	0x3b9c0eb8	0.004762497
149	0x4027aa71	2.619778
150	0x3da05ebf	0.078305714
151	0x3f878e5c	1.059032
152	0x3e728bff	0.23686217
153	0x3f96967f	1.1764678
154	0x3fd1716c	1.6362739
155	0xbf1c3ca3	-0.61030024
156	0x3e70bd28	0.23509657
157	0xbd2ad6d0	-0.041708767
158	0x3edc2ffe	0.43005365
159	0xbe6e8d54	-0.232961
160	0x3ee6d7f7	0.45086643
161	0xbf7390da	-0.951429
162	0xbe5b47d9	-0.21414126
163	0x3f3da6f9	0.74082905
164	0xbf9d8ce6	-1.2308624
165	0x3ee4f042	0.44714552
166	0x3e5320be	0.20617959
167	0x3ffc74a1	1.9723092
168	0xbeb7c348	-0.35891175
169	0xbf966059	-1.1748153
170	0x3fd31c0d	1.6492935
171	0xbef9fe97	-0.4882705
172	0x3f866852	1.0500586
173	0x3d6954d6	0.05696567
174	0xbf7584ea	-0.95905936
175	0x3f6ed524	0.93293977
176	0x3f6c543d	0.9231604
177	0x3f63d1a7	0.8899178
178	0xc0175157	-2.3643396
179	0x3e80850c	0.25101507
180	0xbf7aee30	-0.98019695
181	0xbf8f2d58	-1.1185713
182	0x3f1897c4	0.59606576
183	0xbead34f5	-0.33829466
184	0xbf427e35	-0.75973827
185	0xbdc42611	-0.09577573
186	0x3e22bea3	0.15893035
187	0xbdce5aba	-0.100758985
188	0x3fafc676	1.373244
189	0x3f733404	0.95001245
190	0xbf1a4990	-0.602685
191	0xbff10865	-1.8830687
192	0x3e096df7	0.13420855
193	0xbf5220d4	-0.8208134
194	0x3fbd0549	1.4767238
195	0x3f174bd6	0.5910009
196	0x3d4dfe16	0.050291143
197	0x3f4c0c1e	0.7970599
198	0x3e96f2c3	0.29482087
199	0xbff6ab29	-1.9270984
200	0x3f88b34c	1.0679717
201	0x3f8d095e	1.1018484
202	0x3f90f83d	1.1325756
203	0xbf60d0e7	-0.8781876
204	0x3fb5c279	1.4199973
205	0xbfa3a38f	-1.2784289
206	0xbd75d335	-0.060015876
207	0x3f8af089	1.0854656
208	0xbf53f0f1	-0.8278952
209	0x3fa70ebd	1.3051373
210	0x3f523ad8	0.8212104
211	0x3ed4522a	0.41468936
212	0xbdbb8794	-0.09156719
213	0xbfd2006b	-1.6406378
214	0x3f06f302	0.5271455
215	0xbf3626b3	-0.711528
216	0x3ea1c635	0.31596532
217	0x3f8ccd6b	1.1000189
218	0x3e9b9d8f	0.30393645
219	0xbfcc70e2	-1.5971949
220	0xbf2545ff	-0.6455993
221	0xbc87463b	-0.01651298
222	0x3f476927	0.77894825
223	0xc005078c	-2.0785856
224	0xbf737690	-0.95102787
225	0xbf564709	-0.8370214
226	0x3e3c6f55	0.18401845
227	0xbf2a2426	-0.6646141
228	0xbc8e6ee9	-0.01738687
229	0xbfc1124b	-1.5083708
230	0xbe9b13cc	-0.3028854
231	0x3d891205	0.0669289
232	0xbe9ca300	-0.3059311
233	0x3ff5b6ec	1.9196448
234	0xbfe06ac8	-1.7532587
235	0xbe204cae	-0.15654251
236	0x3f4a9691	0.79135996
237	0x400505d4	2.0784807
238	0xbe80064a	-0.25004798
239	0xbef6d615	-0.48210207
240	0xbf262003	-0.64892596
241	0xbf0b31ba	-0.5437275
242	0x3eb6d6f2	0.35710865
243	0x3e2881d8	0.16455781
244	0xbf7f4280	-0.99710846
245	0x3eb93716	0.3617484
246	0xbf23856a	-0.6387545
247	0x3fa4e1f5	1.2881457
248	0xbe142512	-0.14467266
249	0x3f260f4b	0.64867085
250	0xbf6a35c2	-0.9148828
251	0x3f52acdc	0.8229501
252	0xbdb3ebb5	-0.08785192
253	0x3f1da18f	0.61574644
254	0xc00214c2	-2.032517
255	0x3ea937a5	0.33050266

decoder.attn.weight f4 [15, 20]
0	0xbd9ac67e	-0.07557391
1	0x3d96928c	0.0735217
2	0xbdc60842	-0.09669544
3	0xbdc1b75a	-0.094588
4	0x3e14807a	0.14502135
5	0xbe3e04c8	-0.18556511
6	0x3d97c2fe	0.07410239
7	0x3dc19add	0.09453366
8	0xbc1c23c3	-0.009530011
9	0x3dd1dad0	0.10246813
10	0x3e398e20	0.18120623
11	0xbdf1c23f	-0.118046276
12	0xbc93cac1	-0.018041017
13	0xbd0f324c	-0.034960076
14	0x3dc3aa24	0.09553936
15	0x3e005a6f	0.12534498
16	0x3dd65564	0.10465506
17	0x3e2de851	0.16983153
18	0xbe3789a1	-0.17923595
19	0x3cd7eb19	0.02635722
20	0x3caaa009	0.020828264
21	0xbe5528c1	-0.20816328
22	0xbded02b4	-0.11572781
23	0x3dcc62bc	0.099797696
24	0x3e22179e	0.15829322
25	0x3d6bf42c	0.057605907
26	0xbba56dba	-0.005048481
27	0xbe30bed1	-0.1726029
28	0xbbb2a1be	-0.00545141
29	0x3e08c87a	0.13357726
30	0xbe56a0b0	-0.20959735
31	0xbda4b772	-0.08042802
32	0xbe11e6ad	-0.14248152
33	0xbe172ae0	-0.1476245
34	0xbe219690	-0.15780091
35	0xbe2f26a5	-0.17104585
36	0x3e1b8577	0.15187632
37	0xbe0e3499	-0.13887252
38	0xbe5cec62	-0.21574548
39	0x3e64c48e	0.22340605
40	0xbddb4961	-0.10707355
41	0x3df9b6e7	0.12193089
42	0xbdac0e56	-0.08401172
43	0x3e3c66f7	0.18398653
44	0xbd5ce7fa	-0.053932168
45	0xbd16a079	-0.036774132
46	0xbde32411	-0.110908635
47	0xbd337c3b	-0.043819647
48	0xbcc8781c	-0.024471335
49	0xbe10104d	-0.14068718
50	0xbdf59c13	-0.119926594
51	0xbe0ba3b5	-0.13636668
52	0xbd1506ed	-0.036383558
53	0x3cbd02be	0.023072597
54	0x3d591bed	0.053005148
55	0x3df8ab03	0.12141993
56	0x3e31a724	0.17348915
57	0xbe0b7d64	-0.13622051
58	0xbdf5b53f	-0.119974606
59	0xbe1308d8	-0.14358842
60	0xbe3ae1f8	-0.18250263
61	0x3e145d44	0.14488703
62	0xbc567c02	-0.013091089
63	0xbdf2e5e7	-0.11860257
64	0x3e33143f	0.17488192
65	0x3e614a4a	0.22000995
66	0xbd04b4da	-0.032399036
67	0x3df4958d	0.11942587
68	0xbd4e9839	-0.05043814
69	0xbd43767e	-0.047720425
70	0x3e091e4b	0.13390462
71	0x3e16909e	0.14703605
72	0x3da113a2	0.07865073
73	0x3d1f44dd	0.038884033
74	0x3ddd5741	0.10807658
75	0x3e26e68e	0.16298887
76	0xbde42144	-0.111391574
77	0xbe6142a3	-0.21998076
78	0xbe3df87d	-0.18551822
79	0xbe4d5682	-0.20052531
80	0x3dc83b0f	0.097768895
81	0xbe2ce308	-0.1688348
82	0xbad3a659	-0.0016147598
83	0x3e48b332	0.19599608
84	0x3cf55b54	0.029950775
85	0x3e2f8292	0.17139652
86	0xbe15bff2	-0.14624003
87	0x3c2a2e6d	0.010387045
88	0xbca3d5d0	-0.019999415
89	0x3cf34375	0.029695252
90	0xbd4e6506	-0.050389312
91	0xbdb751fe	-0.08951186
92	0xbd8494c1	-0.06473685
93	0x3e23a6b2	0.15981558
94	0xbe48be50	-0.19603848
95	0xbe17db2d	-0.14829703
96	0x3e226519	0.15858878
97	0x3e0a3bfb	0.13499443
98	0x3e1f3e5b	0.1555113
99	0xbe193431	-0.14961316
100	0x3c92a8f4	0.017902829
101	0xb746a7c4	-1.1840781e-05
102	0xbd864b22	-0.06557299
103	0x3e1afc60	0.15135336
104	0xbdfb24f7	-0.1226291
105	0xbe233629	-0.15938629
106	0x3e40909d	0.18805166
107	0x3e2e0ae3	0.1699634
108	0x3da29e7a	0.07940383
109	0x3e02d164	0.12775189
110	0xbe0f4420	-0.13990831
111	0x3db8ce41	0.09023715
112	0xbdd9b372	-0.106299296
113	0x3e36d169	0.17853321
114	0xbe22441c	-0.15846294
115	0xbe2f2fd9	-0.17108096
116	0x3e1974be	0.1498594
117	0x3d8c9a73	0.06865396
118	0x3e45c09f	0.1931176
119	0xbd591ba3	-0.053004872
120	0x3e322aaf	0.17399095
121	0xbc867d88	-0.01641728
122	0x3d9e1407	0.07718664
123	0x3ddaad9c	0.106776446
124	0x3dccbff8	0.09997553
125	0x3c977457	0.018488092
126	0xbbdf1830	-0.0068083033
127	0x3df97998	0.12181395
128	0x3e4bdb4e	0.19907877
129	0x3e5bdc97	0.21470867
130	0x3dd51e8f	0.10406219
131	0x3cfef263	0.031121438
132	0xbe235c10	-0.15953088
133	0xbd70eff7	-0.0588226
134	0xbca9d9dd	-0.020733768
135	0x3e297fd5	0.1655267
136	0xbe5a23e2	-0.2130275
137	0x3de0f3a6	0.10983972
138	0x3e126445	0.14296062
139	0xbcb5f4bc	-0.022211425
140	0x3dd37c74	0.10326472
141	0x3d9d3b8c	0.07677373
142	0xbe06d333	-0.13166504
143	0x3e4fc06d	0.20288248
144	0x3e0c58c1	0.13705732
145	0xbe613a52	-0.21994904
146	0xbe5508d0	-0.20804143
147	0xbe294c3b	-0.16532986
148	0x3d7e0975	0.062020738
149	0x3dbf260d	0.093334295
150	0xbe1d2bef	-0.1534879
151	0xbe33e791	-0.17568804
152	0x3e4483e5	0.19190939
153	0x3e56efb4	0.20989877
154	0x3e3f650f	0.18690895
155	0xbe335298	-0.17511976
156	0xbd674fae	-0.056472473
157	0x3d9d3b2d	0.076773025
158	0x3de3022b	0.11084398
159	0xbc0660a3	-0.008201751
160	0x3dd44d1f	0.10366272
161	0x3e460b8b	0.19340341
162	0x3d26c848	0.040718347
163	0xbdd56f64	-0.10421637
164	0xbe0b698e	-0.13614485
165	0x3e16cb76	0.14726052
166	0x3d443fe9	0.047912512
167	0xbe577805	-0.21041878
168	0x3d4e4f2a	0.050368465
169	0x3d9af73a	0.07566686
170	0x3e1a4f42	0.15069297
171	0xbe38681a	-0.18008462
172	0x3d5af2a4	0.053454056
173	0xbe28f71e	-0.16500518
174	0x3e1718fe	0.14755628
175	0xbe40e4c1	-0.18837263
176	0xbe1f4d1f	-0.15556763
177	0x3e5772dd	0.2103991
178	0xbe3b4b90	-0.18290544
179	0xbd08a6dc	-0.033362255
180	0x3c7f5ea1	0.015586526
181	0x3db8e51d	0.09028075
182	0xbe4a883f	-0.19778536
183	0x3e014256	0.12622961
184	0x3e4a2702	0.19741443
185	0xbc1ef396	-0.00970163
186	0x3e46bb3b	0.1940736
187	0xbd47b1ff	-0.048753735
188	0xbe21b4a9	-0.15791573
189	0x39ca2e31	0.00038562858
190	0x3df2c0a0	0.118531466
191	0x3e1d274f	0.15347026
192	0x3dea280a	0.11433418
193	0xbd5dc1cd	-0.0541399
194	0x3dfe00fd	0.12402532
195	0xbe504322	-0.20338109
196	0xbda50a23	-0.08058574
197	0x3d9a2718	0.07526988
198	0x3dd1a39d	0.10236285
199	0x3db09863	0.086228155
200	0xbe17477a	-0.1477336
201	0x3e630cd2	0.2217286
202	0xbe2d3e09	-0.16918196
203	0xbd424254	-0.047426537
204	0xbdac19ff	-0.08403396
205	0xbe15cce0	-0.14628935
206	0xbd87a3a5	-0.066230096
207	0xbda35e41	-0.07976962
208	0x3c9d5890	0.019207269
209	0x3e16bc8f	0.14720367
210	0xbdd221d5	-0.10260359
211	0xbdda34f8	-0.10654634
212	0x3e5276b4	0.20553094
213	0xbcf76e91	-0.03020409
214	0x3dd3aa39	0.10335202
215	0xbe60df77	-0.21960245
216	0x3e4fd28a	0.20295158
217	0xbd9bc033	-0.076050185
218	0x3e1b6cd1	0.15178229
219	0xbe4609ab	-0.19339626
220	0x3df55bb1	0.119803794
221	0x3e329fc8	0.17443764
222	0x3e4ed41f	0.20198105
223	0x3d746b3c	0.05967258
224	0x3df19134	0.117952734
225	0x3e2d7592	0.16939381
226	0x3ca4309a	0.020042706
227	0xbe03ff77	-0.12890421
228	0x3cc52f27	0.024070336
229	0x3e29c490	0.16578889
230	0xbcf4350d	-0.029810453
231	0x3b2929d5	0.0025812287
232	0x3e5b005c	0.21386856
233	0x3db588bb	0.0886397
234	0xbd930906	-0.071794555
235	0xbd139b54	-0.036036804
236	0xbe56a780	-0.20962334
237	0x3ddac7ee	0.10682665
238	0x3c13a4c5	0.009011452
239	0xbe50e162	-0.20398477
240	0x3dc84a7a	0.0977983
241	0x3dc8c26a	0.098027065
242	0xbdc48c53	-0.09597077
243	0x3e1c3234	0.15253526
244	0xbe05a2fb	-0.13050453
245	0x3ca03473	0.01955626
246	0xbe009778	-0.1255778
247	0xbe1ed043	-0.15509133
248	0x3e238e5e	0.15972278
249	0x3e37f4f5	0.17964537
250	0xbcc9b9da	-0.024624754
251	0xbd4a8f2a	-0.04945294
252	0xbde544b7	-0.11194747
253	0xbd927c96	-0.07152669
254	0xbdf7fbb6	-0.12108557
255	0xbde7a7e0	-0.113113165

decoder.attn.bias f4 [15]
0	0xbe43b7fd	-0.19113155
1	0xbe39dda6	-0.18150958
2	0x3db6d9d9	0.0892827
3	0xbde2607f	-0.110535614
4	0x3e43ce03	0.19121556
5	0xbe1cc193	-0.15308218
6	0x3e5008df	0.20315884
7	0xbd1e4b32	-0.03864593
8	0x3e495d38	0.19664466
9	0x3e008d10	0.12553811
10	0x3e58f29b	0.21186297
11	0xbe651652	-0.22371796
12	0xbd36ae42	-0.04459978
13	0xbd11a729	-0.035559807
14	0x3e0023ca	0.12513652

decoder.attn_combine.weight f4 [10, 20]
0	0xbe10a38e	-0.14124891
1	0xbe08bdfb	-0.13353722
2	0x3d35a8b3	0.044350337
3	0x3c90d379	0.017678963
4	0x3deecebe	0.11660527
5	0x3d8f2f71	0.069914706
6	0xbd1e6486	-0.038670085
7	0x3bf30310	0.0074161366
8	0xbe0a4240	-0.13501835
9	0x3d8f67c7	0.07002216
10	0x3e66e148	0.22546875
11	0xbe3a2df6	-0.18181595
12	0x3e2e9ea6	0.17052707
13	0x3dcd0ed7	0.10012596
14	0x3e31c5b0	0.17360568
15	0xbca5b952	-0.02022997
16	0xbdfbe016	-0.122986004
17	0xbdbb82e4	-0.09155825
18	0xbe3c2daa	-0.18376794
19	0xbca6f7b9	-0.020381795
20	0x3e11f811	0.14254786
21	0x3e076492	0.13221958
22	0xbe51aa6c	-0.20475167
23	0x3da7742a	0.081764534
24	0xbdb4cba5	-0.088279046
25	0x3e68af4f	0.22723125
26	0xbd806ba4	-0.06270531
27	0xbe027ee9	-0.12743725
28	0x3e75a25d	0.23987718
29	0x3e2990de	0.16559169
30	0xbda30c66	-0.07961349
31	0x3e53822d	0.20655127
32	0x3dc74ba1	0.09731222
33	0x3def09b9	0.11671776
34	0x3d905c09	0.07048804
35	0xbe32b7d4	-0.17452937
36	0x3cad7462	0.02117366
37	0x3dbb9abe	0.09160374
38	0xbe376194	-0.17908317
39	0x3d9a6792	0.07539286
40	0x3d8ab803	0.06773379
41	0x3c0dc603	0.008653167
42	0x3e206b4c	0.1566593
43	0xbe39040f	-0.18067954
44	0x3db89746	0.09013228
45	0xbd3a35ad	-0.045461345
46	0xbbb25a42	-0.0054428885
47	0xbd3c8d79	-0.046033356
48	0x3df26b5d	0.11836884
49	0x3d944d3b	0.07241293
50	0xbe203801	-0.15646364
51	0x3e230ff4	0.15924054
52	0x3df78e55	0.120876946
53	0x3e0d8412	0.13819912
54	0xbe5c8b91	-0.21537615
55	0x3e2d4d03	0.16923909
56	0xbd94e7ec	-0.07270798
57	0xbe3f1a2d	-0.18662329
58	0x3e34c756	0.17654166
59	0xbe131077	-0.1436175
60	0x3e0f5639	0.13997735
61	0x3e00efb1	0.12591435
62	0x3e333862	0.17501977
63	0x3df4b1a8	0.11947948
64	0xbbdc99df	-0.00673221
65	0x3e0fafd5	0.14031918
66	0xbe73b412	-0.2379916
67	0xbe00de82	-0.1258488
68	0xbe5d6127	-0.21619092
69	0xbdd51aa5	-0.10405473
70	0xbe0c3ec6	-0.13695821
71	0x3debb8f5	0.11509887
72	0x3e52ed21	0.2059827
73	0xbe1aa59e	-0.1510224
74	0x3d636017	0.05551156
75	0xbda08d47	-0.078394465
76	0x3e09685c	0.13418716
77	0xbcc050ad	-0.02347597
78	0xbbc79d9d	-0.006091787
79	0x3e433ba8	0.19065726
80	0x3c8ab610	0.016932517
81	0x3c66dd92	0.014090912
82	0x3d1cc486	0.038273357
83	0xbe14b4ea	-0.14522138
84	0x3de4f420	0.11179376
85	0x3e5274f6	0.2055243
86	0xbda0a89a	-0.07844658
87	0xbdd9d188	-0.10635668
88	0x3da07625	0.07835034
89	0x3e64b414	0.2233432
90	0x3aa61e88	0.0012673894
91	0xbd95eb74	-0.073203
92	0xbb21fa6a	-0.0024715909
93	0xbe0a3571	-0.13496949
94	0xbd324c55	-0.043529827
95	0x3dbe1b6f	0.09282576
96	0x3e480bbc	0.19535726
97	0xbe531d1b	-0.20616572
98	0xbe49ce0e	-0.1970751
99	0xbd640414	-0.05566795
100	0xbe161f64	-0.14660412
101	0xbe4fa9e5	-0.20279653
102	0x3e17b7f8	0.14816272
103	0xbd3cc90d	-0.046090174
104	0xbdbb8272	-0.0915574
105	0xbd03c0de	-0.032166354
106	0xbdf682ed	-0.12036691
107	0x3ca5e05d	0.020248586
108	0x3e330bd1	0.17484976
109	0x3da66c60	0.0812614
110	0xbe28c167	-0.16480027
111	0x3e623788	0.22091496
112	0xbda16835	-0.07881204
113	0xbcb2751d	-0.02178436
114	0xbe4322d2	-0.19056252
115	0xbd588bf2	-0.052867837
116	0xbd8707bf	-0.06593274
117	0x3c6aef52	0.014339285
118	0xbe5bf7c6	-0.21481237
119	0x3d5595e0	0.052144885
120	0xbe48db1b	-0.19614832
121	0xbd0d2ef0	-0.03446859
122	0x3e3eba3e	0.18625733
123	0xbde2d11f	-0.11075043
124	0x3dea6194	0.11444393
125	0x3e1ed431	0.15510632
126	0x3e33c51d	0.17555661
127	0x3e2f0760	0.17092657
128	0x3dfaa139	0.12237782
129	0x3de359a7	0.11101084
130	0xbe1152f0	-0.14191794
131	0x3ca15a71	0.019696446
132	0xbdab01d9	-0.08349962
133	0xbdad95d9	-0.08475847
134	0x3e340b82	0.17582515
135	0xbc6aee96	-0.01433911
136	0xbe349428	-0.17634642
137	0x3d0bbce2	0.03411568
138	0xb9ea4a59	-0.0004468735
139	0x3dd627fb	0.104568444
140	0x3da00882	0.07814123
141	0x3e57002b	0.20996158
142	0x3ae9f231	0.0017848668
143	0xbe07d83f	-0.13266085
144	0x3e24a50c	0.16078585
145	0x3d1b5cf9	0.037930463
146	0xbe22ac01	-0.15885927
147	0xbe5e9cc3	-0.21739487
148	0x3e1338b1	0.14377095
149	0xbe5e2d48	-0.21696961
150	0x3d0bd25a	0.034136154
151	0xbcbacaff	-0.022801874
152	0x3df5e890	0.120072484
153	0xbe214ab8	-0.15751159
154	0x3dff588e	0.12468062
155	0x3dc0d01a	0.09414692
156	0xbdbc4caf	-0.09194314
157	0x3e0745c6	0.1321021
158	0xbd0894c2	-0.03334499
159	0x3e400149	0.1875049
160	0x3d1bd43b	0.038044196
161	0x3da64afd	0.08119772
162	0x3d9cbf82	0.07653715
163	0x3d956995	0.07295529
164	0xbe587b7f	-0.2114086
165	0xbe37b9fb	-0.1794204
166	0x3e37537a	0.17902938
167	0x3d7fda92	0.062464304
168	0x3e26bfcb	0.162841
169	0xbe0e35d6	-0.13887724
170	0x3e428c4a	0.18998829
171	0x3e37d612	0.17952755
172	0xbd2f7596	-0.042836748
173	0xbc8b33ef	-0.016992537
174	0xbcfd5be6	-0.03092761
175	0xbddca97f	-0.10774516
176	0xbde60042	-0.11230518
177	0x3e3b3bac	0.18284482
178	0x3d9a68d8	0.075395286
179	0x3b44380a	0.0029940628
180	0x3d788585	0.06067421
181	0x3cbc9a7e	0.023022886
182	0xbe3eec61	-0.18644859
183	0xbe58541e	-0.21125838
184	0x3e39a582	0.18129542
185	0x3cf374ad	0.029718721
186	0x3e592325	0.21204813
187	0xbda24266	-0.07922821
188	0x3cd4ae52	0.025962029
189	0x3df6cbca	0.120505884
190	0xbe34b616	-0.17647585
191	0xbe3e3abd	-0.18577094
192	0x3e0a1bf2	0.13487223
193	0x3e300651	0.1718991
194	0x3de4c9ea	0.111713246
195	0x3e46f6dc	0.19430107
196	0xbe138503	-0.14406209
197	0xbe0582d5	-0.1303819
198	0x3d2dba52	0.042414017
199	0x3e29bff2	0.16577128

decoder.attn_combine.bias f4 [10]
0	0x3dfe5d2c	0.12420115
1	0xbc9a1204	-0.018807419
2	0xbe4016af	-0.18758653
3	0xbd2d37e0	-0.042289615
4	0x3e53ed7c	0.20696062
5	0xbd817ed6	-0.0632302
6	0x3dc2f7b6	0.09519903
7	0xbcdb586d	-0.026775563
8	0x3cad7da2	0.02117807
9	0xbd687664	-0.05675353

decoder.gru.weight_ih_l0 f4 [30, 10]
0	0xbe822fb8	-0.25427032
1	0x3e9fe7cc	0.31231534
2	0x3e7a9481	0.24470712
3	0x3e7a3af1	0.24436547
4	0x3e07c6e8	0.1325947
5	0x3e89c445	0.26907554
6	0x3e957c94	0.29196608
7	0xbe298a51	-0.1655667
8	0x3e50dc48	0.2039653
9	0x3e5006fd	0.20315166
10	0xbdb589ae	-0.08864151
11	0x3d58865c	0.05286251
12	0x3d031b5b	0.03200851
13	0xbdbe333c	-0.09287116
14	0x3e4ff6bb	0.20308964
15	0x3e5b8439	0.21437158
16	0x3d821679	0.063519426
17	0xbe6fe2d0	-0.23426366
18	0x3e4b6c08	0.1986543
19	0xbc984e9e	-0.018592175
20	0xbdcaf60a	-0.099102095
21	0xbe639432	-0.22224501
22	0xbdcca804	-0.09992984
23	0x3e3e0d6e	0.1855981
24	0x3e962700	0.2932663
25	0xbe82bc48	-0.25534272
26	0xbdb3d4e8	-0.08780843
27	0x3dcb284b	0.09919795
28	0xbea0e032	-0.31421047
29	0x3e02626b	0.12732856
30	0x3dc30148	0.09521729
31	0x3d89c18b	0.067263685
32	0xbe29a109	-0.16565336
33	0xbe85fdb7	-0.26170132
34	0x3e86bf21	0.26317695
35	0xbdeb0d9a	-0.11477204
36	0x3e92bb52	0.2865854
37	0x3d9d72e0	0.07687926
38	0x3df5f426	0.12009458
39	0xbe0fdd27	-0.14049207
40	0xbd1919eb	-0.037378233
41	0xbcf8b218	-0.03035836
42	0x3e45e5a0	0.19325876
43	0x3e949235	0.29017797
44	0xbd33dc6c	-0.043911383
45	0x3e918b09	0.28426388
46	0x3e0ea43b	0.13929836
47	0x3c249507	0.0100452965
48	0x3df3264b	0.11872538
49	0xbd8d4306	-0.06897549
50	0x3e185647	0.14876662
51	0x3e7562a6	0.23963413
52	0x3e8afb43	0.27144822
53	0x3e9e8dff	0.3096771
54	0x3e8a541a	0.2701729
55	0x3e26e966	0.16299972
56	0x3e58cc19	0.21171607
57	0x3e78a54a	0.24281803
58	0xbe1eb12a	-0.1549727
59	0x3e37c3ad	0.17945738
60	0xbdb6b289	-0.08920772
61	0xbe08a516	-0.13344225
62	0x3e2c19c6	0.16806707
63	0xbd1da472	-0.038486905
64	0xbe4064c5	-0.1878844
65	0xbdee4d25	-0.11635808
66	0x3e8e61ee	0.2780909
67	0xbdfec849	-0.12440545
68	0x3db430d0	0.08798373
69	0xbe2c6532	-0.16835478
70	0xbe1cb448	-0.15303147
71	0x3e525c75	0.20543082
72	0x3e23d140	0.15997791
73	0xbe79bf97	-0.24389492
74	0x3ddc7483	0.1076441
75	0x3dc06165	0.093935765
76	0x3ea14586	0.31498355
77	0xbe3f2372	-0.18665865
78	0x3d577161	0.05259836
79	0xbe04395a	-0.12912503
80	0xbce6b046	-0.028160226
81	0x3d685b8d	0.056727935
82	0xbe3a397a	-0.18185988
83	0xbe8cf860	-0.27533245
84	0xbe573dbd	-0.21019645
85	0x3e8ef008	0.27917504
86	0xbe99bdb8	-0.30027556
87	0x3e4a91aa	0.19782129
88	0xbe85ccf4	-0.2613293
89	0x3e924071	0.2856479
90	0x3e9164d7	0.28397247
91	0x3e280c07	0.16410838
92	0xbd1a25bf	-0.037633654
93	0x3d8ebe85	0.069699325
94	0xbe0ed194	-0.13947135
95	0xbe206af1	-0.15665795
96	0xbe3fbcea	-0.18724409
97	0xbd6ba69b	-0.057531934
98	0xbd8f275e	-0.069899306
99	0xbd6e07ed	-0.058113027
100	0xbe7bcd07	-0.2458993
101	0x3dcace33	0.09902611
102	0xbe1e8fa4	-0.15484482
103	0x3e9cf18a	0.3065303
104	0x3e13ea57	0.14444862
105	0x3e1c23ba	0.15248004
106	0xbd561a54	-0.052271202
107	0xbe1dc174	-0.15405828
108	0x3e41a901	0.18912126
109	0x3e358412	0.17726162
110	0xbe8ad96c	-0.27119005
111	0xbdb0206f	-0.08599936
112	0xbea0e407	-0.3142397
113	0xbea198bb	-0.31561837
114	0x3db59679	0.08866591
115	0xbe9b56aa	-0.30339557
116	0xbd98a746	-0.0745378
117	0xbdd6eafb	-0.10494038
118	0x3e80a269	0.2512391
119	0xbe57bac8	-0.21067345
120	0x3e7a8de3	0.24468188
121	0xbcb05898	-0.02152662
122	0x3e2bebb3	0.16789131
123	0xbcd3d239	-0.025857078
124	0xbb498a5d	-0.0030752637
125	0xbd577810	-0.052604735
126	0x3e85564f	0.2604241
127	0x3e90bee7	0.28270647
128	0x3ea080ee	0.31348366
129	0xbe8a6fcf	-0.27038428
130	0x3e97cc26	0.2964794
131	0xbe95eb89	-0.29281262
132	0xbe2aafee	-0.16668674
133	0x3da09628	0.0784114
134	0xbe5aca0c	-0.21366137
135	0x3e66b9c1	0.22531797
136	0xbe7805a3	-0.242209
137	0x3e1c1812	0.15243557
138	0x3e1b48af	0.15164445
139	0xbd817c25	-0.06322507
140	0x3dc74071	0.09729088
141	0x3c2e32d7	0.010632238
142	0x3e4dbab2	0.2009075
143	0xbe805b79	-0.25069788
144	0x3e079812	0.13241604
145	0xbb9232ff	-0.0044616456
146	0xbe8b7010	-0.27233934
147	0x3e979d1e	0.29612058
148	0x3e354c74	0.17704946
149	0x3e9afd5c	0.30271423
150	0x3dd883b9	0.10571999
151	0xbdc0b6dc	-0.09409878
152	0xbe08b666	-0.1335083
153	0x3d00e294	0.03146608
154	0x3e8184bc	0.2529658
155	0x3e49deda	0.19713917
156	0xbe4c4203	-0.19947056
157	0x3e43fd93	0.191397
158	0xbe8168cf	-0.25275275
159	0x3cbcb002	0.023033146
160	0x3e389545	0.18025692
161	0x3e59fdd9	0.21288241
162	0x3df3ce33	0.11904564
163	0x3d3f4240	0.04669404
164	0x3d8ec12a	0.06970437
165	0x3e79b874	0.2438677
166	0x3e4d85c8	0.20070565
167	0xbe2dd4b5	-0.16975673
168	0xbe7f975a	-0.2496008
169	0x3dca8a73	0.09889688
170	0xbdd816aa	-0.10551198
171	0x3e395580	0.18099022
172	0xbe8c4ebd	-0.27403823
173	0x3cbd71a5	0.023125479
174	0x3d8452a8	0.06461078
175	0xbe454485	-0.1926442
176	0xbe98fd17	-0.29880592
177	0x3e55592a	0.20834795
178	0x3e14186f	0.14462446
179	0x3e351805	0.17684944
180	0x3e89a996	0.26887196
181	0xbddcf0e9	-0.107881375
182	0xbea14e9c	-0.31505287
183	0xbe85fbde	-0.26168722
184	0x3ce45eec	0.027877294
185	0xbb2b52f5	-0.0026141976
186	0xbe866d2d	-0.2625517
187	0x3e00d5a8	0.12581503
188	0xbe9e9081	-0.30969623
189	0x3de174f9	0.11008639
190	0x3d945555	0.07242838
191	0x3d76af49	0.06022576
192	0xbdd75a4f	-0.10515272
193	0x3e7e0a8d	0.24808712
194	0x3e49f318	0.19721639
195	0xbe0458df	-0.12924527
196	0xbe31c15e	-0.1735892
197	0x3c5bcf72	0.013416158
198	0xbd54fe25	-0.052000184
199	0xbe4190d3	-0.18902902
200	0xbdb516a8	-0.08842212
201	0x3e0c3df5	0.1369551
202	0xbd61755b	-0.05504356
203	0xbe958e0e	-0.29209942
204	0x3e4592df	0.19294308
205	0xbe86e16b	-0.26343855
206	0xbe8738a2	-0.26410395
207	0x3e804dbf	0.25059316
208	0x3e6bd757	0.23031364
209	0xbe656b08	-0.2240411
210	0x3e5a8155	0.21338399
211	0xbe652e95	-0.22381051
212	0x3d1a21f0	0.03763002
213	0xbe9be493	-0.30447826
214	0x3e22513c	0.15851301
215	0xbe1c8d6c	-0.15288323
216	0x3eac7e35	0.33690038
217	0xbdac04a2	-0.08399321
218	0xbe29bf48	-0.16576874
219	0x3e754265	0.23951109
220	0xbe26b00b	-0.16278093
221	0xbdfd9dc8	-0.1238361
222	0x3d75ee80	0.060041904
223	0xbea0fec8	-0.31444383
224	0xbe9a6383	-0.30154046
225	0xbe75b425	-0.23994501
226	0xbe366afb	-0.17814247
227	0x3cdcc23f	0.026948093
228	0xbe83c7af	-0.25738284
229	0x3e04d1f1	0.12970711
230	0xbd94fc6f	-0.072747104
231	0x3d82b19c	0.063815325
232	0x3da79bf3	0.08184042
233	0x3e0f7c13	0.14012174
234	0xbbff2520	-0.007786408
235	0x3e80877b	0.25103363
236	0xbdfd165c	-0.1235778
237	0xbde4bc86	-0.111687705
238	0xbda09f81	-0.07842923
239	0xbe77c0b9	-0.24194612
240	0x3e081bda	0.13291875
241	0x3ddd2de2	0.10799767
242	0x3e7ad07a	0.2449359
243	0x3e550b19	0.20805015
244	0xbe8f9837	-0.28045818
245	0x3e53ce04	0.20684057
246	0x3cc3342b	0.023828587
247	0xbea4383f	-0.32074162
248	0xbe98b324	-0.29824173
249	0x3d3f3663	0.046682727
250	0xbb7ce15b	-0.003858647
251	0xbe142129	-0.14465775
252	0xbe67c976	-0.22635445
253	0xbe40f50c	-0.18843478
254	0xbe0bdba5	-0.13658006
255	0xbdc47335	-0.095922865
