best_models/seq2seq-1-5.011293.pt (torch, 18639 bytes, 16 tensors)

encoder.embedding.weight f4 [154, 5]
000000 b1 f4 9c bf 2c 30 2a 40 44 42 c4 3f 55 db ce 3e
       -1.2262174 2.6591902 1.5332723 0.40401712
000010 73 77 0d 3f 35 7c 00 bf 19 7e 78 3f bb 9f 4b 3f
       0.5526039 -0.50189525 0.9706741 0.79540604
000020 9e b6 ff 3f 4d b8 c3 3f 28 d1 a2 bf 60 6d 7b 3d
       1.9977605 1.5290619 -1.272008 0.061383605
000030 15 2d c6 bf c2 0b 58 bf 91 ba 00 3f 71 83 4a 3f
       -1.5482508 -0.8439294 0.5028468 0.79106814
000040 8d 14 9d bf d8 05 27 3f f3 c6 ad bd e5 d3 2b bf
       -1.2271897 0.6524329 -0.08485212 -0.671202
000050 56 31 c3 3f 68 c6 41 bf 8f 2f 69 3d ae 0b 36 bf
       1.5249431 -0.7569337 0.05693012 -0.7111157
000060 92 fe 1f bf 06 d0 89 3d ca f6 9d be 5b 0f af 3e
       -0.6249782 0.067291304 -0.30852348 0.34191403
000070 6e a4 b5 bd 4a 71 07 c0 6d bb b8 3f c0 d6 0c bf
       -0.08869253 -2.1162896 1.4432198 -0.5501518
000080 97 09 03 bf 5a 32 8f bf 1a e7 4e 3f a3 7e b6 3c
       -0.5118651 -1.1187241 0.80821383 0.022277182
000090 32 cd 30 3f c8 34 dd 3f c9 12 8b bf 8b 3c 8a be
       0.69063103 1.7281733 -1.0865108 -0.26999316
0000a0 e7 dd 80 3f 85 0b 9d 3f ac 46 05 c0 96 93 9c be
       1.0067719 1.226914 -2.0824385 -0.3058135
0000b0 c1 75 c9 be 8c 46 bc be 95 49 ac 3f b3 8b 03 bf
       -0.39347652 -0.36772573 1.3459955 -0.5138504
0000c0 aa 65 bb be 34 b3 cf bf 5c 2c a4 bc 2c 30 3c bd
       -0.36601 -1.6226563 -0.020040683 -0.045944378
0000d0 8f d8 16 3f d9 36 f1 be 3b 5b 14 3f 4a 08 4b 3f
       0.5892419 -0.47112158 0.57951707 0.79309523
0000e0 61 7e 46 3f 02 8c a0 be b0 38 95 bc 7b c6 52 be
       0.7753659 -0.31356817 -0.018215507 -0.20583527
0000f0 41 15 3c 3f ac 03 71 3f db 5d 02 3f 62 9f 14 40
       0.7346993 0.9414623 0.5092446 2.322228
000100 bd 4c 7d bf 35 0f 3b bf 3f f9 13 40 69 48 94 bf
       -0.9894522 -0.7307008 2.3120878 -1.1584598
000110 e1 79 df bf 90 cd de 3e ca ad a3 3d 0d a4 14 bf
       -1.745907 0.43516207 0.07992132 -0.5806282
000120 f6 d1 25 bf f3 f7 0d 3f 44 0b 70 bf 29 e8 6e 3e
       -0.647735 0.55456465 -0.9376719 0.2333075
000130 af 03 58 be 94 3b 7a be 5d b9 c3 bd 76 c9 23 3f
       -0.21095155 -0.2443679 -0.095568396 0.6397928
000140 d0 48 e0 bf 6a eb 0a 40 cd ea 75 3f d1 f8 69 bf
       -1.7522221 2.1706185 0.960614 -0.9139529
000150 2f ab 24 3f bc 80 b2 be 7b ba 6e 3f aa b1 d4 3d
       0.64323705 -0.34863842 0.93253297 0.10385449
000160 f5 2e 66 3f a0 ba 29 3f 5d 98 a6 3f d4 84 bb bf
       0.899154 0.6630039 1.3015248 -1.4649911
000170 d9 b6 1c be 57 7a 89 3e 60 b5 94 bf 03 b9 d8 bf
       -0.15304126 0.2685115 -1.1617851 -1.6931461
000180 73 66 9b 3f 91 07 30 3e fb 7d 39 bf 10 6a 00 c0
       1.214064 0.17190386 -0.72457856 -2.0064735
000190 aa c5 f7 3e 1f 1a 08 be 4c 73 bd 3f f4 88 a8 3f
       0.48392993 -0.13291214 1.4800811 1.3166795
0001a0 a1 92 eb 3e af 6a 4c 3e 2f 48 b0 3f 4e aa 87 3f
       0.46010306 0.19962572 1.3772029 1.0598848
0001b0 fd b7 33 bf 03 f9 ce bf 06 25 fe 3c 23 f7 0a bf
       -0.7020262 -1.6169742 0.031023514 -0.5428335
0001c0 25 10 4a be 6a 82 fc be 3e 97 7c 3f 8f 0c de 3e
       -0.19732721 -0.49318248 0.9866828 0.43368956
0001d0 ee 92 bb 3e ad 03 c5 3f 1d 8f 09 3d ad 1a a6 3e
       0.36635536 1.5391747 0.03358375 0.32442227
0001e0 0e 26 86 be e4 ef 6d bd f6 dc 82 bf c1 70 00 3e
       -0.26200908 -0.058090106 -1.0223682 0.12543012
0001f0 7e 97 79 3f 96 df 58 be b1 8d 62 bf 4b bb 91 3e
       0.97496784 -0.21179041 -0.88497454 0.28463206
000200 cc 71 9e be 3c bb ee bf 23 9f 7a bf 5d 99 75 3f
       -0.30946195 -1.8650889 -0.97899073 0.9593714
000210 09 28 b7 bf bb 5f ce bf c9 bf e6 be e3 74 08 3f
       -1.4309093 -1.6122965 -0.45068195 0.53303355
000220 11 89 9f bd 86 48 a1 be bc 4a b2 bf 71 7b 03 bf
       -0.07789815 -0.31500643 -1.3929057 -0.5136023
000230 9c 8f 4a bf 9c cf 5a bf 44 65 6d bf 3c 56 db 3f
       -0.7912538 -0.85473037 -0.92732644 1.7135692
000240 9d a8 c3 bc 5c 3f c9 3f ce 12 cb 3c 3f d7 aa bf
       -0.023884112 1.5722461 0.02478924 -1.3346938
000250 72 06 04 c0 b5 62 34 be d6 9d 97 bf 00 f8 85 bf
       -2.0628934 -0.17615779 -1.1845043 -1.0466309
000260 cf 2f 7b bf 2c 54 fa bd 5e 6f 9e 3e 90 15 f0 be
       -0.98119825 -0.12223086 0.3094434 -0.4689145
000270 5f df be 3e 93 34 88 be 1d b3 d3 3d 8e d8 8b bf
       0.37279794 -0.2660261 0.103368975 -1.0925462
000280 2c 86 a9 bf 1a 42 fd 3f ee 20 08 3e fb a7 2e bf
       -1.3244071 1.9785798 0.13293812 -0.6822507
000290 94 67 e7 be 94 aa 1f bf 9f 37 58 40 19 77 23 3e
       -0.4519621 -0.62369657 3.3783948 0.15963401
0002a0 89 78 26 bf 9c 2c 10 3f ed cf b5 bf ac 12 f2 3d
       -0.6502767 0.5631807 -1.4204079 0.11819968
0002b0 55 05 51 3f 1d 16 3e bf 3b f1 55 3f ce 35 7e 3f
       0.8164876 -0.7425249 0.83571213 0.9930085
0002c0 7d c3 12 3f e8 93 78 bf 2f 10 2f 3e ab 43 02 bf
       0.5732954 -0.9710069 0.17096017 -0.50884503
0002d0 4b 77 91 be 3b 8e 9b 3f 31 70 9b bf da ae 4f bc
       -0.28411326 1.215278 -1.2143613 -0.012675965
0002e0 b3 55 7e bc d0 8e 4b bf 25 7a 4d 3d 7c 9a ad 3e
       -0.015523362 -0.7951479 0.050165314 0.33906925
0002f0 5a ef d5 bf 96 3a 31 3f 25 15 f0 bf c2 02 e8 bf
       -1.6713669 0.6923002 -1.8756453 -1.8125842
000300 10 a4 a8 be 69 b7 08 3f a1 52 cb bc ee 8a 85 bf
       -0.3293767 0.5340486 -0.024819674 -1.0433023
000310 15 74 0c 3f 3f 41 7f 3f 3d 27 24 be dd 0d b6 3f
       0.5486463 0.9970893 -0.16030593 1.4222981
000320 8e c8 2d bf 8e e0 3c bf fb 90 ee 3e 21 c8 da be
       -0.6788415 -0.73780143 0.46594986 -0.4273081
000330 92 89 85 3f 3b 58 01 c0 5d ed 87 3f 37 e2 86 3f
       1.0432608 -2.0210102 1.0619313 1.0537785
000340 2a de de 3e 9f 88 1e 3f 33 79 08 c0 e6 f4 bb bf
       0.43528873 0.6192722 -2.1323974 -1.4684112
000350 8a 64 92 be 86 53 18 3f 91 c7 bb bf e4 73 5a 3f
       -0.2859233 0.59502447 -1.4670278 0.85333085
000360 2a 6b f8 3e da 9f 80 be fc 6a be 3f d7 b3 63 3f
       0.4851926 -0.25121957 1.4876399 0.8894629
000370 cc 39 dd 3f 2b 95 11 be 70 a8 1e 3e 53 76 02 3f
       1.7283263 -0.1421706 0.15493941 0.509618
000380 11 38 f4 3e 88 ab f4 be d6 1e ab 3f 3c be 27 bf
       0.47699025 -0.47787118 1.3368785 -0.6552465
000390 dd 57 51 3f 1f 25 26 bf 86 7b c9 3e 83 df e1 3e
       0.81774694 -0.6490039 0.39352053 0.44115838
0003a0 d0 d6 c5 3e a9 f0 40 be c4 5a 28 3d 28 49 75 3f
       0.3864045 -0.18841805 0.041102186 0.9581475
0003b0 2c 39 70 3d 4a cb 68 bf 03 24 95 bf 59 d9 79 bf
       0.058648273 -0.90935194 -1.1651615 -0.9759727
0003c0 b9 e9 9f be 05 95 27 3f 29 35 cf bf 4e c4 dd be
       -0.31233004 0.6546176 -1.6188098 -0.4331383
0003d0 ac 8c 88 3f a5 c5 dc 3c 84 c8 bf be b3 f6 ba be
       1.066793 0.026949713 -0.3745767 -0.36516342
0003e0 47 8f 52 be 94 3f d0 bf d0 41 36 bf de 98 9d 3f
       -0.20562468 -1.6269403 -0.7119417 1.2312276
0003f0 67 7c fb be 5f b0 01 3f 77 89 cb be 7c 96 35 3f
       -0.4911835 0.50659746 -0.39753315 0.70932746

encoder.gru.weight_ih_l0 f4 [15, 5]
000000 10 c6 c7 be f8 9f 38 3d 71 1f bf be 3d 17 e4 3e
       -0.39018297 0.045074433 -0.37328675 0.4454898
000010 07 fd 36 be ef 39 9c bc 93 1f b4 3e 53 cc e1 3d
       -0.1786996 -0.019070594 0.3518034 0.110253
000020 ec 40 bb be e9 43 9c bd 8f 12 bd be 02 51 c2 be
       -0.3657297 -0.0763014 -0.36928222 -0.3795243
000030 76 8d b1 be 1d fd 0b 3e b5 fc ce 3e 13 d7 00 3e
       -0.3467824 0.13670774 0.40427175 0.12582044
000040 46 19 dd be e9 92 03 be 97 c0 85 3e 38 50 34 be
       -0.43183345 -0.1284901 0.26123497 -0.17608726
000050 01 4a 91 3d 01 8b b3 3e f9 40 aa 3d de b7 b1 be
       0.07094193 0.3506699 0.08313174 -0.34710592
000060 70 2c 4b bd 09 50 1d be ec 67 a4 3e a7 c0 dd 3e
       -0.049602926 -0.15362562 0.32110536 0.43311045
000070 b9 ea a4 be e6 8e cd be 75 ae 10 bd ac 55 4c 3e
       -0.3221033 -0.40148085 -0.035322625 0.19954556
000080 a1 b1 e5 bd a0 27 61 3e f9 c0 c3 be f4 d2 0e 3e
       -0.11215521 0.21987772 -0.38233164 0.1394766
000090 d5 f5 b1 be 1d fc a3 3e ba e8 c1 3d 1f 2a 9b 3e
       -0.34757867 0.32028285 0.09468217 0.30305573
0000a0 45 78 e2 3e c4 cb de be bb f1 3e 3e 80 de 62 3e
       0.44232383 -0.43514836 0.186469 0.2215519
0000b0 d3 90 30 be 2d 0c b5 3e 74 91 c9 3e 36 a7 41 be
       -0.17242746 0.35360852 0.39368784 -0.18911442
0000c0 f9 a2 3e 3e 21 6b 84 3e 8f f6 ca 3e d1 fb af 3e
       0.18616857 0.25862983 0.39641234 0.34371808
0000d0 57 3e 03 3e df 7f 0d bd 53 f4 c6 be 6e f2 ee 3b
       0.1281675 -0.034545776 -0.3885828 0.0072920835
0000e0 27 e8 15 be 18 5a b7 bd ae 79 a5 3d ed e9 c9 bd
       -0.1463934 -0.08952731 0.08079849 -0.09859071
0000f0 58 8f 60 be ca 8c b4 bc f1 66 8d bc e4 b0 b4 3e
       -0.21929681 -0.02203979 -0.017261 0.35291207
000100 be 73 9f be eb 8d d9 be 50 e2 91 be ce b0 af 3e
       -0.31142992 -0.42491087 -0.28492975 0.3431458
000110 b8 88 56 3e 4b c8 50 3e 15 cd a3 3e 96 81 ad 3e
       0.20950592 0.20388906 0.31992403 0.3388793
000120 a8 3a 86 be 48 5c bb be 89 78 6c bd
       -0.26216626 -0.36593843 -0.05773214

encoder.gru.weight_hh_l0 f4 [15, 5]
000000 ed a9 30 be 08 f2 94 be 47 1e 1d 3e 97 23 d6 be
       -0.17252322 -0.29090905 0.15343581 -0.41824028
000010 5e dc 44 3e db 17 e1 3e dc 7a 25 3d 02 bb 26 bc
       0.19224688 0.43963513 0.04040037 -0.010176422
000020 9c 83 ca be e2 20 ab be 67 71 79 3e d6 78 99 3d
       -0.39553535 -0.33423525 0.24359666 0.07493751
000030 be a6 48 be c4 b0 31 be 80 44 c9 3d 47 5f 9e 3e
       -0.19594857 -0.17352587 0.098275185 0.30932066
000040 7c 22 35 be 25 9a 14 3e dd 6b df be db 5d 7d be
       -0.17688936 0.14511926 -0.4363698 -0.24742834
000050 ae 6b a1 3e 90 ea c4 be 51 c5 91 bc 31 ee 08 3e
       0.31527466 -0.38460207 -0.017794283 0.13372113
000060 de 71 88 be d0 d6 cf 3a f0 4a bf be 09 7a 59 3d
       -0.26649374 0.0015856866 -0.3736186 0.053094897
000070 7e 5e 4f bd 13 83 19 3d d5 63 c1 3d 98 9b 93 3e
       -0.050627224 0.037478518 0.094428696 0.28829646
000080 5e ec a8 3e 1d 0e b1 3e 3e 26 cd 3e 28 45 50 3e
       0.32992834 0.3458108 0.4006824 0.20338881
000090 21 34 80 3d 7f 6b b4 be d8 d4 56 3d d2 85 9e bd
       0.06259943 -0.35238263 0.052449077 -0.07740368
0000a0 55 e7 cf bd 72 80 1b 3d 41 e7 ba be 16 4e 89 3e
       -0.10151545 0.037964292 -0.36504558 0.26817387
0000b0 53 d6 da 3e e1 31 41 3e c8 9f b9 be cc b9 c3 3d
       0.4274164 0.18866684 -0.36254716 0.09556922
0000c0 1e 43 3e 3e 07 6d c0 3e 11 da 71 3c 7f 1b b4 be
       0.1858029 0.3758318 0.014761464 -0.35177228
0000d0 35 47 a0 3e fe 60 8e 3e 67 29 6f 3e 26 7b 9b bd
       0.31304327 0.27808374 0.23355637 -0.07591848
0000e0 dd 66 c2 3e 51 e9 5c 3e d7 5e bc be da 72 b0 3e
       0.37969103 0.21573378 -0.36791107 0.34462625
0000f0 10 4c 94 be 1f 4c 94 3e bb ef b5 bd c1 8f 97 3d
       -0.2896428 0.28964326 -0.088836156 0.07400466
000100 00 bc c1 3b 2f 76 d7 3d 91 c5 9b be db 47 65 be
       0.005912304 0.105205886 -0.3042417 -0.22390692
000110 f2 b5 b1 3e bd db 80 be 62 95 95 be 2b d8 c9 be
       0.34709126 -0.25167647 -0.29215533 -0.39422736
000120 cb 5d 0a 3e 44 a0 c7 3e 21 db e3 be
       0.13512342 0.3898946 -0.4450312

encoder.gru.bias_ih_l0 f4 [15]
000000 9f 72 44 3e c7 0e e3 3e a1 a2 48 3e 09 43 cf be
       0.1918435 0.44347212 0.19593288 -0.4048083
000010 ed c2 56 3e 01 d4 e1 be 94 95 c5 be 40 90 cf 3e
       0.20972796 -0.4410706 -0.38590682 0.40539742
000020 e1 2b b4 bd 7b d1 56 be bf 65 9b be 39 ac f8 bb
       -0.08797432 -0.20978348 -0.30351064 -0.00758889
000030 35 7b da bd f1 f1 b2 3e 73 1e 86 3e
       -0.10668031 0.34950212 0.26195106

encoder.gru.bias_hh_l0 f4 [15]
000000 81 fd 9b be 64 8e 74 be d1 0c d6 be e3 78 cb 3d
       -0.30466846 -0.23882443 -0.41806653 0.09935167
000010 9e 12 13 3d 52 a4 c8 be 97 c9 b7 3d be 3d e1 3e
       0.035906427 -0.39187866 0.08973997 0.43992418
000020 ab c4 97 be 3b 1a e3 be f1 15 b0 be 0b ca 0c 3e
       -0.29642233 -0.4435595 -0.3439174 0.13748948
000030 b8 fc da be eb a7 83 be 2f b4 90 3e
       -0.42770934 -0.2571405 0.2826247

decoder.embedding.weight f4 [179, 5]
000000 69 5c 42 3d 1d 62 15 bf 0a d0 be bf 21 47 01 40
       0.04745141 -0.58352834 -1.4907238 2.0199664
000010 43 31 2b 3f 58 b5 77 3f 11 cc 5e 3f df ff 1a bf
       0.6687204 0.96761084 0.8703013 -0.6054668
000020 39 5d c7 3e 32 8c 7c bf 9d 48 88 bd 28 72 45 3e
       0.3893831 -0.9865142 -0.06654475 0.19281828
000030 2d 5a d8 3f 1f f0 4b be aa 1a 07 be a3 43 30 3f
       1.690252 -0.19915818 -0.13193765 0.68853205
000040 c7 49 c4 3e 99 35 a6 3e 49 0f 41 be b2 ef 61 3f
       0.38337538 0.32462767 -0.18853487 0.8825637
000050 34 58 29 be d1 48 8f 3f f8 dc 7c 3f 9a 8c ba 3e
       -0.16537553 1.1194097 0.9877467 0.36435395
000060 a1 db ec 3d ec a4 c8 bf fd 8b 96 bf 85 96 85 3f
       0.115653284 -1.567533 -1.1761471 1.043656
000070 29 f9 87 bf cf b9 75 bd de d6 8e 3e 3e d2 0a bd
       -1.0622913 -0.059991654 0.27898306 -0.03389191
000080 28 bd fa 3e e8 17 82 3f 2a ad b4 be 05 9f 0b 3e
       0.4897244 1.0163546 -0.35288364 0.1363488
000090 f8 a9 07 bf 16 3b f5 be 42 67 04 40 bc 8b 83 bf
       -0.52993727 -0.47896641 2.0688024 -1.0277019
0000a0 2e ba 24 3f 1d e9 b8 3f 60 09 fb 3e 02 f5 7a be
       0.6434659 1.444614 0.4903059 -0.24507526
0000b0 a3 73 a3 3b 91 1e b3 3f 2c 92 24 be 4f 9a b6 be
       0.00498815 1.3993703 -0.16071385 -0.35664603
0000c0 d0 49 b0 3f 2b a3 f2 be 74 5e 21 bf 43 f0 10 3e
       1.3772526 -0.47390112 -0.6303475 0.14154153
0000d0 b1 c5 12 3d 9f 05 24 3f 68 d2 71 3f 93 96 95 be
       0.035833064 0.6407108 0.9446168 -0.29216442
0000e0 e7 18 2e bf 5b 36 14 bf dc e3 8e 3f 40 5f 20 bd
       -0.6800675 -0.5789544 1.1163287 -0.039153337
0000f0 bb 1b 95 3f 14 a1 12 3f 8a 20 35 bf 08 48 43 bf
       1.1649088 0.57277036 -0.70752776 -0.76281786
000100 43 6d 00 bf ec b9 70 bf f9 b1 06 40 fe 0a 1b 3f
       -0.5016672 -0.94033694 2.1046126 0.6056365
000110 bc 46 14 c0 0d 76 7e 3f 38 52 d4 3e 67 3d 01 3f
       -2.3168173 0.9939888 0.41468978 0.5048432
000120 41 f7 7f bf a3 66 d3 3e 65 10 3b 3f ec be 9d bf
       -0.99986655 0.41289243 0.7307189 -1.232389
000130 43 e8 d3 be d6 92 91 be c8 20 ad 3e fd a5 16 40
       -0.4138814 -0.2843234 0.33814073 2.3538811
000140 8c 08 fd bf 89 dc 58 3f 59 c7 d0 bf e6 27 b2 3f
       -1.9768233 0.8471151 -1.6310836 1.3918426
000150 37 08 a2 3e 1f 31 e1 bf d8 6e 79 bf 98 d5 ad bf
       0.31646892 -1.7593116 -0.9743476 -1.3580809
000160 4d 8c e2 3e e5 76 a8 3f 36 a2 99 3d a7 88 78 3f
       0.44247666 1.3161284 0.075016424 0.97083515
000170 69 e6 6c bf dd 0b 86 3f 4a 63 81 3d 68 7f 7b 3f
       -0.9253908 1.047237 0.06317766 0.9824128
000180 1a 7a e9 be 2f 17 aa 3f 40 c8 b8 bd fd f8 80 3f
       -0.4560097 1.3288325 -0.0902257 1.0075985
000190 1a 41 d3 bf b2 c9 3d 3e f9 c0 d3 3e 99 64 5e bf
       -1.6504242 0.18533972 0.41358164 -0.8687225
0001a0 16 1a 2b be 7e 54 8c bb 6f f7 da 3f d5 f0 77 3f
       -0.1670917 -0.004282533 1.7106761 0.96851856
0001b0 87 fb 9d be e8 0a 24 be 8d 1f a9 3e 6c e4 0f 3f
       -0.30855963 -0.16019785 0.33031884 0.5620792
0001c0 f0 06 27 3f 12 e2 95 bf be a4 ab bf 8a 04 24 3f
       0.6524496 -1.1709616 -1.340965 0.64069426
0001d0 aa fa 18 c0 0c 5d e6 3e 61 5c 04 3f 77 82 09 c0
       -2.3902993 0.44992864 0.5170346 -2.148588
0001e0 55 50 72 be c9 9d be 3d b7 e5 7b bf e0 aa b2 3f
       -0.23663457 0.09307439 -0.9839739 1.3958397
0001f0 71 71 2e bf f9 ae 9a be 5b 3e d6 3e 81 57 8d bf
       -0.6814185 -0.3021162 0.41844448 -1.1042329
000200 3d f9 b4 3d 1a bf 55 bf 4a ea d3 3e a5 2b 8d bf
       0.08836601 -0.8349472 0.41389686 -1.1028944
000210 8c 0d cd be e5 ee e6 3e e9 e9 a9 bf 3a b5 0b bf
       -0.40049398 0.45104137 -1.3274509 -0.54573405
000220 4e 5a bc 3d b8 44 86 bf 17 dd d3 3e d5 64 1a bf
       0.09196912 -1.0489721 0.41379616 -0.6031011
000230 41 28 48 3f 5d 12 24 3f b2 f6 5f bf 5d 01 99 bf
       0.7818642 0.6409052 -0.874858 -1.1953541
000240 98 91 c5 3f 9b 4f 56 3f ce 40 7b 3f 11 10 0f 3f
       1.5435057 0.8371522 0.9814576 0.5588389
000250 2b 8a 8a bf a7 f3 fa 3e 8a 40 4f bf 64 67 02 c0
       -1.0823416 0.49014017 -0.80957854 -2.0375605
000260 0d 1c 19 3f ff d1 50 3f 5f 1b e0 bf 13 67 f0 be
       0.5980843 0.8157043 -1.7508353 -0.4695364
000270 ac 35 9f bf 2a f1 9b bf 60 ba 44 3f cf d8 4c be
       -1.2438254 -1.2182972 0.76846886 -0.20004581
000280 c9 1b dc 3d 9a e1 e4 bf 5a b1 90 be ad 5b ce 3e
       0.10747487 -1.7881348 -0.28260309 0.40304318
000290 78 8c 4f 3f 30 23 6a 3f 7c b2 1d 3f eb 15 92 3f
       0.81073713 0.9145994 0.6160047 1.1412939
0002a0 75 08 50 bf 6f 95 09 bf cc 83 7c 3e be eb e9 3e
       -0.81262904 -0.5374364 0.24659652 0.4568767
0002b0 77 0e 67 3e bb 8b af 3f 15 96 47 bf d6 20 1d 3e
       0.22564112 1.3714517 -0.7796338 0.15344557
0002c0 79 54 3a bf 02 53 9d 3f a1 6b 40 3f 6a 35 8d 3f
       -0.72785145 1.2290957 0.7516423 1.1031926
0002d0 90 72 8a 3f c0 83 1d c0 f9 07 ff 3f 6c a8 4c bf
       1.0816212 -2.4611664 1.9924308 -0.7994449
0002e0 19 47 a1 3d 68 4a 33 bf 40 00 84 be a4 0e 1d be
       0.07874889 -0.7003541 -0.2578144 -0.15337616
0002f0 18 2a 07 40 19 16 8d 3e 78 94 d9 3f bb d6 0b c0
       2.1119442 0.27555922 1.6998434 -2.184981
000300 27 5b b1 bd 19 4c 9f bf f1 21 28 3c 68 2e 0c 3f
       -0.08659964 -1.2445098 0.0102619985 0.5475831
000310 df 35 41 bf 39 84 05 40 8b a5 d9 3e 03 e2 16 3f
       -0.75472826 2.0861952 0.42509112 0.58938617
000320 7f 04 e2 be ae 26 24 3f d0 84 d0 3d c9 c3 a4 3f
       -0.44144055 0.6412152 0.10181582 1.2872249
000330 8b 6a 09 bf 18 d5 f7 3d 0a 3a 0c bf ff fb e9 be
       -0.53678197 0.12101191 -0.5477606 -0.4570007
000340 03 6e d3 bf 57 a5 ef bf 8c c8 14 3f d4 fa 25 bf
       -1.6517948 -1.8722333 0.5811851 -0.6483586
000350 59 d5 92 bd 8c 81 07 3e 9f 3e 50 3f b2 a8 4e 3f
       -0.07169599 0.13233012 0.8134555 0.8072616
000360 7a 75 a8 3d 6a f5 84 be 56 58 a8 bf 63 48 0f 3e
       0.08225532 -0.25968486 -1.3151958 0.13992457
000370 bf c5 04 40 bc 12 c9 3f a2 e2 d0 3e 6f 8a b5 3f
       2.0745695 1.5708842 0.40797907 1.4182872
000380 b1 6a ee bf 82 83 28 be c3 fe c5 bf 33 50 69 be
       -1.862631 -0.16456416 -1.5468372 -0.227845
000390 03 94 3f be bf 52 80 3f 7e 30 54 bf a9 c4 73 bf
       -0.18708806 1.0025252 -0.82886493 -0.95221955
0003a0 48 3e 75 3f 99 db 94 bf 5e eb 1a 3f 6e 68 9c 3f
       0.9579816 -1.1629516 0.6051539 1.221937
0003b0 2d 0d 64 bf 70 fd e0 3e 52 66 91 3f a5 34 4c bf
       -0.89082605 0.43943357 1.1359351 -0.7976783
0003c0 51 da 98 bd ea 9a 33 be 02 58 f4 3e 60 c7 01 bf
       -0.074635155 -0.17539564 0.47723395 -0.5069485
0003d0 d9 ad 61 bf b8 f6 9b bf 2a b6 d1 3d 1c b4 06 3f
       -0.88155895 -1.2184668 0.10239823 0.52618575
0003e0 b8 f5 1c 3f 6d a5 f5 3d 8f ea b8 be f4 bc a0 bf
       0.6131244 0.11994443 -0.36116454 -1.2557664
0003f0 13 2c 5f 3f 97 02 d2 bd 7a a1 d4 3f 40 09 0d bf
       0.87176627 -0.102544 1.6611779 -0.5509224

decoder.attn.weight f4 [15, 10]
000000 fe 64 9b be 2a e4 9a be 8f 36 41 be 6a ac 37 be
       -0.30350488 -0.302522 -0.18868469 -0.17936864
000010 d5 cf af 3a 41 39 5f bd 87 08 0e be ea c3 7b be
       0.0013413379 -0.05449796 -0.1387044 -0.24586454
000020 6c d0 16 3e 97 29 51 3e 42 5a cd bd ab 59 28 3e
       0.14727944 0.20426022 -0.10026981 0.16440456
000030 0e 4f 6e be b8 75 93 be c8 f7 1b bd 4d 00 7c 3e
       -0.23272344 -0.2880075 -0.0380781 0.2460949
000040 31 6d 86 3d b5 b2 39 bd e7 f5 0c be bf a0 7e be
       0.06563795 -0.045336444 -0.1376568 -0.24866007
000050 66 93 e1 3c 15 40 59 3e 3a d3 78 3e 81 1b 46 3e
       0.027536105 0.21215852 0.24299327 0.1934643
000060 3d e7 50 3e 59 39 ba bd 08 03 87 3e 47 0a 13 be
       0.2040071 -0.090929694 0.263695 -0.14359389
000070 c0 88 31 bc 4e 59 99 3c 09 09 72 3e d4 6a 9a be
       -0.010835826 0.018719342 0.23636259 -0.30159628
000080 7f 8e 85 3e f2 f0 46 3e 87 94 7f be f0 37 28 3d
       0.26085278 0.19427851 -0.24959002 0.04106897
000090 82 8e a5 bb 8a f9 38 be 4b 1d 8e bd 07 48 71 bd
       -0.0050523886 -0.18063942 -0.06939181 -0.05890658
0000a0 17 f1 9d 3e 10 c6 83 be d1 ea a0 3e 4e 7a 20 3e
       0.30848 -0.25737047 0.3142915 0.15671656
0000b0 f6 a9 c7 3b 48 29 f8 3d 5a 83 da 3d 86 da b9 3d
       0.006093259 0.12117249 0.106695846 0.09074883
0000c0 f8 02 7a 3d f1 1f 7c be 36 de 7b 3c c1 6f dd 3d
       0.061037987 -0.2462156 0.015372803 0.10812331
0000d0 74 bd 9b 3e 4b 23 74 3e dc 87 12 bd 3e db 67 bc
       0.3041798 0.23841588 -0.035774097 -0.0141513925
0000e0 6a 1c 3e 3d 82 80 a1 be f4 ee 97 3e 2f 07 5a 3e
       0.046413817 -0.31543356 0.29674494 0.21291803
0000f0 93 17 9e bd c0 b0 82 3e 51 7b c3 3d ce 91 b1 3c
       -0.0771934 0.25525475 0.09545005 0.02167597
000100 0f 32 88 3e 52 dd cf 3d a0 e4 7c 3e 30 1a 59 3e
       0.26600692 0.101496354 0.24696589 0.21201396
000110 92 96 87 be 2b bc 6f bd f4 bf ce bd 83 85 78 bd
       -0.26482064 -0.05852906 -0.10095206 -0.0606742
000120 71 48 92 be 00 3e 83 3e fb 37 91 3e 9c a4 47 bd
       -0.28570893 0.2563324 0.28363022 -0.048740968
000130 50 af 68 be 8a a6 c2 bd 8d 2e c2 bc d7 0f 75 3e
       -0.22723126 -0.09504421 -0.023703838 0.23931824
000140 57 e8 71 be 6e 3f 9f 3e 55 cf 65 be 0a 50 55 be
       -0.23623787 0.3110308 -0.22442372 -0.20831314
000150 7e 80 c2 bd 6a 5a 01 3d 84 50 9d be 97 01 7a be
       -0.09497164 0.031580366 -0.3072549 -0.24414669
000160 96 03 a4 3c 97 93 23 3d 9c a0 85 3e cb 38 13 3e
       0.020021241 0.039935675 0.26099098 0.14377134
000170 90 a9 5d be 76 ec 4f 3d a4 81 a2 bd 2c 42 eb bc
       -0.21646714 0.050762616 -0.07934883 -0.028718077
000180 cf 44 0d be 94 1c 73 3e 7c 84 1a be f4 16 53 be
       -0.1379578 0.2374137 -0.15089601 -0.20614225
000190 75 07 9a 3e 99 01 a1 3e 68 bd 3f 3e 65 3e 88 3e
       0.30083814 0.3144653 0.18724597 0.26610103
0001a0 b5 a3 3e be cf 60 5f 3d bb 1f 34 bd 6c 71 03 3d
       -0.18617137 0.054535683 -0.043975573 0.03209059
0001b0 e1 4a e1 3b 22 95 85 3e 19 07 9e bc 9c 9d 21 be
       0.0068753813 0.26090342 -0.019290494 -0.1578278
0001c0 40 f5 4e 3d 80 25 3b be fa 51 32 3e 92 1e 89 3d
       0.050526857 -0.18276024 0.17414084 0.06695284
0001d0 fd 61 0a be 51 d9 81 3d 8e 3a 8d 3e ce 16 4d be
       -0.13513942 0.06340278 0.27583736 -0.2002823
0001e0 08 0b cc bd f6 8a 72 3e cc 7e 9e be 7a 4a a0 be
       -0.099630415 0.23685822 -0.30956113 -0.3130682
0001f0 e4 cd 5c be 95 8c 0f 3e 1c 2f 34 3e f4 ec a0 bd
       -0.21562916 0.14018472 0.17596096 -0.07857695
000200 3a f5 61 bb 0f 60 9a be 33 30 0a 3e f7 45 f8 3c
       -0.0034478442 -0.30151412 0.13494949 0.0303068
000210 cc 02 d1 bd 4c cd 14 be af ab 95 be a9 14 91 3e
       -0.102056116 -0.1453144 -0.29232547 0.28336075
000220 05 40 12 be b0 54 5b be 85 59 eb 3c f7 13 2a bd
       -0.14282234 -0.21419024 0.02872921 -0.041522946
000230 20 50 0e 3e 5e 64 8c be fd c6 8c be 5e 1e 4e 3e
       0.13897753 -0.27420324 -0.27495566 0.20128772
000240 05 f7 4f 3e e3 e4 04 be 04 8d 1b be 0d a4 fb bd
       0.20309074 -0.12977938 -0.15190512 -0.122871496
000250 da 26 93 be e0 02 68 3e
       -0.2874058 0.22657347

decoder.attn.bias f4 [15]
000000 a9 9d ec bc 04 db 04 3d 71 bb a0 3e f3 49 1f 3e
       -0.028883772 0.032435432 0.31393006 0.15555553
000010 a2 8c 33 3d 73 ca 99 bd b2 6a 86 be 21 c3 32 3c
       0.04383529 -0.07509317 -0.26253277 0.01091078
000020 db 54 64 bd 18 b8 2d bd 9b e1 37 3e 06 dc 9a 3e
       -0.055744987 -0.042411894 0.17957155 0.3024599
000030 6c 2a 74 be b3 91 cc bd a6 8a d3 bd
       -0.23844308 -0.099887274 -0.103291795

decoder.attn_combine.weight f4 [5, 10]
000000 21 18 84 be 4e e8 8f 3e 1a b7 ef 3c 5a 28 80 bd
       -0.2579966 0.28106922 0.029262114 -0.062576964
000010 1a 29 26 be d9 e0 50 3d 70 bc 7e 3c a4 af 39 be
       -0.16226617 0.05099568 0.015547857 -0.18133408
000020 d3 a7 95 3e ea 56 39 3e 6c b5 7e 3e 91 6d 2d be
       0.29229602 0.18099561 0.24873894 -0.16936328
000030 e3 e5 89 3e 88 e9 67 3d 62 e8 1e be e5 37 3f be
       0.26933202 0.056619197 -0.15518335 -0.18673666
000040 ff 60 c5 ba f4 36 92 bd 1a 0e 55 be ff 08 02 be
       -0.0015058814 -0.07139388 -0.2080616 -0.12698744
000050 7a 87 9a 3d 5c c1 ec 3d 01 e5 21 bd a4 d1 8c bd
       0.07545371 0.11560318 -0.039525036 -0.06875923
000060 fe 83 44 3e 87 81 09 be b9 e4 58 3e ad bf 70 3e
       0.19190976 -0.13428317 0.21181001 0.23510619
000070 00 5b 99 3e 6c 34 a0 3d c3 f9 23 3e be 34 df bd
       0.2995224 0.07822499 0.16013245 -0.10898732
000080 f7 9f 30 3e bf 26 ec 3d db 11 64 bd ad 97 61 be
       0.17248522 0.11530828 -0.05568109 -0.22030516
000090 e9 24 ef bc 3c b7 05 3e a1 d4 0c be c5 ee a0 3e
       -0.029192405 0.1305818 -0.13752986 0.31432167
0000a0 f0 58 36 bd 6c f9 58 3e f3 9d 46 be 6c ea 62 be
       -0.04451841 0.21188897 -0.1939619 -0.22159737
0000b0 78 a4 2d be 1f 08 f2 bd af f5 7a be 57 86 4a 3d
       -0.16957271 -0.11817955 -0.24507783 0.049444523
0000c0 b9 66 7c 3d 36 4e 4f bd
       0.0616214 -0.050611697

decoder.attn_combine.bias f4 [5]
000000 ac 3c 9a be b8 85 8d 3e 27 50 21 3d 48 8a 1e be
       -0.30124414 0.27641082 0.03938308 -0.15482438
000010 2c a8 1c be
       -0.15298527

decoder.gru.weight_ih_l0 f4 [15, 5]
000000 e3 2e d4 3e 3e 34 b3 3d 62 e3 ea 3d d3 0b c2 be
       0.41442022 0.08750199 0.11469151 -0.37899646
000010 e2 f9 7d 3e 99 74 e8 3d 15 da ba 3e 08 2c 7e be
       0.24802354 0.11350364 0.36494508 -0.24821484
000020 b6 fa 1e 3e 38 56 9a 3e 44 b5 c7 be cc 02 f2 bd
       0.15525326 0.30143905 -0.39005482 -0.1181694
000030 8e d5 3b 3e be b6 80 be 2b 3d 79 bd 77 90 3b bd
       0.18343183 -0.2513942 -0.06084935 -0.04579207
000040 5f 12 a3 bd 00 f2 9b 3e 6c 86 8d 3e ee 06 9f bd
       -0.079624884 0.3045807 0.27641618 -0.077649936
000050 0f 01 f2 3d a2 b3 da bd 67 22 8e 3e 5e 87 9b 3e
       0.11816608 -0.106787935 0.27760622 0.30376714
000060 83 02 8d be 22 1f 51 be 32 ee 25 be 06 13 d2 3e
       -0.2754098 -0.20422032 -0.16204146 0.4103014
000070 ce ed a0 be d6 67 95 be c2 6b 92 be f6 a1 a6 be
       -0.3143143 -0.29180783 -0.28597838 -0.3254544
000080 f7 77 ad be b5 95 d3 3e 03 01 87 3e 92 5c ca be
       -0.33880588 0.41325155 0.2636796 -0.3952375
000090 36 fc 62 be f6 35 a6 be 4a 94 13 be de 56 d0 be
       -0.22166523 -0.32463044 -0.14412037 -0.40691274
0000a0 06 f1 d3 3e 0b 6a 35 bc 26 50 86 3d 28 b1 d1 3e
       0.41394824 -0.011072646 0.06558256 0.40955472
0000b0 84 d6 a0 bd b4 ba 81 be d8 ac 50 be 55 6a d5 3e
       -0.078534156 -0.25337756 -0.20378435 0.41682687
0000c0 ac 49 05 3c 8c b1 c8 3e fb 06 c2 3d 50 88 d8 3e
       0.0081352405 0.39197958 0.09473988 0.42291498
0000d0 a4 6f 92 3d 95 46 f8 3c a7 63 98 be 12 60 22 be
       0.071502 0.030307094 -0.2976353 -0.1585696
0000e0 cd 6c 9d 3c 73 c0 cb 3e db e4 66 3e 37 8d b4 3e
       0.01921692 0.39795265 0.22548239 0.35263988
0000f0 9f e3 b6 3d e9 e8 c2 be 31 03 60 3b 3b 97 67 3e
       0.08930134 -0.3806832 0.003418159 0.22616284
000100 73 ed 03 3d 1f e8 c3 3e f6 6e d8 3e 72 53 3f be
       0.03220887 0.38263032 0.42272156 -0.18684176
000110 e4 f9 90 3e d4 c5 2a 3e b6 82 87 be 80 42 e5 bc
       0.2831565 0.16677028 -0.26466912 -0.027985811
000120 c6 c1 6a be ab 38 b6 be 4d 9b 0c be
       -0.22925481 -0.3559011 -0.13731118

decoder.gru.weight_hh_l0 f4 [15, 5]
000000 1c 49 73 3e b7 63 82 3e 70 51 77 3e 40 12 57 be
       0.23758358 0.254667 0.2415216 -0.21003056
000010 d2 db d4 bb 21 18 2f be 5e 3a 89 3c 4a 2c 44 bd
       -0.006495931 -0.17099048 0.016751464 -0.0478938
000020 7f c2 9b be c9 35 9c 3e 29 7e bb be 21 6e 21 3e
       -0.30421826 0.30509785 -0.3661969 0.15764667
000030 d5 47 d4 3e 4c 3c 9e be cb ec 80 be f4 0a c2 3e
       0.41461053 -0.30905378 -0.2518066 0.37898982
000040 a8 dc cc be 20 83 3f 3e 76 3c f9 bb 79 72 64 3e
       -0.40012097 0.18702364 -0.0076060845 0.22309293
000050 59 a2 d2 bd 72 ec b6 3e e6 2a 46 be 92 40 3b 3e
       -0.102848716 0.35727268 -0.19352302 0.1828635
000060 35 19 ad 3b 93 e4 56 3e c2 7c 7c be 85 e1 2e be
       0.005282546 0.20985632 -0.24656966 -0.17078216
000070 94 de b1 3e ad 3c 8d 3e 9e bb 50 3e 00 5d c6 be
       0.34740126 0.27585354 0.2038407 -0.38742828
000080 50 e4 e9 bc 9c b2 ab 3e 95 92 d4 bd 83 4d 6f be
       -0.02855125 0.33534706 -0.10379521 -0.23369412
000090 67 4a b6 3e 46 f2 b4 be 25 4f a2 3d 36 75 9f 3e
       0.3560364 -0.3534109 0.07925252 0.31144112
0000a0 a0 c5 48 3e 07 0a aa 3e 4f f8 de bd 36 97 9d be
       0.19606638 0.33210775 -0.10887205 -0.30779427
0000b0 1b d0 6b 3e 50 4a 48 3e 98 4a 0c be bc dd 00 be
       0.23028605 0.19559598 -0.1370033 -0.12584585
0000c0 24 9c 58 be 43 ba 72 3e 0e e7 db 3e 59 60 e6 bd
       -0.21153313 0.23703866 0.42949718 -0.112488456
0000d0 e2 08 a8 be 27 41 bb 3e 7e 37 b9 be 30 e0 04 3d
       -0.32819277 0.36573145 -0.3617515 0.032440364
0000e0 51 51 5b 3e 67 b3 13 be 37 65 a4 bd 65 11 bc be
       0.21417738 -0.14423905 -0.08027118 -0.3673202
0000f0 00 77 a3 3d f9 e0 14 be dd d2 cb be 3a 12 06 3e
       0.07981682 -0.14538945 -0.39809313 0.1309289
000100 19 db d4 be a7 61 80 3e 60 f3 c7 bd c4 f1 b7 3e
       -0.41573408 0.25074503 -0.09763217 0.3592664
000110 d7 9f fb 3c a1 d3 dc bd be 04 97 3e 31 36 0b be
       0.030715866 -0.107825525 0.29495806 -0.13594891
000120 7c 4d 55 bd 67 ac 05 be 2e 94 a2 be
       -0.052075848 -0.13054048 -0.31753677

decoder.gru.bias_ih_l0 f4 [15]
000000 90 f3 63 be dc 53 8b 3c 98 99 4e be 33 0b 2d 3c
       -0.2226088 0.01700776 -0.20175779 0.010561752
000010 2c db aa bc c2 54 ae be 4a 6c 45 3e 15 a8 b0 be
       -0.020856462 -0.3404904 0.1927959 -0.34503236
000020 fe 3e 90 3e 58 02 bb 3e 13 84 b0 3e ee 8e a0 be
       0.2817306 0.36525226 0.34475765 -0.31359047
000030 c9 b9 55 3e f5 51 d8 3e 1e cc 8b 3e
       0.20871653 0.42250028 0.27304167

decoder.gru.bias_hh_l0 f4 [15]
000000 67 fc 38 be 25 da 8b be d0 7b ac 3d 35 79 dd be
       -0.18065034 -0.2731487 0.08422053 -0.43256536
000010 42 43 ce be c6 e2 3b 3e 81 c6 c3 3e 1f 4a 4b be
       -0.4028569 0.18348226 0.38237384 -0.19852494
000020 36 b8 50 be cf 6a 1e 3e ce 46 de 3e b4 2b 8f bd
       -0.20382771 0.15470432 0.43413395 -0.069907576
000030 87 d0 de be 5d e3 77 3e 88 8f 69 bc
       -0.4351847 0.24207826 -0.014255412

decoder.out.weight f4 [179, 5]
000000 48 df 93 bd 70 c5 74 3e 8b 52 e1 3d 0a 5d d4 be
       -0.07220322 0.23903441 0.11002072 -0.41477233
000010 6d a1 ce be 19 13 f3 3e b0 85 a8 be be f0 97 3e
       -0.40357533 0.47475508 -0.32914495 0.2967586
000020 dc 76 29 3e 07 2d 83 3e fc 9d b9 be 29 48 b8 bd
       0.16549248 0.2562029 -0.36253345 -0.089981385
000030 1c 66 7c 3e 9a 85 4f ba 0a da fa bd a2 2c 26 3e
       0.24648327 -0.00079163315 -0.12248619 0.16227964
000040 62 b8 d3 bd cd 17 a6 be 65 69 26 bd fa 72 98 3e
       -0.103379026 -0.32440034 -0.040627856 0.2977522
000050 cf e3 a8 be 1c e2 da be 21 c7 19 bd d2 a4 3c 3e
       -0.32986304 -0.42750633 -0.03754342 0.18422249
000060 62 7f 41 3e c6 ed a6 be 01 91 cd 3c 82 28 31 3e
       0.18896249 -0.32603282 0.025093557 0.17300609
000070 b1 fa bb 3d c4 f6 21 3e 5f 23 c3 3d 04 1b 42 be
       0.09178675 0.1581679 0.09528231 -0.18955618
000080 6a b0 89 3e 1c f5 bc be 0c 05 31 be 17 72 4c 3e
       0.26892406 -0.36905754 -0.17287081 0.19965397
000090 bc d8 17 be 25 c7 14 3e 19 a3 ad 3e c9 ff 0e 3e
       -0.14828771 0.14529093 0.33913496 0.13964762
0000a0 90 17 36 be 97 6c b5 be e7 3d e2 be 3a 66 df be
       -0.17782426 -0.3543441 -0.44187853 -0.4363268
0000b0 d9 93 67 be 10 3c 58 be 10 8f c6 3d 54 eb ee bd
       -0.22614993 -0.21116662 0.09695256 -0.11665979
0000c0 8b 9e d2 3e c4 02 3e bd 13 15 a6 3e 3b ef bc be
       0.41136584 -0.046389356 0.32437953 -0.36901268
0000d0 ae 01 5b 3e 28 e0 20 be 07 71 dc 3d ba 9a 24 be
       0.2138736 -0.15710509 0.10763746 -0.16074648
0000e0 d1 59 8e 3e 61 e0 09 bd 3a c3 e2 be cc 52 2b bd
       0.278029 -0.03366125 -0.4428957 -0.041827008
0000f0 38 15 36 3e 91 8a 8e 3e bb 96 d0 3d dc 46 a7 3e
       0.17781532 0.27840093 0.101849996 0.3267125
000100 f5 75 99 3e 75 eb 3a 3c 6c b6 09 3e 9e 0f a2 3e
       0.29972807 0.011408676 0.13448495 0.3165254
000110 8a 68 ad bd 3c 31 e7 3d e4 53 65 3d e9 fa af 3e
       -0.08467205 0.112886876 0.055988207 0.34371117
000120 29 c1 b3 3d 7b a8 56 bc f3 66 cd be ca 11 c2 3d
       0.08777077 -0.013101692 -0.40117607 0.09476049
000130 6a 96 8b 3e 19 c8 6d bb 31 9c 37 3e db c0 de be
       0.27263194 -0.0036282598 0.17930676 -0.43506512
000140 0b 7b df be ef ae 51 bc e9 c1 92 bd 5e ae 8b bd
       -0.43648562 -0.012798055 -0.07165892 -0.06820367
000150 7c 28 c6 bd 75 90 a3 bd 9a dc 7a 3e 0e b8 8e 3e
       -0.096756905 -0.07986537 0.24498215 0.27874798
000160 c8 7d d9 3e b9 4d a0 3e 85 28 89 3e 34 7f 61 bd
       0.42478776 0.31309298 0.26788726 -0.05505295
000170 73 2b 53 3e 22 ed e3 bc 8d 6c 98 3e 15 e1 ae be
       0.20622043 -0.027823035 0.29770318 -0.341561
000180 5d 33 e1 3e 21 1d a6 38 b5 23 51 3e c9 67 9f 3e
       0.439845 7.9209225e-05 0.20423777 0.3113387
000190 36 2b 3b be f5 fb 27 3e ba 0f 10 3e dc f1 74 3e
       -0.18278202 0.16404708 0.14068499 0.23920387
0001a0 1e 22 c1 bd 9c 53 2a 3e 80 62 85 3e 17 66 1b 3e
       -0.094303355 0.16633457 0.26051712 0.15175663
0001b0 f0 ea 78 3e ed 9e 3d bd 9d 2d df 3e f3 bb 08 be
       0.24308372 -0.04629414 0.43589488 -0.13352947
0001c0 55 5a 48 3e 4d b9 2a bd 8b 00 92 be 9c 13 c0 be
       0.19565709 -0.041680623 -0.2851604 -0.3751496
0001d0 79 c5 52 be 0e d4 af 3e 4d 33 f8 3d 1c 5f a0 3d
       -0.20583142 0.34341472 0.1211916 0.07830641
0001e0 5f 6c 84 be 3b be 01 bd 35 e6 c4 3e 8a aa 12 3d
       -0.2586393 -0.03167556 0.38456884 0.03580717
0001f0 01 1d aa bd 92 4f 84 bd 71 16 85 be 4e 7d 0a be
       -0.08306313 -0.06460489 -0.25993684 -0.13524362
000200 fd 46 85 be 9f f0 c7 be 5c 98 70 3d 66 56 9e 3c
       -0.26030722 -0.39050767 0.05873905 0.019328307
000210 27 f8 0d be cb e4 aa 3e d2 e9 6e 3e 47 ed 65 3e
       -0.13864194 0.3337768 0.23331383 0.22453795
000220 f1 3a ff 3d 26 e5 8a be 37 48 60 be 6a b3 ad 3e
       0.12462414 -0.2712795 -0.21902548 0.33925945
000230 2a a1 76 3c f7 03 ff bd fc 40 73 3e d3 69 2a 3e
       0.015053073 -0.12451928 0.23755258 0.16641931
000240 13 72 af 3d 6a fe 87 3e e4 ea aa 3e 89 ea 68 be
       0.0856668 0.2656129 0.33382332 -0.22745718
000250 e1 f4 2d 3e 27 66 7c be cb 95 ea 3b 99 8c 4a 3d
       0.16987945 -0.24648343 0.00715897 0.04945049
000260 e8 1f 8b be ca 36 c1 be 87 ee 7f bd ea 24 d0 be
       -0.2717278 -0.37737113 -0.062483337 -0.40653163
000270 6c 64 24 3e 17 47 20 3d 10 ce b0 be a0 90 78 3e
       0.16053933 0.039130297 -0.34532213 0.2427392
000280 96 2e cf bd cd 70 3a 3e 56 b9 59 3e 82 f6 a9 be
       -0.101163074 0.18207093 0.21262106 -0.33195883
000290 cb e6 0f 3e 1d 24 5c be ac 83 2b 3e dd d5 1c 3e
       0.14052884 -0.21498151 0.16749448 0.15315957
0002a0 a0 03 69 3e c3 3c ea 3d 6d 8c fc 3d d0 04 60 bd
       0.22755289 0.11437371 0.123314716 -0.05469209
0002b0 48 e9 b6 3e 0b f2 0c bd 10 fd 6e be 14 01 85 be
       0.35724854 -0.034410518 -0.23338723 -0.25977385
0002c0 e5 44 44 be fd 29 3c be 85 20 c0 3d cb 51 14 bd
       -0.19166906 -0.18375392 0.093812026 -0.036210816
0002d0 90 b4 b0 3d 33 57 7f 3e ea 24 97 3e 19 4b eb bd
       0.086281896 0.24935608 0.2952035 -0.11488933
0002e0 3b e2 15 3d 12 cb b1 3d 43 7c 4f 3e 03 63 94 be
       0.036592703 0.08681311 0.20262246 -0.2898179
0002f0 a1 f8 d3 be 6b e4 9c be 24 db 26 3e 15 68 8c 3d
       -0.41400626 -0.3064302 0.16294533 0.068557896
000300 43 df c0 3e 78 ef 70 be 2d 8a 67 3e 38 f6 68 3e
       0.37670335 -0.2352885 0.22611304 0.22750175
000310 b5 f7 da bd 48 ff e6 3d f9 2a 5d 3e 01 ce f6 3d
       -0.106917776 0.1127916 0.21598424 0.12051011
000320 86 a7 5b 3d 0b 29 3a 3d 7e 90 17 3e 27 56 cb be
       0.05362656 0.045449298 0.14801213 -0.39714167
000330 dd c6 41 be 87 75 49 3e 1e 29 c3 be 37 a2 02 3e
       -0.18923517 0.1967374 -0.38117307 0.12757193
000340 32 6e d2 bb 8d fb 0e be 3f f9 92 be 6f ce 88 3e
       -0.0064218277 -0.13963147 -0.28705785 0.26719996
000350 c6 7b be bc c2 6a ba be 47 bf dc bb e1 25 f3 bd
       -0.02325238 -0.36409575 -0.006736669 -0.11872459
000360 2c fa 8c be 88 26 5c bd 03 4a b9 be c9 f0 a3 3e
       -0.27534616 -0.053747684 -0.3618928 0.32019642
000370 41 1c cf bd d0 73 dc be 84 ea ca 3e b6 77 16 bd
       -0.10112811 -0.43057108 0.39632046 -0.03673526
000380 73 cf 66 be 9f 6d a3 be 09 51 d9 be bf 64 47 be
       -0.22540073 -0.31919572 -0.42444637 -0.19472025
000390 cd 1d a8 3e e5 80 2d be b7 a8 cc 3e 7a 6c ac be
       0.32835236 -0.169437 0.3997247 -0.3367651
0003a0 8b f1 0f 3d d8 df 51 3e e4 ca a1 3c f2 6e 8f be
       0.035142463 0.20495546 0.019750066 -0.28014332
0003b0 cd 60 bb bd ca 27 89 3d d5 a3 a7 bd 67 c0 a0 3e
       -0.09149323 0.06697042 -0.08185545 0.3139679
0003c0 b8 c8 9e 3e 26 cf 85 be 05 a2 ce 3e 24 6a 24 be
       0.3101251 -0.26134604 0.40357986 -0.16056114
0003d0 40 2a d9 3e a9 61 93 be 85 2d f2 ba 26 6e 9d be
       0.42415047 -0.28785446 -0.0018476701 -0.307481
0003e0 bb 25 b2 bd 9e 45 de 3e b0 b3 e2 3e 45 af 41 be
       -0.08698603 0.4341249 0.44277716 -0.18914516
0003f0 11 a6 47 3c 53 02 1e bd a4 81 ff 3d 3a d0 ac 3e
       0.012185589 -0.038576435 0.12475899 0.33752614

decoder.out.bias f4 [179]
000000 11 8a 88 3e ea 86 a2 be dd 42 9c be 51 4c 98 3e
       0.26667836 -0.31743556 -0.30519763 0.29745725
000010 76 96 72 3e 38 60 8d 3d cd f4 53 be 2b 04 b4 be
       0.23690209 0.06903118 -0.20698853 -0.3515943
000020 f3 50 aa be ee 1d c7 be 16 d1 df be b2 a6 a3 be
       -0.33264884 -0.38890022 -0.43714207 -0.31963116
000030 d2 68 54 3e 99 9e e5 3d fa 66 88 3e ae 42 d4 3e
       0.20743111 0.11211891 0.26641065 0.41457123
000040 49 4d c9 3e d2 d2 2d be 84 e0 f3 bd dd 2c b2 bd
       0.39316776 -0.16974953 -0.11908057 -0.08699963
000050 d3 14 db be 0c fb 1a be e1 23 91 3e ae 31 d8 3d
       -0.42789325 -0.1513483 0.28347686 0.10556351
000060 17 31 94 3d 3a 0b 66 be ce 77 ba be 42 bf 9c be
       0.07235926 -0.2246522 -0.3641953 -0.30614668
000070 1f 88 8a 3e 6c cf 89 be d9 c0 d4 be e9 6a ae 3d
       0.27056977 -0.26916063 -0.4155338 0.08516485
000080 ec 80 39 3e ce 5d 5c 3d 3b e9 65 3e 12 8c 18 3e
       0.18115586 0.053800397 0.22452252 0.14897183
000090 9b 8e 90 be ad 93 79 be bd 67 66 be 24 83 c1 3e
       -0.282338 -0.2437274 -0.2250051 0.37795365
0000a0 06 49 91 be a2 73 84 3e 1f 2b c3 3e a2 ea 3b 3e
       -0.28376025 0.2586947 0.38118836 0.18351224
0000b0 45 28 b1 bc 1a 95 c1 be 52 27 e0 3e 2a 40 ce 3e
       -0.021625647 -0.37809068 0.4378 0.40283328
0000c0 9a 0f a9 bd cb 13 5f be a7 1e d4 be 6c a5 ed 3d
       -0.08254929 -0.21784894 -0.41429636 0.11603817
0000d0 8b 27 5d be 3d 66 3b 3e 1c ce c9 3e e7 f4 ee bd
       -0.21597116 0.1830072 0.3941506 -0.11667805
0000e0 64 3f bb 3c c9 63 99 3e e2 45 df be fb 5a 73 be
       0.022857375 0.29958943 -0.43608004 -0.23765175
0000f0 90 db d3 3d 84 ce 3c be c6 14 98 be 19 6d 4a 3e
       0.103446126 -0.18438154 -0.2970335 0.1976818
000100 e2 a5 6d bd 39 48 fb bd be cc af 3d 20 ba be be
       -0.058019526 -0.12269635 0.08583973 -0.37251377
000110 3c 27 d4 3d 5f 22 6d 3c 09 37 08 be a2 0f 3f be
       0.10359046 0.014473527 -0.13302244 -0.18658307
000120 6a ee 8d be 45 ee db 3e 34 35 57 3e e6 b3 de 3d
       -0.27720958 0.42955223 0.21016389 0.10874157
000130 23 a0 4c 3e e7 e9 e4 3d fa 8d b5 3d 0d 4e 90 be
       0.19982962 0.11177426 0.088649705 -0.28184548
000140 96 96 14 3e 43 72 8c be d2 d9 43 bd 61 42 8a bd
       0.14510569 -0.27430925 -0.04781515 -0.06750942
000150 fb 38 6e 3e 03 bd 09 be ea aa bb bd 63 82 e3 bd
       0.23263924 -0.13451008 -0.09163459 -0.11108854
000160 6b 0b e2 bd de 22 c0 bd 1b be ad 3e c0 13 8a 3e
       -0.11037334 -0.093816504 0.339341 0.26968193
000170 47 3d b9 be 05 b6 bc 3e c9 13 9e 3e 6a fb 8b bc
       -0.36179563 0.3685762 0.3087447 -0.017087657
000180 67 fe 57 3e 26 2e 9f 3e 73 a6 07 be a9 46 fe 3d
       0.2109314 0.31089896 -0.13247089 0.12415821
000190 d1 fa f6 3c c1 08 32 be 4d 56 32 bd fb 93 a3 bd
       0.030148895 -0.17386152 -0.043539334 -0.079872094
0001a0 9a ec 9c 3e 0f c7 28 be f0 58 33 3d 90 d3 1c 3e
       0.30649263 -0.16482185 0.04378599 0.1531508
0001b0 4b 2d 76 be 3f d7 59 3e 8e 58 ae bb 56 33 b6 3c
       -0.24040715 0.21273516 -0.005320615 0.022241276
0001c0 ab 30 c9 be 10 6b 97 be 96 8f 02 3d 05 ce ad be
       -0.39294943 -0.2957387 0.031875215 -0.33946243
0001d0 26 7a 11 bd 48 91 8c 3c cf 27 98 be 72 e5 6d ba
       -0.03551688 0.01715912 -0.29717872 -0.00090750225
0001e0 19 9e 85 38 7d 31 f6 3d a6 4b 00 3e f9 e5 ca be
       6.371382e-05 0.12021158 0.12528858 -0.3962858
0001f0 60 08 a1 bc e6 ce 14 3d eb 0e aa 3e 7c 8e 75 bc
       -0.019657314 0.036330126 0.33214507 -0.014987584
000200 d3 58 de 3e 3f d9 c3 be fc 23 25 bd 48 f4 d9 3e
       0.43427143 -0.38251683 -0.04031752 0.42569184
000210 5d 7b 98 3d 94 7d cd 3e 22 da a5 be d5 35 c7 be
       0.07445405 0.4013487 -0.32392985 -0.38908258
000220 bb bc 29 bc 61 39 51 be 4d 66 a2 3e e9 b5 be 3e
       -0.010359938 -0.20432045 0.31718674 0.3724816
000230 5c dd cc 3e 68 6a 93 bc b2 2b 4d 3e 88 49 91 be
       0.40012634 -0.017995074 0.200362 -0.28376412
000240 b9 1f 35 be cc a9 44 3e 1f 30 d2 3e 70 53 cb 3d
       -0.17687882 0.19205397 0.41052338 0.09928024
000250 2b f3 ae 3d 58 83 c7 be 4d 90 b2 be 3b 4f ce bc
       0.08542474 -0.38967395 -0.34875718 -0.025184264
000260 c0 58 93 bd 1d cf 8a be 3b d9 ed bd 59 1e ae be
       -0.07194662 -0.2711114 -0.11613699 -0.34007528
000270 a9 40 46 3e 5e 6a 47 3c a0 f6 63 3c 02 77 d9 be
       0.19360603 0.012171356 0.01391378 -0.42473608
000280 53 c0 d6 3e 2f 05 9c 3e 18 3c 4a bd a7 cd 41 be
       0.41943607 0.30472705 -0.049373716 -0.18926106
000290 a6 28 27 3e 82 21 0f 3e 91 99 1e 3d 25 ac 15 3e
       0.163241 0.13977626 0.03872067 0.14616449
0002a0 3a 18 99 3d 66 f8 d4 3b a5 4e d0 3e 65 48 33 3e
       0.07475324 0.006499338 0.40685 0.17508085
0002b0 23 27 65 be 6f 09 8c bc 05 9e 47 3d f8 c7 1e bd
       -0.2237821 -0.017094342 0.048734684 -0.038764924
0002c0 73 c8 2f be d3 7d d8 be 28 3d c8 be
       -0.17166309 -0.42283496 -0.3910916
