best_models/seq2seq-2021-03-17-20-32-52.pt (torch, 34959 bytes, 16 tensors)

encoder.embedding.weight f4 [162, 10]
0.20644628 -1.0503144 -0.708294 -0.22340667 0.3877642 -0.57805014 0.117150076 2.5313928
1.2832049 0.76857126 0.30426678 0.9441526 0.39503542 -0.18802585 -0.98905855 2.0609653
-0.7903989 0.986617 0.7515539 0.11230302 0.9288983 -1.6343433 0.47823828 -0.6585067
0.3321809 -1.0504123 1.7003603 0.5396686 0.7311382 1.2748556 -0.5485342 -0.770515
0.016331628 0.63285625 1.7130119 -0.43718657 1.7720525 -1.4609437 1.8242888 0.10808035
-1.7403073 1.4063941 1.188452 0.7919177 -0.7365989 3.2935848 -0.45423937 0.02538097
0.59569097 -0.5492917 0.6710114 -0.7587353 -0.86295694 -0.60435855 -1.3524868 0.9711055
1.5083324 0.91429996 -0.36031982 -0.83018696 -1.1731489 0.89141035 2.3665838 0.5857665
-0.48544884 -0.2545804 -0.29743803 -0.62827396 0.83684385 -0.25864822 -0.5861105 -0.5762712
0.2797975 0.60433483 0.2861726 0.027333003 0.37032878 -0.10786735 -1.4931798 -0.8921622
0.7911945 -1.0209475 -2.1393611 1.0860376 -0.43867388 -0.47649187 0.65257555 -2.639445
1.5475322 -0.9022015 -0.41000867 0.25947076 -0.0984324 -0.5216508 -0.32297185 -0.5869035
-0.30718935 -2.103479 -0.63896483 -2.6839452 -1.1672494 -0.40359056 -0.7606164 0.10317046
0.43991327 -0.2743778 0.60203755 -0.004485954 -0.5534214 1.4470716 1.7198069 0.30770567
0.27545464 1.9285271 0.51997423 -2.0931342 0.5488932 0.5907737 0.35504693 0.6424683
-0.86793065 -0.29191032 1.1303383 1.3628234 1.458503 0.9290808 0.9589418 -0.1835014
-0.96983385 1.026571 0.22863667 -0.61109287 0.7199912 -1.1010408 -0.91694146 0.94326407
-0.9164816 -0.75056297 -0.24996977 0.6537043 2.3060417 -0.4455492 -0.71046007 -0.8189103
-1.6895365 0.08624931 0.9314497 0.1466429 0.30216804 -1.5555729 0.8073127 -1.0144563
-0.100531116 1.1644146 -0.91323173 0.12949242 0.93237936 -0.28806597 0.38758656 0.11683973
0.1375255 0.23559742 -0.3204264 0.35125002 1.2364254 -1.4836053 0.24085693 -0.35926953
-1.5086198 -0.7667199 0.4058327 -0.5729368 -0.21646628 -0.3377833 -0.93413556 -0.39490047
1.0619874 -0.00740935 -3.0689297 -0.88196254 0.4377925 -0.8888249 0.24450235 -0.105472565
-1.7469347 -0.7469495 0.6905034 0.69014484 -1.0653081 -1.2049152 1.3127459 -1.081382
1.1201354 -0.2798036 0.017940663 0.64603657 1.2687409 1.7123975 0.090678625 2.6278694
-0.5460676 1.1100004 -0.15485865 0.46129772 -1.9625126 -1.0641212 -0.627981 0.21541044
-0.08299643 0.8169697 -1.2117168 0.76227957 0.20761001 -0.9429251 0.8188583 1.0653917
1.7662913 0.31053087 -0.16349618 -0.14456585 0.18095486 1.0283628 1.569285 -0.77781326
0.7272526 2.2588458 2.0180707 1.4078052 2.2615728 1.3915502 -0.3191973 -1.7939667
-0.75758386 0.60441583 0.5376014 -0.15258881 -2.2268791 0.2970582 0.6430749 -0.17603713
0.5968931 -0.46545807 0.37995687 1.6006757 0.17923935 0.44508824 -0.5840366 -0.45782483
-0.9297615 -0.011698703 1.0064555 0.17557424 -0.9436013 -0.90949255 0.099723116 0.35628217
00000000: a766 533e b470 86bf c152 35bf b8c4 64be
00000010: 0789 c63e 18fb 13bf 61ec ef3d 5702 2240
00000020: 0f40 a43f 16c1 443f dbc8 9b3e fcb3 713f
00000030: 1542 ca3e d989 40be f132 7dbf dbe6 0340
00000040: 9557 4abf ef92 7c3f d665 403f 20ff e53d
00000050: 47cc 6d3f 2932 d1bf a6db f43e e593 28bf
00000060: 9d13 aa3e e973 86bf 68a5 d93f b927 0a3f
00000070: e02b 3b3f 782e a33f bd6c 0cbf 7940 45bf
00000080: e8c9 853c de02 223f f943 db3f ebd6 dfbe
00000090: 9ed2 e23f 3400 bbbf 4c82 e93f 3b59 dd3d
000000a0: 64c2 debf b904 b43f 321f 983f 1ebb 4a3f
000000b0: bf91 3cbf 18ca 5240 1092 e8be c1eb cf3c
000000c0: 347f 183f 619e 0cbf 67c7 2b3f 7a3c 42bf
000000d0: bfea 5cbf 3eb7 1abf 4a1e adbf 5f9a 783f
000000e0: 0911 c13f 900f 6a3f d77b b8be 2287 54bf
000000f0: be29 96bf 7833 643f 1c76 1740 cbf4 153f
00000100: c08c f8be 5d58 82be cc49 98be 90d6 20bf
00000110: 663b 563f 8a6d 84be 560b 16bf 8286 13bf
00000120: 9e41 8f3e b0b5 1a3f 3785 923e 76e9 df3c
00000130: bc9b bd3e 8fe9 dcbd 8420 bfbf be64 64bf
00000140: b98b 4a3f 68ae 82bf 4beb 08c0 4803 8b3f
00000150: dd99 e0be bef6 f3be 310f 273f abec 28c0
00000160: 8915 c63f adf6 66bf a8ec d1be 5ad9 843e
00000170: ed96 c9bd e88a 05bf 915c a5be 4f3f 16bf
00000180: ec47 9dbe 669f 06c0 3393 23bf c2c5 2bc0
00000190: 6e68 95bf 6ca3 cebe c2b7 42bf 094b d33d
000001a0: 503c e13e 3f7b 8cbe 221f 1a3f e9fe 92bb
000001b0: 06ad 0dbf a439 b93f a222 dc3f 998b 9d3e
000001c0: 6408 8d3e fad9 f63f 081d 053f e9f5 05c0
000001d0: 4484 0c3f f23c 173f b6c8 b53e cd78 243f
000001e0: b430 5ebf 4575 95be edae 903f ff70 ae3f
000001f0: 3ab0 ba3f 3dd8 6d3f 367d 753f cae7 3bbe
00000200: 0847 78bf ae66 833f bb1f 6a3e 9570 1cbf
00000210: 5851 383f e8ee 8cbf adbc 6abf c179 713f
00000220: 8a9e 6abf e524 40bf 13f8 7fbe 2a59 273f
00000230: 3096 1340 061f e4be b6e0 35bf 1ba4 51bf
00000240: bb42 d8bf 7aa3 b03d 7d73 6e3f 8e29 163e
00000250: c5b5 9a3e 031d c7bf 0cac 4e3f b4d9 81bf
00000260: 42e3 cdbd 8a0b 953f 8ec9 69bf a999 043e
00000270: 6ab0 6e3f 627d 93be bf71 c63e ab49 ef3d
00000280: 7cd3 0c3e 7340 713e ee0e a4be 0bd7 b33e
00000290: 3043 9e3f c7e6 bdbf 33a3 763e 2df2 b7be
000002a0: 741a c1bf c147 44bf 4ec9 cf3e fcab 12bf
000002b0: 56a9 5dbe eff1 acbe 8223 6fbf 6530 cabe
000002c0: 34ef 873f 22ca f2bb 5869 44c0 4cc8 61bf
000002d0: 5726 e03e 078a 63bf d35e 7a3e 0002 d8bd
000002e0: 8e9b dfbf 1538 3fbf d5c4 303f 55ad 303f
000002f0: 045c 88bf a93a 9abf 0f08 a83f ba6a 8abf
00000300: 9960 8f3f 6b42 8fbe 4cf8 923c a762 253f
00000310: 1a66 a23f d72f db3f b7b5 b93d 032f 2840
00000320: 16cb 0bbf 7e14 8e3f 4493 1ebe 372f ec3e
00000330: 9d33 fbbf 2035 88bf 5dc3 20bf 8e94 5c3e
00000340: 08fa a9bd ed24 513f 8919 9bbf c124 433f
00000350: b897 543e 8a63 71bf b3a0 513f c15e 883f
00000360: d515 e23f e7fd 9e3e 8b6b 27be 1209 14be
00000370: 3b4c 393e 64a1 833f 55de c83f c51e 47bf
00000380: 3a2d 3a3f ee90 1040 1228 0140 f632 b43f
00000390: 9cbd 1040 511e b23f d46d a3be b3a0 e5bf
000003a0: 04f1 41bf ffba 1a3f 3fa0 093f 3e40 1cbe
000003b0: 3085 0ec0 0318 983e 8fa0 243f 1443 34be
000003c0: fccd 183f 8550 eebe b589 c23e f1e2 cc3f
000003d0: 858a 373e 9be2 e33e 6c83 15bf 0468 eabe
000003e0: da04 6ebf ebab 3fbc 89d3 803f bcc9 333e
000003f0: db8f 71bf 81d4 68bf a23b cc3d 9e6a b63e

encoder.gru.weight_ih_l0 f4 [30, 10]
-0.17281346 0.28461966 -0.029889256 -0.15193824 -0.24546121 0.10237315 -0.30348325 -0.105154715
0.064645745 0.005376345 0.15890679 0.18038158 -0.03565463 0.20843327 0.063903354 0.042571295
-0.07220355 0.09872127 -0.24398673 -0.079704635 0.25896 0.0016989221 0.18695171 0.10052919
-0.21784782 0.20079419 0.16400984 -0.11003113 -0.1166855 -0.22165051 0.2527972 0.0010140394
-0.13214843 -0.07511111 -0.034626648 0.20642814 -0.31431305 -0.12858096 0.29017228 0.067023315
-0.014720961 -0.22847475 -0.25172338 -0.22711568 0.11562178 -0.08656655 0.03444663 0.034268014
0.16422275 0.21723779 -0.11587594 0.1328677 0.1372408 0.28609237 -0.31040326 -0.060314033
0.09405567 0.044258688 0.13702798 -0.157663 0.10974625 -0.23669824 0.22958305 -0.14871371
-0.02239876 -0.29639703 0.114803456 0.29837736 0.06493304 -0.08037721 -0.2536896 0.16316812
0.15831001 0.10745035 0.017799146 0.12671615 0.26762602 0.2537644 -0.112170376 -0.310846
-0.087744765 -0.18116541 0.26544806 -0.29157954 -0.27931288 0.31527245 0.2809445 0.1470375
-0.16239692 -0.092206925 0.030520469 -0.0012350334 0.20263095 0.11256731 -0.18481359 -0.17945254
0.009484554 -0.30030262 -0.049669925 -0.21643563 -0.012568765 0.19105291 0.16906232 0.016161688
-0.1026578 0.29368752 0.0932592 0.050579395 0.20804831 -0.24388056 0.16377594 0.18264084
-0.22272296 -0.2667237 0.2821363 -0.20523246 0.009516919 -0.29881054 0.16648914 0.2823092
-0.3065139 -0.04143152 0.11698387 0.13746203 -0.19500977 -0.23930714 0.15483798 -0.22817546
0.12237921 0.039738808 -0.16953471 -0.30069846 -0.22720715 0.13035546 0.06911864 0.19743995
0.16087155 0.16873398 -0.12933336 -0.1276289 0.2226918 -0.09569939 -0.19127798 -0.06998298
0.15527992 0.27502468 0.022440324 0.22325134 -0.31282073 0.2709428 -0.0038201632 0.30185315
0.2631707 -0.08085153 -0.07424333 -0.20726252 -0.07676666 -0.11007107 -0.25561115 -0.10024678
-0.16837713 0.16983438 -0.23461525 0.17510398 0.07682065 0.022455772 -0.10700981 0.28433397
0.22820896 0.0033577946 0.031780023 0.06989426 0.0058843447 -0.033353414 0.2353084 -0.1062563
-0.06410415 0.0825972 0.26867282 0.1550055 -0.3067486 0.21376586 -0.29519278 -0.27748168
-0.1608117 -0.16304137 0.1425841 0.049722653 0.24707513 -0.07244666 -0.29162624 0.1415056
0.064096026 0.2425736 -0.008445224 0.015958926 -0.034178823 0.14702122 -0.06584286 0.021403313
0.084417045 -0.076139174 0.29598382 -0.08333422 -0.1043524 -0.06605928 -0.0056583937 0.14178456
0.1999375 0.2295084 0.08248128 -0.13933986 0.21151726 -0.26013458 -0.07658211 0.0040922654
0.18699548 -0.052504666 0.25302386 -0.03283065 0.31508803 -0.1725018 0.25980127 -0.17572965
0.11259356 0.01302306 0.09520692 -0.26945364 0.085125774 -0.016749628 -0.2539326 0.058165018
0.055719472 0.10372401 0.1362697 -0.03850533 -0.0027175695 -0.19984564 -0.102879226 0.28535104
-0.08793597 0.30344737 0.1259915 -0.27962726 -0.030891242 -0.05523182 -0.23464027 0.068045095
0.18430488 -0.26141757 0.1834504 -0.1716675 0.026041966 0.18994643 0.11240354 -0.1093305
00000000: 03f6 30be abb9 913e 50da f4bc b395 1bbe
00000010: 2f5a 7bbe 04a9 d13d 2862 9bbe 5b5b d7bd
00000020: fd64 843d 0d2c b03b 76b8 223e f3b5 383e
00000030: 970a 12bd 886f 553e c3df 823d 3d5f 2e3d
00000040: 74df 93bd 612e ca3d a8d7 79be 2f3c a3bd
00000050: 6896 843e 5eae de3a 4570 3f3e 3fe2 cd3d
00000060: 8013 5fbe fe9c 4d3e 32f2 273e 0058 e1bd
00000070: cff8 eebd 5af8 62be a26e 813e 84e9 843a
00000080: eb51 07be dbd3 99bd acd4 0dbd e661 533e
00000090: a4ed a0be baaa 03be 7691 943e 8543 893d
000000a0: 3030 71bc 49f5 69be e3e1 80be 0391 68be
000000b0: 1dcb ec3d ce49 b1bd e917 0d3d 9e5c 0c3d
000000c0: 022a 283e 9573 5e3e 5d50 edbd 780e 083e
000000d0: da88 0c3e b37a 923e 2ded 9ebe d90b 77bd
000000e0: 42a0 c03d 9948 353d 1051 0c3e 6972 21be
000000f0: a4c2 e03d 0661 72be d217 6b3e 6848 18be
00000100: 9b7d b7bc 5ac1 97be 131e eb3d ebc4 983e
00000110: 9dfb 843d cf9c a4bd 9ae3 81be 8b15 273e
00000120: 051c 223e ee0e dc3d 84cf 913c e1c1 013e
00000130: 4706 893e 68ed 813e 95b9 e5bd 3527 9fbe
00000140: 87b3 b3bd 6d83 39be cfe8 873e ea49 95be
00000150: 1902 8fbe 646b a13e f5d7 8f3e 0091 163e
00000160: 614b 26be fcd6 bcbd 1006 fa3c d8e0 a1ba
00000170: 7d7e 4f3e b189 e63d c63f 3dbe 68c2 37be
00000180: 1a65 1b3c 44c1 99be b172 4bbd 4da1 5dbe
00000190: 39ed 4dbc 60a3 433e ac1e 2d3e 8465 843c
000001a0: 413e d2bd 365e 963e aefe be3d 572c 4f3d
000001b0: 9e0a 553e d3bb 79be e1b4 273e 3306 3b3e
000001c0: 7d11 64be 0290 88be 2b74 903e 7528 52be
000001d0: daec 1b3c b2fd 98be 217c 2a3e d58a 903e
000001e0: 64ef 9cbe 19b4 29bd 3d95 ef3d d9c2 0c3e
000001f0: a4b0 47be ee0c 75be d98d 1e3e d4a6 69be
00000200: f4a1 fa3d 29c5 223d 829a 2dbe 26f5 99be
00000210: fea8 68be e77b 053e 138e 8d3d b32d 4a3e
00000220: 83bb 243e 9ac8 2c3e f76f 04be 26b1 02be
00000230: 5209 643e 0bfe c3bd 60de 43be 3d53 8fbd
00000240: b301 1f3e 09d0 8c3e c5d4 b73c 009c 643e
00000250: 0a2a a0be 04b9 8a3e b45b 7abb 7f8c 9a3e
00000260: 4fbe 863e 7d95 a5bd e30c 98bd a03c 54be
00000270: d737 9dbd f16c e1bd 77df 82be 2f4e cdbd
00000280: 0e6b 2cbe 10e9 2d3e fb3e 70be 754e 333e
00000290: 2554 9d3d 2bf5 b73c f627 dbbd 3994 913e
000002a0: 9caf 693e 720e 5c3b c52b 023d b924 8f3d
000002b0: 76d1 c03b 979d 08bd aff4 703e e79c d9bd
000002c0: 0949 83bd b928 a93d 7c8f 893e c3b9 1e3e
000002d0: 270e 9dbe 70e5 5a3e 8223 97be 1412 8ebe
000002e0: d3ab 24be 51f4 26be 9101 123e fba9 4b3d
000002f0: 4301 7d3e ea5e 94bd 0950 95be d8e6 103e
00000300: c744 833d 3765 783e d65d 0abc 4bbc 823c
00000310: 18ff 0bbd bb8c 163e 9fd8 86bd 0056 af3c
00000320: d8e2 ac3d dbee 9bbd 318b 973e 22ab aabd
00000330: b6b6 d5bd 164a 87bd 0c6a b9bb f92f 113e
00000340: 6abc 4c3e 4004 6b3e f2eb a83d 1caf 0ebe
00000350: fb97 583e 5c30 85be 15d7 9cbd 6918 863b
00000360: be7b 3f3e 220f 57bd 588c 813e 6f79 06bd
00000370: 3853 a13e 50a4 30be ac04 853e 79f2 33be
00000380: 7497 e63d ac5e 553c d8fb c23d d4f5 89be
00000390: 6c56 ae3d 8436 89bc 7403 82be 713e 6e3d
000003a0: 1a3a 643d 416d d43d 498a 0b3e c4b7 1dbd
000003b0: 4019 32bb 56a4 4cbe 58b2 d2bd 8819 923e
000003c0: c617 b4bd 745d 9b3e ea03 013e 4e2b 8fbe
000003d0: a10f fdbc c33a 62bd 8a45 70be 3a5b 8b3d
000003e0: 6bba 3c3e 86d8 85be 6cda 3b3e 9bc9 2fbe
000003f0: f655 d53c 5181 423e d433 e63d abe8 dfbd

encoder.gru.weight_hh_l0 f4 [30, 10]
0.2081923 -0.07838741 0.20224757 -0.19095652 0.15040393 -0.04611828 0.13761573 -0.019438237
0.020966874 -0.115055464 -0.31498128 0.033675667 -0.19335692 -0.033486016 0.27205503 0.23194113
-0.142611 -0.06984699 -0.19856215 -0.09392914 -0.037156172 -0.17205496 -0.04669926 0.12272665
-0.050328575 -0.15833005 -0.1736161 0.29943895 -0.11851739 -0.006416271 -0.048170794 0.24688253
0.043112095 0.091619104 -0.16723539 0.05085001 0.17515162 0.1654744 0.023584519 0.00034882012
0.07622793 -0.20639914 -0.15795444 0.26205844 -0.28493145 -0.28670165 0.12224602 0.095717825
-0.025165487 -0.08089331 -0.14544293 -0.13521552 -0.036537927 0.21428588 -0.0040561473 0.023390558
-0.26137483 0.17022194 0.14912017 0.020295635 -0.30160215 -0.20274545 0.2900559 0.06667768
-0.06758114 -0.253925 -0.12969261 0.16640633 -0.09149737 -0.20616862 0.20672186 0.18474431
0.2959794 -0.26629955 -0.28985852 -0.07362668 0.21365115 -0.29354766 0.08933876 0.04674979
-0.03128614 -0.30075115 0.018802786 0.2883029 -0.12291103 -0.16601104 0.0011880575 0.18082169
0.07663418 0.20805092 0.09418634 -0.3144527 -0.09365073 0.24765141 0.1101378 -0.11085702
0.31108713 -0.101966284 -0.17526242 -0.070188336 -0.19241197 -0.17730248 0.16235468 0.22824077
0.18960601 0.15952617 -0.06840601 0.15379193 -0.30265427 -0.067528136 0.16666497 0.3149297
0.04712728 -0.27780318 -0.063191 -0.15554222 -0.0026271704 0.04352191 0.30294004 0.13317557
0.082826644 0.08024628 0.010734677 0.16596831 -0.2403765 -0.065337986 0.26151603 -0.13142863
-0.1392846 -0.1960546 0.18281184 -0.18241468 -0.18419132 0.12330721 0.015669512 -0.23170376
-0.24608175 0.03489479 -0.30372268 -0.20573135 0.14563401 0.31568867 0.007724785 -0.13627487
-0.10715867 -0.30786878 0.13975231 -0.01682764 0.17289771 -0.14985889 0.2556746 0.27505222
-0.07011805 0.2155871 0.18881539 -0.1955566 0.28695464 -0.21796402 -0.23534323 -0.0032055036
-0.12405752 -0.21379717 0.045098834 -0.08222941 -0.1028826 -0.15797462 0.17302257 0.11000599
0.059616994 -0.053272862 -0.08549873 0.18123592 -0.16307658 -0.13915081 0.1419859 -0.13681364
0.2756526 -0.12562783 0.2995082 -0.18482181 -0.03317958 -0.101260975 0.17641337 -0.13501155
0.17989922 -0.1661535 -0.06460289 -0.037760727 -0.10910384 0.067374036 -0.2090949 -0.20138057
0.2106651 0.0796437 -0.021222228 0.1658554 -0.20844217 -0.31414205 0.039477047 0.20135191
-0.14880858 0.24724145 -0.15535116 -0.08529287 0.036171254 0.2506059 0.05561465 -0.27966
0.048863076 -0.14732847 0.20124544 -0.25594112 0.045871757 0.06700861 0.04919735 -0.11387892
-0.045372497 0.26929146 -0.2746713 -0.1875908 0.013784578 -0.1265016 -0.09285429 0.015734786
0.3157344 -0.29269445 0.0014859757 0.26354486 0.1519805 0.11560954 0.20733139 0.18665911
-0.03494352 0.2977106 0.19584242 0.31120485 0.08595099 0.22670937 -0.20410344 -0.3061319
0.07493449 -0.2139112 -0.084101774 -0.31087422 0.039195504 0.21323696 0.0053581935 -0.004318497
0.023526702 -0.3137435 0.06665631 0.14487046 -0.29186988 0.015602028 -0.27974534 -0.018172642
00000000: 5d30 553e 9489 a0bd fd19 4f3e 1b8a 43be
00000010: 7d03 1a3e 86e6 3cbd 23eb 0c3e f03c 9fbc
00000020: b9c2 ab3c 33a2 ebbd 3a45 a1be 7fef 093d
00000030: 5bff 45be a228 09bd cc4a 8b3e fa81 6d3e
00000040: 9e08 12be f00b 8fbd e053 4bbe ec5d c0bd
00000050: 1231 18bd 2d2f 30be b947 3fbd 1c58 fb3d
00000060: 5625 4ebd 4621 22be 6bc8 31be 1050 993e
00000070: 3fb9 f2bd 953f d2bb bd4e 45bd c6ce 7c3e
00000080: 4f96 303d cca2 bb3d c13f 2bbe 1a48 503d
00000090: f25a 333e 1f72 293e 5234 c13c d8e1 b639
000000a0: 641d 9c3d 4c5a 53be cfbe 21be 862c 863e
000000b0: 89e2 91be 8fca 92be 1f5c fa3d b507 c43d
000000c0: da27 cebc 64ab a5bd feee 14be f075 0abe
000000d0: cba8 15bd c26d 5b3e 6ee9 84bb 8e9d bf3c
000000e0: ecd2 85be a94e 2e3e f5b2 183e 0843 a63c
000000f0: 996b 9abe 819c 4fbe 3582 943e 4f8e 883d
00000100: fb67 8abd 7502 82be 24ce 04be 6c66 2a3e
00000110: f962 bbbd de1d 53be e5ae 533e 9d2d 3d3e
00000120: 9d8a 973e 6a58 88be 5668 94be 96c9 96bd
00000130: 5ec7 5a3e e14b 96be 3df7 b63d b57c 3f3d
00000140: e525 00bd 0efc 99be 4d08 9a3c 709c 933e
00000150: c7b8 fbbd ccfe 29be 98b8 9b3a 5229 393e
00000160: 62f2 9c3d 4d0b 553e c5e4 c03d f2ff a0be
00000170: f4cb bfbd 5598 7d3e ed8f e13d 0109 e3bd
00000180: d046 9f3e b3d3 d0bd fe77 33be e7be 8fbd
00000190: a507 45be c88e 35be 4e40 263e f3b7 693e
000001a0: 1428 423e d45a 233e 7318 8cbd a27b 1d3e
000001b0: 80f5 9abe 314c 8abd 39aa 2a3e 773e a13e
000001c0: 8908 413d 383c 8ebe 486a 81bd 7646 1fbe
000001d0: 9b2c 2cbb 0844 323d f51a 9b3e 2d5f 083e
000001e0: 04a1 a93d 2958 a43d 80e0 2f3c 99f3 293e
000001f0: 4225 76be eccf 85bd 6ee5 853e 3a95 06be
00000200: 9fa0 0ebe 89c2 48be 0733 3b3e eaca 3abe
00000210: a69c 3cbe 7e88 fc3d 595d 803c c043 6dbe
00000220: dbfc 7bbe d7ed 0e3d 8a81 9bbe 3dab 52be
00000230: 1521 153e f2a1 a13e 3120 fd3b a48b 0bbe
00000240: 0176 dbbd faa0 9dbe 3b1b 0f3e 1eda 89bc
00000250: 190c 313e 9c74 19be c8e7 823e a5d3 8c3e
00000260: 0d9a 8fbd ddc2 5c3e d258 413e fd3f 48be
00000270: b8eb 923e f631 5fbe d1fd 70be 6d13 52bb
00000280: de11 febd a5ed 5abe 8eb9 383d e567 a8bd
00000290: 1db4 d2bd 19c4 21be d42c 313e d24a e13d
000002a0: f330 743d a534 5abd f519 afbd e995 393e
000002b0: 8cfd 26be 8d7d 0ebe c064 113e e018 0cbe
000002c0: 5622 8d3e 95a4 00be 2459 993e ee41 3dbe
000002d0: 50e7 07bd ea61 cfbd b5a5 343e 7840 0abe
000002e0: 8037 383e 2524 2abe 854e 84bd feaa 1abd
000002f0: d671 dfbd 66fb 893d f91c 56be b536 4ebe
00000300: 98b8 573e 3c1c a33d 3dda adbc ffd5 293e
00000310: dd71 55be 3ad7 a0be afb2 213d 322f 4e3e
00000320: 4761 18be dd2c 7d3e 6014 1fbe 07ae aebd
00000330: 4f28 143d 6b4f 803e 30cc 633d 982f 8fbe
00000340: a624 483d 46dd 16be 4913 4e3e b70a 83be
00000350: 06e4 3b3d cf3b 893d 2983 493d 5a39 e9bd
00000360: 83d8 39bd 92e0 893e b7a1 8cbe cd17 40be
00000370: b6d8 613c a389 01be 642a bebd 3de6 803c
00000380: f0a7 a13e 0cdc 95be 12c5 c23a 5aef 863e
00000390: c7a0 1b3e b2c4 ec3d ae4e 543e 9123 3f3e
000003a0: f020 0fbd 866d 983e ea8a 483e 3e56 9f3e
000003b0: 1307 b03d 8026 683e 7e00 51be 52bd 9cbe
000003c0: 4177 993d 8a0b 5bbe 8d3d acbd e82a 9fbe
000003d0: 778b 203d ca5a 5a3e c993 af3b 2e82 8dbb
000003e0: 12bb c03c fda2 a0be 1a83 883d ec58 143e
000003f0: f86f 95be a69f 7f3c c83a 8fbe cbde 94bc

encoder.gru.bias_ih_l0 f4 [30]
0.12803623 -0.14577734 0.171606 -0.15824896 -0.27054906 -0.27125376 -0.04462872 -0.10343309
-0.19492282 -0.017632995 0.18943602 0.08013738 -0.03842781 -0.2623384 -0.12935263 -0.26975968
-0.16640727 0.23558128 0.2471221 0.108475894 -0.2099696 0.2491071 -0.31194505 0.07576454
0.18339273 -0.16005872 0.09928076 -0.20222229 -0.3006184 -0.16916893
00000000: ee1b 033e a846 15be 7cb9 2f3e 040c 22be
00000010: 6885 8abe c6e1 8abe 9bcc 36bd bad4 d3bd
00000020: d999 47be 1273 90bc 84fb 413e 111f a43d
00000030: 7b66 1dbd 3851 86be 0475 04be f11d 8abe
00000040: ab66 2abe 383c 713e 930d 7d3e 9c28 de3d
00000050: 4502 57be ee15 7f3e 43b7 9fbe 702a 9b3d
00000060: 4ecb 3b3e 6fe6 23be b653 cb3d 5c13 4fbe
00000070: a8ea 99be 9f3a 2dbe

encoder.gru.bias_hh_l0 f4 [30]
0.20653799 0.096659616 -0.26319948 -0.106896184 -0.3050804 0.008756146 -0.24313983 0.2063302
-0.21521004 -0.0777593 -0.008115787 -0.17445628 0.04970791 0.30880132 -0.163424 -0.27034435
0.16331574 0.20519441 -0.15865515 -0.09343715 -0.25134552 0.08190684 0.17803696 -0.061967157
-0.30779922 -0.099060014 -0.07729833 -0.2009559 -0.12878174 0.25331712
00000000: b27e 533e 7af5 c53d 15c2 86be 63ec dabd
00000010: 8033 9cbe f075 0f3c a6f9 78be 3948 533e
00000020: 0560 5cbe 4540 9fbd 14f8 04bc aba4 32be
00000030: 859a 4b3d 351b 9e3e 9f58 27be 936a 8abe
00000040: 3e3c 273e 7c1e 523e 7f76 22be fa5b bfbd
00000050: 5cb0 80be c6be a73d 524f 363e 46d1 7dbd
00000060: dc97 9dbe fadf cabd 964e 9ebd 62c7 4dbe
00000070: 5cdf 03be c8b2 813e

decoder.embedding.weight f4 [189, 10]
0.29202032 0.4710174 1.8358485 1.2373964 1.3962733 1.7481288 0.44175744 -1.3849144
-0.612491 0.56942797 0.24401827 -1.6675416 -1.240081 -0.57070947 -0.33649045 0.056839917
0.46167693 -1.3274814 -0.4973162 1.2658564 -0.14442633 -0.29426602 -0.44107053 -0.5745165
0.29059967 0.28317395 0.77099586 -0.28481165 0.22852056 0.9132899 -0.19409864 -0.38046026
2.1143105 0.3962334 1.0092311 0.93120456 -0.99336314 0.6260211 1.8655269 0.1477462
0.50401205 -1.8677635 -0.78884107 0.11106348 -0.43487588 -0.12779927 -0.8970437 1.3488425
-1.01001 -1.6411216 -0.76127106 0.8517672 0.8506213 0.015236918 -0.8821318 -0.45646322
-0.6240336 0.86413705 -0.58462703 1.5190022 -0.39082402 1.5831234 -0.8226755 -1.9352275
0.390047 0.44521132 0.84661496 1.0886343 -0.37616453 -0.7590738 0.18606453 -0.4863291
-0.07454046 -1.0529722 1.7886834 0.720095 -0.18864365 0.89866555 -1.137325 0.51273835
-0.9957305 -0.8455317 0.1506136 0.1773021 -1.016594 -0.7615691 2.7631388 -0.7838522
-0.6593681 -0.17135613 -0.45963734 -2.238045 1.0339757 -1.887599 -0.2779499 -1.0939357
-0.28810692 0.46279117 0.2661478 -2.4117286 -0.008869607 -2.092943 0.21636456 0.31927556
-0.32416224 0.14125308 -2.0898633 1.4114656 0.038628638 0.4948745 -0.08336881 -0.025708143
0.89597654 0.66772324 1.0026859 0.5340506 0.9332481 -1.2528615 -1.1883949 -0.5232349
0.74761933 0.023433395 -0.1579536 -1.4559348 0.96802235 -0.100228965 0.24278235 -0.12804952
0.85583186 0.29370877 0.014321542 -0.99473995 -1.0031787 1.3202846 1.6598766 1.179006
0.3579184 -0.59800375 -0.12790465 -0.3468135 0.8588887 -0.1528949 -1.2352953 -0.9863328
0.38351977 -0.7271587 -1.403222 -0.4954707 1.2740132 0.24038301 0.20427972 -0.6374169
-2.0789409 -0.42838722 1.1092628 0.29788426 0.8955065 0.20821273 0.14212786 0.8219072
1.3866417 1.2362438 0.36457878 -0.23996614 1.2262876 -0.27813175 0.8818933 0.41235295
-0.9552225 -0.6857857 1.5290904 0.08116482 0.5121037 -1.7154043 -0.45377105 0.387962
0.4986343 -0.35981017 0.28539857 -1.1470201 -0.61209977 -1.4894897 0.7748634 -1.1388991
-1.0885829 2.0138423 0.89865273 -0.6029164 -0.08745146 -0.60161495 -0.7862127 0.60503405
0.44739813 0.8853093 1.6693178 0.13393813 -0.11958319 -0.09823108 -0.792066 -1.2564213
0.83755654 0.4736622 1.9431453 0.94020087 -0.14321226 1.1173153 -0.060001366 0.6834961
0.68474424 0.032924723 -1.5758462 2.2764273 -1.7107413 -0.61374134 0.6677136 -1.6054921
-0.8163114 1.6101187 0.5731996 0.18045992 0.939068 0.24433275 -1.7417227 0.06236526
-0.2076508 -2.3261943 0.31701788 0.06931771 -0.081177406 0.3948945 -0.2595312 0.8263144
-0.77639526 1.1613295 0.09207908 0.49639505 0.048392884 0.5607447 -0.7194799 -2.0801249
-0.77153933 1.8918366 0.74198604 1.7437941 0.83761847 1.3803307 -0.12286455 0.3083129
-1.3461903 -1.6831902 -2.2901845 -0.78893983 1.0924518 0.22960961 -0.1772856 0.039301835
00000000: b083 953e 3129 f13e 15fd ea3f 0163 9e3f
00000010: 15b9 b23f afc2 df3f 082e e23e e044 b1bf
00000020: 36cc 1cbf 08c6 113f eddf 793e 0172 d5bf
00000030: f9ba 9ebf 041a 12bf 7a48 acbe f9d0 683d
00000040: eb60 ec3e e9ea a9bf 3ba0 febe 9507 a23f
00000050: 7fe4 13be 09aa 96be ffd3 e1be 8313 13bf
00000060: 7bc9 943e 2dfc 903e fc5f 453f d5d2 91be
00000070: 4b01 6a3e 5ecd 693f cbc1 46be b0cb c2be
00000080: dd50 0740 1bdf ca3e 7c2e 813f 6c63 6e3f
00000090: 0c4d 7ebf eb42 203f 96c9 ee3f c84a 173e
000000a0: ef06 013f e012 efbf 7df1 49bf 4075 e33d
000000b0: 0da8 debe d0dd 02be a8a4 65bf dfa6 ac3f
000000c0: 0248 81bf 4610 d2bf a9e2 42bf 6a0d 5a3f
000000d0: 51c2 593f 44a4 793c 64d3 61bf 8cb5 e9be
000000e0: aac0 1fbf 1638 5d3f 1eaa 15bf aa6e c23f
000000f0: 161a c8be caa3 ca3f dd9a 52bf 89b5 f7bf
00000100: 3eb4 c73e bdf2 e33e c2bb 583f 5e58 8b3f
00000110: a398 c0be a952 42bf b387 3e3e 2100 f9be
00000120: aba8 98bd cbc7 86bf 94f3 e43f 2558 383f
00000130: cd2b 41be f20e 663f de93 91bf d242 033f
00000140: 32e8 7ebf c474 58bf 743a 1a3e af8e 353e
00000150: c11f 82bf 31f6 42bf 44d7 3040 8aaa 48bf
00000160: 59cc 28bf fb77 2fbe 9655 ebbe 213c 0fc0
00000170: 5159 843f d89c f1bf 734f 8ebe 1606 8cbf
00000180: c082 93be f7f2 ec3e 8644 883e c359 1ac0
00000190: d451 11bc c7f2 05c0 ac8e 5d3e 1678 a33e
000001a0: 98f8 a5be a6a4 103e 52c0 05c0 e8aa b43f
000001b0: 1039 1e3d 3160 fd3e 44bd aabd e299 d2bc
000001c0: b85e 653f e9ef 2a3f 0358 803f 8ab7 083f
000001d0: 59e9 6e3f c45d a0bf 531d 98bf b9f2 05bf
000001e0: fb63 3f3f 64f7 bf3c 97be 21be 125c babf
000001f0: 50d0 773f d844 cdbd f09b 783e 6a1f 03be
00000200: cc17 5b3f ff60 963e e7a4 6a3c 47a7 7ebf
00000210: 2968 80bf 16ff a83f d676 d43f abe9 963f
00000220: 1541 b73e c616 19bf 70f9 02be 8a91 b1be
00000230: 21e0 5b3f 7b90 1cbe 281e 9ebf 4e80 7cbf
00000240: b45c c43e 1327 3abf c79c b3bf 56ae fdbe
00000250: dd12 a33f f726 763e b42e 513e c12d 23bf
00000260: 5e0d 05c0 9255 dbbe 53fc 8d3f 4984 983e
00000270: ea3f 653f b835 553e f789 113e 8368 523f
00000280: 7a7d b13f 3d3d 9e3f 12aa ba3e afb9 75be
00000290: fef6 9c3f 4967 8ebe c2c3 613f ed1f d33e
000002a0: 7689 74bf a78f 2fbf 3cb9 c33f be39 a63d
000002b0: 3a19 033f 5e92 dbbf ae54 e8be f5a2 c63e
000002c0: ff4c ff3e 0a39 b8be c31f 923e 8ed1 92bf
000002d0: 92b2 1cbf 99a7 bebf 735d 463f 72c7 91bf
000002e0: af56 8bbf cbe2 0040 1b0e 663f bb58 1abf
000002f0: c019 b3bd 7003 1abf 3c45 49bf 83e3 1a3f
00000300: 5e11 e53e a1a3 623f 35ac d53f 1427 093e
00000310: 08e8 f4bd 602d c9bd d6c4 4abf 6ad2 a0bf
00000320: 1b6a 563f da83 f23e fcb8 f83f 01b1 703f
00000330: 3ca6 12be 3004 8f3f fec3 75bd 9af9 2e3f
00000340: 664b 2f3f 13dc 063d 54b5 c9bf fcb0 1140
00000350: 92f9 dabf 271e 1dbf 47ef 2a3f c480 cdbf
00000360: c9f9 50bf 5f18 ce3f 36bd 123f 7cca 383e
00000370: c366 703f 5d32 7a3e c5f0 debf b772 7f3d
00000380: 69a2 54be 5ee0 14c0 2b50 a23e 72f6 8d3d
00000390: 5740 a6bd 9d2f ca3e 46e1 84be 5789 533f
000003a0: d7c1 46bf 72a6 943f f593 bc3d 7e27 fe3e
000003b0: 9e37 463d f78c 0f3f d62f 38bf c420 05c0
000003c0: 9a83 45bf b427 f23f ccf2 3d3f a534 df3f
000003d0: 2a6e 563f adae b03f 69a0 fbbd 30db 9d3e
000003e0: f74f acbf c772 d7bf 6292 12c0 f6f7 49bf
000003f0: 76d5 8b3f c81e 6b3e 5b8a 35be f6fa 203d

decoder.attn.weight f4 [15, 20]
0.02952353 0.17735091 -0.12266663 0.21600735 0.043666847 0.11977358 0.1616631 0.1399229
0.09860436 -0.14281721 -0.18638682 0.16706653 -0.18005314 0.04797496 -0.050126564 -0.14772461
-0.028931307 0.1527844 -0.1511235 0.09172217 -0.15859759 -0.17924885 -0.18784879 0.034896947
0.0031501043 0.10142134 0.12754911 0.085787475 -0.15139169 0.20344974 -0.032930687 -0.21656443
0.14249355 -0.12732089 -0.19438997 0.05023294 0.010227577 -0.21540248 0.15402861 -0.03514206
0.0069909072 0.12146985 -0.08763589 -0.06243296 0.21548356 0.11640799 0.13592695 -0.22028413
0.20020309 -0.10593294 0.060115956 0.08254704 0.055220697 0.02275124 0.10627833 -0.13904178
-0.016929874 -0.101254605 -0.12698214 -0.14480042 0.041537944 0.08959118 -0.20132005 -0.1012917
0.06899744 0.1688534 -0.09441747 0.08197929 0.04205323 0.17814477 -0.055710148 0.17880936
0.19745465 -0.11609828 -0.15304102 0.007353528 0.09195704 0.022144498 0.15578946 -0.19839163
0.10888914 -0.036239397 0.061559122 -0.14598478 0.17209615 0.08979569 0.12139899 -0.025537815
-0.17380026 -0.19004188 -0.15941593 0.07417665 0.036485884 0.09251005 -0.016189087 -0.12475496
-0.08106951 0.1479578 -0.06883154 -0.05461623 0.17562611 0.18396349 0.20364365 0.040374756
-0.021516798 0.19987133 -0.013164418 -0.14267148 0.16461521 0.18093897 0.19382788 0.08082073
-0.08077914 0.113715105 -0.14843984 0.17767653 -0.21020538 0.011129127 0.2069036 0.20517571
0.19031805 -0.043341827 -0.14451423 0.16024807 0.04157931 0.2173794 -0.08666779 0.062447242
0.21209893 -0.018636506 -0.2097637 -0.09490169 0.14932631 -0.12075716 -0.20289697 -0.11000187
-0.13800956 -0.019526983 0.112415165 0.14605029 0.03714816 0.035507146 0.06353155 -0.10245665
0.052943554 -0.21962179 0.060426995 0.015424079 -0.13151811 -0.21006049 0.11004138 0.11123134
0.121367104 0.1370656 0.15662865 0.06682418 -0.1950818 0.16536449 -0.05367198 0.084811665
0.034641534 -0.19865347 -0.015561043 -0.17916061 0.19659218 0.04095202 -0.04186016 -0.17367785
0.19950399 0.08114016 -0.079785 0.0068652974 -0.04835375 0.15532728 0.111874536 -0.1941237
-0.055577077 -0.15162553 0.13239115 0.0084323855 -0.036469966 0.020834856 0.1578087 -0.15403858
-0.21204406 0.15588464 -0.14215985 -0.21040231 0.15375131 0.11655235 -0.0952174 -0.13881066
0.08326067 -0.014160415 0.1454744 0.21141942 0.055290483 -0.06596379 -0.1937082 -0.08043137
0.07747143 0.18072803 0.0010777554 -0.20907655 -0.0974466 0.015407823 0.17391151 0.11290895
0.110530905 0.10223231 -0.21527022 -0.11841386 -0.15169948 0.11115403 -0.06540111 0.11675234
0.21141225 0.20394742 0.038953 0.053819746 -0.029350204 0.08176336 -0.12956631 -0.09736477
0.109664045 -0.03331834 -0.061821412 0.026681503 0.017434865 0.21743299 -0.010986194 0.013702693
0.20187634 -0.115811095 0.116503045 -0.04007751 -0.120461084 -0.15074642 0.12359706 0.08355904
-0.2007787 0.06251856 -0.19208947 -0.16031805 -0.1251572 -0.21831317 0.21099792 -0.19364108
0.19007102 -0.10450365 -0.1088358 0.1905105 -0.113605864 -0.13068277 -0.032838836 -0.100445785
00000000: 54db f13c 7a9b 353e a438 fbbd 0831 5d3e
00000010: 02dc 323d da4b f53d 038b 253e f347 0f3e
00000020: 15f1 c93d ad3e 12be 30dc 3ebe 7d13 2b3e
00000030: da5f 38be 6481 443d 8351 4dbd 1f45 17be
00000040: 5901 edbc 8473 1c3e 1ec0 1abe d5d8 bb3d
00000050: 6867 22be 038d 37be 6f5b 40be 1af0 0e3d
00000060: fb71 4e3b feb5 cf3d 3c9c 023e 58b1 af3d
00000070: 6c06 1bbe 2155 503e 54e2 06bd 11c3 5dbe
00000080: d4e9 113e 6860 02be 2a0e 47be 0ec1 4d3d
00000090: 9191 273c 7892 5cbe adb9 1d3e 1ff1 0fbd
000000a0: fb13 e53b 2fc5 f83d 727a b3bd b4b9 7fbd
000000b0: b9a7 5c3e 5067 ee3d 6f30 0b3e 2a92 61be
000000c0: 0a02 4d3e 5ff3 d8bd 263c 763d 6c0e a93d
000000d0: 192f 623d cf60 ba3c 74a8 d93d f860 0ebe
000000e0: 85b0 8abc 935e cfbd 9b07 02be 9046 14be
000000f0: b123 2a3d 957b b73d d826 4ebe 0672 cfbd
00000100: 884e 8d3d e8e7 2c3e f25d c1bd c2e4 a73d
00000110: 0240 2c3d 956b 363e 5330 64bd cd19 373e
00000120: 8d31 4a3e efc4 edbd c9b6 1cbe ddf5 f03b
00000130: f953 bc3d 6168 b53c 4687 1f3e 2d27 4bbe
00000140: 4501 df3d c36f 14bd 6b25 7c3d 097d 15be
00000150: f939 303e cde6 b73d 09a0 f83d ae34 d1bc
00000160: b2f8 31be 579a 42be ee3d 23be ede9 973d
00000170: 3972 153d e975 bd3d fa9e 84bc 877f ffbd
00000180: c507 a6bd 4082 173e 8df7 8cbd 45b5 5fbd
00000190: 55d7 333e ed60 3c3e f687 503e 0060 253d
000001a0: ff43 b0bc 12ab 4c3e 92af 57bc 7918 12be
000001b0: e490 283e 1148 393e d17a 463e 5785 a53d
000001c0: 896f a5bd 77e3 e83d 9d00 18be d6f0 353e
000001d0: 1440 57be f156 363c 8ade 533e 9519 523e
000001e0: bce2 423e 3387 31bd 8afb 13be 1218 243e
000001f0: 114f 2a3d b598 5e3e e27e b1bd aec8 7f3d
00000200: 7630 593e 96ab 98bc 4ccc 56be d15b c2bd
00000210: ffe8 183e 884f f7bd 39c4 4fbe a948 e1bd
00000220: 6152 0dbe 0df7 9fbc ec39 e63d 358e 153e
00000230: ab28 183d f16f 113d d41c 823d cbd4 d1bd
00000240: 57db 583d 89e4 60be 4c82 773d 47b5 7c3c
00000250: afac 06be 191a 57be 605d e13d 42cd e33d
00000260: 518f f83d ed5a 0c3e 4363 203e 1edb 883d
00000270: 86c3 47be 4f55 293e 26d7 5bbd bdb1 ad3d
00000280: 48e4 0d3d d16b 4bbe bff3 7ebc e175 37be
00000290: 764f 493e 4ebd 273d 8f75 2bbd 9bd8 31be
000002a0: c64a 4c3e d02c a63d 5166 a3bd 4af6 e03b
000002b0: 950e 46bd 1d0e 1f3e 7a1e e53d 5dc8 46be
000002c0: caa4 63bd b943 1bbe 8c91 073e fd27 0a3c
000002d0: 8861 15bd dcad aa3c 9b98 213e 4abc 1dbe
000002e0: 1422 59be 39a0 1f3e 5a92 11be b473 57be
000002f0: fc70 1d3e 00b3 ee3d 5701 c3bd 6224 0ebe
00000300: 9284 aa3d 1601 68bc 3ef7 143e 557e 583e
00000310: 4678 623d 0618 87bd 715b 46be 34b9 a4bd
00000320: 57a9 9e3d c510 393e 7843 8d3a 2a18 56be
00000330: 1592 c7bd 1871 7c3c dc15 323e cf3c e73d
00000340: 075e e23d 2c5f d13d cc6f 5cbe f782 f2bd
00000350: 1c57 1bbe b9a4 e33d 04f1 85bd da1b ef3d
00000360: 747c 583e 98d7 503e 2e8d 1f3d 1872 5c3d
00000370: d76f f0bc 8c73 a73d 08ad 04be 2e67 c7bd
00000380: 8b97 e03d d078 08bd 7338 7dbd 2b93 da3c
00000390: 90d3 8e3c c1a6 5e3e 70ff 33bc 4381 603c
000003a0: acb8 4e3e 5e2e edbd 2699 ee3d 5128 24bd
000003b0: 4db4 f6bd 455d 1abe 7520 fd3d 0121 ab3d
000003c0: ee98 4dbe bb09 803d 1ab3 44be 6a2a 24be
000003d0: 3629 00be 7d8d 5fbe d70f 583e d949 46be
000003e0: faa1 423e 0206 d6bd 4ee5 debd 2f15 433e
000003f0: 31aa e8bd b4d1 05be 0482 06bd 85b6 cdbd

decoder.attn.bias f4 [15]
-0.014366895 0.19358315 0.13970378 -0.11844628 0.17206797 0.18799043 -0.09610378 0.12976669
0.16886577 0.027465435 0.09660684 0.034012895 0.20273645 0.18016261 -0.041787025
00000000: 2063 6bbc a93a 463e 820e 0f3e f793 f2bd
00000010: 9632 303e 9080 403e 0fd2 c4bd 8fe1 043e
00000020: 26eb 2c3e 31ff e03c cfd9 c53d 1b51 0b3d
00000030: 259a 4f3e 8c7c 383e df28 2bbd

decoder.attn_combine.weight f4 [10, 20]
-0.21153477 -0.21348199 -0.21465401 -0.19411328 0.06292509 -0.22269078 -0.12251653 -0.12766701
-0.1029511 0.0791904 0.10169221 -0.055665623 0.16714838 -0.11381264 -0.20282067 0.19226898
0.027897134 -0.15516768 -0.14428824 -0.20468189 -0.13597378 -0.045986596 0.20062867 -0.21967912
-0.08148408 -0.020689487 -0.14699407 0.10888941 0.0928745 0.198644 0.20176297 0.10803951
-0.04202859 0.09158448 -0.0073914356 -0.10955111 -0.0954647 0.012154719 0.014862694 0.048746165
0.04402798 0.09837896 0.14742027 0.040045384 -0.18837962 -0.11135192 -0.072873116 0.046239663
-0.017541813 0.1562056 0.098189004 0.18615896 0.00481827 -0.14624953 -0.02552287 -0.023997597
-0.22161092 0.13426183 -0.19088711 0.0044829953 0.09500052 0.057462905 -0.028855937 -0.12143156
0.12427544 -0.12134241 0.082210734 0.011231947 -0.085520335 -0.09215012 -0.06369874 -0.16971755
-0.0069128973 0.20452847 0.0012963018 0.001447579 -0.018835207 0.05616137 0.018642833 0.13514149
-0.0725567 0.159133 0.09248062 -0.038353253 0.11812972 -0.10076458 -0.056153208 0.11811406
0.060630262 -0.076000355 -0.037692025 -0.10732793 0.05081713 -0.11729803 -0.006717497 -0.09363565
0.1625274 -0.14201872 -0.060969345 0.12775913 0.1777542 0.05357755 -0.18109119 0.04968103
0.04161306 0.09377499 0.049825694 0.06459204 0.05807767 -0.04348107 -0.07022087 -0.073430896
0.16141325 -0.09643424 -0.05200352 0.219872 0.08972167 -0.17552842 -0.12953831 0.1607449
-0.09486123 -0.1631174 0.114613384 0.08354824 0.08574486 -0.1474975 0.12557057 0.1491052
0.1131143 -0.09811139 0.053005986 0.10818797 -0.07046006 -0.032439467 -0.20934749 0.021439973
0.0505625 0.13891916 -0.17318363 -0.058826964 0.15398367 -0.08616959 -0.07615356 0.21032095
-0.16952586 -0.13509905 -0.077251494 0.123518415 -0.011656776 0.092268676 0.21728115 0.19493717
-0.17117175 -0.09026729 0.06916767 -0.12293913 -0.20131566 0.024631323 -0.10531861 -0.19567898
0.11548509 -0.12509657 -0.041513603 -0.11239774 -0.020187277 -0.18648563 0.14556012 0.0039559556
0.13220689 -0.02880875 0.0070617623 0.1827819 0.15330233 -0.075532354 0.1554641 0.12024628
0.2063849 0.098755 0.062054947 -0.06851705 0.07781084 0.11569166 -0.028301012 -0.13857491
-0.1276978 0.037505392 0.07826498 -0.15227512 0.20198521 -0.13194732 0.040321328 -0.04457067
-0.19637176 -0.04316184 0.05927568 0.062039725 0.025200102 0.15942095 -0.13102072 -0.0920211
00000000: 929c 58be 069b 5abe 43ce 5bbe a2c5 46be
00000010: dfde 803d 0d09 64be f2e9 fabd 24bb 02be
00000020: 07d8 d2bd 942e a23d 0144 d03d a301 64bd
00000030: f228 2b3e 9a16 e9bd 39b0 4fbe 29e2 443e
00000040: 8888 e43c 47e4 1ebe 4cc0 13be 2198 51be
00000050: b63c 0bbe 715c 3cbd 9a71 4d3e 90f3 60be
00000060: 20e1 a6bd 007d a9bc 9d85 16be 6901 df3d
00000070: fc34 be3d 5569 4b3e f49a 4e3e d243 dd3d
00000080: 2c26 2cbd a590 bb3d db33 f2bb 555c e0bd
00000090: ff82 c3bd 9624 473c a882 733c 0faa 473d
000000a0: af56 343d e87a c93d 57f5 163e a106 243d
000000b0: 96e6 40be 7a0c e4bd 803e 95bd cd65 3d3d
000000c0: d9b3 8fbc 5cf4 1f3e 5117 c93d 74a0 3e3e
000000d0: 94e2 9d3b 70c2 15be 5615 d1bc 9c96 c4bc
000000e0: f9ed 62be ef7b 093e e977 43be 17e6 923b
000000f0: a28f c23d 395e 6b3d 4963 ecbc 1cb1 f8bd
00000100: 1f84 fe3d 5f82 f8bd 1a5e a83d 3306 383c
00000110: 4925 afbd 34b9 bcbd 7c74 82bd 70ca 2dbe
00000120: 9685 e2bb e96f 513e ace8 a93a b1bc bd3a
00000130: 4b4c 9abc 7709 663d dbb8 983c 8862 0a3e
00000140: 9b98 94bd c3f3 223e 7b66 bd3d 4d18 1dbd
00000150: ffed f13d a95d cebd e800 66bd c9e5 f13d
00000160: 7057 783d 13a6 9bbd f462 1abd bfce dbbd
00000170: 9f25 503d f339 f0bd 731e dcbb 0cc4 bfbd
00000180: 956d 263e 5b6d 11be feba 79bd 4ad3 023e
00000190: 3205 363e 2274 5b3d f86f 39be 567e 4b3d
000001a0: 7572 2a3d 1a0d c03d 0716 4c3d d548 843d
000001b0: dae2 6d3d 3519 32bd f6cf 8fbd f062 96bd
000001c0: 8449 253e 517f c5bd a501 55bd 2026 613e
000001d0: ffbf b73d b9bd 33be b1a5 04be 509a 243e
000001e0: 9b46 c2bd 3f08 27be 6cba ea3d 571b ab3d
000001f0: 009b af3d 9609 17be 9295 003e 09af 183e
00000200: 78a8 e73d a0ee c8bd ce1c 593d a891 dd3d
00000210: 5d4d 90bd 3fdf 04bd 305f 56be e2a2 af3c
00000220: a01a 4f3d d340 0e3e 0d57 31be 8bf4 70bd
00000230: e5ad 1d3e af79 b0bd 66f6 9bbd 605e 573e
00000240: 3098 2dbe 6857 0abe 0836 9ebd 39f7 fc3d
00000250: 10fc 3ebc 5cf7 bc3d f37e 5e3e 9c9d 473e
00000260: a647 2fbe 0fde b8bd c8a7 8d3d 83c7 fbbd
00000270: b125 4ebe a1c7 c93c 49b1 d7bd 1260 48be
00000280: 7283 ec3d 5119 00be 2b0a 2abd c930 e6bd
00000290: ca5f a5bc 17f6 3ebe b60d 153e f6a0 813b
000002a0: 3e61 073e 5400 ecbc 5b66 e73b 2e2b 3b3e
000002b0: 49fb 1c3e b5b0 9abd fb31 1f3e af43 f63d
000002c0: 9056 533e 1040 ca3d 542d 7e3d ab52 8cbd
000002d0: 4a5b 9f3d c0ef ec3d 86d7 e7bc 95e6 0dbe
000002e0: 36c3 02be 419f 193d 6449 a03d 02ee 1bbe
000002f0: 36d5 4e3e 331d 07be fa27 253d bc8f 36bd
00000300: ae15 49be 78ca 30bd 0ecb 723d 5e1d 7e3d
00000310: 7270 ce3c 3f3f 233e 4c2a 06be 8f75 bcbd

decoder.attn_combine.bias f4 [10]
0.0013661517 0.0766122 0.066571966 -0.095460795 0.030457664 0.07070899 0.21011756 -0.086683325
0.22130927 -0.09614729
00000000: 7210 b33a dbe6 9c3d e256 883d f380 c3bd
00000010: 5a82 f93c e0cf 903d 0f29 573e 0787 b1bd
00000020: e69e 623e dfe8 c4bd

decoder.gru.weight_ih_l0 f4 [30, 10]
-0.28603372 0.14218904 0.03454937 -0.10398666 -0.15524921 -0.1356333 0.18139607 -0.007957835
-0.116215564 -0.02396901 -0.1356329 -0.011201445 -0.17875808 -0.12512642 -0.12713121 -0.2703598
-0.0041093216 0.20137143 -0.21520884 0.22466636 -0.24851716 -0.29210132 0.28658742 -0.11234531
0.113913566 0.26037517 0.21567948 0.29010502 -0.03491831 0.22491011 -0.0926915 0.30659285
0.29661196 0.30446285 0.26154444 0.008136418 -0.094029136 0.31229326 -0.29347244 -0.009186748
0.16255353 -0.2353201 0.24475525 -0.05662311 -0.17297974 0.12883288 -0.013569844 -0.18964133
-0.18466488 0.3124922 -0.012245426 -0.18097384 0.0920532 0.27971983 0.10821478 0.2947933
0.26234636 -0.28927568 -0.14730269 0.29752403 0.020698585 0.06579318 0.20288613 -0.31277424
0.0132718785 0.26686886 0.024172984 -0.10202157 0.02801034 -0.26860297 0.18150368 0.2383318
0.18216541 0.13466947 -0.29192975 -0.13894525 0.2158442 -0.22740933 -0.19323188 -0.14563838
0.13786231 -0.15002024 0.18796988 -0.22212732 0.253955 -0.1451656 0.14573586 0.053623434
0.20551628 -0.030580765 0.19567809 -0.04984053 -0.19665506 0.24069193 0.03084371 -0.24043784
-0.07966813 0.1955723 -0.15774515 0.06800471 0.039031047 0.2209742 -0.10396289 -0.2007847
0.0072635296 -0.2138867 0.06691487 0.11077539 -0.19821091 -0.16415465 -0.16156662 0.18307813
0.1061279 -0.09627031 -0.18832244 -0.08578781 0.0064011174 0.020822443 -0.035543293 0.17547895
-0.111416504 -0.22265813 -0.15806904 0.2402087 0.07176944 0.0013812358 0.21604605 0.031940054
-0.21102606 -0.28764823 0.090299815 -0.013605772 -0.20840247 -0.025967915 -0.057138454 0.16185783
-0.2828381 -0.26393628 0.10352304 0.098846965 -0.27192903 0.28381217 -0.26430017 -0.050212916
-0.024344964 0.1365652 0.13828582 0.31298387 -0.25447112 -0.25993457 0.21162236 -0.046936978
0.08452535 -0.20669304 -0.18403998 -0.2996232 0.112803616 -0.29424834 -0.11279714 -0.12012388
-0.19823112 0.24417597 -0.14986095 -0.11952059 0.17822018 0.30362603 -0.31533927 0.24648578
-0.10659392 0.013386058 0.18520127 0.10113627 0.3141044 0.12018623 -0.2940568 -0.13404356
0.29812863 0.00937265 -0.16893074 -0.26094198 -0.20260489 -0.1435506 -0.29640573 0.30724582
-0.11488674 0.12428353 0.04057315 -0.121793844 -0.033895288 0.11456901 -0.27774408 0.027741902
0.03187707 -0.24777764 0.057899304 0.008981638 0.18533626 0.004371683 -0.28689998 0.23052795
0.08129655 -0.10573995 -0.30717596 0.15623733 -0.2809791 0.28249636 0.11422725 0.14543575
0.15808107 0.2425248 0.020137856 -0.11467387 -0.1754511 0.21849915 0.10280394 0.042351063
0.05465903 -0.052485332 -0.29804215 -0.13908882 0.29122683 0.180037 0.0072050784 0.05552378
0.14901078 -0.14795081 -0.23454958 -0.17905563 0.2025193 0.036032867 -0.16013525 0.27844954
0.046249982 -0.04850152 0.008664265 0.23976067 0.23715083 -0.0873334 -0.22794606 -0.09385755
-0.2779539 -0.16631195 0.2932845 -0.17360152 0.0704734 0.20758836 0.22110023 -0.12070346
-0.021243086 0.28023744 -0.1386704 0.30424157 -0.12674433 0.005232591 -0.014559107 -0.30505764
00000000: 0373 92be 019a 113e a483 0d3d f5f6 d4bd
00000010: a6f9 1ebe 75e3 0abe e4bf 393e 9461 02bc
00000020: 6d02 eebd a85a c4bc 5ae3 0abe 4486 37bc
00000030: 5c0c 37be 2421 00be af2e 02be 9a6c 8abe
00000040: 7da7 86bb 5034 4e3e b55f 5cbe f00e 663e
00000050: 487b 7ebe 4e8e 95be 96bb 923e 4c15 e6bd
00000060: 844b e93d e54f 853e 15db 5c3e a588 943e
00000070: 8006 0fbd d64e 663e 0bd5 bdbd bdf9 9c3e
00000080: 86dd 973e 8ee2 9b3e 27e9 853e 9c4e 053c
00000090: 5992 c0bd e7e4 9f3e 0542 96be 0484 16bc
000000a0: 6f74 263e c1f7 70be 1fa1 7a3e a2ed 67bd
000000b0: 9a21 31be c4ec 033e 0d54 5ebc 5631 42be
000000c0: ca18 3dbe fafe 9f3e 0aa1 48bc 3551 39be
000000d0: 6386 bc3d 7037 8f3e b69f dd3d 26ef 963e
000000e0: 4352 863e f11b 94be 84d6 16be 1255 983e
000000f0: 1490 a93c 93be 863d 62c1 4f3e f223 a0be
00000100: 4b72 593c 09a3 883e 6c06 c63c aff0 d0bd
00000110: f175 e53c 5486 89be 1adc 393e 400d 743e
00000120: 9289 3a3e cbe6 093e d177 95be aa47 0ebe
00000130: 4306 5d3e fedd 68be 94de 45be 3a22 15be
00000140: c72b 0d3e e89e 19be 2d7b 403e 5875 63be
00000150: 6406 823e 4ba6 14be c83b 153e 3fa4 5b3d
00000160: dc72 523e 8384 fabc d65f 483e 9525 4cbd
00000170: f25f 49be f277 763e f3ab fc3c 5635 76be
00000180: 0b29 a3bd 1b44 483e f287 21be 0e46 8b3d
00000190: 05df 1f3d 1047 623e 7fea d4bd 819a 4dbe
000001a0: e702 ee3b 1d05 5bbe aa0a 893d 35de e23d
000001b0: cdf7 4abe 2818 28be b871 25be d578 3b3e
000001c0: 9659 d93d 5e29 c5bd 99d7 40be 85b1 afbd
000001d0: 77c0 d13b d493 aa3c d895 11bd c1b0 333e
000001e0: 562e e4bd 7e00 64be dadc 21be 45f9 753e
000001f0: dbfb 923d 950a b53a 2d3b 5d3e 93d3 023d
00000200: 3717 58be a146 93be 1cef b83d beea 5ebc
00000210: 7567 55be aaba d4bc 030a 6abd 0fbe 253e
00000220: 28d0 90be a822 87be e303 d43d 4770 ca3d
00000230: 483a 8bbe d44f 913e 5a52 87be 0fac 4dbd
00000240: 176f c7bc bfd7 0b3e cc9a 0d3e 6c3f a03e
00000250: 0a4a 82be 2516 85be 88b3 583e fd40 40bd
00000260: a01b ad3d 57a7 53be fa74 3cbe 3668 99be
00000270: 9505 e73d b8a7 96be 3002 e7bd 8203 f6bd
00000280: 19fd 4abe 4409 7a3e 2675 19be 36c7 f4bd
00000290: 5a7f 363e df74 9b3e 2674 a1be c566 7c3e
000002a0: ea4d dabd 3251 5b3c 67a5 3d3e 8820 cf3d
000002b0: 4bd2 a03e 3324 f63d 9d8e 96be b742 09be
000002c0: 51a4 983e be8f 193c 2efc 2cbe 309a 85be
000002d0: a877 4fbe eefe 12be 7ec2 97be 534f 9d3e
000002e0: bd49 ebbd 5d88 fe3d 0830 263d 0d6f f9bd
000002f0: c9d5 0abd 28a3 ea3d 7934 8ebe fc42 e33c
00000300: 8891 023d 6cb9 7dbe d227 6d3d b827 133c
00000310: cac8 3d3e 5640 8f3b 8ee4 92be 850f 6c3e
00000320: ce7e a63d 308e d8bd 2b46 9dbe aefc 1f3e
00000330: 7edc 8fbe 5da3 903e faef e93d 1ced 143e
00000340: 01e0 213e 6c58 783e 25f8 a43c 22da eabd
00000350: 74a9 33be 3ebe 5f3e df8a d23d 4f78 2d3d
00000360: 26e2 5f3d dcfa 56bd fb98 98be 4d6d 0ebe
00000370: af1b 953e 9f5b 383e 9418 ec3b e76c 633d
00000380: 4896 183e 6b80 17be c42d 70be 5c5a 37be
00000390: 3861 4f3e 3397 133d 7ffa 23be f090 8e3e
000003a0: 9f70 3d3d 88a9 46bd 90f4 0d3c d283 753e
000003b0: abd7 723e dbdb b2bd b16a 69be 6338 c0bd
000003c0: f94f 8ebe ae4d 2abe 6329 963e 99c4 31be
000003d0: 5c54 903d 0b92 543e 1968 623e 6033 f7bd
000003e0: fb05 aebc 487b 8f3e 9dff 0dbe 8dc5 9b3e
000003f0: 44c9 01be 2876 ab3b 5289 6ebc 8430 9cbe

decoder.gru.weight_hh_l0 f4 [30, 10]
-0.30065688 -0.15712988 -0.29050907 0.27709335 -0.056891967 0.02816542 -0.22691165 0.29440868
-0.24820092 0.063642494 0.040267512 0.24552868 -0.019248012 -0.15786672 0.17023486 -0.22805744
-0.2127235 -0.119839184 -0.28760734 -0.017991124 -0.25887382 -0.24570936 -0.0782913 0.13782714
0.3067977 0.08533982 -0.098816894 -0.17965418 -0.24225286 -0.0009399759 0.080429554 0.23153757
0.040105894 -0.3010318 -0.07165245 -0.11617629 -0.074356176 0.2584438 -0.016565466 -0.15015002
-0.009365115 -0.06050028 -0.1055891 -0.27002308 0.08412459 0.034052476 0.20802598 -0.28623557
0.16600722 -0.08150521 -0.07779495 -0.09482749 0.24838172 -0.19559063 -0.020102063 0.05979501
0.11971846 0.25220814 0.0505728 0.1873094 0.08656756 -0.2591235 -0.30578375 -0.22520143
0.16230561 -0.12338393 0.28189722 -0.14286862 0.19711739 0.20019798 -0.1906916 0.051988523
0.10558755 -0.013529157 -0.29291487 -0.20522402 0.16875881 0.3043651 0.05250176 -0.23354623
0.312492 -0.26598075 -0.25814393 0.08210168 0.3055103 0.2212806 0.2916274 0.1206838
-0.10305285 0.06333761 -0.10999002 0.24881622 -0.13533959 0.28624862 -0.30415326 0.053463437
0.122988544 -0.3125425 -0.0912317 -0.16988102 0.2759901 -0.11869136 0.032817718 0.014991349
0.18404736 0.20139404 0.117785096 -0.104686856 -0.15678874 0.11592692 -0.111116 -0.0466683
-0.14189094 -0.05825013 0.08551491 -0.08856853 -0.16562349 0.18645449 0.1161599 0.22481893
-0.057624407 -0.061128907 -0.2992707 -0.19827472 -0.21893884 -0.20584087 -0.07751382 -0.0655975
0.018901478 0.03890781 -0.1291484 -0.15868399 0.11063784 0.22676155 -0.21829115 -0.010144968
-0.025372826 -0.009659499 0.2639287 0.20142248 -0.119719654 -0.059543163 0.2974104 -0.070535645
0.20896176 -0.0011262799 -0.10245688 0.1667768 0.15356901 0.047705337 0.039492045 0.3160471
0.11978688 0.2909642 -0.015097605 0.06296429 -0.14391083 -0.13952564 0.29074332 -0.024906486
0.30282885 -0.17522919 -0.12079229 0.06724343 -0.010814439 0.19317508 -0.24437042 -0.12898897
-0.0013520034 -0.15136209 0.12970406 0.19860213 -0.20512863 0.21444008 0.033437148 0.2656948
0.2128531 0.24582402 0.27204216 0.093612924 0.018128935 -0.25076115 0.120577246 -0.0368806
0.013485616 -0.12952448 0.30521303 0.16241275 0.119646676 -0.17500985 -0.013684788 0.05340929
0.14486384 0.3073922 -0.21555072 0.30301553 0.19111833 -0.12025332 -0.18669909 0.29745603
0.067174874 -0.29579902 -0.067027465 0.31265834 0.08964961 0.2395719 -0.021954441 0.25060225
-0.31402543 0.22922115 0.025317566 -0.25062388 -0.31004328 -0.14784405 0.29680476 0.18080682
0.034900438 0.13547061 0.19400422 -0.14600196 0.23260254 0.21134442 -0.1486397 0.05089709
-0.16816734 0.2480146 0.16032653 0.20077966 0.26641628 -0.01973665 0.2877704 -0.2851061
0.23956344 0.026549917 -0.19438465 0.29435414 -0.06484835 0.2029406 -0.17786548 0.29300976
-0.13816114 0.23198855 0.13399966 0.3083354 -0.29641715 0.05855652 -0.24334146 0.14093427
-0.093146935 -0.002671188 -0.24222563 0.24061401 0.11270664 0.10248158 0.094165735 -0.011861811
00000000: b3ef 99be a8e6 20be 9bbd 94be 2edf 8d3e
00000010: 8d07 69bd 2bbb e63c 875b 68be bcbc 963e
00000020: 6228 7ebe ff56 823d 8cef 243d df6b 7b3e
00000030: 02ae 9dbc d0a7 21be 0c52 2e3e e487 69be
00000040: 30d4 59be 3f6e f5bd 4541 93be 1f62 93bc
00000050: 1c8b 84be 3c9b 7bbe 3057 a0bd 8f22 0d3e
00000060: 9714 9d3e a5c6 ae3d 8360 cabd 44f7 37be
00000070: 2211 78be b768 76ba 40b8 a43d 2f18 6d3e
00000080: 1446 243d d720 9abe 85be 92bd d6ed edbd
00000090: 0d48 98bd bf52 843e 4db4 87bc edc0 19be
000000a0: 2470 19bc 24cf 77bd 193f d8bd 7740 8abe
000000b0: 8349 ac3d 9c7a 0b3d c304 553e 788d 92be
000000c0: ccfd 293e 34ec a6bd f552 9fbd ea34 c2bd
000000d0: c757 7e3e e948 48be 15ad a4bc 9deb 743d
000000e0: f42e f53d 6d21 813e 6d25 4f3d 09ce 3f3e
000000f0: 554a b13d d6ab 84be b08f 9cbe 349b 66be
00000100: 7133 263e b7b0 fcbd d554 903e 274c 12be
00000110: 24d9 493e b300 4d3e a944 43be ebf1 543d
00000120: 493e d83d 66a9 5dbc f0f8 95be 3f26 52be
00000130: 1ccf 2c3e bed5 9b3e 160c 573d be26 6fbe
00000140: f4fe 9f3e a12e 88be 712b 84be ed24 a83d
00000150: d96b 9c3e 6297 623e 3050 953e 1129 f73d
00000160: 5f0d d3bd 26b7 813d 7342 e1bd aec9 7e3e
00000170: 7696 0abe 2e8f 923e fab9 9bbe 7afc 5a3d
00000180: 6be1 fb3d 9205 a0be afd7 babd 4af5 2dbe
00000190: 934e 8d3e 7514 f3bd df6b 063d 469e 753c
000001a0: e976 3c3e 3d3a 4e3e 5039 f13d 1066 d6bd
000001b0: 3a8d 20be 186b ed3d c990 e3bd 4227 3fbd
000001c0: dc4b 11be b097 6ebd 7122 af3d 6b63 b5bd
000001d0: 3499 29be eded 3e3e 3ee5 ed3d ef36 663e
000001e0: 9207 6cbd 4e62 7abd 023a 99be 8708 4bbe
000001f0: 8131 60be f3c7 52be 91bf 9ebd fb57 86bd
00000200: 46d7 9a3c cc5d 1f3d 7a3f 04be 0e7e 22be
00000210: 1896 e23d 2e34 683e b787 5fbe 1437 26bc
00000220: acda cfbc e042 1ebc aa21 873e b241 4e3e
00000230: 942f f5bd 88e3 73bd 2d46 983e fe74 90bd
00000240: 12fa 553e af9f 93ba ead4 d1bd 8ac7 2a3e
00000250: 3241 1d3e ac66 433d 69c2 213d edd0 a13e
00000260: d352 f53d 42f9 943e f25b 77bc 6cf3 803d
00000270: 5c5d 13be cfdf 0ebe 4fdc 943e b008 ccbc
00000280: 620c 9b3e 486f 33be f361 f7bd ecb6 893d
00000290: 0b2f 31bc b0cf 453e 3d3c 7abe af15 04be
000002a0: b535 b1ba aafe 1abe 24d1 043e 5b5e 4b3e
000002b0: 3d0d 52be 2e96 5b3e 64f5 083d 2609 883e
000002c0: 2af6 593e 4bb9 7b3e 1c49 8b3e 22b8 bf3d
000002d0: 2283 943c c463 80be 34f1 f63d 1d10 17bd
000002e0: c6f2 5c3c 11a2 04be e244 9c3e 874f 263e
000002f0: 5109 f53d c835 33be 2936 60bc b3c3 5a3d
00000300: 3057 143e 8362 9d3e 54b9 5cbe da24 9b3e
00000310: 86b4 433e 5f47 f6bd 0c2e 3fbe 284c 983e
00000320: fb92 893d f872 97be b245 89bd c114 a03e
00000330: 379a b73d 5652 753e cdd9 b3bc f04e 803e
00000340: f1c7 a0be f3b8 6a3e c966 cf3c c651 80be
00000350: febd 9ebe 6e64 17be cbf6 973e 6c25 393e
00000360: c3f3 0e3d cfb8 0a3e 0ba9 463e 8a81 15be
00000370: 5c2f 6e3e ac6a 583e 0135 18be 7879 503d
00000380: 0f34 2cbe 8af7 7d3e a32c 243e 2f99 4d3e
00000390: b767 883e c1ae a1bc a456 933e 6df9 91be
000003a0: 1e50 753e 367f d93c c50c 47be 96b5 963e
000003b0: 36cf 84bd a9cf 4f3e 5e22 36be 6005 963e
000003c0: 1d7a 0dbe 688e 6d3e 3537 093e 23de 9d3e
000003d0: fdc3 97be f6d8 6f3d 812e 79be 1351 103e
000003e0: d2c3 bebd 190f 2fbb ff09 78be 8563 763e
000003f0: bdd2 e63d dde1 d13d f7d9 c03d 0b58 42bc
